#[version = "0.0.5"]
fn [A](%eta_expand_param: A, %eta_expand_param1: List[A]) -> List[A] {
  let %x: List[A] = Cons(%eta_expand_param, %eta_expand_param1) /* ty=List[A] */;
  %x
}
#[version = "0.0.5"]
fn (%eta_expand_param: Tensor[(?, ?), float32]) -> static_tensor_float32_any_any_t[] {
  let %x: static_tensor_float32_any_any_t[] = tensor_constructor_float32_any_any(%eta_expand_param) /* ty=static_tensor_float32_any_any_t[] */;
  %x
}
#[version = "0.0.5"]
fn (%x: Tensor[(?, 1, ?, ?), float32], %x1: Tensor[(1), int32], Closure=1) -> fn (int32, List[Tensor[(?, ?), float32]], Tensor[(?, 1, ?, ?), float32], Tensor[(?, 4), int64]) -> (int32, List[Tensor[(?, ?), float32]], Tensor[(?, 1, ?, ?), float32], Tensor[(?, 4), int64]) {
  fn (%i.1: int32, %res.6: List[Tensor[(?, ?), float32]], %v7286: Tensor[(?, 1, ?, ?), float32], %v7394: Tensor[(?, 4), int64]) -> (int32, List[Tensor[(?, ?), float32]], Tensor[(?, 1, ?, ?), float32], Tensor[(?, 4), int64]) {
    let %x2: fn (Tensor[(?, 1, ?, ?), float32]) -> Tensor[(4), int32] = fn (%p0: Tensor[(?, 1, ?, ?), float32], Primitive=1) -> Tensor[(4), int32] {
      shape_of(%p0, dtype="int32") /* ty=Tensor[(4), int32] */
    };
    let %x3: Tensor[(4), int32] = %x2(%x);
    let %x4: fn (int32, Tensor[(4), int32]) -> bool = fn (%p01: int32, %p1: Tensor[(4), int32], Primitive=1) -> bool {
      %0 = take(%p1, 0 /* ty=int32 */, axis=0) /* ty=int32 */;
      less(%p01, %0) /* ty=bool */
    };
    let %x5: bool = %x4(%i.1, %x3) /* ty=bool */;
    let %x6: (int32, List[Tensor[(?, ?), float32]], Tensor[(?, 1, ?, ?), float32], Tensor[(?, 4), int64]) = if (%x5) {
      let %x7: fn (int32) -> int32 = fn (%p02: int32, Primitive=1) -> int32 {
        add(%p02, 1 /* ty=int32 */) /* ty=int32 */
      };
      let %x8: int32 = %x7(%i.1) /* ty=int32 */;
      let %x9: int32 = 0 /* ty=int32 */;
      let %x10: int32 = 0 /* ty=int32 */;
      let %x11: fn (Tensor[(?, 4), int64], int32) -> Tensor[(4), int64] = fn (%p03: Tensor[(?, 4), int64], %p11: int32, Primitive=1) -> Tensor[(4), int64] {
        take(%p03, %p11, axis=0) /* ty=Tensor[(4), int64] */
      };
      let %x12: Tensor[(4), int64] = %x11(%v7394, %i.1) /* ty=Tensor[(4), int64] */;
      let %x13: fn (Tensor[(4), int64]) -> int64 = fn (%p04: Tensor[(4), int64], Primitive=1) -> int64 {
        take(%p04, 1 /* ty=int32 */, axis=0) /* ty=int64 */
      };
      let %x14: int64 = %x13(%x12) /* ty=int64 */;
      let %x15: fn () -> Tensor[(1), int64] = fn (Primitive=1) -> Tensor[(1), int64] {
        full(0 /* ty=int32 */, shape=[1], dtype="int64") /* ty=Tensor[(1), int64] */
      };
      let %x16: Tensor[(1), int64] = %x15() /* ty=Tensor[(1), int64] */;
      let %x17: fn (int64, Tensor[(1), int64]) -> Tensor[(2), int64] = fn (%p05: int64, %p12: Tensor[(1), int64], Primitive=1) -> Tensor[(2), int64] {
        %1 = expand_dims(%p05, axis=0) /* ty=Tensor[(1), int64] */;
        %2 = (%1, %p12);
        concatenate(%2) /* ty=Tensor[(2), int64] */
      };
      let %x18: Tensor[(2), int64] = %x17(%x14, %x16) /* ty=Tensor[(2), int64] */;
      let %x19: fn (Tensor[(2), int64]) -> int64 = fn (%p06: Tensor[(2), int64], Primitive=1) -> int64 {
        max(%p06) /* ty=int64 */
      };
      let %x20: int64 = %x19(%x18) /* ty=int64 */;
      let %x21: fn (Tensor[(?, 1, ?, ?), float32], int32) -> Tensor[(1, ?, ?), float32] = fn (%p07: Tensor[(?, 1, ?, ?), float32], %p13: int32, Primitive=1) -> Tensor[(1, ?, ?), float32] {
        take(%p07, %p13, axis=0) /* ty=Tensor[(1, ?, ?), float32] */
      };
      let %x22: Tensor[(1, ?, ?), float32] = %x21(%v7286, %i.1) /* ty=Tensor[(1, ?, ?), float32] */;
      let %x23: fn (Tensor[(1, ?, ?), float32]) -> Tensor[(1, 1, ?, ?), float32] = fn (%p08: Tensor[(1, ?, ?), float32], Primitive=1) -> Tensor[(1, 1, ?, ?), float32] {
        %3 = take(%p08, 0 /* ty=int32 */, axis=0) /* ty=Tensor[(?, ?), float32] */;
        %4 = expand_dims(%3, axis=0, num_newaxis=2) /* ty=Tensor[(1, 1, ?, ?), float32] */;
        %5 = repeat(%4, repeats=1, axis=0) /* ty=Tensor[(1, 1, ?, ?), float32] */;
        repeat(%5, repeats=1, axis=1) /* ty=Tensor[(1, 1, ?, ?), float32] */
      };
      let %x24: Tensor[(1, 1, ?, ?), float32] = %x23(%x22) /* ty=Tensor[(1, 1, ?, ?), float32] */;
      let %x25: fn (Tensor[(4), int64]) -> int64 = fn (%p09: Tensor[(4), int64], Primitive=1) -> int64 {
        take(%p09, 3 /* ty=int32 */, axis=0) /* ty=int64 */
      };
      let %x26: int64 = %x25(%x12) /* ty=int64 */;
      let %x27: fn () -> Tensor[(1), int64] = fn (Primitive=1) -> Tensor[(1), int64] {
        full(1 /* ty=int32 */, shape=[1], dtype="int64") /* ty=Tensor[(1), int64] */
      };
      let %x28: Tensor[(1), int64] = %x27() /* ty=Tensor[(1), int64] */;
      let %x29: fn (int64, int64, Tensor[(1), int64]) -> Tensor[(2), int64] = fn (%p010: int64, %p14: int64, %p2: Tensor[(1), int64], Primitive=1) -> Tensor[(2), int64] {
        %6 = subtract(%p010, %p14) /* ty=int64 */;
        %7 = add(%6, %p2) /* ty=Tensor[(1), int64] */;
        %8 = (%7, %p2);
        concatenate(%8) /* ty=Tensor[(2), int64] */
      };
      let %x30: Tensor[(2), int64] = %x29(%x26, %x14, %x28) /* ty=Tensor[(2), int64] */;
      let %x31: fn (Tensor[(2), int64]) -> int64 = fn (%p011: Tensor[(2), int64], Primitive=1) -> int64 {
        max(%p011) /* ty=int64 */
      };
      let %x32: int64 = %x31(%x30) /* ty=int64 */;
      let %x33: fn (Tensor[(4), int64]) -> int64 = fn (%p012: Tensor[(4), int64], Primitive=1) -> int64 {
        take(%p012, 2 /* ty=int32 */, axis=0) /* ty=int64 */
      };
      let %x34: int64 = %x33(%x12) /* ty=int64 */;
      let %x35: fn (Tensor[(4), int64]) -> int64 = fn (%p013: Tensor[(4), int64], Primitive=1) -> int64 {
        take(%p013, 0 /* ty=int32 */, axis=0) /* ty=int64 */
      };
      let %x36: int64 = %x35(%x12) /* ty=int64 */;
      let %x37: fn (int64, int64, Tensor[(1), int64]) -> Tensor[(2), int64] = fn (%p014: int64, %p15: int64, %p21: Tensor[(1), int64], Primitive=1) -> Tensor[(2), int64] {
        %9 = subtract(%p014, %p15) /* ty=int64 */;
        %10 = add(%9, %p21) /* ty=Tensor[(1), int64] */;
        %11 = (%10, %p21);
        concatenate(%11) /* ty=Tensor[(2), int64] */
      };
      let %x38: Tensor[(2), int64] = %x37(%x34, %x36, %x28) /* ty=Tensor[(2), int64] */;
      let %x39: fn (Tensor[(2), int64]) -> int64 = fn (%p015: Tensor[(2), int64], Primitive=1) -> int64 {
        max(%p015) /* ty=int64 */
      };
      let %x40: int64 = %x39(%x38) /* ty=int64 */;
      let %x41: fn (int64, int64) -> Tensor[(2), int64] = fn (%p016: int64, %p16: int64, Primitive=1) -> Tensor[(2), int64] {
        %12 = expand_dims(%p016, axis=0) /* ty=Tensor[(1), int64] */;
        %13 = expand_dims(%p16, axis=0) /* ty=Tensor[(1), int64] */;
        %14 = (%12, %13);
        concatenate(%14) /* ty=Tensor[(2), int64] */
      };
      let %x42: Tensor[(2), int64] = %x41(%x32, %x40) /* ty=Tensor[(2), int64] */;
      let %x43: fn (Tensor[(1, 1, ?, ?), float32], Tensor[(2), int64]) -> Tensor[(1, 1, ?, ?), float32] = fn (%p017: Tensor[(1, 1, ?, ?), float32], %p17: Tensor[(2), int64], Primitive=1) -> Tensor[(1, 1, ?, ?), float32] {
        dyn.image.resize(%p017, %p17, size=[]) /* ty=Tensor[(1, 1, ?, ?), float32] */
      };
      let %x44: Tensor[(1, 1, ?, ?), float32] = %x43(%x24, %x42) /* ty=Tensor[(1, 1, ?, ?), float32] */;
      let %x45: fn (Tensor[(1, 1, ?, ?), float32]) -> Tensor[(1, ?, ?), float32] = fn (%p018: Tensor[(1, 1, ?, ?), float32], Primitive=1) -> Tensor[(1, ?, ?), float32] {
        take(%p018, 0 /* ty=int32 */, axis=0) /* ty=Tensor[(1, ?, ?), float32] */
      };
      let %x46: Tensor[(1, ?, ?), float32] = %x45(%x44) /* ty=Tensor[(1, ?, ?), float32] */;
      let %x47: fn (Tensor[(1, ?, ?), float32]) -> Tensor[(?, ?), float32] = fn (%p019: Tensor[(1, ?, ?), float32], Primitive=1) -> Tensor[(?, ?), float32] {
        take(%p019, 0 /* ty=int32 */, axis=0) /* ty=Tensor[(?, ?), float32] */
      };
      let %x48: Tensor[(?, ?), float32] = %x47(%x46) /* ty=Tensor[(?, ?), float32] */;
      let %x49: Tensor[(1), int64] = meta[relay.Constant][0] /* ty=Tensor[(1), int64] */;
      let %x50: fn (Tensor[(?, ?), float32]) -> Tensor[(2), int32] = fn (%p020: Tensor[(?, ?), float32], Primitive=1) -> Tensor[(2), int32] {
        shape_of(%p020, dtype="int32") /* ty=Tensor[(2), int32] */
      };
      let %x51: Tensor[(2), int32] = %x50(%x48) /* ty=Tensor[(2), int32] */;
      let %x52: fn (int64, int64, Tensor[(1), int64], Tensor[(2), int32]) -> Tensor[(2), int64] = fn (%p021: int64, %p18: int64, %p22: Tensor[(1), int64], %p3: Tensor[(2), int32], Primitive=1) -> Tensor[(2), int64] {
        %15 = subtract(%p021, %p18) /* ty=int64 */;
        %16 = expand_dims(%15, axis=0) /* ty=Tensor[(1), int64] */;
        %17 = cast(%16, dtype="int64") /* ty=Tensor[(1), int64] */;
        %18 = (%17, %p22);
        %19 = concatenate(%18) /* ty=Tensor[(2), int64] */;
        %20 = cast_like(0 /* ty=int32 */, %19) /* ty=int64 */;
        %21 = less(%19, %20) /* ty=Tensor[(2), bool] */;
        %22 = cast_like(%p3, %19) /* ty=Tensor[(2), int64] */;
        %23 = add(%19, %22) /* ty=Tensor[(2), int64] */;
        where(%21, %23, %19) /* ty=Tensor[(2), int64] */
      };
      let %x53: Tensor[(2), int64] = %x52(%x20, %x14, %x49, %x51) /* ty=Tensor[(2), int64] */;
      let %x54: fn (Tensor[(2), int32]) -> Tensor[(2), int64] = fn (%p022: Tensor[(2), int32], Primitive=1) -> Tensor[(2), int64] {
        cast(%p022, dtype="int64") /* ty=Tensor[(2), int64] */
      };
      let %x55: Tensor[(2), int64] = %x54(%x51) /* ty=Tensor[(2), int64] */;
      let %x56: Tensor[(1), int32] = meta[relay.Constant][1] /* ty=Tensor[(1), int32] */;
      let %x57: Tensor[(1), int64] = meta[relay.Constant][2] /* ty=Tensor[(1), int64] */;
      let %x58: fn (int64, Tensor[(1), int64], Tensor[(1), int64]) -> Tensor[(2), int64] = fn (%p023: int64, %p19: Tensor[(1), int64], %p23: Tensor[(1), int64], Primitive=1) -> Tensor[(2), int64] {
        %24 = expand_dims(%p023, axis=0) /* ty=Tensor[(1), int64] */;
        %25 = add(%24, %p19) /* ty=Tensor[(1), int64] */;
        %26 = (%25, %p23);
        concatenate(%26) /* ty=Tensor[(2), int64] */
      };
      let %x59: Tensor[(2), int64] = %x58(%x26, %x28, %x57) /* ty=Tensor[(2), int64] */;
      let %x60: fn (Tensor[(2), int64]) -> int64 = fn (%p024: Tensor[(2), int64], Primitive=1) -> int64 {
        min(%p024) /* ty=int64 */
      };
      let %x61: int64 = %x60(%x59) /* ty=int64 */;
      let %x62: fn (int64, int64) -> Tensor[(1), int64] = fn (%p025: int64, %p110: int64, Primitive=1) -> Tensor[(1), int64] {
        %27 = subtract(%p025, %p110) /* ty=int64 */;
        expand_dims(%27, axis=0) /* ty=Tensor[(1), int64] */
      };
      let %x63: Tensor[(1), int64] = %x62(%x61, %x14) /* ty=Tensor[(1), int64] */;
      let %x64: fn (Tensor[(2), int64], Tensor[(1), int32], Tensor[(1), int64]) -> Tensor[(2), int64] = fn (%p026: Tensor[(2), int64], %p111: Tensor[(1), int32], %p24: Tensor[(1), int64], Primitive=1) -> Tensor[(2), int64] {
        scatter(%p026, %p111, %p24, meta[relay.attrs.ScatterAttrs][0]) /* ty=Tensor[(2), int64] */
      };
      let %x65: Tensor[(2), int64] = %x64(%x55, %x56, %x63) /* ty=Tensor[(2), int64] */;
      let %x66: Tensor[(2), int32] = meta[relay.Constant][3] /* ty=Tensor[(2), int32] */;
      let %x67: fn (Tensor[(?, ?), float32], Tensor[(2), int64], Tensor[(2), int64], Tensor[(2), int32]) -> Tensor[(?, ?), float32] = fn (%p027: Tensor[(?, ?), float32], %p112: Tensor[(2), int64], %p25: Tensor[(2), int64], %p31: Tensor[(2), int32], Primitive=1) -> Tensor[(?, ?), float32] {
        dyn.strided_slice(%p027, %p112, %p25, %p31, begin=None, end=None, strides=None) /* ty=Tensor[(?, ?), float32] */
      };
      let %x68: Tensor[(?, ?), float32] = %x67(%x48, %x53, %x65, %x66) /* ty=Tensor[(?, ?), float32] */;
      let %x69: fn (int64, Tensor[(1), int64]) -> Tensor[(2), int64] = fn (%p028: int64, %p113: Tensor[(1), int64], Primitive=1) -> Tensor[(2), int64] {
        %28 = expand_dims(%p028, axis=0) /* ty=Tensor[(1), int64] */;
        %29 = (%28, %p113);
        concatenate(%29) /* ty=Tensor[(2), int64] */
      };
      let %x70: Tensor[(2), int64] = %x69(%x36, %x16) /* ty=Tensor[(2), int64] */;
      let %x71: fn (Tensor[(2), int64]) -> int64 = fn (%p029: Tensor[(2), int64], Primitive=1) -> int64 {
        max(%p029) /* ty=int64 */
      };
      let %x72: int64 = %x71(%x70) /* ty=int64 */;
      let %x73: fn (Tensor[(?, ?), float32]) -> Tensor[(2), int32] = fn (%p030: Tensor[(?, ?), float32], Primitive=1) -> Tensor[(2), int32] {
        shape_of(%p030, dtype="int32") /* ty=Tensor[(2), int32] */
      };
      let %x74: Tensor[(2), int32] = %x73(%x68) /* ty=Tensor[(2), int32] */;
      let %x75: fn (Tensor[(1), int64], int64, int64, Tensor[(2), int32]) -> Tensor[(2), int64] = fn (%p031: Tensor[(1), int64], %p114: int64, %p26: int64, %p32: Tensor[(2), int32], Primitive=1) -> Tensor[(2), int64] {
        %30 = subtract(%p114, %p26) /* ty=int64 */;
        %31 = expand_dims(%30, axis=0) /* ty=Tensor[(1), int64] */;
        %32 = cast(%31, dtype="int64") /* ty=Tensor[(1), int64] */;
        %33 = (%p031, %32);
        %34 = concatenate(%33) /* ty=Tensor[(2), int64] */;
        %35 = cast_like(0 /* ty=int32 */, %34) /* ty=int64 */;
        %36 = less(%34, %35) /* ty=Tensor[(2), bool] */;
        %37 = cast_like(%p32, %34) /* ty=Tensor[(2), int64] */;
        %38 = add(%34, %37) /* ty=Tensor[(2), int64] */;
        where(%36, %38, %34) /* ty=Tensor[(2), int64] */
      };
      let %x76: Tensor[(2), int64] = %x75(%x49, %x72, %x36, %x74) /* ty=Tensor[(2), int64] */;
      let %x77: fn (Tensor[(2), int32]) -> Tensor[(2), int64] = fn (%p032: Tensor[(2), int32], Primitive=1) -> Tensor[(2), int64] {
        cast(%p032, dtype="int64") /* ty=Tensor[(2), int64] */
      };
      let %x78: Tensor[(2), int64] = %x77(%x74) /* ty=Tensor[(2), int64] */;
      let %x79: fn (int64, Tensor[(1), int64], Tensor[(1), int64]) -> Tensor[(2), int64] = fn (%p033: int64, %p115: Tensor[(1), int64], %p27: Tensor[(1), int64], Primitive=1) -> Tensor[(2), int64] {
        %39 = expand_dims(%p033, axis=0) /* ty=Tensor[(1), int64] */;
        %40 = add(%39, %p115) /* ty=Tensor[(1), int64] */;
        %41 = (%40, %p27);
        concatenate(%41) /* ty=Tensor[(2), int64] */
      };
      let %x80: Tensor[(2), int64] = %x79(%x34, %x28, %x57) /* ty=Tensor[(2), int64] */;
      let %x81: fn (Tensor[(2), int64]) -> int64 = fn (%p034: Tensor[(2), int64], Primitive=1) -> int64 {
        min(%p034) /* ty=int64 */
      };
      let %x82: int64 = %x81(%x80) /* ty=int64 */;
      let %x83: fn (int64, int64) -> Tensor[(1), int64] = fn (%p035: int64, %p116: int64, Primitive=1) -> Tensor[(1), int64] {
        %42 = subtract(%p035, %p116) /* ty=int64 */;
        expand_dims(%42, axis=0) /* ty=Tensor[(1), int64] */
      };
      let %x84: Tensor[(1), int64] = %x83(%x82, %x36) /* ty=Tensor[(1), int64] */;
      let %x85: fn (Tensor[(2), int64], Tensor[(1), int32], Tensor[(1), int64]) -> Tensor[(2), int64] = fn (%p036: Tensor[(2), int64], %p117: Tensor[(1), int32], %p28: Tensor[(1), int64], Primitive=1) -> Tensor[(2), int64] {
        scatter(%p036, %p117, %p28, meta[relay.attrs.ScatterAttrs][1]) /* ty=Tensor[(2), int64] */
      };
      let %x86: Tensor[(2), int64] = %x85(%x78, %x1, %x84);
      let %x87: Tensor[(2), int32] = meta[relay.Constant][4] /* ty=Tensor[(2), int32] */;
      let %x88: fn (Tensor[(?, ?), float32], Tensor[(2), int64], Tensor[(2), int64], Tensor[(2), int32]) -> Tensor[(?, ?), float32] = fn (%p037: Tensor[(?, ?), float32], %p118: Tensor[(2), int64], %p29: Tensor[(2), int64], %p33: Tensor[(2), int32], Primitive=1) -> Tensor[(?, ?), float32] {
        dyn.strided_slice(%p037, %p118, %p29, %p33, begin=None, end=None, strides=None) /* ty=Tensor[(?, ?), float32] */
      };
      let %x89: Tensor[(?, ?), float32] = %x88(%x68, %x76, %x86, %x87) /* ty=Tensor[(?, ?), float32] */;
      let %x90: fn (Tensor[(?, ?), float32]) -> Tensor[(2), int32] = fn (%p038: Tensor[(?, ?), float32], Primitive=1) -> Tensor[(2), int32] {
        shape_of(%p038, dtype="int32") /* ty=Tensor[(2), int32] */
      };
      let %x91: Tensor[(2), int32] = %x90(%x89) /* ty=Tensor[(2), int32] */;
      let %x92: fn (Tensor[(2), int32]) -> Tensor[(1), int64] = fn (%p039: Tensor[(2), int32], Primitive=1) -> Tensor[(1), int64] {
        %43 = take(%p039, 1 /* ty=int32 */, axis=0) /* ty=int32 */;
        %44 = expand_dims(%43, axis=0) /* ty=Tensor[(1), int32] */;
        cast(%44, dtype="int64") /* ty=Tensor[(1), int64] */
      };
      let %x93: Tensor[(1), int64] = %x92(%x91) /* ty=Tensor[(1), int64] */;
      let %x94: fn (int64, Tensor[(1), int64]) -> Tensor[(2), int64] = fn (%p040: int64, %p119: Tensor[(1), int64], Primitive=1) -> Tensor[(2), int64] {
        %45 = expand_dims(%p040, axis=0) /* ty=Tensor[(1), int64] */;
        %46 = cast(%45, dtype="int64") /* ty=Tensor[(1), int64] */;
        %47 = (%46, %p119);
        concatenate(%47) /* ty=Tensor[(2), int64] */
      };
      let %x95: Tensor[(2), int64] = %x94(%x20, %x93) /* ty=Tensor[(2), int64] */;
      let %x96: fn (int32, Tensor[(2), int64]) -> Tensor[(?, ?), float32] = fn (%p041: int32, %p120: Tensor[(2), int64], Primitive=1) -> Tensor[(?, ?), float32] {
        dyn.full(%p041, %p120, shape=None, dtype="float32") /* ty=Tensor[(?, ?), float32] */
      };
      let %x97: Tensor[(?, ?), float32] = %x96(%x10, %x95) /* ty=Tensor[(?, ?), float32] */;
      let %x98: int32 = 0 /* ty=int32 */;
      let %x99: fn (int64, Tensor[(1), int64]) -> Tensor[(2), int64] = fn (%p042: int64, %p121: Tensor[(1), int64], Primitive=1) -> Tensor[(2), int64] {
        %48 = subtract(300 /* ty=int64 */, %p042) /* ty=int64 */;
        %49 = expand_dims(%48, axis=0) /* ty=Tensor[(1), int64] */;
        %50 = cast(%49, dtype="int64") /* ty=Tensor[(1), int64] */;
        %51 = (%50, %p121);
        concatenate(%51) /* ty=Tensor[(2), int64] */
      };
      let %x100: Tensor[(2), int64] = %x99(%x61, %x93) /* ty=Tensor[(2), int64] */;
      let %x101: fn (int32, Tensor[(2), int64]) -> Tensor[(?, ?), float32] = fn (%p043: int32, %p122: Tensor[(2), int64], Primitive=1) -> Tensor[(?, ?), float32] {
        dyn.full(%p043, %p122, shape=None, dtype="float32") /* ty=Tensor[(?, ?), float32] */
      };
      let %x102: Tensor[(?, ?), float32] = %x101(%x98, %x100) /* ty=Tensor[(?, ?), float32] */;
      let %x103: fn (Tensor[(?, ?), float32], Tensor[(?, ?), float32], Tensor[(?, ?), float32]) -> Tensor[(?, ?), float32] = fn (%p044: Tensor[(?, ?), float32], %p123: Tensor[(?, ?), float32], %p210: Tensor[(?, ?), float32], Primitive=1) -> Tensor[(?, ?), float32] {
        %52 = reshape(%p044, newshape=[0, 0]) /* ty=Tensor[(?, ?), float32] */;
        %53 = reshape(%p210, newshape=[0, 0]) /* ty=Tensor[(?, ?), float32] */;
        %54 = (%52, %p123, %53);
        concatenate(%54) /* ty=Tensor[(?, ?), float32] */
      };
      let %x104: Tensor[(?, ?), float32] = %x103(%x97, %x89, %x102) /* ty=Tensor[(?, ?), float32] */;
      let %x105: Tensor[(2), bool] = meta[relay.Constant][5] /* ty=Tensor[(2), bool] */;
      let %x106: Tensor[(2), int32] = meta[relay.Constant][6] /* ty=Tensor[(2), int32] */;
      let %x107: fn (Tensor[(?, ?), float32]) -> Tensor[(2), int32] = fn (%p045: Tensor[(?, ?), float32], Primitive=1) -> Tensor[(2), int32] {
        shape_of(%p045, dtype="int32") /* ty=Tensor[(2), int32] */
      };
      let %x108: Tensor[(2), int32] = %x107(%x104) /* ty=Tensor[(2), int32] */;
      let %x109: fn (Tensor[(2), bool], Tensor[(2), int32], Tensor[(2), int32]) -> Tensor[(2), int32] = fn (%p046: Tensor[(2), bool], %p124: Tensor[(2), int32], %p211: Tensor[(2), int32], Primitive=1) -> Tensor[(2), int32] {
        %55 = cast_like(%p211, %p124) /* ty=Tensor[(2), int32] */;
        %56 = add(%p124, %55) /* ty=Tensor[(2), int32] */;
        where(%p046, %56, %p124) /* ty=Tensor[(2), int32] */
      };
      let %x110: Tensor[(2), int32] = %x109(%x105, %x106, %x108) /* ty=Tensor[(2), int32] */;
      let %x111: Tensor[(1), int32] = meta[relay.Constant][7] /* ty=Tensor[(1), int32] */;
      let %x112: fn (Tensor[(2), int32], Tensor[(1), int32], Tensor[(1), int32]) -> Tensor[(2), int32] = fn (%p047: Tensor[(2), int32], %p125: Tensor[(1), int32], %p212: Tensor[(1), int32], Primitive=1) -> Tensor[(2), int32] {
        scatter(%p047, %p125, %p212, meta[relay.attrs.ScatterAttrs][2]) /* ty=Tensor[(2), int32] */
      };
      let %x113: Tensor[(2), int32] = %x112(%x108, %x56, %x111) /* ty=Tensor[(2), int32] */;
      let %x114: fn (Tensor[(2), int32]) -> Tensor[(2), int64] = fn (%p048: Tensor[(2), int32], Primitive=1) -> Tensor[(2), int64] {
        cast(%p048, dtype="int64") /* ty=Tensor[(2), int64] */
      };
      let %x115: Tensor[(2), int64] = %x114(%x113) /* ty=Tensor[(2), int64] */;
      let %x116: Tensor[(2), int32] = meta[relay.Constant][8] /* ty=Tensor[(2), int32] */;
      let %x117: fn (Tensor[(?, ?), float32], Tensor[(2), int32], Tensor[(2), int64], Tensor[(2), int32]) -> Tensor[(?, ?), float32] = fn (%p049: Tensor[(?, ?), float32], %p126: Tensor[(2), int32], %p213: Tensor[(2), int64], %p34: Tensor[(2), int32], Primitive=1) -> Tensor[(?, ?), float32] {
        dyn.strided_slice(%p049, %p126, %p213, %p34, begin=None, end=None, strides=None) /* ty=Tensor[(?, ?), float32] */
      };
      let %x118: Tensor[(?, ?), float32] = %x117(%x104, %x110, %x115, %x116) /* ty=Tensor[(?, ?), float32] */;
      let %x119: Tensor[(2), bool] = meta[relay.Constant][9] /* ty=Tensor[(2), bool] */;
      let %x120: Tensor[(2), int32] = meta[relay.Constant][10] /* ty=Tensor[(2), int32] */;
      let %x121: fn (Tensor[(?, ?), float32]) -> Tensor[(2), int32] = fn (%p050: Tensor[(?, ?), float32], Primitive=1) -> Tensor[(2), int32] {
        shape_of(%p050, dtype="int32") /* ty=Tensor[(2), int32] */
      };
      let %x122: Tensor[(2), int32] = %x121(%x118) /* ty=Tensor[(2), int32] */;
      let %x123: fn (Tensor[(2), bool], Tensor[(2), int32], Tensor[(2), int32]) -> Tensor[(2), int32] = fn (%p051: Tensor[(2), bool], %p127: Tensor[(2), int32], %p214: Tensor[(2), int32], Primitive=1) -> Tensor[(2), int32] {
        %57 = cast_like(%p214, %p127) /* ty=Tensor[(2), int32] */;
        %58 = add(%p127, %57) /* ty=Tensor[(2), int32] */;
        where(%p051, %58, %p127) /* ty=Tensor[(2), int32] */
      };
      let %x124: Tensor[(2), int32] = %x123(%x119, %x120, %x122) /* ty=Tensor[(2), int32] */;
      let %x125: fn (Tensor[(2), int32]) -> Tensor[(2), int64] = fn (%p052: Tensor[(2), int32], Primitive=1) -> Tensor[(2), int64] {
        cast(%p052, dtype="int64") /* ty=Tensor[(2), int64] */
      };
      let %x126: Tensor[(2), int64] = %x125(%x122) /* ty=Tensor[(2), int64] */;
      let %x127: Tensor[(2), int32] = meta[relay.Constant][11] /* ty=Tensor[(2), int32] */;
      let %x128: fn (Tensor[(?, ?), float32], Tensor[(2), int32], Tensor[(2), int64], Tensor[(2), int32]) -> Tensor[(?, ?), float32] = fn (%p053: Tensor[(?, ?), float32], %p128: Tensor[(2), int32], %p215: Tensor[(2), int64], %p35: Tensor[(2), int32], Primitive=1) -> Tensor[(?, ?), float32] {
        dyn.strided_slice(%p053, %p128, %p215, %p35, begin=None, end=None, strides=None) /* ty=Tensor[(?, ?), float32] */
      };
      let %x129: Tensor[(?, ?), float32] = %x128(%x118, %x124, %x126, %x127) /* ty=Tensor[(?, ?), float32] */;
      let %x130: fn (Tensor[(?, ?), float32]) -> Tensor[(2), int32] = fn (%p054: Tensor[(?, ?), float32], Primitive=1) -> Tensor[(2), int32] {
        shape_of(%p054, dtype="int32") /* ty=Tensor[(2), int32] */
      };
      let %x131: Tensor[(2), int32] = %x130(%x129) /* ty=Tensor[(2), int32] */;
      let %x132: fn (Tensor[(2), int32]) -> Tensor[(1), int64] = fn (%p055: Tensor[(2), int32], Primitive=1) -> Tensor[(1), int64] {
        %59 = take(%p055, 0 /* ty=int32 */, axis=0) /* ty=int32 */;
        %60 = expand_dims(%59, axis=0) /* ty=Tensor[(1), int32] */;
        cast(%60, dtype="int64") /* ty=Tensor[(1), int64] */
      };
      let %x133: Tensor[(1), int64] = %x132(%x131) /* ty=Tensor[(1), int64] */;
      let %x134: fn (Tensor[(1), int64], int64) -> Tensor[(2), int64] = fn (%p056: Tensor[(1), int64], %p129: int64, Primitive=1) -> Tensor[(2), int64] {
        %61 = expand_dims(%p129, axis=0) /* ty=Tensor[(1), int64] */;
        %62 = cast(%61, dtype="int64") /* ty=Tensor[(1), int64] */;
        %63 = (%p056, %62);
        concatenate(%63) /* ty=Tensor[(2), int64] */
      };
      let %x135: Tensor[(2), int64] = %x134(%x133, %x72) /* ty=Tensor[(2), int64] */;
      let %x136: fn (int32, Tensor[(2), int64]) -> Tensor[(?, ?), float32] = fn (%p057: int32, %p130: Tensor[(2), int64], Primitive=1) -> Tensor[(?, ?), float32] {
        dyn.full(%p057, %p130, shape=None, dtype="float32") /* ty=Tensor[(?, ?), float32] */
      };
      let %x137: Tensor[(?, ?), float32] = %x136(%x9, %x135) /* ty=Tensor[(?, ?), float32] */;
      let %x138: int32 = 0 /* ty=int32 */;
      let %x139: fn (Tensor[(1), int64], int64) -> Tensor[(2), int64] = fn (%p058: Tensor[(1), int64], %p131: int64, Primitive=1) -> Tensor[(2), int64] {
        %64 = subtract(300 /* ty=int64 */, %p131) /* ty=int64 */;
        %65 = expand_dims(%64, axis=0) /* ty=Tensor[(1), int64] */;
        %66 = cast(%65, dtype="int64") /* ty=Tensor[(1), int64] */;
        %67 = (%p058, %66);
        concatenate(%67) /* ty=Tensor[(2), int64] */
      };
      let %x140: Tensor[(2), int64] = %x139(%x133, %x82) /* ty=Tensor[(2), int64] */;
      let %x141: fn (int32, Tensor[(2), int64]) -> Tensor[(?, ?), float32] = fn (%p059: int32, %p132: Tensor[(2), int64], Primitive=1) -> Tensor[(?, ?), float32] {
        dyn.full(%p059, %p132, shape=None, dtype="float32") /* ty=Tensor[(?, ?), float32] */
      };
      let %x142: Tensor[(?, ?), float32] = %x141(%x138, %x140) /* ty=Tensor[(?, ?), float32] */;
      let %x143: fn (Tensor[(?, ?), float32], Tensor[(?, ?), float32], Tensor[(?, ?), float32]) -> Tensor[(?, ?), float32] = fn (%p060: Tensor[(?, ?), float32], %p133: Tensor[(?, ?), float32], %p216: Tensor[(?, ?), float32], Primitive=1) -> Tensor[(?, ?), float32] {
        %68 = reshape(%p060, newshape=[0, 0]) /* ty=Tensor[(?, ?), float32] */;
        %69 = reshape(%p216, newshape=[0, 0]) /* ty=Tensor[(?, ?), float32] */;
        %70 = (%68, %p133, %69);
        concatenate(%70, axis=1) /* ty=Tensor[(?, ?), float32] */
      };
      let %x144: Tensor[(?, ?), float32] = %x143(%x137, %x129, %x142) /* ty=Tensor[(?, ?), float32] */;
      let %x145: Tensor[(2), bool] = meta[relay.Constant][12] /* ty=Tensor[(2), bool] */;
      let %x146: Tensor[(2), int32] = meta[relay.Constant][13] /* ty=Tensor[(2), int32] */;
      let %x147: fn (Tensor[(?, ?), float32]) -> Tensor[(2), int32] = fn (%p061: Tensor[(?, ?), float32], Primitive=1) -> Tensor[(2), int32] {
        shape_of(%p061, dtype="int32") /* ty=Tensor[(2), int32] */
      };
      let %x148: Tensor[(2), int32] = %x147(%x144) /* ty=Tensor[(2), int32] */;
      let %x149: fn (Tensor[(2), bool], Tensor[(2), int32], Tensor[(2), int32]) -> Tensor[(2), int32] = fn (%p062: Tensor[(2), bool], %p134: Tensor[(2), int32], %p217: Tensor[(2), int32], Primitive=1) -> Tensor[(2), int32] {
        %71 = cast_like(%p217, %p134) /* ty=Tensor[(2), int32] */;
        %72 = add(%p134, %71) /* ty=Tensor[(2), int32] */;
        where(%p062, %72, %p134) /* ty=Tensor[(2), int32] */
      };
      let %x150: Tensor[(2), int32] = %x149(%x145, %x146, %x148) /* ty=Tensor[(2), int32] */;
      let %x151: fn (Tensor[(2), int32]) -> Tensor[(2), int64] = fn (%p063: Tensor[(2), int32], Primitive=1) -> Tensor[(2), int64] {
        cast(%p063, dtype="int64") /* ty=Tensor[(2), int64] */
      };
      let %x152: Tensor[(2), int64] = %x151(%x148) /* ty=Tensor[(2), int64] */;
      let %x153: Tensor[(2), int32] = meta[relay.Constant][14] /* ty=Tensor[(2), int32] */;
      let %x154: fn (Tensor[(?, ?), float32], Tensor[(2), int32], Tensor[(2), int64], Tensor[(2), int32]) -> Tensor[(?, ?), float32] = fn (%p064: Tensor[(?, ?), float32], %p135: Tensor[(2), int32], %p218: Tensor[(2), int64], %p36: Tensor[(2), int32], Primitive=1) -> Tensor[(?, ?), float32] {
        dyn.strided_slice(%p064, %p135, %p218, %p36, begin=None, end=None, strides=None) /* ty=Tensor[(?, ?), float32] */
      };
      let %x155: Tensor[(?, ?), float32] = %x154(%x144, %x150, %x152, %x153) /* ty=Tensor[(?, ?), float32] */;
      let %x156: Tensor[(2), bool] = meta[relay.Constant][15] /* ty=Tensor[(2), bool] */;
      let %x157: Tensor[(2), int32] = meta[relay.Constant][16] /* ty=Tensor[(2), int32] */;
      let %x158: fn (Tensor[(?, ?), float32]) -> Tensor[(2), int32] = fn (%p065: Tensor[(?, ?), float32], Primitive=1) -> Tensor[(2), int32] {
        shape_of(%p065, dtype="int32") /* ty=Tensor[(2), int32] */
      };
      let %x159: Tensor[(2), int32] = %x158(%x155) /* ty=Tensor[(2), int32] */;
      let %x160: fn (Tensor[(2), bool], Tensor[(2), int32], Tensor[(2), int32]) -> Tensor[(2), int32] = fn (%p066: Tensor[(2), bool], %p136: Tensor[(2), int32], %p219: Tensor[(2), int32], Primitive=1) -> Tensor[(2), int32] {
        %73 = cast_like(%p219, %p136) /* ty=Tensor[(2), int32] */;
        %74 = add(%p136, %73) /* ty=Tensor[(2), int32] */;
        where(%p066, %74, %p136) /* ty=Tensor[(2), int32] */
      };
      let %x161: Tensor[(2), int32] = %x160(%x156, %x157, %x159) /* ty=Tensor[(2), int32] */;
      let %x162: fn (Tensor[(2), int32], Tensor[(1), int32], Tensor[(1), int32]) -> Tensor[(2), int32] = fn (%p067: Tensor[(2), int32], %p137: Tensor[(1), int32], %p220: Tensor[(1), int32], Primitive=1) -> Tensor[(2), int32] {
        scatter(%p067, %p137, %p220, meta[relay.attrs.ScatterAttrs][3]) /* ty=Tensor[(2), int32] */
      };
      let %x163: Tensor[(2), int32] = %x162(%x159, %x1, %x111);
      let %x164: fn (Tensor[(2), int32]) -> Tensor[(2), int64] = fn (%p068: Tensor[(2), int32], Primitive=1) -> Tensor[(2), int64] {
        cast(%p068, dtype="int64") /* ty=Tensor[(2), int64] */
      };
      let %x165: Tensor[(2), int64] = %x164(%x163) /* ty=Tensor[(2), int64] */;
      let %x166: Tensor[(2), int32] = meta[relay.Constant][17] /* ty=Tensor[(2), int32] */;
      let %x167: fn (Tensor[(?, ?), float32], Tensor[(2), int32], Tensor[(2), int64], Tensor[(2), int32]) -> Tensor[(?, ?), float32] = fn (%p069: Tensor[(?, ?), float32], %p138: Tensor[(2), int32], %p221: Tensor[(2), int64], %p37: Tensor[(2), int32], Primitive=1) -> Tensor[(?, ?), float32] {
        dyn.strided_slice(%p069, %p138, %p221, %p37, begin=None, end=None, strides=None) /* ty=Tensor[(?, ?), float32] */
      };
      let %x168: Tensor[(?, ?), float32] = %x167(%x155, %x161, %x165, %x166) /* ty=Tensor[(?, ?), float32] */;
      let %x169: List[Tensor[(?, ?), float32]] = Nil /* ty=List[Tensor[(?, ?), float32]] */;
      let %x170: List[Tensor[(?, ?), float32]] = Cons(%x168, %x169) /* ty=List[Tensor[(?, ?), float32]] */;
      let %x171: List[Tensor[(?, ?), float32]] = @concat(%res.6, %x170) /* ty=List[Tensor[(?, ?), float32]] */;
      %75 = @lifted_name8408068344935463616(%x, %x1);
      let %x172: (int32, List[Tensor[(?, ?), float32]], Tensor[(?, 1, ?, ?), float32], Tensor[(?, 4), int64]) = %75(%x8, %x171, %v7286, %v7394);
      %x172
    } else {
      let %x173: (int32, List[Tensor[(?, ?), float32]], Tensor[(?, 1, ?, ?), float32], Tensor[(?, 4), int64]) = (%i.1, %res.6, %v7286, %v7394);
      %x173
    };
    %x6
  }
}
#[metadata]
{
  "root": 1, 
  "nodes": [
    {
      "type_key": ""
    }, 
    {
      "type_key": "Map", 
      "keys": [
        "relay.attrs.ScatterAttrs", 
        "relay.Constant"
      ], 
      "data": [2, 11]
    }, 
    {
      "type_key": "Array", 
      "data": [3, 5, 7, 9]
    }, 
    {
      "type_key": "relay.attrs.ScatterAttrs", 
      "attrs": {"axis": "4"}
    }, 
    {
      "type_key": "IntImm", 
      "attrs": {
        "dtype": "int32", 
        "span": "0", 
        "value": "0"
      }
    }, 
    {
      "type_key": "relay.attrs.ScatterAttrs", 
      "attrs": {"axis": "6"}
    }, 
    {
      "type_key": "IntImm", 
      "attrs": {
        "dtype": "int32", 
        "span": "0", 
        "value": "0"
      }
    }, 
    {
      "type_key": "relay.attrs.ScatterAttrs", 
      "attrs": {"axis": "8"}
    }, 
    {
      "type_key": "IntImm", 
      "attrs": {
        "dtype": "int32", 
        "span": "0", 
        "value": "0"
      }
    }, 
    {
      "type_key": "relay.attrs.ScatterAttrs", 
      "attrs": {"axis": "10"}
    }, 
    {
      "type_key": "IntImm", 
      "attrs": {
        "dtype": "int32", 
        "span": "0", 
        "value": "0"
      }
    }, 
    {
      "type_key": "Array", 
      "data": [
        12, 
        16, 
        20, 
        24, 
        28, 
        32, 
        36, 
        40, 
        44, 
        48, 
        52, 
        56, 
        60, 
        64, 
        68, 
        72, 
        76, 
        80
      ]
    }, 
    {
      "type_key": "relay.Constant", 
      "attrs": {
        "_checked_type_": "13", 
        "data": "0", 
        "span": "0"
      }
    }, 
    {
      "type_key": "relay.TensorType", 
      "attrs": {
        "dtype": "int64", 
        "shape": "14", 
        "span": "0"
      }
    }, 
    {
      "type_key": "Array", 
      "data": [15]
    }, 
    {
      "type_key": "IntImm", 
      "attrs": {
        "dtype": "int32", 
        "span": "0", 
        "value": "1"
      }
    }, 
    {
      "type_key": "relay.Constant", 
      "attrs": {
        "_checked_type_": "17", 
        "data": "1", 
        "span": "0"
      }
    }, 
    {
      "type_key": "relay.TensorType", 
      "attrs": {
        "dtype": "int32", 
        "shape": "18", 
        "span": "0"
      }
    }, 
    {
      "type_key": "Array", 
      "data": [19]
    }, 
    {
      "type_key": "IntImm", 
      "attrs": {
        "dtype": "int32", 
        "span": "0", 
        "value": "1"
      }
    }, 
    {
      "type_key": "relay.Constant", 
      "attrs": {
        "_checked_type_": "21", 
        "data": "2", 
        "span": "0"
      }
    }, 
    {
      "type_key": "relay.TensorType", 
      "attrs": {
        "dtype": "int64", 
        "shape": "22", 
        "span": "0"
      }
    }, 
    {
      "type_key": "Array", 
      "data": [23]
    }, 
    {
      "type_key": "IntImm", 
      "attrs": {
        "dtype": "int32", 
        "span": "0", 
        "value": "1"
      }
    }, 
    {
      "type_key": "relay.Constant", 
      "attrs": {
        "_checked_type_": "25", 
        "data": "3", 
        "span": "0"
      }
    }, 
    {
      "type_key": "relay.TensorType", 
      "attrs": {
        "dtype": "int32", 
        "shape": "26", 
        "span": "0"
      }
    }, 
    {
      "type_key": "Array", 
      "data": [27]
    }, 
    {
      "type_key": "IntImm", 
      "attrs": {
        "dtype": "int32", 
        "span": "0", 
        "value": "2"
      }
    }, 
    {
      "type_key": "relay.Constant", 
      "attrs": {
        "_checked_type_": "29", 
        "data": "4", 
        "span": "0"
      }
    }, 
    {
      "type_key": "relay.TensorType", 
      "attrs": {
        "dtype": "int32", 
        "shape": "30", 
        "span": "0"
      }
    }, 
    {
      "type_key": "Array", 
      "data": [31]
    }, 
    {
      "type_key": "IntImm", 
      "attrs": {
        "dtype": "int32", 
        "span": "0", 
        "value": "2"
      }
    }, 
    {
      "type_key": "relay.Constant", 
      "attrs": {
        "_checked_type_": "33", 
        "data": "5", 
        "span": "0"
      }
    }, 
    {
      "type_key": "relay.TensorType", 
      "attrs": {
        "dtype": "bool", 
        "shape": "34", 
        "span": "0"
      }
    }, 
    {
      "type_key": "Array", 
      "data": [35]
    }, 
    {
      "type_key": "IntImm", 
      "attrs": {
        "dtype": "int32", 
        "span": "0", 
        "value": "2"
      }
    }, 
    {
      "type_key": "relay.Constant", 
      "attrs": {
        "_checked_type_": "37", 
        "data": "6", 
        "span": "0"
      }
    }, 
    {
      "type_key": "relay.TensorType", 
      "attrs": {
        "dtype": "int32", 
        "shape": "38", 
        "span": "0"
      }
    }, 
    {
      "type_key": "Array", 
      "data": [39]
    }, 
    {
      "type_key": "IntImm", 
      "attrs": {
        "dtype": "int32", 
        "span": "0", 
        "value": "2"
      }
    }, 
    {
      "type_key": "relay.Constant", 
      "attrs": {
        "_checked_type_": "41", 
        "data": "7", 
        "span": "0"
      }
    }, 
    {
      "type_key": "relay.TensorType", 
      "attrs": {
        "dtype": "int32", 
        "shape": "42", 
        "span": "0"
      }
    }, 
    {
      "type_key": "Array", 
      "data": [43]
    }, 
    {
      "type_key": "IntImm", 
      "attrs": {
        "dtype": "int32", 
        "span": "0", 
        "value": "1"
      }
    }, 
    {
      "type_key": "relay.Constant", 
      "attrs": {
        "_checked_type_": "45", 
        "data": "8", 
        "span": "0"
      }
    }, 
    {
      "type_key": "relay.TensorType", 
      "attrs": {
        "dtype": "int32", 
        "shape": "46", 
        "span": "0"
      }
    }, 
    {
      "type_key": "Array", 
      "data": [47]
    }, 
    {
      "type_key": "IntImm", 
      "attrs": {
        "dtype": "int32", 
        "span": "0", 
        "value": "2"
      }
    }, 
    {
      "type_key": "relay.Constant", 
      "attrs": {
        "_checked_type_": "49", 
        "data": "9", 
        "span": "0"
      }
    }, 
    {
      "type_key": "relay.TensorType", 
      "attrs": {
        "dtype": "bool", 
        "shape": "50", 
        "span": "0"
      }
    }, 
    {
      "type_key": "Array", 
      "data": [51]
    }, 
    {
      "type_key": "IntImm", 
      "attrs": {
        "dtype": "int32", 
        "span": "0", 
        "value": "2"
      }
    }, 
    {
      "type_key": "relay.Constant", 
      "attrs": {
        "_checked_type_": "53", 
        "data": "10", 
        "span": "0"
      }
    }, 
    {
      "type_key": "relay.TensorType", 
      "attrs": {
        "dtype": "int32", 
        "shape": "54", 
        "span": "0"
      }
    }, 
    {
      "type_key": "Array", 
      "data": [55]
    }, 
    {
      "type_key": "IntImm", 
      "attrs": {
        "dtype": "int32", 
        "span": "0", 
        "value": "2"
      }
    }, 
    {
      "type_key": "relay.Constant", 
      "attrs": {
        "_checked_type_": "57", 
        "data": "11", 
        "span": "0"
      }
    }, 
    {
      "type_key": "relay.TensorType", 
      "attrs": {
        "dtype": "int32", 
        "shape": "58", 
        "span": "0"
      }
    }, 
    {
      "type_key": "Array", 
      "data": [59]
    }, 
    {
      "type_key": "IntImm", 
      "attrs": {
        "dtype": "int32", 
        "span": "0", 
        "value": "2"
      }
    }, 
    {
      "type_key": "relay.Constant", 
      "attrs": {
        "_checked_type_": "61", 
        "data": "12", 
        "span": "0"
      }
    }, 
    {
      "type_key": "relay.TensorType", 
      "attrs": {
        "dtype": "bool", 
        "shape": "62", 
        "span": "0"
      }
    }, 
    {
      "type_key": "Array", 
      "data": [63]
    }, 
    {
      "type_key": "IntImm", 
      "attrs": {
        "dtype": "int32", 
        "span": "0", 
        "value": "2"
      }
    }, 
    {
      "type_key": "relay.Constant", 
      "attrs": {
        "_checked_type_": "65", 
        "data": "13", 
        "span": "0"
      }
    }, 
    {
      "type_key": "relay.TensorType", 
      "attrs": {
        "dtype": "int32", 
        "shape": "66", 
        "span": "0"
      }
    }, 
    {
      "type_key": "Array", 
      "data": [67]
    }, 
    {
      "type_key": "IntImm", 
      "attrs": {
        "dtype": "int32", 
        "span": "0", 
        "value": "2"
      }
    }, 
    {
      "type_key": "relay.Constant", 
      "attrs": {
        "_checked_type_": "69", 
        "data": "14", 
        "span": "0"
      }
    }, 
    {
      "type_key": "relay.TensorType", 
      "attrs": {
        "dtype": "int32", 
        "shape": "70", 
        "span": "0"
      }
    }, 
    {
      "type_key": "Array", 
      "data": [71]
    }, 
    {
      "type_key": "IntImm", 
      "attrs": {
        "dtype": "int32", 
        "span": "0", 
        "value": "2"
      }
    }, 
    {
      "type_key": "relay.Constant", 
      "attrs": {
        "_checked_type_": "73", 
        "data": "15", 
        "span": "0"
      }
    }, 
    {
      "type_key": "relay.TensorType", 
      "attrs": {
        "dtype": "bool", 
        "shape": "74", 
        "span": "0"
      }
    }, 
    {
      "type_key": "Array", 
      "data": [75]
    }, 
    {
      "type_key": "IntImm", 
      "attrs": {
        "dtype": "int32", 
        "span": "0", 
        "value": "2"
      }
    }, 
    {
      "type_key": "relay.Constant", 
      "attrs": {
        "_checked_type_": "77", 
        "data": "16", 
        "span": "0"
      }
    }, 
    {
      "type_key": "relay.TensorType", 
      "attrs": {
        "dtype": "int32", 
        "shape": "78", 
        "span": "0"
      }
    }, 
    {
      "type_key": "Array", 
      "data": [79]
    }, 
    {
      "type_key": "IntImm", 
      "attrs": {
        "dtype": "int32", 
        "span": "0", 
        "value": "2"
      }
    }, 
    {
      "type_key": "relay.Constant", 
      "attrs": {
        "_checked_type_": "81", 
        "data": "17", 
        "span": "0"
      }
    }, 
    {
      "type_key": "relay.TensorType", 
      "attrs": {
        "dtype": "int32", 
        "shape": "82", 
        "span": "0"
      }
    }, 
    {
      "type_key": "Array", 
      "data": [83]
    }, 
    {
      "type_key": "IntImm", 
      "attrs": {
        "dtype": "int32", 
        "span": "0", 
        "value": "2"
      }
    }
  ], 
  "b64ndarrays": [
    "P6G0lvBAXt0AAAAAAAAAAAEAAAAAAAAAAQAAAABAAQABAAAAAAAAAAgAAAAAAAAAAAAAAAAAAAA=", 
    "P6G0lvBAXt0AAAAAAAAAAAEAAAAAAAAAAQAAAAAgAQABAAAAAAAAAAQAAAAAAAAAAAAAAA==", 
    "P6G0lvBAXt0AAAAAAAAAAAEAAAAAAAAAAQAAAABAAQABAAAAAAAAAAgAAAAAAAAALAEAAAAAAAA=", 
    "P6G0lvBAXt0AAAAAAAAAAAEAAAAAAAAAAQAAAAAgAQACAAAAAAAAAAgAAAAAAAAAAQAAAAEAAAA=", 
    "P6G0lvBAXt0AAAAAAAAAAAEAAAAAAAAAAQAAAAAgAQACAAAAAAAAAAgAAAAAAAAAAQAAAAEAAAA=", 
    "P6G0lvBAXt0AAAAAAAAAAAEAAAAAAAAAAQAAAAEBAQACAAAAAAAAAAIAAAAAAAAAAAA=", 
    "P6G0lvBAXt0AAAAAAAAAAAEAAAAAAAAAAQAAAAAgAQACAAAAAAAAAAgAAAAAAAAAAAAAAAAAAAA=", 
    "P6G0lvBAXt0AAAAAAAAAAAEAAAAAAAAAAQAAAAAgAQABAAAAAAAAAAQAAAAAAAAALAEAAA==", 
    "P6G0lvBAXt0AAAAAAAAAAAEAAAAAAAAAAQAAAAAgAQACAAAAAAAAAAgAAAAAAAAAAQAAAAEAAAA=", 
    "P6G0lvBAXt0AAAAAAAAAAAEAAAAAAAAAAQAAAAEBAQACAAAAAAAAAAIAAAAAAAAAAAA=", 
    "P6G0lvBAXt0AAAAAAAAAAAEAAAAAAAAAAQAAAAAgAQACAAAAAAAAAAgAAAAAAAAAAAAAAAAAAAA=", 
    "P6G0lvBAXt0AAAAAAAAAAAEAAAAAAAAAAQAAAAAgAQACAAAAAAAAAAgAAAAAAAAAAQAAAAEAAAA=", 
    "P6G0lvBAXt0AAAAAAAAAAAEAAAAAAAAAAQAAAAEBAQACAAAAAAAAAAIAAAAAAAAAAAA=", 
    "P6G0lvBAXt0AAAAAAAAAAAEAAAAAAAAAAQAAAAAgAQACAAAAAAAAAAgAAAAAAAAAAAAAAAAAAAA=", 
    "P6G0lvBAXt0AAAAAAAAAAAEAAAAAAAAAAQAAAAAgAQACAAAAAAAAAAgAAAAAAAAAAQAAAAEAAAA=", 
    "P6G0lvBAXt0AAAAAAAAAAAEAAAAAAAAAAQAAAAEBAQACAAAAAAAAAAIAAAAAAAAAAAA=", 
    "P6G0lvBAXt0AAAAAAAAAAAEAAAAAAAAAAQAAAAAgAQACAAAAAAAAAAgAAAAAAAAAAAAAAAAAAAA=", 
    "P6G0lvBAXt0AAAAAAAAAAAEAAAAAAAAAAQAAAAAgAQACAAAAAAAAAAgAAAAAAAAAAQAAAAEAAAA="
  ], 
  "attrs": {"tvm_version": "0.8.dev0"}
}
File test_street_small.jpg exists, skip.
type tensor_uint8_t {
  tensor_nil_uint8,
  tensor0_uint8(uint8),
  tensor1_uint8(Tensor[(?), uint8]),
  tensor2_uint8(Tensor[(?, ?), uint8]),
  tensor3_uint8(Tensor[(?, ?, ?), uint8]),
  tensor4_uint8(Tensor[(?, ?, ?, ?), uint8]),
  tensor5_uint8(Tensor[(?, ?, ?, ?, ?), uint8]),
  tensor6_uint8(Tensor[(?, ?, ?, ?, ?, ?), uint8]),
}

type Storage {
  
}

type tensor_float32_t {
  tensor_nil_float32,
  tensor0_float32(float32),
  tensor1_float32(Tensor[(?), float32]),
  tensor2_float32(Tensor[(?, ?), float32]),
  tensor3_float32(Tensor[(?, ?, ?), float32]),
  tensor4_float32(Tensor[(?, ?, ?, ?), float32]),
  tensor5_float32(Tensor[(?, ?, ?, ?, ?), float32]),
  tensor6_float32(Tensor[(?, ?, ?, ?, ?, ?), float32]),
}

type static_tensor_float32_any_any_any_t {
  tensor_nil_float32_any_any_any,
  tensor_constructor_float32_any_any_any(Tensor[(?, ?, ?), float32]),
}

type Option[A] {
  Some(A),
  None,
}

type tensor_float16_t {
  tensor_nil_float16,
  tensor0_float16(float16),
  tensor1_float16(Tensor[(?), float16]),
  tensor2_float16(Tensor[(?, ?), float16]),
  tensor3_float16(Tensor[(?, ?, ?), float16]),
  tensor4_float16(Tensor[(?, ?, ?, ?), float16]),
  tensor5_float16(Tensor[(?, ?, ?, ?, ?), float16]),
  tensor6_float16(Tensor[(?, ?, ?, ?, ?, ?), float16]),
}

type tensor_int16_t {
  tensor_nil_int16,
  tensor0_int16(int16),
  tensor1_int16(Tensor[(?), int16]),
  tensor2_int16(Tensor[(?, ?), int16]),
  tensor3_int16(Tensor[(?, ?, ?), int16]),
  tensor4_int16(Tensor[(?, ?, ?, ?), int16]),
  tensor5_int16(Tensor[(?, ?, ?, ?, ?), int16]),
  tensor6_int16(Tensor[(?, ?, ?, ?, ?, ?), int16]),
}

type Tree[A] {
  Rose(A, List[Tree[A]]),
}

type tensor_int32_t {
  tensor_nil_int32,
  tensor0_int32(int32),
  tensor1_int32(Tensor[(?), int32]),
  tensor2_int32(Tensor[(?, ?), int32]),
  tensor3_int32(Tensor[(?, ?, ?), int32]),
  tensor4_int32(Tensor[(?, ?, ?, ?), int32]),
  tensor5_int32(Tensor[(?, ?, ?, ?, ?), int32]),
  tensor6_int32(Tensor[(?, ?, ?, ?, ?, ?), int32]),
}

type static_tensor_float32_any_any_any_any_t {
  tensor_nil_float32_any_any_any_any,
  tensor_constructor_float32_any_any_any_any(Tensor[(?, ?, ?, ?), float32]),
}

type static_tensor_float32_any_any_t {
  tensor_nil_float32_any_any,
  tensor_constructor_float32_any_any(Tensor[(?, ?), float32]),
}

type static_tensor_float32_any_t {
  tensor_nil_float32_any,
  tensor_constructor_float32_any(Tensor[(?), float32]),
}

type tensor_int8_t {
  tensor_nil_int8,
  tensor0_int8(int8),
  tensor1_int8(Tensor[(?), int8]),
  tensor2_int8(Tensor[(?, ?), int8]),
  tensor3_int8(Tensor[(?, ?, ?), int8]),
  tensor4_int8(Tensor[(?, ?, ?, ?), int8]),
  tensor5_int8(Tensor[(?, ?, ?, ?, ?), int8]),
  tensor6_int8(Tensor[(?, ?, ?, ?, ?, ?), int8]),
}

type tensor_int64_t {
  tensor_nil_int64,
  tensor0_int64(int64),
  tensor1_int64(Tensor[(?), int64]),
  tensor2_int64(Tensor[(?, ?), int64]),
  tensor3_int64(Tensor[(?, ?, ?), int64]),
  tensor4_int64(Tensor[(?, ?, ?, ?), int64]),
  tensor5_int64(Tensor[(?, ?, ?, ?, ?), int64]),
  tensor6_int64(Tensor[(?, ?, ?, ?, ?, ?), int64]),
}

type tensor_uint16_t {
  tensor_nil_uint16,
  tensor0_uint16(uint16),
  tensor1_uint16(Tensor[(?), uint16]),
  tensor2_uint16(Tensor[(?, ?), uint16]),
  tensor3_uint16(Tensor[(?, ?, ?), uint16]),
  tensor4_uint16(Tensor[(?, ?, ?, ?), uint16]),
  tensor5_uint16(Tensor[(?, ?, ?, ?, ?), uint16]),
  tensor6_uint16(Tensor[(?, ?, ?, ?, ?, ?), uint16]),
}

type tensor_float64_t {
  tensor_nil_float64,
  tensor0_float64(float64),
  tensor1_float64(Tensor[(?), float64]),
  tensor2_float64(Tensor[(?, ?), float64]),
  tensor3_float64(Tensor[(?, ?, ?), float64]),
  tensor4_float64(Tensor[(?, ?, ?, ?), float64]),
  tensor5_float64(Tensor[(?, ?, ?, ?, ?), float64]),
  tensor6_float64(Tensor[(?, ?, ?, ?, ?, ?), float64]),
}

type List[A] {
  Cons(A, List[A]),
  Nil,
}

def @lifted_name8408068344935463616(%x: Tensor[(?, 1, ?, ?), float32], %x1: Tensor[(1), int32], Closure=1) -> fn (int32, List[Tensor[(?, ?), float32]], Tensor[(?, 1, ?, ?), float32], Tensor[(?, 4), int64]) -> (int32, List[Tensor[(?, ?), float32]], Tensor[(?, 1, ?, ?), float32], Tensor[(?, 4), int64]) {
  fn (%i.1: int32, %res.6: List[Tensor[(?, ?), float32]], %v7286: Tensor[(?, 1, ?, ?), float32], %v7394: Tensor[(?, 4), int64]) -> (int32, List[Tensor[(?, ?), float32]], Tensor[(?, 1, ?, ?), float32], Tensor[(?, 4), int64]) {
    let %region1: Storage[] = memory.alloc_storage(64 /* ty=int64 */, 64 /* ty=int64 */, meta[relay.attrs.AllocStorageAttrs][0]) /* ty=Storage[] */;
    let %region11: Storage[] = memory.alloc_storage(64 /* ty=int64 */, 64 /* ty=int64 */, meta[relay.attrs.AllocStorageAttrs][1]) /* ty=Storage[] */;
    let %storage_0: Storage[] = %region1;
    let %tensor_0: Tensor[(4), int32] = memory.alloc_tensor(%region1, 0 /* ty=int64 */, meta[relay.Constant][0] /* ty=Tensor[(1), int64] */, meta[relay.attrs.AllocTensorAttrs][0]) /* ty=Tensor[(4), int32] */;
    %0 = fn (%p0: Tensor[(?, 1, ?, ?), float32], Primitive=1) -> Tensor[(4), int32] {
      shape_of(%p0, dtype="int32") /* ty=Tensor[(4), int32] */
    };
    %1 = (%x,);
    %2 = (%tensor_0,);
    let %v: () = vm.invoke_tvm_op(%0, %1, %2) /* ty=() */;
    let %x2: Tensor[(4), int32] = %tensor_0;
    let %storage_01: Storage[] = %region11;
    let %tensor_01: bool = memory.alloc_tensor(%region11, 0 /* ty=int64 */, 0 /* ty=int64 */, meta[relay.attrs.AllocTensorAttrs][1]) /* ty=bool */;
    %4 = fn (%p01: int32, %p1: Tensor[(4), int32], Primitive=1) -> bool {
      %3 = take(%p1, 0 /* ty=int32 */, axis=0) /* ty=int32 */;
      less(%p01, %3) /* ty=bool */
    };
    %5 = (%i.1, %x2);
    %6 = (%tensor_01,);
    let %v1: () = vm.invoke_tvm_op(%4, %5, %6) /* ty=() */;
    let %x3: bool = %tensor_01;
    let %x4: (int32, List[Tensor[(?, ?), float32]], Tensor[(?, 1, ?, ?), float32], Tensor[(?, 4), int64]) = if (%x3) {
      let %storage_02: Storage[] = memory.alloc_storage(4 /* ty=int64 */, 64 /* ty=int64 */, meta[relay.attrs.AllocStorageAttrs][2]) /* ty=Storage[] */;
      let %tensor_02: int32 = memory.alloc_tensor(%storage_02, 0 /* ty=int64 */, 0 /* ty=int64 */, meta[relay.attrs.AllocTensorAttrs][2]) /* ty=int32 */;
      %7 = fn (%p02: int32, Primitive=1) -> int32 {
        add(%p02, 1 /* ty=int32 */) /* ty=int32 */
      };
      %8 = (%i.1,);
      %9 = (%tensor_02,);
      let %v2: () = vm.invoke_tvm_op(%7, %8, %9) /* ty=() */;
      let %x5: int32 = %tensor_02;
      let %storage_03: Storage[] = memory.alloc_storage(32 /* ty=int64 */, 64 /* ty=int64 */, meta[relay.attrs.AllocStorageAttrs][3]) /* ty=Storage[] */;
      let %tensor_03: Tensor[(4), int64] = memory.alloc_tensor(%storage_03, 0 /* ty=int64 */, meta[relay.Constant][1] /* ty=Tensor[(1), int64] */, meta[relay.attrs.AllocTensorAttrs][3]) /* ty=Tensor[(4), int64] */;
      %10 = fn (%p03: Tensor[(?, 4), int64], %p11: int32, Primitive=1) -> Tensor[(4), int64] {
        take(%p03, %p11, axis=0) /* ty=Tensor[(4), int64] */
      };
      %11 = (%v7394, %i.1);
      %12 = (%tensor_03,);
      let %v3: () = vm.invoke_tvm_op(%10, %11, %12) /* ty=() */;
      let %x6: Tensor[(4), int64] = %tensor_03;
      let %storage_04: Storage[] = memory.alloc_storage(8 /* ty=int64 */, 64 /* ty=int64 */, meta[relay.attrs.AllocStorageAttrs][4]) /* ty=Storage[] */;
      let %tensor_04: int64 = memory.alloc_tensor(%storage_04, 0 /* ty=int64 */, 0 /* ty=int64 */, meta[relay.attrs.AllocTensorAttrs][4]) /* ty=int64 */;
      %13 = fn (%p04: Tensor[(4), int64], Primitive=1) -> int64 {
        take(%p04, 1 /* ty=int32 */, axis=0) /* ty=int64 */
      };
      %14 = (%x6,);
      %15 = (%tensor_04,);
      let %v4: () = vm.invoke_tvm_op(%13, %14, %15) /* ty=() */;
      let %x7: int64 = %tensor_04;
      let %storage_05: Storage[] = memory.alloc_storage(8 /* ty=int64 */, 64 /* ty=int64 */, meta[relay.attrs.AllocStorageAttrs][5]) /* ty=Storage[] */;
      let %tensor_05: Tensor[(1), int64] = memory.alloc_tensor(%storage_05, 0 /* ty=int64 */, meta[relay.Constant][2] /* ty=Tensor[(1), int64] */, meta[relay.attrs.AllocTensorAttrs][5]) /* ty=Tensor[(1), int64] */;
      %16 = fn (Primitive=1) -> Tensor[(1), int64] {
        full(0 /* ty=int32 */, shape=[1], dtype="int64") /* ty=Tensor[(1), int64] */
      };
      %17 = ();
      %18 = (%tensor_05,);
      let %v5: () = vm.invoke_tvm_op(%16, %17, %18) /* ty=() */;
      let %x8: Tensor[(1), int64] = %tensor_05;
      let %storage_06: Storage[] = memory.alloc_storage(16 /* ty=int64 */, 64 /* ty=int64 */, meta[relay.attrs.AllocStorageAttrs][6]) /* ty=Storage[] */;
      let %tensor_06: Tensor[(2), int64] = memory.alloc_tensor(%storage_06, 0 /* ty=int64 */, meta[relay.Constant][3] /* ty=Tensor[(1), int64] */, meta[relay.attrs.AllocTensorAttrs][6]) /* ty=Tensor[(2), int64] */;
      %21 = fn (%p05: int64, %p12: Tensor[(1), int64], Primitive=1) -> Tensor[(2), int64] {
        %19 = expand_dims(%p05, axis=0) /* ty=Tensor[(1), int64] */;
        %20 = (%19, %p12);
        concatenate(%20) /* ty=Tensor[(2), int64] */
      };
      %22 = (%x7, %x8);
      %23 = (%tensor_06,);
      let %v6: () = vm.invoke_tvm_op(%21, %22, %23) /* ty=() */;
      let %x9: Tensor[(2), int64] = %tensor_06;
      let %storage_07: Storage[] = memory.alloc_storage(8 /* ty=int64 */, 64 /* ty=int64 */, meta[relay.attrs.AllocStorageAttrs][7]) /* ty=Storage[] */;
      let %tensor_07: int64 = memory.alloc_tensor(%storage_07, 0 /* ty=int64 */, 0 /* ty=int64 */, meta[relay.attrs.AllocTensorAttrs][7]) /* ty=int64 */;
      %24 = fn (%p06: Tensor[(2), int64], Primitive=1) -> int64 {
        max(%p06) /* ty=int64 */
      };
      %25 = (%x9,);
      %26 = (%tensor_07,);
      let %v7: () = vm.invoke_tvm_op(%24, %25, %26) /* ty=() */;
      let %x10: int64 = %tensor_07;
      let %in_shape_0: Tensor[(4), int64] = vm.shape_of(%v7286, meta[relay.attrs.ShapeOfAttrs][0]) /* ty=Tensor[(4), int64] */;
      let %storage_08: Storage[] = memory.alloc_storage(24 /* ty=int64 */, 64 /* ty=int64 */, meta[relay.attrs.AllocStorageAttrs][8]) /* ty=Storage[] */;
      let %tensor_08: Tensor[(3), int64] = memory.alloc_tensor(%storage_08, 0 /* ty=int64 */, meta[relay.Constant][4] /* ty=Tensor[(1), int64] */, meta[relay.attrs.AllocTensorAttrs][8]) /* ty=Tensor[(3), int64] */;
      let %shape_func_out_0: Tensor[(3), int64] = %tensor_08;
      %27 = fn (%p07: Tensor[(?, 1, ?, ?), float32], %p13: int32, Primitive=1) -> Tensor[(1, ?, ?), float32] {
        take(%p07, %p13, axis=0) /* ty=Tensor[(1, ?, ?), float32] */
      };
      %28 = (%in_shape_0, -23110496 /* ty=int64 */);
      %29 = (%shape_func_out_0,);
      let %shape_func: () = vm.shape_func(%27, %28, %29, meta[relay.attrs.ShapeFuncAttrs][0]) /* ty=() */;
      let %storage_09: Storage[] = memory.alloc_storage(8 /* ty=int64 */, 64 /* ty=int64 */, meta[relay.attrs.AllocStorageAttrs][9]) /* ty=Storage[] */;
      let %tensor_09: int64 = memory.alloc_tensor(%storage_09, 0 /* ty=int64 */, 0 /* ty=int64 */, meta[relay.attrs.AllocTensorAttrs][9]) /* ty=int64 */;
      %30 = fn (%p08: Tensor[(3), int64], Primitive=1) -> int64 {
        prod(%p08) /* ty=int64 */
      };
      %31 = (%shape_func_out_0,);
      %32 = (%tensor_09,);
      let %v8: () = vm.invoke_tvm_op(%30, %31, %32) /* ty=() */;
      let %storage_010: Storage[] = memory.alloc_storage(8 /* ty=int64 */, 64 /* ty=int64 */, meta[relay.attrs.AllocStorageAttrs][10]) /* ty=Storage[] */;
      let %tensor_010: int64 = memory.alloc_tensor(%storage_010, 0 /* ty=int64 */, 0 /* ty=int64 */, meta[relay.attrs.AllocTensorAttrs][10]) /* ty=int64 */;
      %33 = fn (%p09: int64, Primitive=1) -> int64 {
        multiply(%p09, 4 /* ty=int64 */) /* ty=int64 */
      };
      %34 = (%tensor_09,);
      %35 = (%tensor_010,);
      let %v9: () = vm.invoke_tvm_op(%33, %34, %35) /* ty=() */;
      let %storage_011: Storage[] = memory.alloc_storage(%tensor_010, 64 /* ty=int64 */, meta[relay.attrs.AllocStorageAttrs][11]) /* ty=Storage[] */;
      let %out_0: Tensor[(1, ?, ?), float32] = memory.alloc_tensor(%storage_011, 0 /* ty=int64 */, %shape_func_out_0, meta[relay.attrs.AllocTensorAttrs][11]) /* ty=Tensor[(1, ?, ?), float32] */;
      %36 = (%v7286, %i.1);
      %37 = (%out_0,);
      let %v10: () = vm.invoke_tvm_op(%27, %36, %37) /* ty=() */;
      let %x11: Tensor[(1, ?, ?), float32] = %out_0;
      let %in_shape_01: Tensor[(3), int64] = vm.shape_of(%x11, meta[relay.attrs.ShapeOfAttrs][1]) /* ty=Tensor[(3), int64] */;
      let %storage_012: Storage[] = memory.alloc_storage(32 /* ty=int64 */, 64 /* ty=int64 */, meta[relay.attrs.AllocStorageAttrs][12]) /* ty=Storage[] */;
      let %tensor_011: Tensor[(4), int64] = memory.alloc_tensor(%storage_012, 0 /* ty=int64 */, meta[relay.Constant][5] /* ty=Tensor[(1), int64] */, meta[relay.attrs.AllocTensorAttrs][12]) /* ty=Tensor[(4), int64] */;
      let %shape_func_out_01: Tensor[(4), int64] = %tensor_011;
      %41 = fn (%p010: Tensor[(1, ?, ?), float32], Primitive=1) -> Tensor[(1, 1, ?, ?), float32] {
        %38 = take(%p010, 0 /* ty=int32 */, axis=0) /* ty=Tensor[(?, ?), float32] */;
        %39 = expand_dims(%38, axis=0, num_newaxis=2) /* ty=Tensor[(1, 1, ?, ?), float32] */;
        %40 = repeat(%39, repeats=1, axis=0) /* ty=Tensor[(1, 1, ?, ?), float32] */;
        repeat(%40, repeats=1, axis=1) /* ty=Tensor[(1, 1, ?, ?), float32] */
      };
      %42 = (%in_shape_01,);
      %43 = (%shape_func_out_01,);
      let %shape_func1: () = vm.shape_func(%41, %42, %43, meta[relay.attrs.ShapeFuncAttrs][1]) /* ty=() */;
      let %storage_013: Storage[] = memory.alloc_storage(8 /* ty=int64 */, 64 /* ty=int64 */, meta[relay.attrs.AllocStorageAttrs][13]) /* ty=Storage[] */;
      let %tensor_012: int64 = memory.alloc_tensor(%storage_013, 0 /* ty=int64 */, 0 /* ty=int64 */, meta[relay.attrs.AllocTensorAttrs][13]) /* ty=int64 */;
      %44 = fn (%p011: Tensor[(4), int64], Primitive=1) -> int64 {
        prod(%p011) /* ty=int64 */
      };
      %45 = (%shape_func_out_01,);
      %46 = (%tensor_012,);
      let %v11: () = vm.invoke_tvm_op(%44, %45, %46) /* ty=() */;
      let %storage_014: Storage[] = memory.alloc_storage(8 /* ty=int64 */, 64 /* ty=int64 */, meta[relay.attrs.AllocStorageAttrs][14]) /* ty=Storage[] */;
      let %tensor_013: int64 = memory.alloc_tensor(%storage_014, 0 /* ty=int64 */, 0 /* ty=int64 */, meta[relay.attrs.AllocTensorAttrs][14]) /* ty=int64 */;
      %47 = fn (%p012: int64, Primitive=1) -> int64 {
        multiply(%p012, 4 /* ty=int64 */) /* ty=int64 */
      };
      %48 = (%tensor_012,);
      %49 = (%tensor_013,);
      let %v12: () = vm.invoke_tvm_op(%47, %48, %49) /* ty=() */;
      let %storage_015: Storage[] = memory.alloc_storage(%tensor_013, 64 /* ty=int64 */, meta[relay.attrs.AllocStorageAttrs][15]) /* ty=Storage[] */;
      let %out_01: Tensor[(1, 1, ?, ?), float32] = memory.alloc_tensor(%storage_015, 0 /* ty=int64 */, %shape_func_out_01, meta[relay.attrs.AllocTensorAttrs][15]) /* ty=Tensor[(1, 1, ?, ?), float32] */;
      %50 = (%x11,);
      %51 = (%out_01,);
      let %v13: () = vm.invoke_tvm_op(%41, %50, %51) /* ty=() */;
      let %x12: Tensor[(1, 1, ?, ?), float32] = %out_01;
      let %storage_016: Storage[] = memory.alloc_storage(8 /* ty=int64 */, 64 /* ty=int64 */, meta[relay.attrs.AllocStorageAttrs][16]) /* ty=Storage[] */;
      let %tensor_014: int64 = memory.alloc_tensor(%storage_016, 0 /* ty=int64 */, 0 /* ty=int64 */, meta[relay.attrs.AllocTensorAttrs][16]) /* ty=int64 */;
      %52 = fn (%p013: Tensor[(4), int64], Primitive=1) -> int64 {
        take(%p013, 3 /* ty=int32 */, axis=0) /* ty=int64 */
      };
      %53 = (%x6,);
      %54 = (%tensor_014,);
      let %v14: () = vm.invoke_tvm_op(%52, %53, %54) /* ty=() */;
      let %x13: int64 = %tensor_014;
      let %storage_017: Storage[] = memory.alloc_storage(8 /* ty=int64 */, 64 /* ty=int64 */, meta[relay.attrs.AllocStorageAttrs][17]) /* ty=Storage[] */;
      let %tensor_015: Tensor[(1), int64] = memory.alloc_tensor(%storage_017, 0 /* ty=int64 */, meta[relay.Constant][6] /* ty=Tensor[(1), int64] */, meta[relay.attrs.AllocTensorAttrs][17]) /* ty=Tensor[(1), int64] */;
      %55 = fn (Primitive=1) -> Tensor[(1), int64] {
        full(1 /* ty=int32 */, shape=[1], dtype="int64") /* ty=Tensor[(1), int64] */
      };
      %56 = ();
      %57 = (%tensor_015,);
      let %v15: () = vm.invoke_tvm_op(%55, %56, %57) /* ty=() */;
      let %x14: Tensor[(1), int64] = %tensor_015;
      let %storage_018: Storage[] = memory.alloc_storage(16 /* ty=int64 */, 64 /* ty=int64 */, meta[relay.attrs.AllocStorageAttrs][18]) /* ty=Storage[] */;
      let %tensor_016: Tensor[(2), int64] = memory.alloc_tensor(%storage_018, 0 /* ty=int64 */, meta[relay.Constant][7] /* ty=Tensor[(1), int64] */, meta[relay.attrs.AllocTensorAttrs][18]) /* ty=Tensor[(2), int64] */;
      %61 = fn (%p014: int64, %p14: int64, %p2: Tensor[(1), int64], Primitive=1) -> Tensor[(2), int64] {
        %58 = subtract(%p014, %p14) /* ty=int64 */;
        %59 = add(%58, %p2) /* ty=Tensor[(1), int64] */;
        %60 = (%59, %p2);
        concatenate(%60) /* ty=Tensor[(2), int64] */
      };
      %62 = (%x13, %x7, %x14);
      %63 = (%tensor_016,);
      let %v16: () = vm.invoke_tvm_op(%61, %62, %63) /* ty=() */;
      let %x15: Tensor[(2), int64] = %tensor_016;
      let %storage_019: Storage[] = memory.alloc_storage(8 /* ty=int64 */, 64 /* ty=int64 */, meta[relay.attrs.AllocStorageAttrs][19]) /* ty=Storage[] */;
      let %tensor_017: int64 = memory.alloc_tensor(%storage_019, 0 /* ty=int64 */, 0 /* ty=int64 */, meta[relay.attrs.AllocTensorAttrs][19]) /* ty=int64 */;
      %64 = fn (%p015: Tensor[(2), int64], Primitive=1) -> int64 {
        max(%p015) /* ty=int64 */
      };
      %65 = (%x15,);
      %66 = (%tensor_017,);
      let %v17: () = vm.invoke_tvm_op(%64, %65, %66) /* ty=() */;
      let %x16: int64 = %tensor_017;
      let %storage_020: Storage[] = memory.alloc_storage(8 /* ty=int64 */, 64 /* ty=int64 */, meta[relay.attrs.AllocStorageAttrs][20]) /* ty=Storage[] */;
      let %tensor_018: int64 = memory.alloc_tensor(%storage_020, 0 /* ty=int64 */, 0 /* ty=int64 */, meta[relay.attrs.AllocTensorAttrs][20]) /* ty=int64 */;
      %67 = fn (%p016: Tensor[(4), int64], Primitive=1) -> int64 {
        take(%p016, 2 /* ty=int32 */, axis=0) /* ty=int64 */
      };
      %68 = (%x6,);
      %69 = (%tensor_018,);
      let %v18: () = vm.invoke_tvm_op(%67, %68, %69) /* ty=() */;
      let %x17: int64 = %tensor_018;
      let %storage_021: Storage[] = memory.alloc_storage(8 /* ty=int64 */, 64 /* ty=int64 */, meta[relay.attrs.AllocStorageAttrs][21]) /* ty=Storage[] */;
      let %tensor_019: int64 = memory.alloc_tensor(%storage_021, 0 /* ty=int64 */, 0 /* ty=int64 */, meta[relay.attrs.AllocTensorAttrs][21]) /* ty=int64 */;
      %70 = fn (%p017: Tensor[(4), int64], Primitive=1) -> int64 {
        take(%p017, 0 /* ty=int32 */, axis=0) /* ty=int64 */
      };
      %71 = (%x6,);
      %72 = (%tensor_019,);
      let %v19: () = vm.invoke_tvm_op(%70, %71, %72) /* ty=() */;
      let %x18: int64 = %tensor_019;
      let %storage_022: Storage[] = memory.alloc_storage(16 /* ty=int64 */, 64 /* ty=int64 */, meta[relay.attrs.AllocStorageAttrs][22]) /* ty=Storage[] */;
      let %tensor_020: Tensor[(2), int64] = memory.alloc_tensor(%storage_022, 0 /* ty=int64 */, meta[relay.Constant][8] /* ty=Tensor[(1), int64] */, meta[relay.attrs.AllocTensorAttrs][22]) /* ty=Tensor[(2), int64] */;
      %76 = fn (%p018: int64, %p15: int64, %p21: Tensor[(1), int64], Primitive=1) -> Tensor[(2), int64] {
        %73 = subtract(%p018, %p15) /* ty=int64 */;
        %74 = add(%73, %p21) /* ty=Tensor[(1), int64] */;
        %75 = (%74, %p21);
        concatenate(%75) /* ty=Tensor[(2), int64] */
      };
      %77 = (%x17, %x18, %x14);
      %78 = (%tensor_020,);
      let %v20: () = vm.invoke_tvm_op(%76, %77, %78) /* ty=() */;
      let %x19: Tensor[(2), int64] = %tensor_020;
      let %storage_023: Storage[] = memory.alloc_storage(8 /* ty=int64 */, 64 /* ty=int64 */, meta[relay.attrs.AllocStorageAttrs][23]) /* ty=Storage[] */;
      let %tensor_021: int64 = memory.alloc_tensor(%storage_023, 0 /* ty=int64 */, 0 /* ty=int64 */, meta[relay.attrs.AllocTensorAttrs][23]) /* ty=int64 */;
      %79 = fn (%p019: Tensor[(2), int64], Primitive=1) -> int64 {
        max(%p019) /* ty=int64 */
      };
      %80 = (%x19,);
      %81 = (%tensor_021,);
      let %v21: () = vm.invoke_tvm_op(%79, %80, %81) /* ty=() */;
      let %x20: int64 = %tensor_021;
      let %storage_024: Storage[] = memory.alloc_storage(16 /* ty=int64 */, 64 /* ty=int64 */, meta[relay.attrs.AllocStorageAttrs][24]) /* ty=Storage[] */;
      let %tensor_022: Tensor[(2), int64] = memory.alloc_tensor(%storage_024, 0 /* ty=int64 */, meta[relay.Constant][9] /* ty=Tensor[(1), int64] */, meta[relay.attrs.AllocTensorAttrs][24]) /* ty=Tensor[(2), int64] */;
      %85 = fn (%p020: int64, %p16: int64, Primitive=1) -> Tensor[(2), int64] {
        %82 = expand_dims(%p020, axis=0) /* ty=Tensor[(1), int64] */;
        %83 = expand_dims(%p16, axis=0) /* ty=Tensor[(1), int64] */;
        %84 = (%82, %83);
        concatenate(%84) /* ty=Tensor[(2), int64] */
      };
      %86 = (%x16, %x20);
      %87 = (%tensor_022,);
      let %v22: () = vm.invoke_tvm_op(%85, %86, %87) /* ty=() */;
      let %x21: Tensor[(2), int64] = %tensor_022;
      let %in_shape_02: Tensor[(1, 1, ?, ?), float32] = device_copy(%x12, meta[relay.attrs.DeviceCopyAttrs][0]) /* ty=Tensor[(1, 1, ?, ?), float32] */;
      let %in_shape_1: Tensor[(2), int64] = device_copy(%x21, meta[relay.attrs.DeviceCopyAttrs][1]) /* ty=Tensor[(2), int64] */;
      let %storage_025: Storage[] = memory.alloc_storage(32 /* ty=int64 */, 64 /* ty=int64 */, meta[relay.attrs.AllocStorageAttrs][25]) /* ty=Storage[] */;
      let %tensor_023: Tensor[(4), int64] = memory.alloc_tensor(%storage_025, 0 /* ty=int64 */, meta[relay.Constant][10] /* ty=Tensor[(1), int64] */, meta[relay.attrs.AllocTensorAttrs][25]) /* ty=Tensor[(4), int64] */;
      let %shape_func_out_02: Tensor[(4), int64] = %tensor_023;
      %88 = fn (%p021: Tensor[(1, 1, ?, ?), float32], %p17: Tensor[(2), int64], Primitive=1) -> Tensor[(1, 1, ?, ?), float32] {
        dyn.image.resize(%p021, %p17, size=[]) /* ty=Tensor[(1, 1, ?, ?), float32] */
      };
      %89 = (%in_shape_02, %in_shape_1);
      %90 = (%shape_func_out_02,);
      let %shape_func2: () = vm.shape_func(%88, %89, %90, meta[relay.attrs.ShapeFuncAttrs][2]) /* ty=() */;
      let %storage_026: Storage[] = memory.alloc_storage(8 /* ty=int64 */, 64 /* ty=int64 */, meta[relay.attrs.AllocStorageAttrs][26]) /* ty=Storage[] */;
      let %tensor_024: int64 = memory.alloc_tensor(%storage_026, 0 /* ty=int64 */, 0 /* ty=int64 */, meta[relay.attrs.AllocTensorAttrs][26]) /* ty=int64 */;
      %91 = fn (%p022: Tensor[(4), int64], Primitive=1) -> int64 {
        prod(%p022) /* ty=int64 */
      };
      %92 = (%shape_func_out_02,);
      %93 = (%tensor_024,);
      let %v23: () = vm.invoke_tvm_op(%91, %92, %93) /* ty=() */;
      let %storage_027: Storage[] = memory.alloc_storage(8 /* ty=int64 */, 64 /* ty=int64 */, meta[relay.attrs.AllocStorageAttrs][27]) /* ty=Storage[] */;
      let %tensor_025: int64 = memory.alloc_tensor(%storage_027, 0 /* ty=int64 */, 0 /* ty=int64 */, meta[relay.attrs.AllocTensorAttrs][27]) /* ty=int64 */;
      %94 = fn (%p023: int64, Primitive=1) -> int64 {
        multiply(%p023, 4 /* ty=int64 */) /* ty=int64 */
      };
      %95 = (%tensor_024,);
      %96 = (%tensor_025,);
      let %v24: () = vm.invoke_tvm_op(%94, %95, %96) /* ty=() */;
      let %storage_028: Storage[] = memory.alloc_storage(%tensor_025, 64 /* ty=int64 */, meta[relay.attrs.AllocStorageAttrs][28]) /* ty=Storage[] */;
      let %out_02: Tensor[(1, 1, ?, ?), float32] = memory.alloc_tensor(%storage_028, 0 /* ty=int64 */, %shape_func_out_02, meta[relay.attrs.AllocTensorAttrs][28]) /* ty=Tensor[(1, 1, ?, ?), float32] */;
      %97 = (%x12, %x21);
      %98 = (%out_02,);
      let %v25: () = vm.invoke_tvm_op(%88, %97, %98) /* ty=() */;
      let %x22: Tensor[(1, 1, ?, ?), float32] = %out_02;
      let %in_shape_03: Tensor[(4), int64] = vm.shape_of(%x22, meta[relay.attrs.ShapeOfAttrs][2]) /* ty=Tensor[(4), int64] */;
      let %storage_029: Storage[] = memory.alloc_storage(24 /* ty=int64 */, 64 /* ty=int64 */, meta[relay.attrs.AllocStorageAttrs][29]) /* ty=Storage[] */;
      let %tensor_026: Tensor[(3), int64] = memory.alloc_tensor(%storage_029, 0 /* ty=int64 */, meta[relay.Constant][11] /* ty=Tensor[(1), int64] */, meta[relay.attrs.AllocTensorAttrs][29]) /* ty=Tensor[(3), int64] */;
      let %shape_func_out_03: Tensor[(3), int64] = %tensor_026;
      %99 = fn (%p024: Tensor[(1, 1, ?, ?), float32], Primitive=1) -> Tensor[(1, ?, ?), float32] {
        take(%p024, 0 /* ty=int32 */, axis=0) /* ty=Tensor[(1, ?, ?), float32] */
      };
      %100 = (%in_shape_03,);
      %101 = (%shape_func_out_03,);
      let %shape_func3: () = vm.shape_func(%99, %100, %101, meta[relay.attrs.ShapeFuncAttrs][3]) /* ty=() */;
      let %storage_030: Storage[] = memory.alloc_storage(8 /* ty=int64 */, 64 /* ty=int64 */, meta[relay.attrs.AllocStorageAttrs][30]) /* ty=Storage[] */;
      let %tensor_027: int64 = memory.alloc_tensor(%storage_030, 0 /* ty=int64 */, 0 /* ty=int64 */, meta[relay.attrs.AllocTensorAttrs][30]) /* ty=int64 */;
      %102 = fn (%p025: Tensor[(3), int64], Primitive=1) -> int64 {
        prod(%p025) /* ty=int64 */
      };
      %103 = (%shape_func_out_03,);
      %104 = (%tensor_027,);
      let %v26: () = vm.invoke_tvm_op(%102, %103, %104) /* ty=() */;
      let %storage_031: Storage[] = memory.alloc_storage(8 /* ty=int64 */, 64 /* ty=int64 */, meta[relay.attrs.AllocStorageAttrs][31]) /* ty=Storage[] */;
      let %tensor_028: int64 = memory.alloc_tensor(%storage_031, 0 /* ty=int64 */, 0 /* ty=int64 */, meta[relay.attrs.AllocTensorAttrs][31]) /* ty=int64 */;
      %105 = fn (%p026: int64, Primitive=1) -> int64 {
        multiply(%p026, 4 /* ty=int64 */) /* ty=int64 */
      };
      %106 = (%tensor_027,);
      %107 = (%tensor_028,);
      let %v27: () = vm.invoke_tvm_op(%105, %106, %107) /* ty=() */;
      let %storage_032: Storage[] = memory.alloc_storage(%tensor_028, 64 /* ty=int64 */, meta[relay.attrs.AllocStorageAttrs][32]) /* ty=Storage[] */;
      let %out_03: Tensor[(1, ?, ?), float32] = memory.alloc_tensor(%storage_032, 0 /* ty=int64 */, %shape_func_out_03, meta[relay.attrs.AllocTensorAttrs][32]) /* ty=Tensor[(1, ?, ?), float32] */;
      %108 = (%x22,);
      %109 = (%out_03,);
      let %v28: () = vm.invoke_tvm_op(%99, %108, %109) /* ty=() */;
      let %x23: Tensor[(1, ?, ?), float32] = %out_03;
      let %in_shape_04: Tensor[(3), int64] = vm.shape_of(%x23, meta[relay.attrs.ShapeOfAttrs][3]) /* ty=Tensor[(3), int64] */;
      let %storage_033: Storage[] = memory.alloc_storage(16 /* ty=int64 */, 64 /* ty=int64 */, meta[relay.attrs.AllocStorageAttrs][33]) /* ty=Storage[] */;
      let %tensor_029: Tensor[(2), int64] = memory.alloc_tensor(%storage_033, 0 /* ty=int64 */, meta[relay.Constant][12] /* ty=Tensor[(1), int64] */, meta[relay.attrs.AllocTensorAttrs][33]) /* ty=Tensor[(2), int64] */;
      let %shape_func_out_04: Tensor[(2), int64] = %tensor_029;
      %110 = fn (%p027: Tensor[(1, ?, ?), float32], Primitive=1) -> Tensor[(?, ?), float32] {
        take(%p027, 0 /* ty=int32 */, axis=0) /* ty=Tensor[(?, ?), float32] */
      };
      %111 = (%in_shape_04,);
      %112 = (%shape_func_out_04,);
      let %shape_func4: () = vm.shape_func(%110, %111, %112, meta[relay.attrs.ShapeFuncAttrs][4]) /* ty=() */;
      let %storage_034: Storage[] = memory.alloc_storage(8 /* ty=int64 */, 64 /* ty=int64 */, meta[relay.attrs.AllocStorageAttrs][34]) /* ty=Storage[] */;
      let %tensor_030: int64 = memory.alloc_tensor(%storage_034, 0 /* ty=int64 */, 0 /* ty=int64 */, meta[relay.attrs.AllocTensorAttrs][34]) /* ty=int64 */;
      %113 = fn (%p028: Tensor[(2), int64], Primitive=1) -> int64 {
        prod(%p028) /* ty=int64 */
      };
      %114 = (%shape_func_out_04,);
      %115 = (%tensor_030,);
      let %v29: () = vm.invoke_tvm_op(%113, %114, %115) /* ty=() */;
      let %storage_035: Storage[] = memory.alloc_storage(8 /* ty=int64 */, 64 /* ty=int64 */, meta[relay.attrs.AllocStorageAttrs][35]) /* ty=Storage[] */;
      let %tensor_031: int64 = memory.alloc_tensor(%storage_035, 0 /* ty=int64 */, 0 /* ty=int64 */, meta[relay.attrs.AllocTensorAttrs][35]) /* ty=int64 */;
      %116 = fn (%p029: int64, Primitive=1) -> int64 {
        multiply(%p029, 4 /* ty=int64 */) /* ty=int64 */
      };
      %117 = (%tensor_030,);
      %118 = (%tensor_031,);
      let %v30: () = vm.invoke_tvm_op(%116, %117, %118) /* ty=() */;
      let %storage_036: Storage[] = memory.alloc_storage(%tensor_031, 64 /* ty=int64 */, meta[relay.attrs.AllocStorageAttrs][36]) /* ty=Storage[] */;
      let %out_04: Tensor[(?, ?), float32] = memory.alloc_tensor(%storage_036, 0 /* ty=int64 */, %shape_func_out_04, meta[relay.attrs.AllocTensorAttrs][36]) /* ty=Tensor[(?, ?), float32] */;
      %119 = (%x23,);
      %120 = (%out_04,);
      let %v31: () = vm.invoke_tvm_op(%110, %119, %120) /* ty=() */;
      let %x24: Tensor[(?, ?), float32] = %out_04;
      let %storage_037: Storage[] = memory.alloc_storage(8 /* ty=int64 */, 64 /* ty=int64 */, meta[relay.attrs.AllocStorageAttrs][37]) /* ty=Storage[] */;
      let %tensor_032: Tensor[(2), int32] = memory.alloc_tensor(%storage_037, 0 /* ty=int64 */, meta[relay.Constant][13] /* ty=Tensor[(1), int64] */, meta[relay.attrs.AllocTensorAttrs][37]) /* ty=Tensor[(2), int32] */;
      %121 = fn (%p030: Tensor[(?, ?), float32], Primitive=1) -> Tensor[(2), int32] {
        shape_of(%p030, dtype="int32") /* ty=Tensor[(2), int32] */
      };
      %122 = (%x24,);
      %123 = (%tensor_032,);
      let %v32: () = vm.invoke_tvm_op(%121, %122, %123) /* ty=() */;
      let %x25: Tensor[(2), int32] = %tensor_032;
      let %storage_038: Storage[] = memory.alloc_storage(16 /* ty=int64 */, 64 /* ty=int64 */, meta[relay.attrs.AllocStorageAttrs][38]) /* ty=Storage[] */;
      let %tensor_033: Tensor[(2), int64] = memory.alloc_tensor(%storage_038, 0 /* ty=int64 */, meta[relay.Constant][14] /* ty=Tensor[(1), int64] */, meta[relay.attrs.AllocTensorAttrs][38]) /* ty=Tensor[(2), int64] */;
      %133 = fn (%p031: int64, %p18: int64, %p22: Tensor[(1), int64], %p3: Tensor[(2), int32], Primitive=1) -> Tensor[(2), int64] {
        %124 = subtract(%p031, %p18) /* ty=int64 */;
        %125 = expand_dims(%124, axis=0) /* ty=Tensor[(1), int64] */;
        %126 = cast(%125, dtype="int64") /* ty=Tensor[(1), int64] */;
        %127 = (%126, %p22);
        %128 = concatenate(%127) /* ty=Tensor[(2), int64] */;
        %129 = cast_like(0 /* ty=int32 */, %128) /* ty=int64 */;
        %130 = less(%128, %129) /* ty=Tensor[(2), bool] */;
        %131 = cast_like(%p3, %128) /* ty=Tensor[(2), int64] */;
        %132 = add(%128, %131) /* ty=Tensor[(2), int64] */;
        where(%130, %132, %128) /* ty=Tensor[(2), int64] */
      };
      %134 = (%x10, %x7, meta[relay.Constant][15] /* ty=Tensor[(1), int64] */, %x25);
      %135 = (%tensor_033,);
      let %v33: () = vm.invoke_tvm_op(%133, %134, %135) /* ty=() */;
      let %x26: Tensor[(2), int64] = %tensor_033;
      let %storage_039: Storage[] = memory.alloc_storage(16 /* ty=int64 */, 64 /* ty=int64 */, meta[relay.attrs.AllocStorageAttrs][39]) /* ty=Storage[] */;
      let %tensor_034: Tensor[(2), int64] = memory.alloc_tensor(%storage_039, 0 /* ty=int64 */, meta[relay.Constant][16] /* ty=Tensor[(1), int64] */, meta[relay.attrs.AllocTensorAttrs][39]) /* ty=Tensor[(2), int64] */;
      %136 = fn (%p032: Tensor[(2), int32], Primitive=1) -> Tensor[(2), int64] {
        cast(%p032, dtype="int64") /* ty=Tensor[(2), int64] */
      };
      %137 = (%x25,);
      %138 = (%tensor_034,);
      let %v34: () = vm.invoke_tvm_op(%136, %137, %138) /* ty=() */;
      let %x27: Tensor[(2), int64] = %tensor_034;
      let %storage_040: Storage[] = memory.alloc_storage(16 /* ty=int64 */, 64 /* ty=int64 */, meta[relay.attrs.AllocStorageAttrs][40]) /* ty=Storage[] */;
      let %tensor_035: Tensor[(2), int64] = memory.alloc_tensor(%storage_040, 0 /* ty=int64 */, meta[relay.Constant][17] /* ty=Tensor[(1), int64] */, meta[relay.attrs.AllocTensorAttrs][40]) /* ty=Tensor[(2), int64] */;
      %142 = fn (%p033: int64, %p19: Tensor[(1), int64], %p23: Tensor[(1), int64], Primitive=1) -> Tensor[(2), int64] {
        %139 = expand_dims(%p033, axis=0) /* ty=Tensor[(1), int64] */;
        %140 = add(%139, %p19) /* ty=Tensor[(1), int64] */;
        %141 = (%140, %p23);
        concatenate(%141) /* ty=Tensor[(2), int64] */
      };
      %143 = (%x13, %x14, meta[relay.Constant][18] /* ty=Tensor[(1), int64] */);
      %144 = (%tensor_035,);
      let %v35: () = vm.invoke_tvm_op(%142, %143, %144) /* ty=() */;
      let %x28: Tensor[(2), int64] = %tensor_035;
      let %storage_041: Storage[] = memory.alloc_storage(8 /* ty=int64 */, 64 /* ty=int64 */, meta[relay.attrs.AllocStorageAttrs][41]) /* ty=Storage[] */;
      let %tensor_036: int64 = memory.alloc_tensor(%storage_041, 0 /* ty=int64 */, 0 /* ty=int64 */, meta[relay.attrs.AllocTensorAttrs][41]) /* ty=int64 */;
      %145 = fn (%p034: Tensor[(2), int64], Primitive=1) -> int64 {
        min(%p034) /* ty=int64 */
      };
      %146 = (%x28,);
      %147 = (%tensor_036,);
      let %v36: () = vm.invoke_tvm_op(%145, %146, %147) /* ty=() */;
      let %x29: int64 = %tensor_036;
      let %storage_042: Storage[] = memory.alloc_storage(8 /* ty=int64 */, 64 /* ty=int64 */, meta[relay.attrs.AllocStorageAttrs][42]) /* ty=Storage[] */;
      let %tensor_037: Tensor[(1), int64] = memory.alloc_tensor(%storage_042, 0 /* ty=int64 */, meta[relay.Constant][19] /* ty=Tensor[(1), int64] */, meta[relay.attrs.AllocTensorAttrs][42]) /* ty=Tensor[(1), int64] */;
      %149 = fn (%p035: int64, %p110: int64, Primitive=1) -> Tensor[(1), int64] {
        %148 = subtract(%p035, %p110) /* ty=int64 */;
        expand_dims(%148, axis=0) /* ty=Tensor[(1), int64] */
      };
      %150 = (%x29, %x7);
      %151 = (%tensor_037,);
      let %v37: () = vm.invoke_tvm_op(%149, %150, %151) /* ty=() */;
      let %x30: Tensor[(1), int64] = %tensor_037;
      let %storage_043: Storage[] = memory.alloc_storage(16 /* ty=int64 */, 64 /* ty=int64 */, meta[relay.attrs.AllocStorageAttrs][43]) /* ty=Storage[] */;
      let %tensor_038: Tensor[(2), int64] = memory.alloc_tensor(%storage_043, 0 /* ty=int64 */, meta[relay.Constant][20] /* ty=Tensor[(1), int64] */, meta[relay.attrs.AllocTensorAttrs][43]) /* ty=Tensor[(2), int64] */;
      %152 = fn (%p036: Tensor[(2), int64], %p111: Tensor[(1), int32], %p24: Tensor[(1), int64], Primitive=1) -> Tensor[(2), int64] {
        scatter(%p036, %p111, %p24, meta[relay.attrs.ScatterAttrs][0]) /* ty=Tensor[(2), int64] */
      };
      %153 = (%x27, meta[relay.Constant][21] /* ty=Tensor[(1), int32] */, %x30);
      %154 = (%tensor_038,);
      let %v38: () = vm.invoke_tvm_op(%152, %153, %154) /* ty=() */;
      let %x31: Tensor[(2), int64] = %tensor_038;
      let %in_shape_05: Tensor[(2), int64] = vm.shape_of(%x24, meta[relay.attrs.ShapeOfAttrs][4]) /* ty=Tensor[(2), int64] */;
      let %in_shape_11: Tensor[(2), int64] = device_copy(%x26, meta[relay.attrs.DeviceCopyAttrs][2]) /* ty=Tensor[(2), int64] */;
      let %in_shape_2: Tensor[(2), int64] = device_copy(%x31, meta[relay.attrs.DeviceCopyAttrs][3]) /* ty=Tensor[(2), int64] */;
      let %in_shape_3: Tensor[(2), int32] = device_copy(meta[relay.Constant][22] /* ty=Tensor[(2), int32] */, meta[relay.attrs.DeviceCopyAttrs][4]) /* ty=Tensor[(2), int32] */;
      let %storage_044: Storage[] = memory.alloc_storage(16 /* ty=int64 */, 64 /* ty=int64 */, meta[relay.attrs.AllocStorageAttrs][44]) /* ty=Storage[] */;
      let %tensor_039: Tensor[(2), int64] = memory.alloc_tensor(%storage_044, 0 /* ty=int64 */, meta[relay.Constant][23] /* ty=Tensor[(1), int64] */, meta[relay.attrs.AllocTensorAttrs][44]) /* ty=Tensor[(2), int64] */;
      let %shape_func_out_05: Tensor[(2), int64] = %tensor_039;
      %155 = fn (%p037: Tensor[(?, ?), float32], %p112: Tensor[(2), int64], %p25: Tensor[(2), int64], %p31: Tensor[(2), int32], Primitive=1) -> Tensor[(?, ?), float32] {
        dyn.strided_slice(%p037, %p112, %p25, %p31, begin=None, end=None, strides=None) /* ty=Tensor[(?, ?), float32] */
      };
      %156 = (%in_shape_05, %in_shape_11, %in_shape_2, %in_shape_3);
      %157 = (%shape_func_out_05,);
      let %shape_func5: () = vm.shape_func(%155, %156, %157, meta[relay.attrs.ShapeFuncAttrs][5]) /* ty=() */;
      let %storage_045: Storage[] = memory.alloc_storage(8 /* ty=int64 */, 64 /* ty=int64 */, meta[relay.attrs.AllocStorageAttrs][45]) /* ty=Storage[] */;
      let %tensor_040: int64 = memory.alloc_tensor(%storage_045, 0 /* ty=int64 */, 0 /* ty=int64 */, meta[relay.attrs.AllocTensorAttrs][45]) /* ty=int64 */;
      %158 = fn (%p038: Tensor[(2), int64], Primitive=1) -> int64 {
        prod(%p038) /* ty=int64 */
      };
      %159 = (%shape_func_out_05,);
      %160 = (%tensor_040,);
      let %v39: () = vm.invoke_tvm_op(%158, %159, %160) /* ty=() */;
      let %storage_046: Storage[] = memory.alloc_storage(8 /* ty=int64 */, 64 /* ty=int64 */, meta[relay.attrs.AllocStorageAttrs][46]) /* ty=Storage[] */;
      let %tensor_041: int64 = memory.alloc_tensor(%storage_046, 0 /* ty=int64 */, 0 /* ty=int64 */, meta[relay.attrs.AllocTensorAttrs][46]) /* ty=int64 */;
      %161 = fn (%p039: int64, Primitive=1) -> int64 {
        multiply(%p039, 4 /* ty=int64 */) /* ty=int64 */
      };
      %162 = (%tensor_040,);
      %163 = (%tensor_041,);
      let %v40: () = vm.invoke_tvm_op(%161, %162, %163) /* ty=() */;
      let %storage_047: Storage[] = memory.alloc_storage(%tensor_041, 64 /* ty=int64 */, meta[relay.attrs.AllocStorageAttrs][47]) /* ty=Storage[] */;
      let %out_05: Tensor[(?, ?), float32] = memory.alloc_tensor(%storage_047, 0 /* ty=int64 */, %shape_func_out_05, meta[relay.attrs.AllocTensorAttrs][47]) /* ty=Tensor[(?, ?), float32] */;
      %164 = (%x24, %x26, %x31, meta[relay.Constant][22] /* ty=Tensor[(2), int32] */);
      %165 = (%out_05,);
      let %v41: () = vm.invoke_tvm_op(%155, %164, %165) /* ty=() */;
      let %x32: Tensor[(?, ?), float32] = %out_05;
      let %storage_048: Storage[] = memory.alloc_storage(16 /* ty=int64 */, 64 /* ty=int64 */, meta[relay.attrs.AllocStorageAttrs][48]) /* ty=Storage[] */;
      let %tensor_042: Tensor[(2), int64] = memory.alloc_tensor(%storage_048, 0 /* ty=int64 */, meta[relay.Constant][24] /* ty=Tensor[(1), int64] */, meta[relay.attrs.AllocTensorAttrs][48]) /* ty=Tensor[(2), int64] */;
      %168 = fn (%p040: int64, %p113: Tensor[(1), int64], Primitive=1) -> Tensor[(2), int64] {
        %166 = expand_dims(%p040, axis=0) /* ty=Tensor[(1), int64] */;
        %167 = (%166, %p113);
        concatenate(%167) /* ty=Tensor[(2), int64] */
      };
      %169 = (%x18, %x8);
      %170 = (%tensor_042,);
      let %v42: () = vm.invoke_tvm_op(%168, %169, %170) /* ty=() */;
      let %x33: Tensor[(2), int64] = %tensor_042;
      let %storage_049: Storage[] = memory.alloc_storage(8 /* ty=int64 */, 64 /* ty=int64 */, meta[relay.attrs.AllocStorageAttrs][49]) /* ty=Storage[] */;
      let %tensor_043: int64 = memory.alloc_tensor(%storage_049, 0 /* ty=int64 */, 0 /* ty=int64 */, meta[relay.attrs.AllocTensorAttrs][49]) /* ty=int64 */;
      %171 = fn (%p041: Tensor[(2), int64], Primitive=1) -> int64 {
        max(%p041) /* ty=int64 */
      };
      %172 = (%x33,);
      %173 = (%tensor_043,);
      let %v43: () = vm.invoke_tvm_op(%171, %172, %173) /* ty=() */;
      let %x34: int64 = %tensor_043;
      let %storage_050: Storage[] = memory.alloc_storage(8 /* ty=int64 */, 64 /* ty=int64 */, meta[relay.attrs.AllocStorageAttrs][50]) /* ty=Storage[] */;
      let %tensor_044: Tensor[(2), int32] = memory.alloc_tensor(%storage_050, 0 /* ty=int64 */, meta[relay.Constant][25] /* ty=Tensor[(1), int64] */, meta[relay.attrs.AllocTensorAttrs][50]) /* ty=Tensor[(2), int32] */;
      %174 = fn (%p042: Tensor[(?, ?), float32], Primitive=1) -> Tensor[(2), int32] {
        shape_of(%p042, dtype="int32") /* ty=Tensor[(2), int32] */
      };
      %175 = (%x32,);
      %176 = (%tensor_044,);
      let %v44: () = vm.invoke_tvm_op(%174, %175, %176) /* ty=() */;
      let %x35: Tensor[(2), int32] = %tensor_044;
      let %storage_051: Storage[] = memory.alloc_storage(16 /* ty=int64 */, 64 /* ty=int64 */, meta[relay.attrs.AllocStorageAttrs][51]) /* ty=Storage[] */;
      let %tensor_045: Tensor[(2), int64] = memory.alloc_tensor(%storage_051, 0 /* ty=int64 */, meta[relay.Constant][26] /* ty=Tensor[(1), int64] */, meta[relay.attrs.AllocTensorAttrs][51]) /* ty=Tensor[(2), int64] */;
      %186 = fn (%p043: Tensor[(1), int64], %p114: int64, %p26: int64, %p32: Tensor[(2), int32], Primitive=1) -> Tensor[(2), int64] {
        %177 = subtract(%p114, %p26) /* ty=int64 */;
        %178 = expand_dims(%177, axis=0) /* ty=Tensor[(1), int64] */;
        %179 = cast(%178, dtype="int64") /* ty=Tensor[(1), int64] */;
        %180 = (%p043, %179);
        %181 = concatenate(%180) /* ty=Tensor[(2), int64] */;
        %182 = cast_like(0 /* ty=int32 */, %181) /* ty=int64 */;
        %183 = less(%181, %182) /* ty=Tensor[(2), bool] */;
        %184 = cast_like(%p32, %181) /* ty=Tensor[(2), int64] */;
        %185 = add(%181, %184) /* ty=Tensor[(2), int64] */;
        where(%183, %185, %181) /* ty=Tensor[(2), int64] */
      };
      %187 = (meta[relay.Constant][15] /* ty=Tensor[(1), int64] */, %x34, %x18, %x35);
      %188 = (%tensor_045,);
      let %v45: () = vm.invoke_tvm_op(%186, %187, %188) /* ty=() */;
      let %x36: Tensor[(2), int64] = %tensor_045;
      let %storage_052: Storage[] = memory.alloc_storage(16 /* ty=int64 */, 64 /* ty=int64 */, meta[relay.attrs.AllocStorageAttrs][52]) /* ty=Storage[] */;
      let %tensor_046: Tensor[(2), int64] = memory.alloc_tensor(%storage_052, 0 /* ty=int64 */, meta[relay.Constant][27] /* ty=Tensor[(1), int64] */, meta[relay.attrs.AllocTensorAttrs][52]) /* ty=Tensor[(2), int64] */;
      %189 = fn (%p044: Tensor[(2), int32], Primitive=1) -> Tensor[(2), int64] {
        cast(%p044, dtype="int64") /* ty=Tensor[(2), int64] */
      };
      %190 = (%x35,);
      %191 = (%tensor_046,);
      let %v46: () = vm.invoke_tvm_op(%189, %190, %191) /* ty=() */;
      let %x37: Tensor[(2), int64] = %tensor_046;
      let %storage_053: Storage[] = memory.alloc_storage(16 /* ty=int64 */, 64 /* ty=int64 */, meta[relay.attrs.AllocStorageAttrs][53]) /* ty=Storage[] */;
      let %tensor_047: Tensor[(2), int64] = memory.alloc_tensor(%storage_053, 0 /* ty=int64 */, meta[relay.Constant][28] /* ty=Tensor[(1), int64] */, meta[relay.attrs.AllocTensorAttrs][53]) /* ty=Tensor[(2), int64] */;
      %195 = fn (%p045: int64, %p115: Tensor[(1), int64], %p27: Tensor[(1), int64], Primitive=1) -> Tensor[(2), int64] {
        %192 = expand_dims(%p045, axis=0) /* ty=Tensor[(1), int64] */;
        %193 = add(%192, %p115) /* ty=Tensor[(1), int64] */;
        %194 = (%193, %p27);
        concatenate(%194) /* ty=Tensor[(2), int64] */
      };
      %196 = (%x17, %x14, meta[relay.Constant][18] /* ty=Tensor[(1), int64] */);
      %197 = (%tensor_047,);
      let %v47: () = vm.invoke_tvm_op(%195, %196, %197) /* ty=() */;
      let %x38: Tensor[(2), int64] = %tensor_047;
      let %storage_054: Storage[] = memory.alloc_storage(8 /* ty=int64 */, 64 /* ty=int64 */, meta[relay.attrs.AllocStorageAttrs][54]) /* ty=Storage[] */;
      let %tensor_048: int64 = memory.alloc_tensor(%storage_054, 0 /* ty=int64 */, 0 /* ty=int64 */, meta[relay.attrs.AllocTensorAttrs][54]) /* ty=int64 */;
      %198 = fn (%p046: Tensor[(2), int64], Primitive=1) -> int64 {
        min(%p046) /* ty=int64 */
      };
      %199 = (%x38,);
      %200 = (%tensor_048,);
      let %v48: () = vm.invoke_tvm_op(%198, %199, %200) /* ty=() */;
      let %x39: int64 = %tensor_048;
      let %storage_055: Storage[] = memory.alloc_storage(8 /* ty=int64 */, 64 /* ty=int64 */, meta[relay.attrs.AllocStorageAttrs][55]) /* ty=Storage[] */;
      let %tensor_049: Tensor[(1), int64] = memory.alloc_tensor(%storage_055, 0 /* ty=int64 */, meta[relay.Constant][29] /* ty=Tensor[(1), int64] */, meta[relay.attrs.AllocTensorAttrs][55]) /* ty=Tensor[(1), int64] */;
      %202 = fn (%p047: int64, %p116: int64, Primitive=1) -> Tensor[(1), int64] {
        %201 = subtract(%p047, %p116) /* ty=int64 */;
        expand_dims(%201, axis=0) /* ty=Tensor[(1), int64] */
      };
      %203 = (%x39, %x18);
      %204 = (%tensor_049,);
      let %v49: () = vm.invoke_tvm_op(%202, %203, %204) /* ty=() */;
      let %x40: Tensor[(1), int64] = %tensor_049;
      let %storage_056: Storage[] = memory.alloc_storage(16 /* ty=int64 */, 64 /* ty=int64 */, meta[relay.attrs.AllocStorageAttrs][56]) /* ty=Storage[] */;
      let %tensor_050: Tensor[(2), int64] = memory.alloc_tensor(%storage_056, 0 /* ty=int64 */, meta[relay.Constant][30] /* ty=Tensor[(1), int64] */, meta[relay.attrs.AllocTensorAttrs][56]) /* ty=Tensor[(2), int64] */;
      %205 = fn (%p048: Tensor[(2), int64], %p117: Tensor[(1), int32], %p28: Tensor[(1), int64], Primitive=1) -> Tensor[(2), int64] {
        scatter(%p048, %p117, %p28, meta[relay.attrs.ScatterAttrs][1]) /* ty=Tensor[(2), int64] */
      };
      %206 = (%x37, %x1, %x40);
      %207 = (%tensor_050,);
      let %v50: () = vm.invoke_tvm_op(%205, %206, %207) /* ty=() */;
      let %x41: Tensor[(2), int64] = %tensor_050;
      let %in_shape_06: Tensor[(2), int64] = vm.shape_of(%x32, meta[relay.attrs.ShapeOfAttrs][5]) /* ty=Tensor[(2), int64] */;
      let %in_shape_12: Tensor[(2), int64] = device_copy(%x36, meta[relay.attrs.DeviceCopyAttrs][5]) /* ty=Tensor[(2), int64] */;
      let %in_shape_21: Tensor[(2), int64] = device_copy(%x41, meta[relay.attrs.DeviceCopyAttrs][6]) /* ty=Tensor[(2), int64] */;
      let %in_shape_31: Tensor[(2), int32] = device_copy(meta[relay.Constant][31] /* ty=Tensor[(2), int32] */, meta[relay.attrs.DeviceCopyAttrs][7]) /* ty=Tensor[(2), int32] */;
      let %storage_057: Storage[] = memory.alloc_storage(16 /* ty=int64 */, 64 /* ty=int64 */, meta[relay.attrs.AllocStorageAttrs][57]) /* ty=Storage[] */;
      let %tensor_051: Tensor[(2), int64] = memory.alloc_tensor(%storage_057, 0 /* ty=int64 */, meta[relay.Constant][32] /* ty=Tensor[(1), int64] */, meta[relay.attrs.AllocTensorAttrs][57]) /* ty=Tensor[(2), int64] */;
      let %shape_func_out_06: Tensor[(2), int64] = %tensor_051;
      %208 = fn (%p049: Tensor[(?, ?), float32], %p118: Tensor[(2), int64], %p29: Tensor[(2), int64], %p33: Tensor[(2), int32], Primitive=1) -> Tensor[(?, ?), float32] {
        dyn.strided_slice(%p049, %p118, %p29, %p33, begin=None, end=None, strides=None) /* ty=Tensor[(?, ?), float32] */
      };
      %209 = (%in_shape_06, %in_shape_12, %in_shape_21, %in_shape_31);
      %210 = (%shape_func_out_06,);
      let %shape_func6: () = vm.shape_func(%208, %209, %210, meta[relay.attrs.ShapeFuncAttrs][6]) /* ty=() */;
      let %storage_058: Storage[] = memory.alloc_storage(8 /* ty=int64 */, 64 /* ty=int64 */, meta[relay.attrs.AllocStorageAttrs][58]) /* ty=Storage[] */;
      let %tensor_052: int64 = memory.alloc_tensor(%storage_058, 0 /* ty=int64 */, 0 /* ty=int64 */, meta[relay.attrs.AllocTensorAttrs][58]) /* ty=int64 */;
      %211 = fn (%p050: Tensor[(2), int64], Primitive=1) -> int64 {
        prod(%p050) /* ty=int64 */
      };
      %212 = (%shape_func_out_06,);
      %213 = (%tensor_052,);
      let %v51: () = vm.invoke_tvm_op(%211, %212, %213) /* ty=() */;
      let %storage_059: Storage[] = memory.alloc_storage(8 /* ty=int64 */, 64 /* ty=int64 */, meta[relay.attrs.AllocStorageAttrs][59]) /* ty=Storage[] */;
      let %tensor_053: int64 = memory.alloc_tensor(%storage_059, 0 /* ty=int64 */, 0 /* ty=int64 */, meta[relay.attrs.AllocTensorAttrs][59]) /* ty=int64 */;
      %214 = fn (%p051: int64, Primitive=1) -> int64 {
        multiply(%p051, 4 /* ty=int64 */) /* ty=int64 */
      };
      %215 = (%tensor_052,);
      %216 = (%tensor_053,);
      let %v52: () = vm.invoke_tvm_op(%214, %215, %216) /* ty=() */;
      let %storage_060: Storage[] = memory.alloc_storage(%tensor_053, 64 /* ty=int64 */, meta[relay.attrs.AllocStorageAttrs][60]) /* ty=Storage[] */;
      let %out_06: Tensor[(?, ?), float32] = memory.alloc_tensor(%storage_060, 0 /* ty=int64 */, %shape_func_out_06, meta[relay.attrs.AllocTensorAttrs][60]) /* ty=Tensor[(?, ?), float32] */;
      %217 = (%x32, %x36, %x41, meta[relay.Constant][31] /* ty=Tensor[(2), int32] */);
      %218 = (%out_06,);
      let %v53: () = vm.invoke_tvm_op(%208, %217, %218) /* ty=() */;
      let %x42: Tensor[(?, ?), float32] = %out_06;
      let %storage_061: Storage[] = memory.alloc_storage(8 /* ty=int64 */, 64 /* ty=int64 */, meta[relay.attrs.AllocStorageAttrs][61]) /* ty=Storage[] */;
      let %tensor_054: Tensor[(2), int32] = memory.alloc_tensor(%storage_061, 0 /* ty=int64 */, meta[relay.Constant][33] /* ty=Tensor[(1), int64] */, meta[relay.attrs.AllocTensorAttrs][61]) /* ty=Tensor[(2), int32] */;
      %219 = fn (%p052: Tensor[(?, ?), float32], Primitive=1) -> Tensor[(2), int32] {
        shape_of(%p052, dtype="int32") /* ty=Tensor[(2), int32] */
      };
      %220 = (%x42,);
      %221 = (%tensor_054,);
      let %v54: () = vm.invoke_tvm_op(%219, %220, %221) /* ty=() */;
      let %x43: Tensor[(2), int32] = %tensor_054;
      let %storage_062: Storage[] = memory.alloc_storage(8 /* ty=int64 */, 64 /* ty=int64 */, meta[relay.attrs.AllocStorageAttrs][62]) /* ty=Storage[] */;
      let %tensor_055: Tensor[(1), int64] = memory.alloc_tensor(%storage_062, 0 /* ty=int64 */, meta[relay.Constant][34] /* ty=Tensor[(1), int64] */, meta[relay.attrs.AllocTensorAttrs][62]) /* ty=Tensor[(1), int64] */;
      %224 = fn (%p053: Tensor[(2), int32], Primitive=1) -> Tensor[(1), int64] {
        %222 = take(%p053, 1 /* ty=int32 */, axis=0) /* ty=int32 */;
        %223 = expand_dims(%222, axis=0) /* ty=Tensor[(1), int32] */;
        cast(%223, dtype="int64") /* ty=Tensor[(1), int64] */
      };
      %225 = (%x43,);
      %226 = (%tensor_055,);
      let %v55: () = vm.invoke_tvm_op(%224, %225, %226) /* ty=() */;
      let %x44: Tensor[(1), int64] = %tensor_055;
      let %storage_063: Storage[] = memory.alloc_storage(16 /* ty=int64 */, 64 /* ty=int64 */, meta[relay.attrs.AllocStorageAttrs][63]) /* ty=Storage[] */;
      let %tensor_056: Tensor[(2), int64] = memory.alloc_tensor(%storage_063, 0 /* ty=int64 */, meta[relay.Constant][35] /* ty=Tensor[(1), int64] */, meta[relay.attrs.AllocTensorAttrs][63]) /* ty=Tensor[(2), int64] */;
      %230 = fn (%p054: int64, %p119: Tensor[(1), int64], Primitive=1) -> Tensor[(2), int64] {
        %227 = expand_dims(%p054, axis=0) /* ty=Tensor[(1), int64] */;
        %228 = cast(%227, dtype="int64") /* ty=Tensor[(1), int64] */;
        %229 = (%228, %p119);
        concatenate(%229) /* ty=Tensor[(2), int64] */
      };
      %231 = (%x10, %x44);
      %232 = (%tensor_056,);
      let %v56: () = vm.invoke_tvm_op(%230, %231, %232) /* ty=() */;
      let %x45: Tensor[(2), int64] = %tensor_056;
      let %in_shape_07: int32 = device_copy(0 /* ty=int32 */, meta[relay.attrs.DeviceCopyAttrs][8]) /* ty=int32 */;
      let %in_shape_13: Tensor[(2), int64] = device_copy(%x45, meta[relay.attrs.DeviceCopyAttrs][9]) /* ty=Tensor[(2), int64] */;
      let %storage_064: Storage[] = memory.alloc_storage(16 /* ty=int64 */, 64 /* ty=int64 */, meta[relay.attrs.AllocStorageAttrs][64]) /* ty=Storage[] */;
      let %tensor_057: Tensor[(2), int64] = memory.alloc_tensor(%storage_064, 0 /* ty=int64 */, meta[relay.Constant][36] /* ty=Tensor[(1), int64] */, meta[relay.attrs.AllocTensorAttrs][64]) /* ty=Tensor[(2), int64] */;
      let %shape_func_out_07: Tensor[(2), int64] = %tensor_057;
      %233 = fn (%p055: int32, %p120: Tensor[(2), int64], Primitive=1) -> Tensor[(?, ?), float32] {
        dyn.full(%p055, %p120, shape=None, dtype="float32") /* ty=Tensor[(?, ?), float32] */
      };
      %234 = (%in_shape_07, %in_shape_13);
      %235 = (%shape_func_out_07,);
      let %shape_func7: () = vm.shape_func(%233, %234, %235, meta[relay.attrs.ShapeFuncAttrs][7]) /* ty=() */;
      let %storage_065: Storage[] = memory.alloc_storage(8 /* ty=int64 */, 64 /* ty=int64 */, meta[relay.attrs.AllocStorageAttrs][65]) /* ty=Storage[] */;
      let %tensor_058: int64 = memory.alloc_tensor(%storage_065, 0 /* ty=int64 */, 0 /* ty=int64 */, meta[relay.attrs.AllocTensorAttrs][65]) /* ty=int64 */;
      %236 = fn (%p056: Tensor[(2), int64], Primitive=1) -> int64 {
        prod(%p056) /* ty=int64 */
      };
      %237 = (%shape_func_out_07,);
      %238 = (%tensor_058,);
      let %v57: () = vm.invoke_tvm_op(%236, %237, %238) /* ty=() */;
      let %storage_066: Storage[] = memory.alloc_storage(8 /* ty=int64 */, 64 /* ty=int64 */, meta[relay.attrs.AllocStorageAttrs][66]) /* ty=Storage[] */;
      let %tensor_059: int64 = memory.alloc_tensor(%storage_066, 0 /* ty=int64 */, 0 /* ty=int64 */, meta[relay.attrs.AllocTensorAttrs][66]) /* ty=int64 */;
      %239 = fn (%p057: int64, Primitive=1) -> int64 {
        multiply(%p057, 4 /* ty=int64 */) /* ty=int64 */
      };
      %240 = (%tensor_058,);
      %241 = (%tensor_059,);
      let %v58: () = vm.invoke_tvm_op(%239, %240, %241) /* ty=() */;
      let %storage_067: Storage[] = memory.alloc_storage(%tensor_059, 64 /* ty=int64 */, meta[relay.attrs.AllocStorageAttrs][67]) /* ty=Storage[] */;
      let %out_07: Tensor[(?, ?), float32] = memory.alloc_tensor(%storage_067, 0 /* ty=int64 */, %shape_func_out_07, meta[relay.attrs.AllocTensorAttrs][67]) /* ty=Tensor[(?, ?), float32] */;
      %242 = (0 /* ty=int32 */, %x45);
      %243 = (%out_07,);
      let %v59: () = vm.invoke_tvm_op(%233, %242, %243) /* ty=() */;
      let %x46: Tensor[(?, ?), float32] = %out_07;
      let %storage_068: Storage[] = memory.alloc_storage(16 /* ty=int64 */, 64 /* ty=int64 */, meta[relay.attrs.AllocStorageAttrs][68]) /* ty=Storage[] */;
      let %tensor_060: Tensor[(2), int64] = memory.alloc_tensor(%storage_068, 0 /* ty=int64 */, meta[relay.Constant][37] /* ty=Tensor[(1), int64] */, meta[relay.attrs.AllocTensorAttrs][68]) /* ty=Tensor[(2), int64] */;
      %248 = fn (%p058: int64, %p121: Tensor[(1), int64], Primitive=1) -> Tensor[(2), int64] {
        %244 = subtract(300 /* ty=int64 */, %p058) /* ty=int64 */;
        %245 = expand_dims(%244, axis=0) /* ty=Tensor[(1), int64] */;
        %246 = cast(%245, dtype="int64") /* ty=Tensor[(1), int64] */;
        %247 = (%246, %p121);
        concatenate(%247) /* ty=Tensor[(2), int64] */
      };
      %249 = (%x29, %x44);
      %250 = (%tensor_060,);
      let %v60: () = vm.invoke_tvm_op(%248, %249, %250) /* ty=() */;
      let %x47: Tensor[(2), int64] = %tensor_060;
      let %in_shape_08: int32 = device_copy(0 /* ty=int32 */, meta[relay.attrs.DeviceCopyAttrs][10]) /* ty=int32 */;
      let %in_shape_14: Tensor[(2), int64] = device_copy(%x47, meta[relay.attrs.DeviceCopyAttrs][11]) /* ty=Tensor[(2), int64] */;
      let %storage_069: Storage[] = memory.alloc_storage(16 /* ty=int64 */, 64 /* ty=int64 */, meta[relay.attrs.AllocStorageAttrs][69]) /* ty=Storage[] */;
      let %tensor_061: Tensor[(2), int64] = memory.alloc_tensor(%storage_069, 0 /* ty=int64 */, meta[relay.Constant][38] /* ty=Tensor[(1), int64] */, meta[relay.attrs.AllocTensorAttrs][69]) /* ty=Tensor[(2), int64] */;
      let %shape_func_out_08: Tensor[(2), int64] = %tensor_061;
      %251 = fn (%p059: int32, %p122: Tensor[(2), int64], Primitive=1) -> Tensor[(?, ?), float32] {
        dyn.full(%p059, %p122, shape=None, dtype="float32") /* ty=Tensor[(?, ?), float32] */
      };
      %252 = (%in_shape_08, %in_shape_14);
      %253 = (%shape_func_out_08,);
      let %shape_func8: () = vm.shape_func(%251, %252, %253, meta[relay.attrs.ShapeFuncAttrs][8]) /* ty=() */;
      let %storage_070: Storage[] = memory.alloc_storage(8 /* ty=int64 */, 64 /* ty=int64 */, meta[relay.attrs.AllocStorageAttrs][70]) /* ty=Storage[] */;
      let %tensor_062: int64 = memory.alloc_tensor(%storage_070, 0 /* ty=int64 */, 0 /* ty=int64 */, meta[relay.attrs.AllocTensorAttrs][70]) /* ty=int64 */;
      %254 = fn (%p060: Tensor[(2), int64], Primitive=1) -> int64 {
        prod(%p060) /* ty=int64 */
      };
      %255 = (%shape_func_out_08,);
      %256 = (%tensor_062,);
      let %v61: () = vm.invoke_tvm_op(%254, %255, %256) /* ty=() */;
      let %storage_071: Storage[] = memory.alloc_storage(8 /* ty=int64 */, 64 /* ty=int64 */, meta[relay.attrs.AllocStorageAttrs][71]) /* ty=Storage[] */;
      let %tensor_063: int64 = memory.alloc_tensor(%storage_071, 0 /* ty=int64 */, 0 /* ty=int64 */, meta[relay.attrs.AllocTensorAttrs][71]) /* ty=int64 */;
      %257 = fn (%p061: int64, Primitive=1) -> int64 {
        multiply(%p061, 4 /* ty=int64 */) /* ty=int64 */
      };
      %258 = (%tensor_062,);
      %259 = (%tensor_063,);
      let %v62: () = vm.invoke_tvm_op(%257, %258, %259) /* ty=() */;
      let %storage_072: Storage[] = memory.alloc_storage(%tensor_063, 64 /* ty=int64 */, meta[relay.attrs.AllocStorageAttrs][72]) /* ty=Storage[] */;
      let %out_08: Tensor[(?, ?), float32] = memory.alloc_tensor(%storage_072, 0 /* ty=int64 */, %shape_func_out_08, meta[relay.attrs.AllocTensorAttrs][72]) /* ty=Tensor[(?, ?), float32] */;
      %260 = (0 /* ty=int32 */, %x47);
      %261 = (%out_08,);
      let %v63: () = vm.invoke_tvm_op(%251, %260, %261) /* ty=() */;
      let %x48: Tensor[(?, ?), float32] = %out_08;
      let %in_shape_09: Tensor[(2), int64] = vm.shape_of(%x46, meta[relay.attrs.ShapeOfAttrs][6]) /* ty=Tensor[(2), int64] */;
      let %in_shape_15: Tensor[(2), int64] = vm.shape_of(%x42, meta[relay.attrs.ShapeOfAttrs][7]) /* ty=Tensor[(2), int64] */;
      let %in_shape_22: Tensor[(2), int64] = vm.shape_of(%x48, meta[relay.attrs.ShapeOfAttrs][8]) /* ty=Tensor[(2), int64] */;
      let %storage_073: Storage[] = memory.alloc_storage(16 /* ty=int64 */, 64 /* ty=int64 */, meta[relay.attrs.AllocStorageAttrs][73]) /* ty=Storage[] */;
      let %tensor_064: Tensor[(2), int64] = memory.alloc_tensor(%storage_073, 0 /* ty=int64 */, meta[relay.Constant][39] /* ty=Tensor[(1), int64] */, meta[relay.attrs.AllocTensorAttrs][73]) /* ty=Tensor[(2), int64] */;
      let %shape_func_out_09: Tensor[(2), int64] = %tensor_064;
      %265 = fn (%p062: Tensor[(?, ?), float32], %p123: Tensor[(?, ?), float32], %p210: Tensor[(?, ?), float32], Primitive=1) -> Tensor[(?, ?), float32] {
        %262 = reshape(%p062, newshape=[0, 0]) /* ty=Tensor[(?, ?), float32] */;
        %263 = reshape(%p210, newshape=[0, 0]) /* ty=Tensor[(?, ?), float32] */;
        %264 = (%262, %p123, %263);
        concatenate(%264) /* ty=Tensor[(?, ?), float32] */
      };
      %266 = (%in_shape_09, %in_shape_15, %in_shape_22);
      %267 = (%shape_func_out_09,);
      let %shape_func9: () = vm.shape_func(%265, %266, %267, meta[relay.attrs.ShapeFuncAttrs][9]) /* ty=() */;
      let %storage_074: Storage[] = memory.alloc_storage(8 /* ty=int64 */, 64 /* ty=int64 */, meta[relay.attrs.AllocStorageAttrs][74]) /* ty=Storage[] */;
      let %tensor_065: int64 = memory.alloc_tensor(%storage_074, 0 /* ty=int64 */, 0 /* ty=int64 */, meta[relay.attrs.AllocTensorAttrs][74]) /* ty=int64 */;
      %268 = fn (%p063: Tensor[(2), int64], Primitive=1) -> int64 {
        prod(%p063) /* ty=int64 */
      };
      %269 = (%shape_func_out_09,);
      %270 = (%tensor_065,);
      let %v64: () = vm.invoke_tvm_op(%268, %269, %270) /* ty=() */;
      let %storage_075: Storage[] = memory.alloc_storage(8 /* ty=int64 */, 64 /* ty=int64 */, meta[relay.attrs.AllocStorageAttrs][75]) /* ty=Storage[] */;
      let %tensor_066: int64 = memory.alloc_tensor(%storage_075, 0 /* ty=int64 */, 0 /* ty=int64 */, meta[relay.attrs.AllocTensorAttrs][75]) /* ty=int64 */;
      %271 = fn (%p064: int64, Primitive=1) -> int64 {
        multiply(%p064, 4 /* ty=int64 */) /* ty=int64 */
      };
      %272 = (%tensor_065,);
      %273 = (%tensor_066,);
      let %v65: () = vm.invoke_tvm_op(%271, %272, %273) /* ty=() */;
      let %storage_076: Storage[] = memory.alloc_storage(%tensor_066, 64 /* ty=int64 */, meta[relay.attrs.AllocStorageAttrs][76]) /* ty=Storage[] */;
      let %out_09: Tensor[(?, ?), float32] = memory.alloc_tensor(%storage_076, 0 /* ty=int64 */, %shape_func_out_09, meta[relay.attrs.AllocTensorAttrs][76]) /* ty=Tensor[(?, ?), float32] */;
      %274 = (%x46, %x42, %x48);
      %275 = (%out_09,);
      let %v66: () = vm.invoke_tvm_op(%265, %274, %275) /* ty=() */;
      let %x49: Tensor[(?, ?), float32] = %out_09;
      let %storage_077: Storage[] = memory.alloc_storage(8 /* ty=int64 */, 64 /* ty=int64 */, meta[relay.attrs.AllocStorageAttrs][77]) /* ty=Storage[] */;
      let %tensor_067: Tensor[(2), int32] = memory.alloc_tensor(%storage_077, 0 /* ty=int64 */, meta[relay.Constant][40] /* ty=Tensor[(1), int64] */, meta[relay.attrs.AllocTensorAttrs][77]) /* ty=Tensor[(2), int32] */;
      %276 = fn (%p065: Tensor[(?, ?), float32], Primitive=1) -> Tensor[(2), int32] {
        shape_of(%p065, dtype="int32") /* ty=Tensor[(2), int32] */
      };
      %277 = (%x49,);
      %278 = (%tensor_067,);
      let %v67: () = vm.invoke_tvm_op(%276, %277, %278) /* ty=() */;
      let %x50: Tensor[(2), int32] = %tensor_067;
      let %storage_078: Storage[] = memory.alloc_storage(8 /* ty=int64 */, 64 /* ty=int64 */, meta[relay.attrs.AllocStorageAttrs][78]) /* ty=Storage[] */;
      let %tensor_068: Tensor[(2), int32] = memory.alloc_tensor(%storage_078, 0 /* ty=int64 */, meta[relay.Constant][41] /* ty=Tensor[(1), int64] */, meta[relay.attrs.AllocTensorAttrs][78]) /* ty=Tensor[(2), int32] */;
      %281 = fn (%p066: Tensor[(2), bool], %p124: Tensor[(2), int32], %p211: Tensor[(2), int32], Primitive=1) -> Tensor[(2), int32] {
        %279 = cast_like(%p211, %p124) /* ty=Tensor[(2), int32] */;
        %280 = add(%p124, %279) /* ty=Tensor[(2), int32] */;
        where(%p066, %280, %p124) /* ty=Tensor[(2), int32] */
      };
      %282 = (meta[relay.Constant][42] /* ty=Tensor[(2), bool] */, meta[relay.Constant][43] /* ty=Tensor[(2), int32] */, %x50);
      %283 = (%tensor_068,);
      let %v68: () = vm.invoke_tvm_op(%281, %282, %283) /* ty=() */;
      let %x51: Tensor[(2), int32] = %tensor_068;
      let %storage_079: Storage[] = memory.alloc_storage(8 /* ty=int64 */, 64 /* ty=int64 */, meta[relay.attrs.AllocStorageAttrs][79]) /* ty=Storage[] */;
      let %tensor_069: Tensor[(2), int32] = memory.alloc_tensor(%storage_079, 0 /* ty=int64 */, meta[relay.Constant][44] /* ty=Tensor[(1), int64] */, meta[relay.attrs.AllocTensorAttrs][79]) /* ty=Tensor[(2), int32] */;
      %284 = fn (%p067: Tensor[(2), int32], %p125: Tensor[(1), int32], %p212: Tensor[(1), int32], Primitive=1) -> Tensor[(2), int32] {
        scatter(%p067, %p125, %p212, meta[relay.attrs.ScatterAttrs][2]) /* ty=Tensor[(2), int32] */
      };
      %285 = (%x50, meta[relay.Constant][21] /* ty=Tensor[(1), int32] */, meta[relay.Constant][45] /* ty=Tensor[(1), int32] */);
      %286 = (%tensor_069,);
      let %v69: () = vm.invoke_tvm_op(%284, %285, %286) /* ty=() */;
      let %x52: Tensor[(2), int32] = %tensor_069;
      let %storage_080: Storage[] = memory.alloc_storage(16 /* ty=int64 */, 64 /* ty=int64 */, meta[relay.attrs.AllocStorageAttrs][80]) /* ty=Storage[] */;
      let %tensor_070: Tensor[(2), int64] = memory.alloc_tensor(%storage_080, 0 /* ty=int64 */, meta[relay.Constant][46] /* ty=Tensor[(1), int64] */, meta[relay.attrs.AllocTensorAttrs][80]) /* ty=Tensor[(2), int64] */;
      %287 = fn (%p068: Tensor[(2), int32], Primitive=1) -> Tensor[(2), int64] {
        cast(%p068, dtype="int64") /* ty=Tensor[(2), int64] */
      };
      %288 = (%x52,);
      %289 = (%tensor_070,);
      let %v70: () = vm.invoke_tvm_op(%287, %288, %289) /* ty=() */;
      let %x53: Tensor[(2), int64] = %tensor_070;
      let %in_shape_010: Tensor[(2), int64] = vm.shape_of(%x49, meta[relay.attrs.ShapeOfAttrs][9]) /* ty=Tensor[(2), int64] */;
      let %in_shape_16: Tensor[(2), int32] = device_copy(%x51, meta[relay.attrs.DeviceCopyAttrs][12]) /* ty=Tensor[(2), int32] */;
      let %in_shape_23: Tensor[(2), int64] = device_copy(%x53, meta[relay.attrs.DeviceCopyAttrs][13]) /* ty=Tensor[(2), int64] */;
      let %in_shape_32: Tensor[(2), int32] = device_copy(meta[relay.Constant][47] /* ty=Tensor[(2), int32] */, meta[relay.attrs.DeviceCopyAttrs][14]) /* ty=Tensor[(2), int32] */;
      let %storage_081: Storage[] = memory.alloc_storage(16 /* ty=int64 */, 64 /* ty=int64 */, meta[relay.attrs.AllocStorageAttrs][81]) /* ty=Storage[] */;
      let %tensor_071: Tensor[(2), int64] = memory.alloc_tensor(%storage_081, 0 /* ty=int64 */, meta[relay.Constant][48] /* ty=Tensor[(1), int64] */, meta[relay.attrs.AllocTensorAttrs][81]) /* ty=Tensor[(2), int64] */;
      let %shape_func_out_010: Tensor[(2), int64] = %tensor_071;
      %290 = fn (%p069: Tensor[(?, ?), float32], %p126: Tensor[(2), int32], %p213: Tensor[(2), int64], %p34: Tensor[(2), int32], Primitive=1) -> Tensor[(?, ?), float32] {
        dyn.strided_slice(%p069, %p126, %p213, %p34, begin=None, end=None, strides=None) /* ty=Tensor[(?, ?), float32] */
      };
      %291 = (%in_shape_010, %in_shape_16, %in_shape_23, %in_shape_32);
      %292 = (%shape_func_out_010,);
      let %shape_func10: () = vm.shape_func(%290, %291, %292, meta[relay.attrs.ShapeFuncAttrs][10]) /* ty=() */;
      let %storage_082: Storage[] = memory.alloc_storage(8 /* ty=int64 */, 64 /* ty=int64 */, meta[relay.attrs.AllocStorageAttrs][82]) /* ty=Storage[] */;
      let %tensor_072: int64 = memory.alloc_tensor(%storage_082, 0 /* ty=int64 */, 0 /* ty=int64 */, meta[relay.attrs.AllocTensorAttrs][82]) /* ty=int64 */;
      %293 = fn (%p070: Tensor[(2), int64], Primitive=1) -> int64 {
        prod(%p070) /* ty=int64 */
      };
      %294 = (%shape_func_out_010,);
      %295 = (%tensor_072,);
      let %v71: () = vm.invoke_tvm_op(%293, %294, %295) /* ty=() */;
      let %storage_083: Storage[] = memory.alloc_storage(8 /* ty=int64 */, 64 /* ty=int64 */, meta[relay.attrs.AllocStorageAttrs][83]) /* ty=Storage[] */;
      let %tensor_073: int64 = memory.alloc_tensor(%storage_083, 0 /* ty=int64 */, 0 /* ty=int64 */, meta[relay.attrs.AllocTensorAttrs][83]) /* ty=int64 */;
      %296 = fn (%p071: int64, Primitive=1) -> int64 {
        multiply(%p071, 4 /* ty=int64 */) /* ty=int64 */
      };
      %297 = (%tensor_072,);
      %298 = (%tensor_073,);
      let %v72: () = vm.invoke_tvm_op(%296, %297, %298) /* ty=() */;
      let %storage_084: Storage[] = memory.alloc_storage(%tensor_073, 64 /* ty=int64 */, meta[relay.attrs.AllocStorageAttrs][84]) /* ty=Storage[] */;
      let %out_010: Tensor[(?, ?), float32] = memory.alloc_tensor(%storage_084, 0 /* ty=int64 */, %shape_func_out_010, meta[relay.attrs.AllocTensorAttrs][84]) /* ty=Tensor[(?, ?), float32] */;
      %299 = (%x49, %x51, %x53, meta[relay.Constant][47] /* ty=Tensor[(2), int32] */);
      %300 = (%out_010,);
      let %v73: () = vm.invoke_tvm_op(%290, %299, %300) /* ty=() */;
      let %x54: Tensor[(?, ?), float32] = %out_010;
      let %storage_085: Storage[] = memory.alloc_storage(8 /* ty=int64 */, 64 /* ty=int64 */, meta[relay.attrs.AllocStorageAttrs][85]) /* ty=Storage[] */;
      let %tensor_074: Tensor[(2), int32] = memory.alloc_tensor(%storage_085, 0 /* ty=int64 */, meta[relay.Constant][49] /* ty=Tensor[(1), int64] */, meta[relay.attrs.AllocTensorAttrs][85]) /* ty=Tensor[(2), int32] */;
      %301 = fn (%p072: Tensor[(?, ?), float32], Primitive=1) -> Tensor[(2), int32] {
        shape_of(%p072, dtype="int32") /* ty=Tensor[(2), int32] */
      };
      %302 = (%x54,);
      %303 = (%tensor_074,);
      let %v74: () = vm.invoke_tvm_op(%301, %302, %303) /* ty=() */;
      let %x55: Tensor[(2), int32] = %tensor_074;
      let %storage_086: Storage[] = memory.alloc_storage(8 /* ty=int64 */, 64 /* ty=int64 */, meta[relay.attrs.AllocStorageAttrs][86]) /* ty=Storage[] */;
      let %tensor_075: Tensor[(2), int32] = memory.alloc_tensor(%storage_086, 0 /* ty=int64 */, meta[relay.Constant][50] /* ty=Tensor[(1), int64] */, meta[relay.attrs.AllocTensorAttrs][86]) /* ty=Tensor[(2), int32] */;
      %306 = fn (%p073: Tensor[(2), bool], %p127: Tensor[(2), int32], %p214: Tensor[(2), int32], Primitive=1) -> Tensor[(2), int32] {
        %304 = cast_like(%p214, %p127) /* ty=Tensor[(2), int32] */;
        %305 = add(%p127, %304) /* ty=Tensor[(2), int32] */;
        where(%p073, %305, %p127) /* ty=Tensor[(2), int32] */
      };
      %307 = (meta[relay.Constant][51] /* ty=Tensor[(2), bool] */, meta[relay.Constant][52] /* ty=Tensor[(2), int32] */, %x55);
      %308 = (%tensor_075,);
      let %v75: () = vm.invoke_tvm_op(%306, %307, %308) /* ty=() */;
      let %x56: Tensor[(2), int32] = %tensor_075;
      let %storage_087: Storage[] = memory.alloc_storage(16 /* ty=int64 */, 64 /* ty=int64 */, meta[relay.attrs.AllocStorageAttrs][87]) /* ty=Storage[] */;
      let %tensor_076: Tensor[(2), int64] = memory.alloc_tensor(%storage_087, 0 /* ty=int64 */, meta[relay.Constant][53] /* ty=Tensor[(1), int64] */, meta[relay.attrs.AllocTensorAttrs][87]) /* ty=Tensor[(2), int64] */;
      %309 = fn (%p074: Tensor[(2), int32], Primitive=1) -> Tensor[(2), int64] {
        cast(%p074, dtype="int64") /* ty=Tensor[(2), int64] */
      };
      %310 = (%x55,);
      %311 = (%tensor_076,);
      let %v76: () = vm.invoke_tvm_op(%309, %310, %311) /* ty=() */;
      let %x57: Tensor[(2), int64] = %tensor_076;
      let %in_shape_011: Tensor[(2), int64] = vm.shape_of(%x54, meta[relay.attrs.ShapeOfAttrs][10]) /* ty=Tensor[(2), int64] */;
      let %in_shape_17: Tensor[(2), int32] = device_copy(%x56, meta[relay.attrs.DeviceCopyAttrs][15]) /* ty=Tensor[(2), int32] */;
      let %in_shape_24: Tensor[(2), int64] = device_copy(%x57, meta[relay.attrs.DeviceCopyAttrs][16]) /* ty=Tensor[(2), int64] */;
      let %in_shape_33: Tensor[(2), int32] = device_copy(meta[relay.Constant][54] /* ty=Tensor[(2), int32] */, meta[relay.attrs.DeviceCopyAttrs][17]) /* ty=Tensor[(2), int32] */;
      let %storage_088: Storage[] = memory.alloc_storage(16 /* ty=int64 */, 64 /* ty=int64 */, meta[relay.attrs.AllocStorageAttrs][88]) /* ty=Storage[] */;
      let %tensor_077: Tensor[(2), int64] = memory.alloc_tensor(%storage_088, 0 /* ty=int64 */, meta[relay.Constant][55] /* ty=Tensor[(1), int64] */, meta[relay.attrs.AllocTensorAttrs][88]) /* ty=Tensor[(2), int64] */;
      let %shape_func_out_011: Tensor[(2), int64] = %tensor_077;
      %312 = fn (%p075: Tensor[(?, ?), float32], %p128: Tensor[(2), int32], %p215: Tensor[(2), int64], %p35: Tensor[(2), int32], Primitive=1) -> Tensor[(?, ?), float32] {
        dyn.strided_slice(%p075, %p128, %p215, %p35, begin=None, end=None, strides=None) /* ty=Tensor[(?, ?), float32] */
      };
      %313 = (%in_shape_011, %in_shape_17, %in_shape_24, %in_shape_33);
      %314 = (%shape_func_out_011,);
      let %shape_func11: () = vm.shape_func(%312, %313, %314, meta[relay.attrs.ShapeFuncAttrs][11]) /* ty=() */;
      let %storage_089: Storage[] = memory.alloc_storage(8 /* ty=int64 */, 64 /* ty=int64 */, meta[relay.attrs.AllocStorageAttrs][89]) /* ty=Storage[] */;
      let %tensor_078: int64 = memory.alloc_tensor(%storage_089, 0 /* ty=int64 */, 0 /* ty=int64 */, meta[relay.attrs.AllocTensorAttrs][89]) /* ty=int64 */;
      %315 = fn (%p076: Tensor[(2), int64], Primitive=1) -> int64 {
        prod(%p076) /* ty=int64 */
      };
      %316 = (%shape_func_out_011,);
      %317 = (%tensor_078,);
      let %v77: () = vm.invoke_tvm_op(%315, %316, %317) /* ty=() */;
      let %storage_090: Storage[] = memory.alloc_storage(8 /* ty=int64 */, 64 /* ty=int64 */, meta[relay.attrs.AllocStorageAttrs][90]) /* ty=Storage[] */;
      let %tensor_079: int64 = memory.alloc_tensor(%storage_090, 0 /* ty=int64 */, 0 /* ty=int64 */, meta[relay.attrs.AllocTensorAttrs][90]) /* ty=int64 */;
      %318 = fn (%p077: int64, Primitive=1) -> int64 {
        multiply(%p077, 4 /* ty=int64 */) /* ty=int64 */
      };
      %319 = (%tensor_078,);
      %320 = (%tensor_079,);
      let %v78: () = vm.invoke_tvm_op(%318, %319, %320) /* ty=() */;
      let %storage_091: Storage[] = memory.alloc_storage(%tensor_079, 64 /* ty=int64 */, meta[relay.attrs.AllocStorageAttrs][91]) /* ty=Storage[] */;
      let %out_011: Tensor[(?, ?), float32] = memory.alloc_tensor(%storage_091, 0 /* ty=int64 */, %shape_func_out_011, meta[relay.attrs.AllocTensorAttrs][91]) /* ty=Tensor[(?, ?), float32] */;
      %321 = (%x54, %x56, %x57, meta[relay.Constant][54] /* ty=Tensor[(2), int32] */);
      %322 = (%out_011,);
      let %v79: () = vm.invoke_tvm_op(%312, %321, %322) /* ty=() */;
      let %x58: Tensor[(?, ?), float32] = %out_011;
      let %storage_092: Storage[] = memory.alloc_storage(8 /* ty=int64 */, 64 /* ty=int64 */, meta[relay.attrs.AllocStorageAttrs][92]) /* ty=Storage[] */;
      let %tensor_080: Tensor[(2), int32] = memory.alloc_tensor(%storage_092, 0 /* ty=int64 */, meta[relay.Constant][56] /* ty=Tensor[(1), int64] */, meta[relay.attrs.AllocTensorAttrs][92]) /* ty=Tensor[(2), int32] */;
      %323 = fn (%p078: Tensor[(?, ?), float32], Primitive=1) -> Tensor[(2), int32] {
        shape_of(%p078, dtype="int32") /* ty=Tensor[(2), int32] */
      };
      %324 = (%x58,);
      %325 = (%tensor_080,);
      let %v80: () = vm.invoke_tvm_op(%323, %324, %325) /* ty=() */;
      let %x59: Tensor[(2), int32] = %tensor_080;
      let %storage_093: Storage[] = memory.alloc_storage(8 /* ty=int64 */, 64 /* ty=int64 */, meta[relay.attrs.AllocStorageAttrs][93]) /* ty=Storage[] */;
      let %tensor_081: Tensor[(1), int64] = memory.alloc_tensor(%storage_093, 0 /* ty=int64 */, meta[relay.Constant][57] /* ty=Tensor[(1), int64] */, meta[relay.attrs.AllocTensorAttrs][93]) /* ty=Tensor[(1), int64] */;
      %328 = fn (%p079: Tensor[(2), int32], Primitive=1) -> Tensor[(1), int64] {
        %326 = take(%p079, 0 /* ty=int32 */, axis=0) /* ty=int32 */;
        %327 = expand_dims(%326, axis=0) /* ty=Tensor[(1), int32] */;
        cast(%327, dtype="int64") /* ty=Tensor[(1), int64] */
      };
      %329 = (%x59,);
      %330 = (%tensor_081,);
      let %v81: () = vm.invoke_tvm_op(%328, %329, %330) /* ty=() */;
      let %x60: Tensor[(1), int64] = %tensor_081;
      let %storage_094: Storage[] = memory.alloc_storage(16 /* ty=int64 */, 64 /* ty=int64 */, meta[relay.attrs.AllocStorageAttrs][94]) /* ty=Storage[] */;
      let %tensor_082: Tensor[(2), int64] = memory.alloc_tensor(%storage_094, 0 /* ty=int64 */, meta[relay.Constant][58] /* ty=Tensor[(1), int64] */, meta[relay.attrs.AllocTensorAttrs][94]) /* ty=Tensor[(2), int64] */;
      %334 = fn (%p080: Tensor[(1), int64], %p129: int64, Primitive=1) -> Tensor[(2), int64] {
        %331 = expand_dims(%p129, axis=0) /* ty=Tensor[(1), int64] */;
        %332 = cast(%331, dtype="int64") /* ty=Tensor[(1), int64] */;
        %333 = (%p080, %332);
        concatenate(%333) /* ty=Tensor[(2), int64] */
      };
      %335 = (%x60, %x34);
      %336 = (%tensor_082,);
      let %v82: () = vm.invoke_tvm_op(%334, %335, %336) /* ty=() */;
      let %x61: Tensor[(2), int64] = %tensor_082;
      let %in_shape_012: int32 = device_copy(0 /* ty=int32 */, meta[relay.attrs.DeviceCopyAttrs][18]) /* ty=int32 */;
      let %in_shape_18: Tensor[(2), int64] = device_copy(%x61, meta[relay.attrs.DeviceCopyAttrs][19]) /* ty=Tensor[(2), int64] */;
      let %storage_095: Storage[] = memory.alloc_storage(16 /* ty=int64 */, 64 /* ty=int64 */, meta[relay.attrs.AllocStorageAttrs][95]) /* ty=Storage[] */;
      let %tensor_083: Tensor[(2), int64] = memory.alloc_tensor(%storage_095, 0 /* ty=int64 */, meta[relay.Constant][59] /* ty=Tensor[(1), int64] */, meta[relay.attrs.AllocTensorAttrs][95]) /* ty=Tensor[(2), int64] */;
      let %shape_func_out_012: Tensor[(2), int64] = %tensor_083;
      %337 = fn (%p081: int32, %p130: Tensor[(2), int64], Primitive=1) -> Tensor[(?, ?), float32] {
        dyn.full(%p081, %p130, shape=None, dtype="float32") /* ty=Tensor[(?, ?), float32] */
      };
      %338 = (%in_shape_012, %in_shape_18);
      %339 = (%shape_func_out_012,);
      let %shape_func12: () = vm.shape_func(%337, %338, %339, meta[relay.attrs.ShapeFuncAttrs][12]) /* ty=() */;
      let %storage_096: Storage[] = memory.alloc_storage(8 /* ty=int64 */, 64 /* ty=int64 */, meta[relay.attrs.AllocStorageAttrs][96]) /* ty=Storage[] */;
      let %tensor_084: int64 = memory.alloc_tensor(%storage_096, 0 /* ty=int64 */, 0 /* ty=int64 */, meta[relay.attrs.AllocTensorAttrs][96]) /* ty=int64 */;
      %340 = fn (%p082: Tensor[(2), int64], Primitive=1) -> int64 {
        prod(%p082) /* ty=int64 */
      };
      %341 = (%shape_func_out_012,);
      %342 = (%tensor_084,);
      let %v83: () = vm.invoke_tvm_op(%340, %341, %342) /* ty=() */;
      let %storage_097: Storage[] = memory.alloc_storage(8 /* ty=int64 */, 64 /* ty=int64 */, meta[relay.attrs.AllocStorageAttrs][97]) /* ty=Storage[] */;
      let %tensor_085: int64 = memory.alloc_tensor(%storage_097, 0 /* ty=int64 */, 0 /* ty=int64 */, meta[relay.attrs.AllocTensorAttrs][97]) /* ty=int64 */;
      %343 = fn (%p083: int64, Primitive=1) -> int64 {
        multiply(%p083, 4 /* ty=int64 */) /* ty=int64 */
      };
      %344 = (%tensor_084,);
      %345 = (%tensor_085,);
      let %v84: () = vm.invoke_tvm_op(%343, %344, %345) /* ty=() */;
      let %storage_098: Storage[] = memory.alloc_storage(%tensor_085, 64 /* ty=int64 */, meta[relay.attrs.AllocStorageAttrs][98]) /* ty=Storage[] */;
      let %out_012: Tensor[(?, ?), float32] = memory.alloc_tensor(%storage_098, 0 /* ty=int64 */, %shape_func_out_012, meta[relay.attrs.AllocTensorAttrs][98]) /* ty=Tensor[(?, ?), float32] */;
      %346 = (0 /* ty=int32 */, %x61);
      %347 = (%out_012,);
      let %v85: () = vm.invoke_tvm_op(%337, %346, %347) /* ty=() */;
      let %x62: Tensor[(?, ?), float32] = %out_012;
      let %storage_099: Storage[] = memory.alloc_storage(16 /* ty=int64 */, 64 /* ty=int64 */, meta[relay.attrs.AllocStorageAttrs][99]) /* ty=Storage[] */;
      let %tensor_086: Tensor[(2), int64] = memory.alloc_tensor(%storage_099, 0 /* ty=int64 */, meta[relay.Constant][60] /* ty=Tensor[(1), int64] */, meta[relay.attrs.AllocTensorAttrs][99]) /* ty=Tensor[(2), int64] */;
      %352 = fn (%p084: Tensor[(1), int64], %p131: int64, Primitive=1) -> Tensor[(2), int64] {
        %348 = subtract(300 /* ty=int64 */, %p131) /* ty=int64 */;
        %349 = expand_dims(%348, axis=0) /* ty=Tensor[(1), int64] */;
        %350 = cast(%349, dtype="int64") /* ty=Tensor[(1), int64] */;
        %351 = (%p084, %350);
        concatenate(%351) /* ty=Tensor[(2), int64] */
      };
      %353 = (%x60, %x39);
      %354 = (%tensor_086,);
      let %v86: () = vm.invoke_tvm_op(%352, %353, %354) /* ty=() */;
      let %x63: Tensor[(2), int64] = %tensor_086;
      let %in_shape_013: int32 = device_copy(0 /* ty=int32 */, meta[relay.attrs.DeviceCopyAttrs][20]) /* ty=int32 */;
      let %in_shape_19: Tensor[(2), int64] = device_copy(%x63, meta[relay.attrs.DeviceCopyAttrs][21]) /* ty=Tensor[(2), int64] */;
      let %storage_0100: Storage[] = memory.alloc_storage(16 /* ty=int64 */, 64 /* ty=int64 */, meta[relay.attrs.AllocStorageAttrs][100]) /* ty=Storage[] */;
      let %tensor_087: Tensor[(2), int64] = memory.alloc_tensor(%storage_0100, 0 /* ty=int64 */, meta[relay.Constant][61] /* ty=Tensor[(1), int64] */, meta[relay.attrs.AllocTensorAttrs][100]) /* ty=Tensor[(2), int64] */;
      let %shape_func_out_013: Tensor[(2), int64] = %tensor_087;
      %355 = fn (%p085: int32, %p132: Tensor[(2), int64], Primitive=1) -> Tensor[(?, ?), float32] {
        dyn.full(%p085, %p132, shape=None, dtype="float32") /* ty=Tensor[(?, ?), float32] */
      };
      %356 = (%in_shape_013, %in_shape_19);
      %357 = (%shape_func_out_013,);
      let %shape_func13: () = vm.shape_func(%355, %356, %357, meta[relay.attrs.ShapeFuncAttrs][13]) /* ty=() */;
      let %storage_0101: Storage[] = memory.alloc_storage(8 /* ty=int64 */, 64 /* ty=int64 */, meta[relay.attrs.AllocStorageAttrs][101]) /* ty=Storage[] */;
      let %tensor_088: int64 = memory.alloc_tensor(%storage_0101, 0 /* ty=int64 */, 0 /* ty=int64 */, meta[relay.attrs.AllocTensorAttrs][101]) /* ty=int64 */;
      %358 = fn (%p086: Tensor[(2), int64], Primitive=1) -> int64 {
        prod(%p086) /* ty=int64 */
      };
      %359 = (%shape_func_out_013,);
      %360 = (%tensor_088,);
      let %v87: () = vm.invoke_tvm_op(%358, %359, %360) /* ty=() */;
      let %storage_0102: Storage[] = memory.alloc_storage(8 /* ty=int64 */, 64 /* ty=int64 */, meta[relay.attrs.AllocStorageAttrs][102]) /* ty=Storage[] */;
      let %tensor_089: int64 = memory.alloc_tensor(%storage_0102, 0 /* ty=int64 */, 0 /* ty=int64 */, meta[relay.attrs.AllocTensorAttrs][102]) /* ty=int64 */;
      %361 = fn (%p087: int64, Primitive=1) -> int64 {
        multiply(%p087, 4 /* ty=int64 */) /* ty=int64 */
      };
      %362 = (%tensor_088,);
      %363 = (%tensor_089,);
      let %v88: () = vm.invoke_tvm_op(%361, %362, %363) /* ty=() */;
      let %storage_0103: Storage[] = memory.alloc_storage(%tensor_089, 64 /* ty=int64 */, meta[relay.attrs.AllocStorageAttrs][103]) /* ty=Storage[] */;
      let %out_013: Tensor[(?, ?), float32] = memory.alloc_tensor(%storage_0103, 0 /* ty=int64 */, %shape_func_out_013, meta[relay.attrs.AllocTensorAttrs][103]) /* ty=Tensor[(?, ?), float32] */;
      %364 = (0 /* ty=int32 */, %x63);
      %365 = (%out_013,);
      let %v89: () = vm.invoke_tvm_op(%355, %364, %365) /* ty=() */;
      let %x64: Tensor[(?, ?), float32] = %out_013;
      let %in_shape_014: Tensor[(2), int64] = vm.shape_of(%x62, meta[relay.attrs.ShapeOfAttrs][11]) /* ty=Tensor[(2), int64] */;
      let %in_shape_110: Tensor[(2), int64] = vm.shape_of(%x58, meta[relay.attrs.ShapeOfAttrs][12]) /* ty=Tensor[(2), int64] */;
      let %in_shape_25: Tensor[(2), int64] = vm.shape_of(%x64, meta[relay.attrs.ShapeOfAttrs][13]) /* ty=Tensor[(2), int64] */;
      let %storage_0104: Storage[] = memory.alloc_storage(16 /* ty=int64 */, 64 /* ty=int64 */, meta[relay.attrs.AllocStorageAttrs][104]) /* ty=Storage[] */;
      let %tensor_090: Tensor[(2), int64] = memory.alloc_tensor(%storage_0104, 0 /* ty=int64 */, meta[relay.Constant][62] /* ty=Tensor[(1), int64] */, meta[relay.attrs.AllocTensorAttrs][104]) /* ty=Tensor[(2), int64] */;
      let %shape_func_out_014: Tensor[(2), int64] = %tensor_090;
      %369 = fn (%p088: Tensor[(?, ?), float32], %p133: Tensor[(?, ?), float32], %p216: Tensor[(?, ?), float32], Primitive=1) -> Tensor[(?, ?), float32] {
        %366 = reshape(%p088, newshape=[0, 0]) /* ty=Tensor[(?, ?), float32] */;
        %367 = reshape(%p216, newshape=[0, 0]) /* ty=Tensor[(?, ?), float32] */;
        %368 = (%366, %p133, %367);
        concatenate(%368, axis=1) /* ty=Tensor[(?, ?), float32] */
      };
      %370 = (%in_shape_014, %in_shape_110, %in_shape_25);
      %371 = (%shape_func_out_014,);
      let %shape_func14: () = vm.shape_func(%369, %370, %371, meta[relay.attrs.ShapeFuncAttrs][14]) /* ty=() */;
      let %storage_0105: Storage[] = memory.alloc_storage(8 /* ty=int64 */, 64 /* ty=int64 */, meta[relay.attrs.AllocStorageAttrs][105]) /* ty=Storage[] */;
      let %tensor_091: int64 = memory.alloc_tensor(%storage_0105, 0 /* ty=int64 */, 0 /* ty=int64 */, meta[relay.attrs.AllocTensorAttrs][105]) /* ty=int64 */;
      %372 = fn (%p089: Tensor[(2), int64], Primitive=1) -> int64 {
        prod(%p089) /* ty=int64 */
      };
      %373 = (%shape_func_out_014,);
      %374 = (%tensor_091,);
      let %v90: () = vm.invoke_tvm_op(%372, %373, %374) /* ty=() */;
      let %storage_0106: Storage[] = memory.alloc_storage(8 /* ty=int64 */, 64 /* ty=int64 */, meta[relay.attrs.AllocStorageAttrs][106]) /* ty=Storage[] */;
      let %tensor_092: int64 = memory.alloc_tensor(%storage_0106, 0 /* ty=int64 */, 0 /* ty=int64 */, meta[relay.attrs.AllocTensorAttrs][106]) /* ty=int64 */;
      %375 = fn (%p090: int64, Primitive=1) -> int64 {
        multiply(%p090, 4 /* ty=int64 */) /* ty=int64 */
      };
      %376 = (%tensor_091,);
      %377 = (%tensor_092,);
      let %v91: () = vm.invoke_tvm_op(%375, %376, %377) /* ty=() */;
      let %storage_0107: Storage[] = memory.alloc_storage(%tensor_092, 64 /* ty=int64 */, meta[relay.attrs.AllocStorageAttrs][107]) /* ty=Storage[] */;
      let %out_014: Tensor[(?, ?), float32] = memory.alloc_tensor(%storage_0107, 0 /* ty=int64 */, %shape_func_out_014, meta[relay.attrs.AllocTensorAttrs][107]) /* ty=Tensor[(?, ?), float32] */;
      %378 = (%x62, %x58, %x64);
      %379 = (%out_014,);
      let %v92: () = vm.invoke_tvm_op(%369, %378, %379) /* ty=() */;
      let %x65: Tensor[(?, ?), float32] = %out_014;
      let %storage_0108: Storage[] = memory.alloc_storage(8 /* ty=int64 */, 64 /* ty=int64 */, meta[relay.attrs.AllocStorageAttrs][108]) /* ty=Storage[] */;
      let %tensor_093: Tensor[(2), int32] = memory.alloc_tensor(%storage_0108, 0 /* ty=int64 */, meta[relay.Constant][63] /* ty=Tensor[(1), int64] */, meta[relay.attrs.AllocTensorAttrs][108]) /* ty=Tensor[(2), int32] */;
      %380 = fn (%p091: Tensor[(?, ?), float32], Primitive=1) -> Tensor[(2), int32] {
        shape_of(%p091, dtype="int32") /* ty=Tensor[(2), int32] */
      };
      %381 = (%x65,);
      %382 = (%tensor_093,);
      let %v93: () = vm.invoke_tvm_op(%380, %381, %382) /* ty=() */;
      let %x66: Tensor[(2), int32] = %tensor_093;
      let %storage_0109: Storage[] = memory.alloc_storage(8 /* ty=int64 */, 64 /* ty=int64 */, meta[relay.attrs.AllocStorageAttrs][109]) /* ty=Storage[] */;
      let %tensor_094: Tensor[(2), int32] = memory.alloc_tensor(%storage_0109, 0 /* ty=int64 */, meta[relay.Constant][64] /* ty=Tensor[(1), int64] */, meta[relay.attrs.AllocTensorAttrs][109]) /* ty=Tensor[(2), int32] */;
      %385 = fn (%p092: Tensor[(2), bool], %p134: Tensor[(2), int32], %p217: Tensor[(2), int32], Primitive=1) -> Tensor[(2), int32] {
        %383 = cast_like(%p217, %p134) /* ty=Tensor[(2), int32] */;
        %384 = add(%p134, %383) /* ty=Tensor[(2), int32] */;
        where(%p092, %384, %p134) /* ty=Tensor[(2), int32] */
      };
      %386 = (meta[relay.Constant][65] /* ty=Tensor[(2), bool] */, meta[relay.Constant][66] /* ty=Tensor[(2), int32] */, %x66);
      %387 = (%tensor_094,);
      let %v94: () = vm.invoke_tvm_op(%385, %386, %387) /* ty=() */;
      let %x67: Tensor[(2), int32] = %tensor_094;
      let %storage_0110: Storage[] = memory.alloc_storage(16 /* ty=int64 */, 64 /* ty=int64 */, meta[relay.attrs.AllocStorageAttrs][110]) /* ty=Storage[] */;
      let %tensor_095: Tensor[(2), int64] = memory.alloc_tensor(%storage_0110, 0 /* ty=int64 */, meta[relay.Constant][67] /* ty=Tensor[(1), int64] */, meta[relay.attrs.AllocTensorAttrs][110]) /* ty=Tensor[(2), int64] */;
      %388 = fn (%p093: Tensor[(2), int32], Primitive=1) -> Tensor[(2), int64] {
        cast(%p093, dtype="int64") /* ty=Tensor[(2), int64] */
      };
      %389 = (%x66,);
      %390 = (%tensor_095,);
      let %v95: () = vm.invoke_tvm_op(%388, %389, %390) /* ty=() */;
      let %x68: Tensor[(2), int64] = %tensor_095;
      let %in_shape_015: Tensor[(2), int64] = vm.shape_of(%x65, meta[relay.attrs.ShapeOfAttrs][14]) /* ty=Tensor[(2), int64] */;
      let %in_shape_111: Tensor[(2), int32] = device_copy(%x67, meta[relay.attrs.DeviceCopyAttrs][22]) /* ty=Tensor[(2), int32] */;
      let %in_shape_26: Tensor[(2), int64] = device_copy(%x68, meta[relay.attrs.DeviceCopyAttrs][23]) /* ty=Tensor[(2), int64] */;
      let %in_shape_34: Tensor[(2), int32] = device_copy(meta[relay.Constant][68] /* ty=Tensor[(2), int32] */, meta[relay.attrs.DeviceCopyAttrs][24]) /* ty=Tensor[(2), int32] */;
      let %storage_0111: Storage[] = memory.alloc_storage(16 /* ty=int64 */, 64 /* ty=int64 */, meta[relay.attrs.AllocStorageAttrs][111]) /* ty=Storage[] */;
      let %tensor_096: Tensor[(2), int64] = memory.alloc_tensor(%storage_0111, 0 /* ty=int64 */, meta[relay.Constant][69] /* ty=Tensor[(1), int64] */, meta[relay.attrs.AllocTensorAttrs][111]) /* ty=Tensor[(2), int64] */;
      let %shape_func_out_015: Tensor[(2), int64] = %tensor_096;
      %391 = fn (%p094: Tensor[(?, ?), float32], %p135: Tensor[(2), int32], %p218: Tensor[(2), int64], %p36: Tensor[(2), int32], Primitive=1) -> Tensor[(?, ?), float32] {
        dyn.strided_slice(%p094, %p135, %p218, %p36, begin=None, end=None, strides=None) /* ty=Tensor[(?, ?), float32] */
      };
      %392 = (%in_shape_015, %in_shape_111, %in_shape_26, %in_shape_34);
      %393 = (%shape_func_out_015,);
      let %shape_func15: () = vm.shape_func(%391, %392, %393, meta[relay.attrs.ShapeFuncAttrs][15]) /* ty=() */;
      let %storage_0112: Storage[] = memory.alloc_storage(8 /* ty=int64 */, 64 /* ty=int64 */, meta[relay.attrs.AllocStorageAttrs][112]) /* ty=Storage[] */;
      let %tensor_097: int64 = memory.alloc_tensor(%storage_0112, 0 /* ty=int64 */, 0 /* ty=int64 */, meta[relay.attrs.AllocTensorAttrs][112]) /* ty=int64 */;
      %394 = fn (%p095: Tensor[(2), int64], Primitive=1) -> int64 {
        prod(%p095) /* ty=int64 */
      };
      %395 = (%shape_func_out_015,);
      %396 = (%tensor_097,);
      let %v96: () = vm.invoke_tvm_op(%394, %395, %396) /* ty=() */;
      let %storage_0113: Storage[] = memory.alloc_storage(8 /* ty=int64 */, 64 /* ty=int64 */, meta[relay.attrs.AllocStorageAttrs][113]) /* ty=Storage[] */;
      let %tensor_098: int64 = memory.alloc_tensor(%storage_0113, 0 /* ty=int64 */, 0 /* ty=int64 */, meta[relay.attrs.AllocTensorAttrs][113]) /* ty=int64 */;
      %397 = fn (%p096: int64, Primitive=1) -> int64 {
        multiply(%p096, 4 /* ty=int64 */) /* ty=int64 */
      };
      %398 = (%tensor_097,);
      %399 = (%tensor_098,);
      let %v97: () = vm.invoke_tvm_op(%397, %398, %399) /* ty=() */;
      let %storage_0114: Storage[] = memory.alloc_storage(%tensor_098, 64 /* ty=int64 */, meta[relay.attrs.AllocStorageAttrs][114]) /* ty=Storage[] */;
      let %out_015: Tensor[(?, ?), float32] = memory.alloc_tensor(%storage_0114, 0 /* ty=int64 */, %shape_func_out_015, meta[relay.attrs.AllocTensorAttrs][114]) /* ty=Tensor[(?, ?), float32] */;
      %400 = (%x65, %x67, %x68, meta[relay.Constant][68] /* ty=Tensor[(2), int32] */);
      %401 = (%out_015,);
      let %v98: () = vm.invoke_tvm_op(%391, %400, %401) /* ty=() */;
      let %x69: Tensor[(?, ?), float32] = %out_015;
      let %storage_0115: Storage[] = memory.alloc_storage(8 /* ty=int64 */, 64 /* ty=int64 */, meta[relay.attrs.AllocStorageAttrs][115]) /* ty=Storage[] */;
      let %tensor_099: Tensor[(2), int32] = memory.alloc_tensor(%storage_0115, 0 /* ty=int64 */, meta[relay.Constant][70] /* ty=Tensor[(1), int64] */, meta[relay.attrs.AllocTensorAttrs][115]) /* ty=Tensor[(2), int32] */;
      %402 = fn (%p097: Tensor[(?, ?), float32], Primitive=1) -> Tensor[(2), int32] {
        shape_of(%p097, dtype="int32") /* ty=Tensor[(2), int32] */
      };
      %403 = (%x69,);
      %404 = (%tensor_099,);
      let %v99: () = vm.invoke_tvm_op(%402, %403, %404) /* ty=() */;
      let %x70: Tensor[(2), int32] = %tensor_099;
      let %storage_0116: Storage[] = memory.alloc_storage(8 /* ty=int64 */, 64 /* ty=int64 */, meta[relay.attrs.AllocStorageAttrs][116]) /* ty=Storage[] */;
      let %tensor_0100: Tensor[(2), int32] = memory.alloc_tensor(%storage_0116, 0 /* ty=int64 */, meta[relay.Constant][71] /* ty=Tensor[(1), int64] */, meta[relay.attrs.AllocTensorAttrs][116]) /* ty=Tensor[(2), int32] */;
      %407 = fn (%p098: Tensor[(2), bool], %p136: Tensor[(2), int32], %p219: Tensor[(2), int32], Primitive=1) -> Tensor[(2), int32] {
        %405 = cast_like(%p219, %p136) /* ty=Tensor[(2), int32] */;
        %406 = add(%p136, %405) /* ty=Tensor[(2), int32] */;
        where(%p098, %406, %p136) /* ty=Tensor[(2), int32] */
      };
      %408 = (meta[relay.Constant][72] /* ty=Tensor[(2), bool] */, meta[relay.Constant][73] /* ty=Tensor[(2), int32] */, %x70);
      %409 = (%tensor_0100,);
      let %v100: () = vm.invoke_tvm_op(%407, %408, %409) /* ty=() */;
      let %x71: Tensor[(2), int32] = %tensor_0100;
      let %storage_0117: Storage[] = memory.alloc_storage(8 /* ty=int64 */, 64 /* ty=int64 */, meta[relay.attrs.AllocStorageAttrs][117]) /* ty=Storage[] */;
      let %tensor_0101: Tensor[(2), int32] = memory.alloc_tensor(%storage_0117, 0 /* ty=int64 */, meta[relay.Constant][74] /* ty=Tensor[(1), int64] */, meta[relay.attrs.AllocTensorAttrs][117]) /* ty=Tensor[(2), int32] */;
      %410 = fn (%p099: Tensor[(2), int32], %p137: Tensor[(1), int32], %p220: Tensor[(1), int32], Primitive=1) -> Tensor[(2), int32] {
        scatter(%p099, %p137, %p220, meta[relay.attrs.ScatterAttrs][3]) /* ty=Tensor[(2), int32] */
      };
      %411 = (%x70, %x1, meta[relay.Constant][45] /* ty=Tensor[(1), int32] */);
      %412 = (%tensor_0101,);
      let %v101: () = vm.invoke_tvm_op(%410, %411, %412) /* ty=() */;
      let %x72: Tensor[(2), int32] = %tensor_0101;
      let %storage_0118: Storage[] = memory.alloc_storage(16 /* ty=int64 */, 64 /* ty=int64 */, meta[relay.attrs.AllocStorageAttrs][118]) /* ty=Storage[] */;
      let %tensor_0102: Tensor[(2), int64] = memory.alloc_tensor(%storage_0118, 0 /* ty=int64 */, meta[relay.Constant][75] /* ty=Tensor[(1), int64] */, meta[relay.attrs.AllocTensorAttrs][118]) /* ty=Tensor[(2), int64] */;
      %413 = fn (%p0100: Tensor[(2), int32], Primitive=1) -> Tensor[(2), int64] {
        cast(%p0100, dtype="int64") /* ty=Tensor[(2), int64] */
      };
      %414 = (%x72,);
      %415 = (%tensor_0102,);
      let %v102: () = vm.invoke_tvm_op(%413, %414, %415) /* ty=() */;
      let %x73: Tensor[(2), int64] = %tensor_0102;
      let %in_shape_016: Tensor[(2), int64] = vm.shape_of(%x69, meta[relay.attrs.ShapeOfAttrs][15]) /* ty=Tensor[(2), int64] */;
      let %in_shape_112: Tensor[(2), int32] = device_copy(%x71, meta[relay.attrs.DeviceCopyAttrs][25]) /* ty=Tensor[(2), int32] */;
      let %in_shape_27: Tensor[(2), int64] = device_copy(%x73, meta[relay.attrs.DeviceCopyAttrs][26]) /* ty=Tensor[(2), int64] */;
      let %in_shape_35: Tensor[(2), int32] = device_copy(meta[relay.Constant][76] /* ty=Tensor[(2), int32] */, meta[relay.attrs.DeviceCopyAttrs][27]) /* ty=Tensor[(2), int32] */;
      let %storage_0119: Storage[] = memory.alloc_storage(16 /* ty=int64 */, 64 /* ty=int64 */, meta[relay.attrs.AllocStorageAttrs][119]) /* ty=Storage[] */;
      let %tensor_0103: Tensor[(2), int64] = memory.alloc_tensor(%storage_0119, 0 /* ty=int64 */, meta[relay.Constant][77] /* ty=Tensor[(1), int64] */, meta[relay.attrs.AllocTensorAttrs][119]) /* ty=Tensor[(2), int64] */;
      let %shape_func_out_016: Tensor[(2), int64] = %tensor_0103;
      %416 = fn (%p0101: Tensor[(?, ?), float32], %p138: Tensor[(2), int32], %p221: Tensor[(2), int64], %p37: Tensor[(2), int32], Primitive=1) -> Tensor[(?, ?), float32] {
        dyn.strided_slice(%p0101, %p138, %p221, %p37, begin=None, end=None, strides=None) /* ty=Tensor[(?, ?), float32] */
      };
      %417 = (%in_shape_016, %in_shape_112, %in_shape_27, %in_shape_35);
      %418 = (%shape_func_out_016,);
      let %shape_func16: () = vm.shape_func(%416, %417, %418, meta[relay.attrs.ShapeFuncAttrs][16]) /* ty=() */;
      let %storage_0120: Storage[] = memory.alloc_storage(8 /* ty=int64 */, 64 /* ty=int64 */, meta[relay.attrs.AllocStorageAttrs][120]) /* ty=Storage[] */;
      let %tensor_0104: int64 = memory.alloc_tensor(%storage_0120, 0 /* ty=int64 */, 0 /* ty=int64 */, meta[relay.attrs.AllocTensorAttrs][120]) /* ty=int64 */;
      %419 = fn (%p0102: Tensor[(2), int64], Primitive=1) -> int64 {
        prod(%p0102) /* ty=int64 */
      };
      %420 = (%shape_func_out_016,);
      %421 = (%tensor_0104,);
      let %v103: () = vm.invoke_tvm_op(%419, %420, %421) /* ty=() */;
      let %storage_0121: Storage[] = memory.alloc_storage(8 /* ty=int64 */, 64 /* ty=int64 */, meta[relay.attrs.AllocStorageAttrs][121]) /* ty=Storage[] */;
      let %tensor_0105: int64 = memory.alloc_tensor(%storage_0121, 0 /* ty=int64 */, 0 /* ty=int64 */, meta[relay.attrs.AllocTensorAttrs][121]) /* ty=int64 */;
      %422 = fn (%p0103: int64, Primitive=1) -> int64 {
        multiply(%p0103, 4 /* ty=int64 */) /* ty=int64 */
      };
      %423 = (%tensor_0104,);
      %424 = (%tensor_0105,);
      let %v104: () = vm.invoke_tvm_op(%422, %423, %424) /* ty=() */;
      let %storage_0122: Storage[] = memory.alloc_storage(%tensor_0105, 64 /* ty=int64 */, meta[relay.attrs.AllocStorageAttrs][122]) /* ty=Storage[] */;
      let %out_016: Tensor[(?, ?), float32] = memory.alloc_tensor(%storage_0122, 0 /* ty=int64 */, %shape_func_out_016, meta[relay.attrs.AllocTensorAttrs][122]) /* ty=Tensor[(?, ?), float32] */;
      %425 = (%x69, %x71, %x73, meta[relay.Constant][76] /* ty=Tensor[(2), int32] */);
      %426 = (%out_016,);
      let %v105: () = vm.invoke_tvm_op(%416, %425, %426) /* ty=() */;
      let %x74: Tensor[(?, ?), float32] = %out_016;
      let %x75: List[Tensor[(?, ?), float32]] = Nil /* ty=List[Tensor[(?, ?), float32]] */;
      let %x76: List[Tensor[(?, ?), float32]] = Cons(%x74, %x75) /* ty=List[Tensor[(?, ?), float32]] */;
      let %x77: List[Tensor[(?, ?), float32]] = @concat(%res.6, %x76) /* ty=List[Tensor[(?, ?), float32]] */;
      %427 = @lifted_name8408068344935463616(%x, %x1) /* ty=fn (int32, List[Tensor[(?, ?), float32]], Tensor[(?, 1, ?, ?), float32], Tensor[(?, 4), int64]) -> (int32, List[Tensor[(?, ?), float32]], Tensor[(?, 1, ?, ?), float32], Tensor[(?, 4), int64]) */;
      let %x78: (int32, List[Tensor[(?, ?), float32]], Tensor[(?, 1, ?, ?), float32], Tensor[(?, 4), int64]) = %427(%x5, %x77, %v7286, %v7394) /* ty=(int32, List[Tensor[(?, ?), float32]], Tensor[(?, 1, ?, ?), float32], Tensor[(?, 4), int64]) */;
      %x78
    } else {
      let %x79: (int32, List[Tensor[(?, ?), float32]], Tensor[(?, 1, ?, ?), float32], Tensor[(?, 4), int64]) = (%i.1, %res.6, %v7286, %v7394);
      %x79
    };
    %x4
  }
}

def @concat[A](%xs: List[A], %ys: List[A]) -> List[A] {
  let %x80: fn (A, List[A]) -> List[A] = @lifted_name4769082969410390021;
  let %x81: List[A] = @foldr(%x80, %ys, %xs) /* ty=List[A] */;
  %x81
}

def @map[A, B](%f: fn (A) -> B, %xs1: List[A]) -> List[B] {
  let %x82: List[B] = match (%xs1) {
    Cons(%x83: A, %rest: List[A]) => {
      let %x84: B = %f(%x83) /* ty=B */;
      let %x85: List[B] = @map(%f, %rest) /* ty=List[B] */;
      let %x86: List[B] = Cons(%x84, %x85) /* ty=List[B] */;
      %x86
    },
    Nil => {
      let %x87: List[B] = Nil /* ty=List[B] */;
      %x87
    },
  };
  %x82
}

def @tensor_array_stack_float32_any_any(%tensor_array: List[static_tensor_float32_any_any_t[]]) -> static_tensor_float32_any_any_any_t[] {
  let %x88: List[static_tensor_float32_any_any_any_t[]] = @map(@tensor_expand_dims_float32_any_any, %tensor_array) /* ty=List[static_tensor_float32_any_any_any_t[]] */;
  let %x89: static_tensor_float32_any_any_any_t[] = @hd(%x88) /* ty=static_tensor_float32_any_any_any_t[] */;
  let %x90: List[static_tensor_float32_any_any_any_t[]] = @tl(%x88) /* ty=List[static_tensor_float32_any_any_any_t[]] */;
  let %x91: static_tensor_float32_any_any_any_t[] = @foldl(@tensor_concatenate_float32_any_any_any, %x89, %x90) /* ty=static_tensor_float32_any_any_any_t[] */;
  %x91
}

def @tl[A](%xs2: List[A]) -> List[A] {
  let %x92: List[A] = match? (%xs2) {
    Cons(_, %rest1: List[A]) => {
      %rest1
    },
  };
  %x92
}

def @main(%input0: Tensor[(1, 3, 300, 300), float32], %model.backbone.body.conv1.weight: Tensor[(64, 3, 7, 7), float32], %model.backbone.body.bn1.weight: Tensor[(64), float32], %model.backbone.body.bn1.running_var: Tensor[(64), float32], %model.backbone.body.bn1.bias: Tensor[(64), float32], %model.backbone.body.bn1.running_mean: Tensor[(64), float32], %model.backbone.body.layer1.0.conv1.weight: Tensor[(64, 64, 1, 1), float32], %model.backbone.body.layer1.0.bn1.weight: Tensor[(64), float32], %model.backbone.body.layer1.0.bn1.running_var: Tensor[(64), float32], %model.backbone.body.layer1.0.bn1.bias: Tensor[(64), float32], %model.backbone.body.layer1.0.bn1.running_mean: Tensor[(64), float32], %model.backbone.body.layer1.0.conv2.weight: Tensor[(64, 64, 3, 3), float32], %model.backbone.body.layer1.0.bn2.weight: Tensor[(64), float32], %model.backbone.body.layer1.0.bn2.running_var: Tensor[(64), float32], %model.backbone.body.layer1.0.bn2.bias: Tensor[(64), float32], %model.backbone.body.layer1.0.bn2.running_mean: Tensor[(64), float32], %model.backbone.body.layer1.0.conv3.weight: Tensor[(256, 64, 1, 1), float32], %model.backbone.body.layer1.0.bn3.weight: Tensor[(256), float32], %model.backbone.body.layer1.0.bn3.running_var: Tensor[(256), float32], %model.backbone.body.layer1.0.bn3.bias: Tensor[(256), float32], %model.backbone.body.layer1.0.bn3.running_mean: Tensor[(256), float32], %model.backbone.body.layer1.0.downsample.0.weight: Tensor[(256, 64, 1, 1), float32], %model.backbone.body.layer1.0.downsample.1.weight: Tensor[(256), float32], %model.backbone.body.layer1.0.downsample.1.running_var: Tensor[(256), float32], %model.backbone.body.layer1.0.downsample.1.bias: Tensor[(256), float32], %model.backbone.body.layer1.0.downsample.1.running_mean: Tensor[(256), float32], %model.backbone.body.layer1.1.conv1.weight: Tensor[(64, 256, 1, 1), float32], %model.backbone.body.layer1.1.bn1.weight: Tensor[(64), float32], %model.backbone.body.layer1.1.bn1.running_var: Tensor[(64), float32], %model.backbone.body.layer1.1.bn1.bias: Tensor[(64), float32], %model.backbone.body.layer1.1.bn1.running_mean: Tensor[(64), float32], %model.backbone.body.layer1.1.conv2.weight: Tensor[(64, 64, 3, 3), float32], %model.backbone.body.layer1.1.bn2.weight: Tensor[(64), float32], %model.backbone.body.layer1.1.bn2.running_var: Tensor[(64), float32], %model.backbone.body.layer1.1.bn2.bias: Tensor[(64), float32], %model.backbone.body.layer1.1.bn2.running_mean: Tensor[(64), float32], %model.backbone.body.layer1.1.conv3.weight: Tensor[(256, 64, 1, 1), float32], %model.backbone.body.layer1.1.bn3.weight: Tensor[(256), float32], %model.backbone.body.layer1.1.bn3.running_var: Tensor[(256), float32], %model.backbone.body.layer1.1.bn3.bias: Tensor[(256), float32], %model.backbone.body.layer1.1.bn3.running_mean: Tensor[(256), float32], %model.backbone.body.layer1.2.conv1.weight: Tensor[(64, 256, 1, 1), float32], %model.backbone.body.layer1.2.bn1.weight: Tensor[(64), float32], %model.backbone.body.layer1.2.bn1.running_var: Tensor[(64), float32], %model.backbone.body.layer1.2.bn1.bias: Tensor[(64), float32], %model.backbone.body.layer1.2.bn1.running_mean: Tensor[(64), float32], %model.backbone.body.layer1.2.conv2.weight: Tensor[(64, 64, 3, 3), float32], %model.backbone.body.layer1.2.bn2.weight: Tensor[(64), float32], %model.backbone.body.layer1.2.bn2.running_var: Tensor[(64), float32], %model.backbone.body.layer1.2.bn2.bias: Tensor[(64), float32], %model.backbone.body.layer1.2.bn2.running_mean: Tensor[(64), float32], %model.backbone.body.layer1.2.conv3.weight: Tensor[(256, 64, 1, 1), float32], %model.backbone.body.layer1.2.bn3.weight: Tensor[(256), float32], %model.backbone.body.layer1.2.bn3.running_var: Tensor[(256), float32], %model.backbone.body.layer1.2.bn3.bias: Tensor[(256), float32], %model.backbone.body.layer1.2.bn3.running_mean: Tensor[(256), float32], %model.backbone.body.layer2.0.conv1.weight: Tensor[(128, 256, 1, 1), float32], %model.backbone.body.layer2.0.bn1.weight: Tensor[(128), float32], %model.backbone.body.layer2.0.bn1.running_var: Tensor[(128), float32], %model.backbone.body.layer2.0.bn1.bias: Tensor[(128), float32], %model.backbone.body.layer2.0.bn1.running_mean: Tensor[(128), float32], %model.backbone.body.layer2.0.conv2.weight: Tensor[(128, 128, 3, 3), float32], %model.backbone.body.layer2.0.bn2.weight: Tensor[(128), float32], %model.backbone.body.layer2.0.bn2.running_var: Tensor[(128), float32], %model.backbone.body.layer2.0.bn2.bias: Tensor[(128), float32], %model.backbone.body.layer2.0.bn2.running_mean: Tensor[(128), float32], %model.backbone.body.layer2.0.conv3.weight: Tensor[(512, 128, 1, 1), float32], %model.backbone.body.layer2.0.bn3.weight: Tensor[(512), float32], %model.backbone.body.layer2.0.bn3.running_var: Tensor[(512), float32], %model.backbone.body.layer2.0.bn3.bias: Tensor[(512), float32], %model.backbone.body.layer2.0.bn3.running_mean: Tensor[(512), float32], %model.backbone.body.layer2.0.downsample.0.weight: Tensor[(512, 256, 1, 1), float32], %model.backbone.body.layer2.0.downsample.1.weight: Tensor[(512), float32], %model.backbone.body.layer2.0.downsample.1.running_var: Tensor[(512), float32], %model.backbone.body.layer2.0.downsample.1.bias: Tensor[(512), float32], %model.backbone.body.layer2.0.downsample.1.running_mean: Tensor[(512), float32], %model.backbone.body.layer2.1.conv1.weight: Tensor[(128, 512, 1, 1), float32], %model.backbone.body.layer2.1.bn1.weight: Tensor[(128), float32], %model.backbone.body.layer2.1.bn1.running_var: Tensor[(128), float32], %model.backbone.body.layer2.1.bn1.bias: Tensor[(128), float32], %model.backbone.body.layer2.1.bn1.running_mean: Tensor[(128), float32], %model.backbone.body.layer2.1.conv2.weight: Tensor[(128, 128, 3, 3), float32], %model.backbone.body.layer2.1.bn2.weight: Tensor[(128), float32], %model.backbone.body.layer2.1.bn2.running_var: Tensor[(128), float32], %model.backbone.body.layer2.1.bn2.bias: Tensor[(128), float32], %model.backbone.body.layer2.1.bn2.running_mean: Tensor[(128), float32], %model.backbone.body.layer2.1.conv3.weight: Tensor[(512, 128, 1, 1), float32], %model.backbone.body.layer2.1.bn3.weight: Tensor[(512), float32], %model.backbone.body.layer2.1.bn3.running_var: Tensor[(512), float32], %model.backbone.body.layer2.1.bn3.bias: Tensor[(512), float32], %model.backbone.body.layer2.1.bn3.running_mean: Tensor[(512), float32], %model.backbone.body.layer2.2.conv1.weight: Tensor[(128, 512, 1, 1), float32], %model.backbone.body.layer2.2.bn1.weight: Tensor[(128), float32], %model.backbone.body.layer2.2.bn1.running_var: Tensor[(128), float32], %model.backbone.body.layer2.2.bn1.bias: Tensor[(128), float32], %model.backbone.body.layer2.2.bn1.running_mean: Tensor[(128), float32], %model.backbone.body.layer2.2.conv2.weight: Tensor[(128, 128, 3, 3), float32], %model.backbone.body.layer2.2.bn2.weight: Tensor[(128), float32], %model.backbone.body.layer2.2.bn2.running_var: Tensor[(128), float32], %model.backbone.body.layer2.2.bn2.bias: Tensor[(128), float32], %model.backbone.body.layer2.2.bn2.running_mean: Tensor[(128), float32], %model.backbone.body.layer2.2.conv3.weight: Tensor[(512, 128, 1, 1), float…
  %4466 = (meta[relay.Constant][911] /* ty=Tensor[(2), bool] */, meta[relay.Constant][912] /* ty=Tensor[(2), int32] */, %x705);
  %4467 = (%tensor_0959,);
  let %v952: () = vm.invoke_tvm_op(%4465, %4466, %4467) /* ty=() */;
  let %x716: Tensor[(2), int32] = %tensor_0959;
  let %in_shape_0182: Tensor[(2), int64] = vm.shape_of(%x701, meta[relay.attrs.ShapeOfAttrs][244]) /* ty=Tensor[(2), int64] */;
  let %in_shape_1118: Tensor[(2), int32] = device_copy(%x716, meta[relay.attrs.DeviceCopyAttrs][208]) /* ty=Tensor[(2), int32] */;
  let %in_shape_281: Tensor[(2), int64] = device_copy(%x707, meta[relay.attrs.DeviceCopyAttrs][209]) /* ty=Tensor[(2), int64] */;
  let %in_shape_363: Tensor[(2), int32] = device_copy(meta[relay.Constant][913] /* ty=Tensor[(2), int32] */, meta[relay.attrs.DeviceCopyAttrs][210]) /* ty=Tensor[(2), int32] */;
  let %storage_01149: Storage[] = memory.alloc_storage(16 /* ty=int64 */, 64 /* ty=int64 */, meta[relay.attrs.AllocStorageAttrs][1162]) /* ty=Storage[] */;
  let %tensor_0960: Tensor[(2), int64] = memory.alloc_tensor(%storage_01149, 0 /* ty=int64 */, meta[relay.Constant][914] /* ty=Tensor[(1), int64] */, meta[relay.attrs.AllocTensorAttrs][1162]) /* ty=Tensor[(2), int64] */;
  let %shape_func_out_0196: Tensor[(2), int64] = %tensor_0960;
  %4468 = fn (%p0956: Tensor[(?, 4), float32], %p1406: Tensor[(2), int32], %p2242: Tensor[(2), int64], %p3127: Tensor[(2), int32], Primitive=1) -> Tensor[(?, ?), float32] {
    dyn.strided_slice(%p0956, %p1406, %p2242, %p3127, begin=None, end=None, strides=None) /* ty=Tensor[(?, ?), float32] */
  };
  %4469 = (%in_shape_0182, %in_shape_1118, %in_shape_281, %in_shape_363);
  %4470 = (%shape_func_out_0196,);
  let %shape_func196: () = vm.shape_func(%4468, %4469, %4470, meta[relay.attrs.ShapeFuncAttrs][196]) /* ty=() */;
  let %storage_01150: Storage[] = memory.alloc_storage(8 /* ty=int64 */, 64 /* ty=int64 */, meta[relay.attrs.AllocStorageAttrs][1163]) /* ty=Storage[] */;
  let %tensor_0961: int64 = memory.alloc_tensor(%storage_01150, 0 /* ty=int64 */, 0 /* ty=int64 */, meta[relay.attrs.AllocTensorAttrs][1163]) /* ty=int64 */;
  %4471 = fn (%p0957: Tensor[(2), int64], Primitive=1) -> int64 {
    prod(%p0957) /* ty=int64 */
  };
  %4472 = (%shape_func_out_0196,);
  %4473 = (%tensor_0961,);
  let %v953: () = vm.invoke_tvm_op(%4471, %4472, %4473) /* ty=() */;
  let %storage_01151: Storage[] = memory.alloc_storage(8 /* ty=int64 */, 64 /* ty=int64 */, meta[relay.attrs.AllocStorageAttrs][1164]) /* ty=Storage[] */;
  let %tensor_0962: int64 = memory.alloc_tensor(%storage_01151, 0 /* ty=int64 */, 0 /* ty=int64 */, meta[relay.attrs.AllocTensorAttrs][1164]) /* ty=int64 */;
  %4474 = fn (%p0958: int64, Primitive=1) -> int64 {
    multiply(%p0958, 4 /* ty=int64 */) /* ty=int64 */
  };
  %4475 = (%tensor_0961,);
  %4476 = (%tensor_0962,);
  let %v954: () = vm.invoke_tvm_op(%4474, %4475, %4476) /* ty=() */;
  let %storage_01152: Storage[] = memory.alloc_storage(%tensor_0962, 64 /* ty=int64 */, meta[relay.attrs.AllocStorageAttrs][1165]) /* ty=Storage[] */;
  let %out_0189: Tensor[(?, ?), float32] = memory.alloc_tensor(%storage_01152, 0 /* ty=int64 */, %shape_func_out_0196, meta[relay.attrs.AllocTensorAttrs][1165]) /* ty=Tensor[(?, ?), float32] */;
  %4477 = (%x701, %x716, %x707, meta[relay.Constant][913] /* ty=Tensor[(2), int32] */);
  %4478 = (%out_0189,);
  let %v955: () = vm.invoke_tvm_op(%4468, %4477, %4478) /* ty=() */;
  let %x717: Tensor[(?, ?), float32] = %out_0189;
  let %storage_01153: Storage[] = memory.alloc_storage(8 /* ty=int64 */, 64 /* ty=int64 */, meta[relay.attrs.AllocStorageAttrs][1166]) /* ty=Storage[] */;
  let %tensor_0963: Tensor[(2), int32] = memory.alloc_tensor(%storage_01153, 0 /* ty=int64 */, meta[relay.Constant][915] /* ty=Tensor[(1), int64] */, meta[relay.attrs.AllocTensorAttrs][1166]) /* ty=Tensor[(2), int32] */;
  %4481 = fn (%p0959: Tensor[(2), bool], %p1407: Tensor[(2), int32], %p2243: Tensor[(2), int32], Primitive=1) -> Tensor[(2), int32] {
    %4479 = cast_like(%p2243, %p1407) /* ty=Tensor[(2), int32] */;
    %4480 = add(%p1407, %4479) /* ty=Tensor[(2), int32] */;
    where(%p0959, %4480, %p1407) /* ty=Tensor[(2), int32] */
  };
  %4482 = (meta[relay.Constant][916] /* ty=Tensor[(2), bool] */, meta[relay.Constant][917] /* ty=Tensor[(2), int32] */, %x705);
  %4483 = (%tensor_0963,);
  let %v956: () = vm.invoke_tvm_op(%4481, %4482, %4483) /* ty=() */;
  let %x718: Tensor[(2), int32] = %tensor_0963;
  let %in_shape_0183: Tensor[(2), int64] = vm.shape_of(%x701, meta[relay.attrs.ShapeOfAttrs][245]) /* ty=Tensor[(2), int64] */;
  let %in_shape_1119: Tensor[(2), int32] = device_copy(%x718, meta[relay.attrs.DeviceCopyAttrs][211]) /* ty=Tensor[(2), int32] */;
  let %in_shape_282: Tensor[(2), int64] = device_copy(%x707, meta[relay.attrs.DeviceCopyAttrs][212]) /* ty=Tensor[(2), int64] */;
  let %in_shape_364: Tensor[(2), int32] = device_copy(meta[relay.Constant][918] /* ty=Tensor[(2), int32] */, meta[relay.attrs.DeviceCopyAttrs][213]) /* ty=Tensor[(2), int32] */;
  let %storage_01154: Storage[] = memory.alloc_storage(16 /* ty=int64 */, 64 /* ty=int64 */, meta[relay.attrs.AllocStorageAttrs][1167]) /* ty=Storage[] */;
  let %tensor_0964: Tensor[(2), int64] = memory.alloc_tensor(%storage_01154, 0 /* ty=int64 */, meta[relay.Constant][919] /* ty=Tensor[(1), int64] */, meta[relay.attrs.AllocTensorAttrs][1167]) /* ty=Tensor[(2), int64] */;
  let %shape_func_out_0197: Tensor[(2), int64] = %tensor_0964;
  %4484 = fn (%p0960: Tensor[(?, 4), float32], %p1408: Tensor[(2), int32], %p2244: Tensor[(2), int64], %p3128: Tensor[(2), int32], Primitive=1) -> Tensor[(?, ?), float32] {
    dyn.strided_slice(%p0960, %p1408, %p2244, %p3128, begin=None, end=None, strides=None) /* ty=Tensor[(?, ?), float32] */
  };
  %4485 = (%in_shape_0183, %in_shape_1119, %in_shape_282, %in_shape_364);
  %4486 = (%shape_func_out_0197,);
  let %shape_func197: () = vm.shape_func(%4484, %4485, %4486, meta[relay.attrs.ShapeFuncAttrs][197]) /* ty=() */;
  let %storage_01155: Storage[] = memory.alloc_storage(8 /* ty=int64 */, 64 /* ty=int64 */, meta[relay.attrs.AllocStorageAttrs][1168]) /* ty=Storage[] */;
  let %tensor_0965: int64 = memory.alloc_tensor(%storage_01155, 0 /* ty=int64 */, 0 /* ty=int64 */, meta[relay.attrs.AllocTensorAttrs][1168]) /* ty=int64 */;
  %4487 = fn (%p0961: Tensor[(2), int64], Primitive=1) -> int64 {
    prod(%p0961) /* ty=int64 */
  };
  %4488 = (%shape_func_out_0197,);
  %4489 = (%tensor_0965,);
  let %v957: () = vm.invoke_tvm_op(%4487, %4488, %4489) /* ty=() */;
  let %storage_01156: Storage[] = memory.alloc_storage(8 /* ty=int64 */, 64 /* ty=int64 */, meta[relay.attrs.AllocStorageAttrs][1169]) /* ty=Storage[] */;
  let %tensor_0966: int64 = memory.alloc_tensor(%storage_01156, 0 /* ty=int64 */, 0 /* ty=int64 */, meta[relay.attrs.AllocTensorAttrs][1169]) /* ty=int64 */;
  %4490 = fn (%p0962: int64, Primitive=1) -> int64 {
    multiply(%p0962, 4 /* ty=int64 */) /* ty=int64 */
  };
  %4491 = (%tensor_0965,);
  %4492 = (%tensor_0966,);
  let %v958: () = vm.invoke_tvm_op(%4490, %4491, %4492) /* ty=() */;
  let %storage_01157: Storage[] = memory.alloc_storage(%tensor_0966, 64 /* ty=int64 */, meta[relay.attrs.AllocStorageAttrs][1170]) /* ty=Storage[] */;
  let %out_0190: Tensor[(?, ?), float32] = memory.alloc_tensor(%storage_01157, 0 /* ty=int64 */, %shape_func_out_0197, meta[relay.attrs.AllocTensorAttrs][1170]) /* ty=Tensor[(?, ?), float32] */;
  %4493 = (%x701, %x718, %x707, meta[relay.Constant][918] /* ty=Tensor[(2), int32] */);
  %4494 = (%out_0190,);
  let %v959: () = vm.invoke_tvm_op(%4484, %4493, %4494) /* ty=() */;
  let %x719: Tensor[(?, ?), float32] = %out_0190;
  let %storage_01158: Storage[] = memory.alloc_storage(8 /* ty=int64 */, 64 /* ty=int64 */, meta[relay.attrs.AllocStorageAttrs][1171]) /* ty=Storage[] */;
  let %tensor_0967: Tensor[(2), int32] = memory.alloc_tensor(%storage_01158, 0 /* ty=int64 */, meta[relay.Constant][920] /* ty=Tensor[(1), int64] */, meta[relay.attrs.AllocTensorAttrs][1171]) /* ty=Tensor[(2), int32] */;
  %4497 = fn (%p0963: Tensor[(2), bool], %p1409: Tensor[(2), int32], %p2245: Tensor[(2), int32], Primitive=1) -> Tensor[(2), int32] {
    %4495 = cast_like(%p2245, %p1409) /* ty=Tensor[(2), int32] */;
    %4496 = add(%p1409, %4495) /* ty=Tensor[(2), int32] */;
    where(%p0963, %4496, %p1409) /* ty=Tensor[(2), int32] */
  };
  %4498 = (meta[relay.Constant][921] /* ty=Tensor[(2), bool] */, meta[relay.Constant][922] /* ty=Tensor[(2), int32] */, %x705);
  %4499 = (%tensor_0967,);
  let %v960: () = vm.invoke_tvm_op(%4497, %4498, %4499) /* ty=() */;
  let %x720: Tensor[(2), int32] = %tensor_0967;
  let %in_shape_0184: Tensor[(2), int64] = vm.shape_of(%x701, meta[relay.attrs.ShapeOfAttrs][246]) /* ty=Tensor[(2), int64] */;
  let %in_shape_1120: Tensor[(2), int32] = device_copy(%x720, meta[relay.attrs.DeviceCopyAttrs][214]) /* ty=Tensor[(2), int32] */;
  let %in_shape_283: Tensor[(2), int64] = device_copy(%x707, meta[relay.attrs.DeviceCopyAttrs][215]) /* ty=Tensor[(2), int64] */;
  let %in_shape_365: Tensor[(2), int32] = device_copy(meta[relay.Constant][923] /* ty=Tensor[(2), int32] */, meta[relay.attrs.DeviceCopyAttrs][216]) /* ty=Tensor[(2), int32] */;
  let %storage_01159: Storage[] = memory.alloc_storage(16 /* ty=int64 */, 64 /* ty=int64 */, meta[relay.attrs.AllocStorageAttrs][1172]) /* ty=Storage[] */;
  let %tensor_0968: Tensor[(2), int64] = memory.alloc_tensor(%storage_01159, 0 /* ty=int64 */, meta[relay.Constant][924] /* ty=Tensor[(1), int64] */, meta[relay.attrs.AllocTensorAttrs][1172]) /* ty=Tensor[(2), int64] */;
  let %shape_func_out_0198: Tensor[(2), int64] = %tensor_0968;
  %4500 = fn (%p0964: Tensor[(?, 4), float32], %p1410: Tensor[(2), int32], %p2246: Tensor[(2), int64], %p3129: Tensor[(2), int32], Primitive=1) -> Tensor[(?, ?), float32] {
    dyn.strided_slice(%p0964, %p1410, %p2246, %p3129, begin=None, end=None, strides=None) /* ty=Tensor[(?, ?), float32] */
  };
  %4501 = (%in_shape_0184, %in_shape_1120, %in_shape_283, %in_shape_365);
  %4502 = (%shape_func_out_0198,);
  let %shape_func198: () = vm.shape_func(%4500, %4501, %4502, meta[relay.attrs.ShapeFuncAttrs][198]) /* ty=() */;
  let %storage_01160: Storage[] = memory.alloc_storage(8 /* ty=int64 */, 64 /* ty=int64 */, meta[relay.attrs.AllocStorageAttrs][1173]) /* ty=Storage[] */;
  let %tensor_0969: int64 = memory.alloc_tensor(%storage_01160, 0 /* ty=int64 */, 0 /* ty=int64 */, meta[relay.attrs.AllocTensorAttrs][1173]) /* ty=int64 */;
  %4503 = fn (%p0965: Tensor[(2), int64], Primitive=1) -> int64 {
    prod(%p0965) /* ty=int64 */
  };
  %4504 = (%shape_func_out_0198,);
  %4505 = (%tensor_0969,);
  let %v961: () = vm.invoke_tvm_op(%4503, %4504, %4505) /* ty=() */;
  let %storage_01161: Storage[] = memory.alloc_storage(8 /* ty=int64 */, 64 /* ty=int64 */, meta[relay.attrs.AllocStorageAttrs][1174]) /* ty=Storage[] */;
  let %tensor_0970: int64 = memory.alloc_tensor(%storage_01161, 0 /* ty=int64 */, 0 /* ty=int64 */, meta[relay.attrs.AllocTensorAttrs][1174]) /* ty=int64 */;
  %4506 = fn (%p0966: int64, Primitive=1) -> int64 {
    multiply(%p0966, 4 /* ty=int64 */) /* ty=int64 */
  };
  %4507 = (%tensor_0969,);
  %4508 = (%tensor_0970,);
  let %v962: () = vm.invoke_tvm_op(%4506, %4507, %4508) /* ty=() */;
  let %storage_01162: Storage[] = memory.alloc_storage(%tensor_0970, 64 /* ty=int64 */, meta[relay.attrs.AllocStorageAttrs][1175]) /* ty=Storage[] */;
  let %out_0191: Tensor[(?, ?), float32] = memory.alloc_tensor(%storage_01162, 0 /* ty=int64 */, %shape_func_out_0198, meta[relay.attrs.AllocTensorAttrs][1175]) /* ty=Tensor[(?, ?), float32] */;
  %4509 = (%x701, %x720, %x707, meta[relay.Constant][923] /* ty=Tensor[(2), int32] */);
  %4510 = (%out_0191,);
  let %v963: () = vm.invoke_tvm_op(%4500, %4509, %4510) /* ty=() */;
  let %x721: Tensor[(?, ?), float32] = %out_0191;
  let %storage_01163: Storage[] = memory.alloc_storage(8 /* ty=int64 */, 64 /* ty=int64 */, meta[relay.attrs.AllocStorageAttrs][1176]) /* ty=Storage[] */;
  let %tensor_0971: Tensor[(2), int32] = memory.alloc_tensor(%storage_01163, 0 /* ty=int64 */, meta[relay.Constant][925] /* ty=Tensor[(1), int64] */, meta[relay.attrs.AllocTensorAttrs][1176]) /* ty=Tensor[(2), int32] */;
  %4513 = fn (%p0967: Tensor[(2), bool], %p1411: Tensor[(2), int32], %p2247: Tensor[(2), int32], Primitive=1) -> Tensor[(2), int32] {
    %4511 = cast_like(%p2247, %p1411) /* ty=Tensor[(2), int32] */;
    %4512 = add(%p1411, %4511) /* ty=Tensor[(2), int32] */;
    where(%p0967, %4512, %p1411) /* ty=Tensor[(2), int32] */
  };
  %4514 = (meta[relay.Constant][926] /* ty=Tensor[(2), bool] */, meta[relay.Constant][927] /* ty=Tensor[(2), int32] */, %x705);
  %4515 = (%tensor_0971,);
  let %v964: () = vm.invoke_tvm_op(%4513, %4514, %4515) /* ty=() */;
  let %x722: Tensor[(2), int32] = %tensor_0971;
  let %in_shape_0185: Tensor[(2), int64] = vm.shape_of(%x701, meta[relay.attrs.ShapeOfAttrs][247]) /* ty=Tensor[(2), int64] */;
  let %in_shape_1121: Tensor[(2), int32] = device_copy(%x722, meta[relay.attrs.DeviceCopyAttrs][217]) /* ty=Tensor[(2), int32] */;
  let %in_shape_284: Tensor[(2), int64] = device_copy(%x707, meta[relay.attrs.DeviceCopyAttrs][218]) /* ty=Tensor[(2), int64] */;
  let %in_shape_366: Tensor[(2), int32] = device_copy(meta[relay.Constant][928] /* ty=Tensor[(2), int32] */, meta[relay.attrs.DeviceCopyAttrs][219]) /* ty=Tensor[(2), int32] */;
  let %storage_01164: Storage[] = memory.alloc_storage(16 /* ty=int64 */, 64 /* ty=int64 */, meta[relay.attrs.AllocStorageAttrs][1177]) /* ty=Storage[] */;
  let %tensor_0972: Tensor[(2), int64] = memory.alloc_tensor(%storage_01164, 0 /* ty=int64 */, meta[relay.Constant][929] /* ty=Tensor[(1), int64] */, meta[relay.attrs.AllocTensorAttrs][1177]) /* ty=Tensor[(2), int64] */;
  let %shape_func_out_0199: Tensor[(2), int64] = %tensor_0972;
  %4516 = fn (%p0968: Tensor[(?, 4), float32], %p1412: Tensor[(2), int32], %p2248: Tensor[(2), int64], %p3130: Tensor[(2), int32], Primitive=1) -> Tensor[(?, ?), float32] {
    dyn.strided_slice(%p0968, %p1412, %p2248, %p3130, begin=None, end=None, strides=None) /* ty=Tensor[(?, ?), float32] */
  };
  %4517 = (%in_shape_0185, %in_shape_1121, %in_shape_284, %in_shape_366);
  %4518 = (%shape_func_out_0199,);
  let %shape_func199: () = vm.shape_func(%4516, %4517, %4518, meta[relay.attrs.ShapeFuncAttrs][199]) /* ty=() */;
  let %storage_01165: Storage[] = memory.alloc_storage(8 /* ty=int64 */, 64 /* ty=int64 */, meta[relay.attrs.AllocStorageAttrs][1178]) /* ty=Storage[] */;
  let %tensor_0973: int64 = memory.alloc_tensor(%storage_01165, 0 /* ty=int64 */, 0 /* ty=int64 */, meta[relay.attrs.AllocTensorAttrs][1178]) /* ty=int64 */;
  %4519 = fn (%p0969: Tensor[(2), int64], Primitive=1) -> int64 {
    prod(%p0969) /* ty=int64 */
  };
  %4520 = (%shape_func_out_0199,);
  %4521 = (%tensor_0973,);
  let %v965: () = vm.invoke_tvm_op(%4519, %4520, %4521) /* ty=() */;
  let %storage_01166: Storage[] = memory.alloc_storage(8 /* ty=int64 */, 64 /* ty=int64 */, meta[relay.attrs.AllocStorageAttrs][1179]) /* ty=Storage[] */;
  let %tensor_0974: int64 = memory.alloc_tensor(%storage_01166, 0 /* ty=int64 */, 0 /* ty=int64 */, meta[relay.attrs.AllocTensorAttrs][1179]) /* ty=int64 */;
  %4522 = fn (%p0970: int64, Primitive=1) -> int64 {
    multiply(%p0970, 4 /* ty=int64 */) /* ty=int64 */
  };
  %4523 = (%tensor_0973,);
  %4524 = (%tensor_0974,);
  let %v966: () = vm.invoke_tvm_op(%4522, %4523, %4524) /* ty=() */;
  let %storage_01167: Storage[] = memory.alloc_storage(%tensor_0974, 64 /* ty=int64 */, meta[relay.attrs.AllocStorageAttrs][1180]) /* ty=Storage[] */;
  let %out_0192: Tensor[(?, ?), float32] = memory.alloc_tensor(%storage_01167, 0 /* ty=int64 */, %shape_func_out_0199, meta[relay.attrs.AllocTensorAttrs][1180]) /* ty=Tensor[(?, ?), float32] */;
  %4525 = (%x701, %x722, %x707, meta[relay.Constant][928] /* ty=Tensor[(2), int32] */);
  %4526 = (%out_0192,);
  let %v967: () = vm.invoke_tvm_op(%4516, %4525, %4526) /* ty=() */;
  let %x723: Tensor[(?, ?), float32] = %out_0192;
  let %in_shape_0186: Tensor[(2), int64] = vm.shape_of(%x708, meta[relay.attrs.ShapeOfAttrs][248]) /* ty=Tensor[(2), int64] */;
  let %in_shape_1122: Tensor[(2), int64] = vm.shape_of(%x710, meta[relay.attrs.ShapeOfAttrs][249]) /* ty=Tensor[(2), int64] */;
  let %in_shape_285: Tensor[(2), int64] = vm.shape_of(%x712, meta[relay.attrs.ShapeOfAttrs][250]) /* ty=Tensor[(2), int64] */;
  let %in_shape_367: Tensor[(2), int64] = vm.shape_of(%x714, meta[relay.attrs.ShapeOfAttrs][251]) /* ty=Tensor[(2), int64] */;
  let %in_shape_52: Tensor[(2), int64] = vm.shape_of(%x717, meta[relay.attrs.ShapeOfAttrs][252]) /* ty=Tensor[(2), int64] */;
  let %in_shape_61: Tensor[(2), int64] = vm.shape_of(%x719, meta[relay.attrs.ShapeOfAttrs][253]) /* ty=Tensor[(2), int64] */;
  let %in_shape_71: Tensor[(2), int64] = vm.shape_of(%x721, meta[relay.attrs.ShapeOfAttrs][254]) /* ty=Tensor[(2), int64] */;
  let %in_shape_81: Tensor[(2), int64] = vm.shape_of(%x723, meta[relay.attrs.ShapeOfAttrs][255]) /* ty=Tensor[(2), int64] */;
  let %storage_01168: Storage[] = memory.alloc_storage(16 /* ty=int64 */, 64 /* ty=int64 */, meta[relay.attrs.AllocStorageAttrs][1181]) /* ty=Storage[] */;
  let %tensor_0975: Tensor[(2), int64] = memory.alloc_tensor(%storage_01168, 0 /* ty=int64 */, meta[relay.Constant][930] /* ty=Tensor[(1), int64] */, meta[relay.attrs.AllocTensorAttrs][1181]) /* ty=Tensor[(2), int64] */;
  let %shape_func_out_0200: Tensor[(2), int64] = %tensor_0975;
  %4558 = fn (%p0971: Tensor[(?, ?), float32], %p1413: Tensor[(?, ?), float32], %p2249: Tensor[(?, ?), float32], %p3131: Tensor[(?, ?), float32], %p460: Tensor[(4), int32], %p520: Tensor[(?, ?), float32], %p63: Tensor[(?, ?), float32], %p73: Tensor[(?, ?), float32], %p83: Tensor[(?, ?), float32], Primitive=1) -> Tensor[(?, 4), int64] {
    %4527 = take(%p0971, 2 /* ty=int32 */, axis=1) /* ty=Tensor[(?), float32] */;
    %4528 = take(%p1413, 0 /* ty=int32 */, axis=1) /* ty=Tensor[(?), float32] */;
    %4529 = add(%4527, %4528) /* ty=Tensor[(?), float32] */;
    %4530 = multiply(%4529, 0.5f /* ty=float32 */) /* ty=Tensor[(?), float32] */;
    %4531 = take(%p2249, 2 /* ty=int32 */, axis=1) /* ty=Tensor[(?), float32] */;
    %4532 = take(%p3131, 0 /* ty=int32 */, axis=1) /* ty=Tensor[(?), float32] */;
    %4533 = subtract(%4531, %4532) /* ty=Tensor[(?), float32] */;
    %4534 = multiply(%4533, 0.5f /* ty=float32 */) /* ty=Tensor[(?), float32] */;
    %4535 = take(%p460, 3 /* ty=int32 */, axis=0) /* ty=int32 */;
    %4536 = add(%4535, 2 /* ty=int32 */) /* ty=int32 */;
    %4537 = cast(%4536, dtype="int64") /* ty=int64 */;
    %4538 = cast(%4537, dtype="float32") /* ty=float32 */;
    %4539 = cast(%4535, dtype="int64") /* ty=int64 */;
    %4540 = cast(%4539, dtype="float32") /* ty=float32 */;
    %4541 = divide(%4538, %4540) /* ty=float32 */;
    %4542 = multiply(%4534, %4541) /* ty=Tensor[(?), float32] */;
    %4543 = subtract(%4530, %4542) /* ty=Tensor[(?), float32] */;
    %4544 = take(%p520, 3 /* ty=int32 */, axis=1) /* ty=Tensor[(?), float32] */;
    %4545 = take(%p63, 1 /* ty=int32 */, axis=1) /* ty=Tensor[(?), float32] */;
    %4546 = add(%4544, %4545) /* ty=Tensor[(?), float32] */;
    %4547 = multiply(%4546, 0.5f /* ty=float32 */) /* ty=Tensor[(?), float32] */;
    %4548 = take(%p73, 3 /* ty=int32 */, axis=1) /* ty=Tensor[(?), float32] */;
    %4549 = take(%p83, 1 /* ty=int32 */, axis=1) /* ty=Tensor[(?), float32] */;
    %4550 = subtract(%4548, %4549) /* ty=Tensor[(?), float32] */;
    %4551 = multiply(%4550, 0.5f /* ty=float32 */) /* ty=Tensor[(?), float32] */;
    %4552 = multiply(%4551, %4541) /* ty=Tensor[(?), float32] */;
    %4553 = subtract(%4547, %4552) /* ty=Tensor[(?), float32] */;
    %4554 = add(%4530, %4542) /* ty=Tensor[(?), float32] */;
    %4555 = add(%4547, %4552) /* ty=Tensor[(?), float32] */;
    %4556 = (%4543, %4553, %4554, %4555);
    %4557 = stack(%4556, axis=1) /* ty=Tensor[(?, 4), float32] */;
    cast(%4557, dtype="int64") /* ty=Tensor[(?, 4), int64] */
  };
  %4559 = (%in_shape_0186, %in_shape_1122, %in_shape_285, %in_shape_367, meta[relay.Constant][931] /* ty=Tensor[(1), int64] */, %in_shape_52, %in_shape_61, %in_shape_71, %in_shape_81);
  %4560 = (%shape_func_out_0200,);
  let %shape_func200: () = vm.shape_func(%4558, %4559, %4560, meta[relay.attrs.ShapeFuncAttrs][200]) /* ty=() */;
  let %storage_01169: Storage[] = memory.alloc_storage(8 /* ty=int64 */, 64 /* ty=int64 */, meta[relay.attrs.AllocStorageAttrs][1182]) /* ty=Storage[] */;
  let %tensor_0976: int64 = memory.alloc_tensor(%storage_01169, 0 /* ty=int64 */, 0 /* ty=int64 */, meta[relay.attrs.AllocTensorAttrs][1182]) /* ty=int64 */;
  %4561 = fn (%p0972: Tensor[(2), int64], Primitive=1) -> int64 {
    prod(%p0972) /* ty=int64 */
  };
  %4562 = (%shape_func_out_0200,);
  %4563 = (%tensor_0976,);
  let %v968: () = vm.invoke_tvm_op(%4561, %4562, %4563) /* ty=() */;
  let %storage_01170: Storage[] = memory.alloc_storage(8 /* ty=int64 */, 64 /* ty=int64 */, meta[relay.attrs.AllocStorageAttrs][1183]) /* ty=Storage[] */;
  let %tensor_0977: int64 = memory.alloc_tensor(%storage_01170, 0 /* ty=int64 */, 0 /* ty=int64 */, meta[relay.attrs.AllocTensorAttrs][1183]) /* ty=int64 */;
  %4564 = fn (%p0973: int64, Primitive=1) -> int64 {
    multiply(%p0973, 8 /* ty=int64 */) /* ty=int64 */
  };
  %4565 = (%tensor_0976,);
  %4566 = (%tensor_0977,);
  let %v969: () = vm.invoke_tvm_op(%4564, %4565, %4566) /* ty=() */;
  let %storage_01171: Storage[] = memory.alloc_storage(%tensor_0977, 64 /* ty=int64 */, meta[relay.attrs.AllocStorageAttrs][1184]) /* ty=Storage[] */;
  let %out_0193: Tensor[(?, 4), int64] = memory.alloc_tensor(%storage_01171, 0 /* ty=int64 */, %shape_func_out_0200, meta[relay.attrs.AllocTensorAttrs][1184]) /* ty=Tensor[(?, 4), int64] */;
  %4567 = (%x708, %x710, %x712, %x714, %x715, %x717, %x719, %x721, %x723);
  %4568 = (%out_0193,);
  let %v970: () = vm.invoke_tvm_op(%4558, %4567, %4568) /* ty=() */;
  let %x724: Tensor[(?, 4), int64] = %out_0193;
  let %x725: fn (int32, List[Tensor[(?, ?), float32]], Tensor[(?, 1, ?, ?), float32], Tensor[(?, 4), int64]) -> (int32, List[Tensor[(?, ?), float32]], Tensor[(?, 1, ?, ?), float32], Tensor[(?, 4), int64]) = let %while_loop: fn (int32, List[Tensor[(?, ?), float32]], Tensor[(?, 1, ?, ?), float32], Tensor[(?, 4), int64]) -> (int32, List[Tensor[(?, ?), float32]], Tensor[(?, 1, ?, ?), float32], Tensor[(?, 4), int64]) = @lifted_name8408068344935463616(%x700, meta[relay.Constant][478] /* ty=Tensor[(1), int32] */) /* ty=fn (int32, List[Tensor[(?, ?), float32]], Tensor[(?, 1, ?, ?), float32], Tensor[(?, 4), int64]) -> (int32, List[Tensor[(?, ?), float32]], Tensor[(?, 1, ?, ?), float32], Tensor[(?, 4), int64]) */;
  %while_loop;
  let %x726: (int32, List[Tensor[(?, ?), float32]], Tensor[(?, 1, ?, ?), float32], Tensor[(?, 4), int64]) = %x725(0 /* ty=int32 */, %x704, %x700, %x724) /* ty=(int32, List[Tensor[(?, ?), float32]], Tensor[(?, 1, ?, ?), float32], Tensor[(?, 4), int64]) */;
  let %x727: List[Tensor[(?, ?), float32]] = %x726.1;
  let %x728: List[static_tensor_float32_any_any_t[]] = @map(%x703, %x727) /* ty=List[static_tensor_float32_any_any_t[]] */;
  let %x729: static_tensor_float32_any_any_any_t[] = @tensor_array_stack_float32_any_any(%x728) /* ty=static_tensor_float32_any_any_any_t[] */;
  let %x730: Tensor[(?, ?, ?), float32] = @tensor_get_data_float32_any_any_any(%x729) /* ty=Tensor[(?, ?, ?), float32] */;
  let %storage_01172: Storage[] = memory.alloc_storage(12 /* ty=int64 */, 64 /* ty=int64 */, meta[relay.attrs.AllocStorageAttrs][1185]) /* ty=Storage[] */;
  let %tensor_0978: Tensor[(3), int32] = memory.alloc_tensor(%storage_01172, 0 /* ty=int64 */, meta[relay.Constant][932] /* ty=Tensor[(1), int64] */, meta[relay.attrs.AllocTensorAttrs][1185]) /* ty=Tensor[(3), int32] */;
  %4569 = fn (%p0974: Tensor[(?, ?, ?), float32], Primitive=1) -> Tensor[(3), int32] {
    shape_of(%p0974, dtype="int32") /* ty=Tensor[(3), int32] */
  };
  %4570 = (%x730,);
  %4571 = (%tensor_0978,);
  let %v971: () = vm.invoke_tvm_op(%4569, %4570, %4571) /* ty=() */;
  let %x731: Tensor[(3), int32] = %tensor_0978;
  let %storage_01173: Storage[] = memory.alloc_storage(12 /* ty=int64 */, 64 /* ty=int64 */, meta[relay.attrs.AllocStorageAttrs][1186]) /* ty=Storage[] */;
  let %tensor_0979: Tensor[(3), int32] = memory.alloc_tensor(%storage_01173, 0 /* ty=int64 */, meta[relay.Constant][933] /* ty=Tensor[(1), int64] */, meta[relay.attrs.AllocTensorAttrs][1186]) /* ty=Tensor[(3), int32] */;
  %4574 = fn (%p0975: Tensor[(3), bool], %p1414: Tensor[(3), int32], %p2250: Tensor[(3), int32], Primitive=1) -> Tensor[(3), int32] {
    %4572 = cast_like(%p2250, %p1414) /* ty=Tensor[(3), int32] */;
    %4573 = add(%p1414, %4572) /* ty=Tensor[(3), int32] */;
    where(%p0975, %4573, %p1414) /* ty=Tensor[(3), int32] */
  };
  %4575 = (meta[relay.Constant][934] /* ty=Tensor[(3), bool] */, meta[relay.Constant][935] /* ty=Tensor[(3), int32] */, %x731);
  %4576 = (%tensor_0979,);
  let %v972: () = vm.invoke_tvm_op(%4574, %4575, %4576) /* ty=() */;
  let %x732: Tensor[(3), int32] = %tensor_0979;
  let %storage_01174: Storage[] = memory.alloc_storage(24 /* ty=int64 */, 64 /* ty=int64 */, meta[relay.attrs.AllocStorageAttrs][1187]) /* ty=Storage[] */;
  let %tensor_0980: Tensor[(3), int64] = memory.alloc_tensor(%storage_01174, 0 /* ty=int64 */, meta[relay.Constant][936] /* ty=Tensor[(1), int64] */, meta[relay.attrs.AllocTensorAttrs][1187]) /* ty=Tensor[(3), int64] */;
  %4577 = fn (%p0976: Tensor[(3), int32], Primitive=1) -> Tensor[(3), int64] {
    cast(%p0976, dtype="int64") /* ty=Tensor[(3), int64] */
  };
  %4578 = (%x731,);
  %4579 = (%tensor_0980,);
  let %v973: () = vm.invoke_tvm_op(%4577, %4578, %4579) /* ty=() */;
  let %x733: Tensor[(3), int64] = %tensor_0980;
  let %in_shape_0187: Tensor[(3), int64] = vm.shape_of(%x730, meta[relay.attrs.ShapeOfAttrs][256]) /* ty=Tensor[(3), int64] */;
  let %in_shape_1123: Tensor[(3), int32] = device_copy(%x732, meta[relay.attrs.DeviceCopyAttrs][220]) /* ty=Tensor[(3), int32] */;
  let %in_shape_286: Tensor[(3), int64] = device_copy(%x733, meta[relay.attrs.DeviceCopyAttrs][221]) /* ty=Tensor[(3), int64] */;
  let %in_shape_368: Tensor[(3), int32] = device_copy(meta[relay.Constant][937] /* ty=Tensor[(3), int32] */, meta[relay.attrs.DeviceCopyAttrs][222]) /* ty=Tensor[(3), int32] */;
  let %storage_01175: Storage[] = memory.alloc_storage(24 /* ty=int64 */, 64 /* ty=int64 */, meta[relay.attrs.AllocStorageAttrs][1188]) /* ty=Storage[] */;
  let %tensor_0981: Tensor[(3), int64] = memory.alloc_tensor(%storage_01175, 0 /* ty=int64 */, meta[relay.Constant][938] /* ty=Tensor[(1), int64] */, meta[relay.attrs.AllocTensorAttrs][1188]) /* ty=Tensor[(3), int64] */;
  let %shape_func_out_0201: Tensor[(3), int64] = %tensor_0981;
  %4580 = fn (%p0977: Tensor[(?, ?, ?), float32], %p1415: Tensor[(3), int32], %p2251: Tensor[(3), int64], %p3132: Tensor[(3), int32], Primitive=1) -> Tensor[(?, ?, ?), float32] {
    dyn.strided_slice(%p0977, %p1415, %p2251, %p3132, begin=None, end=None, strides=None) /* ty=Tensor[(?, ?, ?), float32] */
  };
  %4581 = (%in_shape_0187, %in_shape_1123, %in_shape_286, %in_shape_368);
  %4582 = (%shape_func_out_0201,);
  let %shape_func201: () = vm.shape_func(%4580, %4581, %4582, meta[relay.attrs.ShapeFuncAttrs][201]) /* ty=() */;
  let %storage_01176: Storage[] = memory.alloc_storage(8 /* ty=int64 */, 64 /* ty=int64 */, meta[relay.attrs.AllocStorageAttrs][1189]) /* ty=Storage[] */;
  let %tensor_0982: int64 = memory.alloc_tensor(%storage_01176, 0 /* ty=int64 */, 0 /* ty=int64 */, meta[relay.attrs.AllocTensorAttrs][1189]) /* ty=int64 */;
  %4583 = fn (%p0978: Tensor[(3), int64], Primitive=1) -> int64 {
    prod(%p0978) /* ty=int64 */
  };
  %4584 = (%shape_func_out_0201,);
  %4585 = (%tensor_0982,);
  let %v974: () = vm.invoke_tvm_op(%4583, %4584, %4585) /* ty=() */;
  let %storage_01177: Storage[] = memory.alloc_storage(8 /* ty=int64 */, 64 /* ty=int64 */, meta[relay.attrs.AllocStorageAttrs][1190]) /* ty=Storage[] */;
  let %tensor_0983: int64 = memory.alloc_tensor(%storage_01177, 0 /* ty=int64 */, 0 /* ty=int64 */, meta[relay.attrs.AllocTensorAttrs][1190]) /* ty=int64 */;
  %4586 = fn (%p0979: int64, Primitive=1) -> int64 {
    multiply(%p0979, 4 /* ty=int64 */) /* ty=int64 */
  };
  %4587 = (%tensor_0982,);
  %4588 = (%tensor_0983,);
  let %v975: () = vm.invoke_tvm_op(%4586, %4587, %4588) /* ty=() */;
  let %storage_01178: Storage[] = memory.alloc_storage(%tensor_0983, 64 /* ty=int64 */, meta[relay.attrs.AllocStorageAttrs][1191]) /* ty=Storage[] */;
  let %out_0194: Tensor[(?, ?, ?), float32] = memory.alloc_tensor(%storage_01178, 0 /* ty=int64 */, %shape_func_out_0201, meta[relay.attrs.AllocTensorAttrs][1191]) /* ty=Tensor[(?, ?, ?), float32] */;
  %4589 = (%x730, %x732, %x733, meta[relay.Constant][937] /* ty=Tensor[(3), int32] */);
  %4590 = (%out_0194,);
  let %v976: () = vm.invoke_tvm_op(%4580, %4589, %4590) /* ty=() */;
  let %x734: Tensor[(?, ?, ?), float32] = %out_0194;
  let %in_shape_0188: Tensor[(3), int64] = vm.shape_of(%x734, meta[relay.attrs.ShapeOfAttrs][257]) /* ty=Tensor[(3), int64] */;
  let %storage_01179: Storage[] = memory.alloc_storage(32 /* ty=int64 */, 64 /* ty=int64 */, meta[relay.attrs.AllocStorageAttrs][1192]) /* ty=Storage[] */;
  let %tensor_0984: Tensor[(4), int64] = memory.alloc_tensor(%storage_01179, 0 /* ty=int64 */, meta[relay.Constant][939] /* ty=Tensor[(1), int64] */, meta[relay.attrs.AllocTensorAttrs][1192]) /* ty=Tensor[(4), int64] */;
  let %shape_func_out_0202: Tensor[(4), int64] = %tensor_0984;
  %4591 = fn (%p0980: Tensor[(?, ?, ?), float32], Primitive=1) -> Tensor[(?, 1, ?, ?), float32] {
    expand_dims(%p0980, axis=1) /* ty=Tensor[(?, 1, ?, ?), float32] */
  };
  %4592 = (%in_shape_0188,);
  %4593 = (%shape_func_out_0202,);
  let %shape_func202: () = vm.shape_func(%4591, %4592, %4593, meta[relay.attrs.ShapeFuncAttrs][202]) /* ty=() */;
  let %storage_01180: Storage[] = memory.alloc_storage(8 /* ty=int64 */, 64 /* ty=int64 */, meta[relay.attrs.AllocStorageAttrs][1193]) /* ty=Storage[] */;
  let %tensor_0985: int64 = memory.alloc_tensor(%storage_01180, 0 /* ty=int64 */, 0 /* ty=int64 */, meta[relay.attrs.AllocTensorAttrs][1193]) /* ty=int64 */;
  %4594 = fn (%p0981: Tensor[(4), int64], Primitive=1) -> int64 {
    prod(%p0981) /* ty=int64 */
  };
  %4595 = (%shape_func_out_0202,);
  %4596 = (%tensor_0985,);
  let %v977: () = vm.invoke_tvm_op(%4594, %4595, %4596) /* ty=() */;
  let %storage_01181: Storage[] = memory.alloc_storage(8 /* ty=int64 */, 64 /* ty=int64 */, meta[relay.attrs.AllocStorageAttrs][1194]) /* ty=Storage[] */;
  let %tensor_0986: int64 = memory.alloc_tensor(%storage_01181, 0 /* ty=int64 */, 0 /* ty=int64 */, meta[relay.attrs.AllocTensorAttrs][1194]) /* ty=int64 */;
  %4597 = fn (%p0982: int64, Primitive=1) -> int64 {
    multiply(%p0982, 4 /* ty=int64 */) /* ty=int64 */
  };
  %4598 = (%tensor_0985,);
  %4599 = (%tensor_0986,);
  let %v978: () = vm.invoke_tvm_op(%4597, %4598, %4599) /* ty=() */;
  let %storage_01182: Storage[] = memory.alloc_storage(%tensor_0986, 64 /* ty=int64 */, meta[relay.attrs.AllocStorageAttrs][1195]) /* ty=Storage[] */;
  let %out_0195: Tensor[(?, 1, ?, ?), float32] = memory.alloc_tensor(%storage_01182, 0 /* ty=int64 */, %shape_func_out_0202, meta[relay.attrs.AllocTensorAttrs][1195]) /* ty=Tensor[(?, 1, ?, ?), float32] */;
  %4600 = (%x734,);
  %4601 = (%out_0195,);
  let %v979: () = vm.invoke_tvm_op(%4591, %4600, %4601) /* ty=() */;
  let %x735: Tensor[(?, 1, ?, ?), float32] = %out_0195;
  let %x736: (Tensor[(?, 4), float32], Tensor[(?), float32], Tensor[(?), int64], Tensor[(?, 1, ?, ?), float32]) = (%x701, %x702, %x693, %x735);
  %x736;
  %x613;
  %x611;
  %x93
}

def @tensor_concatenate_float32_any_any_any(%x737: static_tensor_float32_any_any_any_t[], %y: static_tensor_float32_any_any_any_t[]) -> static_tensor_float32_any_any_any_t[] {
  let %x738: static_tensor_float32_any_any_any_t[] = match? (%x737) {
    tensor_constructor_float32_any_any_any(%t1: Tensor[(?, ?, ?), float32]) => {
      let %x739: static_tensor_float32_any_any_any_t[] = match? (%y) {
        tensor_constructor_float32_any_any_any(%t2: Tensor[(?, ?, ?), float32]) => {
          let %in_shape_0189: Tensor[(3), int64] = vm.shape_of(%t1, meta[relay.attrs.ShapeOfAttrs][258]) /* ty=Tensor[(3), int64] */;
          let %in_shape_1124: Tensor[(3), int64] = vm.shape_of(%t2, meta[relay.attrs.ShapeOfAttrs][259]) /* ty=Tensor[(3), int64] */;
          let %storage_01183: Storage[] = memory.alloc_storage(24 /* ty=int64 */, 64 /* ty=int64 */, meta[relay.attrs.AllocStorageAttrs][1196]) /* ty=Storage[] */;
          let %tensor_0987: Tensor[(3), int64] = memory.alloc_tensor(%storage_01183, 0 /* ty=int64 */, meta[relay.Constant][940] /* ty=Tensor[(1), int64] */, meta[relay.attrs.AllocTensorAttrs][1196]) /* ty=Tensor[(3), int64] */;
          let %shape_func_out_0203: Tensor[(3), int64] = %tensor_0987;
          %4603 = fn (%p0983: Tensor[(?, ?, ?), float32], %p1416: Tensor[(?, ?, ?), float32], Primitive=1) -> Tensor[(?, ?, ?), float32] {
            %4602 = (%p0983, %p1416);
            concatenate(%4602) /* ty=Tensor[(?, ?, ?), float32] */
          };
          %4604 = (%in_shape_0189, %in_shape_1124);
          %4605 = (%shape_func_out_0203,);
          let %shape_func203: () = vm.shape_func(%4603, %4604, %4605, meta[relay.attrs.ShapeFuncAttrs][203]) /* ty=() */;
          let %storage_01184: Storage[] = memory.alloc_storage(8 /* ty=int64 */, 64 /* ty=int64 */, meta[relay.attrs.AllocStorageAttrs][1197]) /* ty=Storage[] */;
          let %tensor_0988: int64 = memory.alloc_tensor(%storage_01184, 0 /* ty=int64 */, 0 /* ty=int64 */, meta[relay.attrs.AllocTensorAttrs][1197]) /* ty=int64 */;
          %4606 = fn (%p0984: Tensor[(3), int64], Primitive=1) -> int64 {
            prod(%p0984) /* ty=int64 */
          };
          %4607 = (%shape_func_out_0203,);
          %4608 = (%tensor_0988,);
          let %v980: () = vm.invoke_tvm_op(%4606, %4607, %4608) /* ty=() */;
          let %storage_01185: Storage[] = memory.alloc_storage(8 /* ty=int64 */, 64 /* ty=int64 */, meta[relay.attrs.AllocStorageAttrs][1198]) /* ty=Storage[] */;
          let %tensor_0989: int64 = memory.alloc_tensor(%storage_01185, 0 /* ty=int64 */, 0 /* ty=int64 */, meta[relay.attrs.AllocTensorAttrs][1198]) /* ty=int64 */;
          %4609 = fn (%p0985: int64, Primitive=1) -> int64 {
            multiply(%p0985, 4 /* ty=int64 */) /* ty=int64 */
          };
          %4610 = (%tensor_0988,);
          %4611 = (%tensor_0989,);
          let %v981: () = vm.invoke_tvm_op(%4609, %4610, %4611) /* ty=() */;
          let %storage_01186: Storage[] = memory.alloc_storage(%tensor_0989, 64 /* ty=int64 */, meta[relay.attrs.AllocStorageAttrs][1199]) /* ty=Storage[] */;
          let %out_0196: Tensor[(?, ?, ?), float32] = memory.alloc_tensor(%storage_01186, 0 /* ty=int64 */, %shape_func_out_0203, meta[relay.attrs.AllocTensorAttrs][1199]) /* ty=Tensor[(?, ?, ?), float32] */;
          %4612 = (%t1, %t2);
          %4613 = (%out_0196,);
          let %v982: () = vm.invoke_tvm_op(%4603, %4612, %4613) /* ty=() */;
          let %x740: Tensor[(?, ?, ?), float32] = %out_0196;
          let %x741: static_tensor_float32_any_any_any_t[] = tensor_constructor_float32_any_any_any(%x740) /* ty=static_tensor_float32_any_any_any_t[] */;
          %x741
        },
      };
      %x739
    },
  };
  %x738
}

def @tensor_get_data_float32_any_any_any(%tensor: static_tensor_float32_any_any_any_t[]) -> Tensor[(?, ?, ?), float32] {
  let %x742: Tensor[(?, ?, ?), float32] = match? (%tensor) {
    tensor_constructor_float32_any_any_any(%t: Tensor[(?, ?, ?), float32]) => {
      %t
    },
  };
  %x742
}

def @tensor_expand_dims_float32_any_any(%x743: static_tensor_float32_any_any_t[]) -> static_tensor_float32_any_any_any_t[] {
  let %x744: static_tensor_float32_any_any_any_t[] = match? (%x743) {
    tensor_constructor_float32_any_any(%t3: Tensor[(?, ?), float32]) => {
      let %in_shape_0190: Tensor[(2), int64] = vm.shape_of(%t3, meta[relay.attrs.ShapeOfAttrs][260]) /* ty=Tensor[(2), int64] */;
      let %storage_01187: Storage[] = memory.alloc_storage(24 /* ty=int64 */, 64 /* ty=int64 */, meta[relay.attrs.AllocStorageAttrs][1200]) /* ty=Storage[] */;
      let %tensor_0990: Tensor[(3), int64] = memory.alloc_tensor(%storage_01187, 0 /* ty=int64 */, meta[relay.Constant][941] /* ty=Tensor[(1), int64] */, meta[relay.attrs.AllocTensorAttrs][1200]) /* ty=Tensor[(3), int64] */;
      let %shape_func_out_0204: Tensor[(3), int64] = %tensor_0990;
      %4614 = fn (%p0986: Tensor[(?, ?), float32], Primitive=1) -> Tensor[(?, ?, ?), float32] {
        expand_dims(%p0986, axis=0) /* ty=Tensor[(?, ?, ?), float32] */
      };
      %4615 = (%in_shape_0190,);
      %4616 = (%shape_func_out_0204,);
      let %shape_func204: () = vm.shape_func(%4614, %4615, %4616, meta[relay.attrs.ShapeFuncAttrs][204]) /* ty=() */;
      let %storage_01188: Storage[] = memory.alloc_storage(8 /* ty=int64 */, 64 /* ty=int64 */, meta[relay.attrs.AllocStorageAttrs][1201]) /* ty=Storage[] */;
      let %tensor_0991: int64 = memory.alloc_tensor(%storage_01188, 0 /* ty=int64 */, 0 /* ty=int64 */, meta[relay.attrs.AllocTensorAttrs][1201]) /* ty=int64 */;
      %4617 = fn (%p0987: Tensor[(3), int64], Primitive=1) -> int64 {
        prod(%p0987) /* ty=int64 */
      };
      %4618 = (%shape_func_out_0204,);
      %4619 = (%tensor_0991,);
      let %v983: () = vm.invoke_tvm_op(%4617, %4618, %4619) /* ty=() */;
      let %storage_01189: Storage[] = memory.alloc_storage(8 /* ty=int64 */, 64 /* ty=int64 */, meta[relay.attrs.AllocStorageAttrs][1202]) /* ty=Storage[] */;
      let %tensor_0992: int64 = memory.alloc_tensor(%storage_01189, 0 /* ty=int64 */, 0 /* ty=int64 */, meta[relay.attrs.AllocTensorAttrs][1202]) /* ty=int64 */;
      %4620 = fn (%p0988: int64, Primitive=1) -> int64 {
        multiply(%p0988, 4 /* ty=int64 */) /* ty=int64 */
      };
      %4621 = (%tensor_0991,);
      %4622 = (%tensor_0992,);
      let %v984: () = vm.invoke_tvm_op(%4620, %4621, %4622) /* ty=() */;
      let %storage_01190: Storage[] = memory.alloc_storage(%tensor_0992, 64 /* ty=int64 */, meta[relay.attrs.AllocStorageAttrs][1203]) /* ty=Storage[] */;
      let %out_0197: Tensor[(?, ?, ?), float32] = memory.alloc_tensor(%storage_01190, 0 /* ty=int64 */, %shape_func_out_0204, meta[relay.attrs.AllocTensorAttrs][1203]) /* ty=Tensor[(?, ?, ?), float32] */;
      %4623 = (%t3,);
      %4624 = (%out_0197,);
      let %v985: () = vm.invoke_tvm_op(%4614, %4623, %4624) /* ty=() */;
      let %x745: Tensor[(?, ?, ?), float32] = %out_0197;
      let %x746: static_tensor_float32_any_any_any_t[] = tensor_constructor_float32_any_any_any(%x745) /* ty=static_tensor_float32_any_any_any_t[] */;
      %x746
    },
  };
  %x744
}

def @foldr[A, B](%f1: fn (A, B) -> B, %acc: B, %xs3: List[A]) -> B {
  let %x747: B = match (%xs3) {
    Cons(%x748: A, %rest2: List[A]) => {
      let %x749: B = @foldr(%f1, %acc, %rest2) /* ty=B */;
      let %x750: B = %f1(%x748, %x749) /* ty=B */;
      %x750
    },
    Nil => {
      %acc
    },
  };
  %x747
}

def @lifted_name9037289787164507084(%eta_expand_param: Tensor[(?, ?), float32]) -> static_tensor_float32_any_any_t[] {
  let %x751: static_tensor_float32_any_any_t[] = tensor_constructor_float32_any_any(%eta_expand_param) /* ty=static_tensor_float32_any_any_t[] */;
  %x751
}

def @lifted_name4769082969410390021[A](%eta_expand_param1: A, %eta_expand_param2: List[A]) -> List[A] {
  let %x752: List[A] = Cons(%eta_expand_param1, %eta_expand_param2) /* ty=List[A] */;
  %x752
}

def @foldl[A, B](%f2: fn (A, B) -> A, %acc1: A, %xs4: List[B]) -> A {
  let %x753: A = match (%xs4) {
    Cons(%x754: B, %rest3: List[B]) => {
      let %x755: A = %f2(%acc1, %x754) /* ty=A */;
      let %x756: A = @foldl(%f2, %x755, %rest3) /* ty=A */;
      %x756
    },
    Nil => {
      %acc1
    },
  };
  %x753
}

def @hd[A](%xs5: List[A]) -> A {
  let %x757: A = match? (%xs5) {
    Cons(%x758: A, _) => {
      %x758
    },
  };
  %x757
}

#[version = "0.0.5"]
fn (%x: Tensor[(?, 1, ?, ?), float32], %x1: Tensor[(1), int32], Closure=1) -> fn (int32, List[Tensor[(?, ?), float32]], Tensor[(?, 1, ?, ?), float32], Tensor[(?, 4), int64]) -> (int32, List[Tensor[(?, ?), float32]], Tensor[(?, 1, ?, ?), float32], Tensor[(?, 4), int64]) {
  fn (%i.1: int32, %res.6: List[Tensor[(?, ?), float32]], %v7286: Tensor[(?, 1, ?, ?), float32], %v7394: Tensor[(?, 4), int64]) -> (int32, List[Tensor[(?, ?), float32]], Tensor[(?, 1, ?, ?), float32], Tensor[(?, 4), int64]) {
    let %x2: (int32, List[Tensor[(?, ?), float32]], Tensor[(?, 1, ?, ?), float32], Tensor[(?, 4), int64]) = let %x3: int64 = 64 /* ty=int64 */;
    let %x4: int64 = 64 /* ty=int64 */;
    let %region1: Storage[] = memory.alloc_storage(%x3, %x4, meta[relay.attrs.AllocStorageAttrs][0]) /* ty=Storage[] */;
    let %storage_0: Storage[] = %region1;
    let %x5: (int32, List[Tensor[(?, ?), float32]], Tensor[(?, 1, ?, ?), float32], Tensor[(?, 4), int64]) = let %x6: (int32, List[Tensor[(?, ?), float32]], Tensor[(?, 1, ?, ?), float32], Tensor[(?, 4), int64]) = let %x7: int64 = 0 /* ty=int64 */;
    let %x8: int64 = 0 /* ty=int64 */;
    let %tensor_0: bool = memory.alloc_tensor(%storage_0, %x7, %x8, meta[relay.attrs.AllocTensorAttrs][0]) /* ty=bool */;
    let %x9: bool = %tensor_0;
    let %x10: (int32, List[Tensor[(?, ?), float32]], Tensor[(?, 1, ?, ?), float32], Tensor[(?, 4), int64]) = let %x11: (int32, List[Tensor[(?, ?), float32]], Tensor[(?, 1, ?, ?), float32], Tensor[(?, 4), int64]) = let %x12: (int32, List[Tensor[(?, ?), float32]], Tensor[(?, 1, ?, ?), float32], Tensor[(?, 4), int64]) = if (%x9) {
      let %x13: (int32, List[Tensor[(?, ?), float32]], Tensor[(?, 1, ?, ?), float32], Tensor[(?, 4), int64]) = let %x14: int64 = 4 /* ty=int64 */;
      let %x15: int64 = 64 /* ty=int64 */;
      let %storage_01: Storage[] = memory.alloc_storage(%x14, %x15, meta[relay.attrs.AllocStorageAttrs][1]) /* ty=Storage[] */;
      let %x16: (int32, List[Tensor[(?, ?), float32]], Tensor[(?, 1, ?, ?), float32], Tensor[(?, 4), int64]) = let %x17: int64 = 0 /* ty=int64 */;
      let %x18: int64 = 0 /* ty=int64 */;
      let %tensor_01: int32 = memory.alloc_tensor(%storage_01, %x17, %x18, meta[relay.attrs.AllocTensorAttrs][1]) /* ty=int32 */;
      let %x19: int32 = %tensor_01;
      let %x20: (int32, List[Tensor[(?, ?), float32]], Tensor[(?, 1, ?, ?), float32], Tensor[(?, 4), int64]) = let %x21: (int32, List[Tensor[(?, ?), float32]], Tensor[(?, 1, ?, ?), float32], Tensor[(?, 4), int64]) = let %x22: int64 = 16 /* ty=int64 */;
      let %x23: int64 = 64 /* ty=int64 */;
      let %storage_02: Storage[] = memory.alloc_storage(%x22, %x23, meta[relay.attrs.AllocStorageAttrs][2]) /* ty=Storage[] */;
      let %x24: (int32, List[Tensor[(?, ?), float32]], Tensor[(?, 1, ?, ?), float32], Tensor[(?, 4), int64]) = let %x25: int64 = 0 /* ty=int64 */;
      let %x26: Tensor[(1), int64] = meta[relay.Constant][0] /* ty=Tensor[(1), int64] */;
      let %tensor_02: Tensor[(2), int64] = memory.alloc_tensor(%storage_02, %x25, %x26, meta[relay.attrs.AllocTensorAttrs][2]) /* ty=Tensor[(2), int64] */;
      let %shape_func_out_0: Tensor[(2), int64] = %tensor_02;
      let %x27: (int32, List[Tensor[(?, ?), float32]], Tensor[(?, 1, ?, ?), float32], Tensor[(?, 4), int64]) = let %x28: (int32, List[Tensor[(?, ?), float32]], Tensor[(?, 1, ?, ?), float32], Tensor[(?, 4), int64]) = let %x29: int64 = 8 /* ty=int64 */;
      let %x30: int64 = 64 /* ty=int64 */;
      let %storage_03: Storage[] = memory.alloc_storage(%x29, %x30, meta[relay.attrs.AllocStorageAttrs][3]) /* ty=Storage[] */;
      let %x31: (int32, List[Tensor[(?, ?), float32]], Tensor[(?, 1, ?, ?), float32], Tensor[(?, 4), int64]) = let %x32: int64 = 0 /* ty=int64 */;
      let %x33: int64 = 0 /* ty=int64 */;
      let %tensor_03: int64 = memory.alloc_tensor(%storage_03, %x32, %x33, meta[relay.attrs.AllocTensorAttrs][3]) /* ty=int64 */;
      let %x34: (int32, List[Tensor[(?, ?), float32]], Tensor[(?, 1, ?, ?), float32], Tensor[(?, 4), int64]) = let %x35: int64 = 64 /* ty=int64 */;
      let %storage_04: Storage[] = memory.alloc_storage(%tensor_03, %x35, meta[relay.attrs.AllocStorageAttrs][4]) /* ty=Storage[] */;
      let %x36: (int32, List[Tensor[(?, ?), float32]], Tensor[(?, 1, ?, ?), float32], Tensor[(?, 4), int64]) = let %x37: int64 = 0 /* ty=int64 */;
      let %out_0: Tensor[(?, ?), float32] = memory.alloc_tensor(%storage_04, %x37, %shape_func_out_0, meta[relay.attrs.AllocTensorAttrs][4]) /* ty=Tensor[(?, ?), float32] */;
      let %x38: Tensor[(?, ?), float32] = %out_0;
      let %x39: (int32, List[Tensor[(?, ?), float32]], Tensor[(?, 1, ?, ?), float32], Tensor[(?, 4), int64]) = let %x40: (int32, List[Tensor[(?, ?), float32]], Tensor[(?, 1, ?, ?), float32], Tensor[(?, 4), int64]) = let %x41: List[Tensor[(?, ?), float32]] = Nil /* ty=List[Tensor[(?, ?), float32]] */;
      let %x42: (int32, List[Tensor[(?, ?), float32]], Tensor[(?, 1, ?, ?), float32], Tensor[(?, 4), int64]) = let %x43: List[Tensor[(?, ?), float32]] = Cons(%x38, %x41) /* ty=List[Tensor[(?, ?), float32]] */;
      let %x44: (int32, List[Tensor[(?, ?), float32]], Tensor[(?, 1, ?, ?), float32], Tensor[(?, 4), int64]) = let %x45: List[Tensor[(?, ?), float32]] = @concat(%res.6, %x43) /* ty=List[Tensor[(?, ?), float32]] */;
      let %x46: (int32, List[Tensor[(?, ?), float32]], Tensor[(?, 1, ?, ?), float32], Tensor[(?, 4), int64]) = let %x47: fn (int32, List[Tensor[(?, ?), float32]], Tensor[(?, 1, ?, ?), float32], Tensor[(?, 4), int64]) -> (int32, List[Tensor[(?, ?), float32]], Tensor[(?, 1, ?, ?), float32], Tensor[(?, 4), int64]) = @lifted_name8408068344935463616(%x, %x1);
      let %x48: (int32, List[Tensor[(?, ?), float32]], Tensor[(?, 1, ?, ?), float32], Tensor[(?, 4), int64]) = %x47(%x19, %x45, %v7286, %v7394) /* ty=(int32, List[Tensor[(?, ?), float32]], Tensor[(?, 1, ?, ?), float32], Tensor[(?, 4), int64]) */;
      %x48;
      %x46;
      %x44;
      %x42;
      %x40;
      %x39;
      %x36;
      %x34;
      %x31;
      %x28;
      %x27;
      %x24;
      %x21;
      %x20;
      %x16;
      %x13
    } else {
      let %x49: (int32, List[Tensor[(?, ?), float32]], Tensor[(?, 1, ?, ?), float32], Tensor[(?, 4), int64]) = let %x50: (int32, List[Tensor[(?, ?), float32]], Tensor[(?, 1, ?, ?), float32], Tensor[(?, 4), int64]) = (%i.1, %res.6, %v7286, %v7394);
      %x50;
      %x49
    };
    %x12;
    %x11;
    %x10;
    %x6;
    %x5;
    %x2
  }
}
#[metadata]
{
  "root": 1, 
  "nodes": [
    {
      "type_key": ""
    }, 
    {
      "type_key": "Map", 
      "keys": [
        "relay.Constant", 
        "relay.attrs.AllocTensorAttrs", 
        "relay.attrs.AllocStorageAttrs"
      ], 
      "data": [2, 7, 21]
    }, 
    {
      "type_key": "Array", 
      "data": [3]
    }, 
    {
      "type_key": "relay.Constant", 
      "attrs": {
        "_checked_type_": "4", 
        "data": "0", 
        "span": "0"
      }
    }, 
    {
      "type_key": "relay.TensorType", 
      "attrs": {
        "dtype": "int64", 
        "shape": "5", 
        "span": "0"
      }
    }, 
    {
      "type_key": "Array", 
      "data": [6]
    }, 
    {
      "type_key": "IntImm", 
      "attrs": {
        "dtype": "int32", 
        "span": "0", 
        "value": "1"
      }
    }, 
    {
      "type_key": "Array", 
      "data": [8, 10, 12, 15, 17]
    }, 
    {
      "type_key": "relay.attrs.AllocTensorAttrs", 
      "attrs": {
        "assert_shape": "9", 
        "const_shape": "0", 
        "dtype": "bool"
      }
    }, 
    {
      "type_key": "Array"
    }, 
    {
      "type_key": "relay.attrs.AllocTensorAttrs", 
      "attrs": {
        "assert_shape": "11", 
        "const_shape": "0", 
        "dtype": "int32"
      }
    }, 
    {
      "type_key": "Array"
    }, 
    {
      "type_key": "relay.attrs.AllocTensorAttrs", 
      "attrs": {
        "assert_shape": "13", 
        "const_shape": "0", 
        "dtype": "int64"
      }
    }, 
    {
      "type_key": "Array", 
      "data": [14]
    }, 
    {
      "type_key": "IntImm", 
      "attrs": {
        "dtype": "int32", 
        "span": "0", 
        "value": "2"
      }
    }, 
    {
      "type_key": "relay.attrs.AllocTensorAttrs", 
      "attrs": {
        "assert_shape": "16", 
        "const_shape": "0", 
        "dtype": "int64"
      }
    }, 
    {
      "type_key": "Array"
    }, 
    {
      "type_key": "relay.attrs.AllocTensorAttrs", 
      "attrs": {
        "assert_shape": "18", 
        "const_shape": "0", 
        "dtype": "float32"
      }
    }, 
    {
      "type_key": "Array", 
      "data": [19, 20]
    }, 
    {
      "type_key": "tir.Any", 
      "attrs": {
        "dtype": "int32", 
        "span": "0"
      }
    }, 
    {
      "type_key": "tir.Any", 
      "attrs": {
        "dtype": "int32", 
        "span": "0"
      }
    }, 
    {
      "type_key": "Array", 
      "data": [22, 23, 24, 25, 26]
    }, 
    {
      "type_key": "relay.attrs.AllocStorageAttrs", 
      "attrs": {
        "device_id": "0", 
        "device_type": "2", 
        "dtype": "bool"
      }
    }, 
    {
      "type_key": "relay.attrs.AllocStorageAttrs", 
      "attrs": {
        "device_id": "0", 
        "device_type": "2", 
        "dtype": "int32"
      }
    }, 
    {
      "type_key": "relay.attrs.AllocStorageAttrs", 
      "attrs": {
        "device_id": "0", 
        "device_type": "1", 
        "dtype": "int64"
      }
    }, 
    {
      "type_key": "relay.attrs.AllocStorageAttrs", 
      "attrs": {
        "device_id": "0", 
        "device_type": "1", 
        "dtype": "int64"
      }
    }, 
    {
      "type_key": "relay.attrs.AllocStorageAttrs", 
      "attrs": {
        "device_id": "0", 
        "device_type": "2", 
        "dtype": "float32"
      }
    }
  ], 
  "b64ndarrays": [
    "P6G0lvBAXt0AAAAAAAAAAAEAAAAAAAAAAQAAAABAAQABAAAAAAAAAAgAAAAAAAAAAgAAAAAAAAA="
  ], 
  "attrs": {"tvm_version": "0.8.dev0"}
}

