fn (%input0: Tensor[(1, 3, 300, 300), float32], %model.backbone.body.conv1.weight: Tensor[(64, 3, 7, 7), float32], %model.backbone.body.bn1.weight: Tensor[(64), float32], %model.backbone.body.bn1.running_var: Tensor[(64), float32], %model.backbone.body.bn1.bias: Tensor[(64), float32], %model.backbone.body.bn1.running_mean: Tensor[(64), float32], %model.backbone.body.layer1.0.conv1.weight: Tensor[(64, 64, 1, 1), float32], %model.backbone.body.layer1.0.bn1.weight: Tensor[(64), float32], %model.backbone.body.layer1.0.bn1.running_var: Tensor[(64), float32], %model.backbone.body.layer1.0.bn1.bias: Tensor[(64), float32], %model.backbone.body.layer1.0.bn1.running_mean: Tensor[(64), float32], %model.backbone.body.layer1.0.conv2.weight: Tensor[(64, 64, 3, 3), float32], %model.backbone.body.layer1.0.bn2.weight: Tensor[(64), float32], %model.backbone.body.layer1.0.bn2.running_var: Tensor[(64), float32], %model.backbone.body.layer1.0.bn2.bias: Tensor[(64), float32], %model.backbone.body.layer1.0.bn2.running_mean: Tensor[(64), float32], %model.backbone.body.layer1.0.conv3.weight: Tensor[(256, 64, 1, 1), float32], %model.backbone.body.layer1.0.bn3.weight: Tensor[(256), float32], %model.backbone.body.layer1.0.bn3.running_var: Tensor[(256), float32], %model.backbone.body.layer1.0.bn3.bias: Tensor[(256), float32], %model.backbone.body.layer1.0.bn3.running_mean: Tensor[(256), float32], %model.backbone.body.layer1.0.downsample.0.weight: Tensor[(256, 64, 1, 1), float32], %model.backbone.body.layer1.0.downsample.1.weight: Tensor[(256), float32], %model.backbone.body.layer1.0.downsample.1.running_var: Tensor[(256), float32], %model.backbone.body.layer1.0.downsample.1.bias: Tensor[(256), float32], %model.backbone.body.layer1.0.downsample.1.running_mean: Tensor[(256), float32], %model.backbone.body.layer1.1.conv1.weight: Tensor[(64, 256, 1, 1), float32], %model.backbone.body.layer1.1.bn1.weight: Tensor[(64), float32], %model.backbone.body.layer1.1.bn1.running_var: Tensor[(64), float32], %model.backbone.body.layer1.1.bn1.bias: Tensor[(64), float32], %model.backbone.body.layer1.1.bn1.running_mean: Tensor[(64), float32], %model.backbone.body.layer1.1.conv2.weight: Tensor[(64, 64, 3, 3), float32], %model.backbone.body.layer1.1.bn2.weight: Tensor[(64), float32], %model.backbone.body.layer1.1.bn2.running_var: Tensor[(64), float32], %model.backbone.body.layer1.1.bn2.bias: Tensor[(64), float32], %model.backbone.body.layer1.1.bn2.running_mean: Tensor[(64), float32], %model.backbone.body.layer1.1.conv3.weight: Tensor[(256, 64, 1, 1), float32], %model.backbone.body.layer1.1.bn3.weight: Tensor[(256), float32], %model.backbone.body.layer1.1.bn3.running_var: Tensor[(256), float32], %model.backbone.body.layer1.1.bn3.bias: Tensor[(256), float32], %model.backbone.body.layer1.1.bn3.running_mean: Tensor[(256), float32], %model.backbone.body.layer1.2.conv1.weight: Tensor[(64, 256, 1, 1), float32], %model.backbone.body.layer1.2.bn1.weight: Tensor[(64), float32], %model.backbone.body.layer1.2.bn1.running_var: Tensor[(64), float32], %model.backbone.body.layer1.2.bn1.bias: Tensor[(64), float32], %model.backbone.body.layer1.2.bn1.running_mean: Tensor[(64), float32], %model.backbone.body.layer1.2.conv2.weight: Tensor[(64, 64, 3, 3), float32], %model.backbone.body.layer1.2.bn2.weight: Tensor[(64), float32], %model.backbone.body.layer1.2.bn2.running_var: Tensor[(64), float32], %model.backbone.body.layer1.2.bn2.bias: Tensor[(64), float32], %model.backbone.body.layer1.2.bn2.running_mean: Tensor[(64), float32], %model.backbone.body.layer1.2.conv3.weight: Tensor[(256, 64, 1, 1), float32], %model.backbone.body.layer1.2.bn3.weight: Tensor[(256), float32], %model.backbone.body.layer1.2.bn3.running_var: Tensor[(256), float32], %model.backbone.body.layer1.2.bn3.bias: Tensor[(256), float32], %model.backbone.body.layer1.2.bn3.running_mean: Tensor[(256), float32], %model.backbone.body.layer2.0.conv1.weight: Tensor[(128, 256, 1, 1), float32], %model.backbone.body.layer2.0.bn1.weight: Tensor[(128), float32], %model.backbone.body.layer2.0.bn1.running_var: Tensor[(128), float32], %model.backbone.body.layer2.0.bn1.bias: Tensor[(128), float32], %model.backbone.body.layer2.0.bn1.running_mean: Tensor[(128), float32], %model.backbone.body.layer2.0.conv2.weight: Tensor[(128, 128, 3, 3), float32], %model.backbone.body.layer2.0.bn2.weight: Tensor[(128), float32], %model.backbone.body.layer2.0.bn2.running_var: Tensor[(128), float32], %model.backbone.body.layer2.0.bn2.bias: Tensor[(128), float32], %model.backbone.body.layer2.0.bn2.running_mean: Tensor[(128), float32], %model.backbone.body.layer2.0.conv3.weight: Tensor[(512, 128, 1, 1), float32], %model.backbone.body.layer2.0.bn3.weight: Tensor[(512), float32], %model.backbone.body.layer2.0.bn3.running_var: Tensor[(512), float32], %model.backbone.body.layer2.0.bn3.bias: Tensor[(512), float32], %model.backbone.body.layer2.0.bn3.running_mean: Tensor[(512), float32], %model.backbone.body.layer2.0.downsample.0.weight: Tensor[(512, 256, 1, 1), float32], %model.backbone.body.layer2.0.downsample.1.weight: Tensor[(512), float32], %model.backbone.body.layer2.0.downsample.1.running_var: Tensor[(512), float32], %model.backbone.body.layer2.0.downsample.1.bias: Tensor[(512), float32], %model.backbone.body.layer2.0.downsample.1.running_mean: Tensor[(512), float32], %model.backbone.body.layer2.1.conv1.weight: Tensor[(128, 512, 1, 1), float32], %model.backbone.body.layer2.1.bn1.weight: Tensor[(128), float32], %model.backbone.body.layer2.1.bn1.running_var: Tensor[(128), float32], %model.backbone.body.layer2.1.bn1.bias: Tensor[(128), float32], %model.backbone.body.layer2.1.bn1.running_mean: Tensor[(128), float32], %model.backbone.body.layer2.1.conv2.weight: Tensor[(128, 128, 3, 3), float32], %model.backbone.body.layer2.1.bn2.weight: Tensor[(128), float32], %model.backbone.body.layer2.1.bn2.running_var: Tensor[(128), float32], %model.backbone.body.layer2.1.bn2.bias: Tensor[(128), float32], %model.backbone.body.layer2.1.bn2.running_mean: Tensor[(128), float32], %model.backbone.body.layer2.1.conv3.weight: Tensor[(512, 128, 1, 1), float32], %model.backbone.body.layer2.1.bn3.weight: Tensor[(512), float32], %model.backbone.body.layer2.1.bn3.running_var: Tensor[(512), float32], %model.backbone.body.layer2.1.bn3.bias: Tensor[(512), float32], %model.backbone.body.layer2.1.bn3.running_mean: Tensor[(512), float32], %model.backbone.body.layer2.2.conv1.weight: Tensor[(128, 512, 1, 1), float32], %model.backbone.body.layer2.2.bn1.weight: Tensor[(128), float32], %model.backbone.body.layer2.2.bn1.running_var: Tensor[(128), float32], %model.backbone.body.layer2.2.bn1.bias: Tensor[(128), float32], %model.backbone.body.layer2.2.bn1.running_mean: Tensor[(128), float32], %model.backbone.body.layer2.2.conv2.weight: Tensor[(128, 128, 3, 3), float32], %model.backbone.body.layer2.2.bn2.weight: Tensor[(128), float32], %model.backbone.body.layer2.2.bn2.running_var: Tensor[(128), float32], %model.backbone.body.layer2.2.bn2.bias: Tensor[(128), float32], %model.backbone.body.layer2.2.bn2.running_mean: Tensor[(128), float32], %model.backbone.body.layer2.2.conv3.weight: Tensor[(512, 128, 1, 1), float32], %model.backbone.body.layer2.2.bn3.weight: Tensor[(512), float32], %model.backbone.body.layer2.2.bn3.running_var: Tensor[(512), float32], %model.backbone.body.layer2.2.bn3.bias: Tensor[(512), float32], %model.backbone.body.layer2.2.bn3.running_mean: Tensor[(512), float32], %model.backbone.body.layer2.3.conv1.weight: Tensor[(128, 512, 1, 1), float32], %model.backbone.body.layer2.3.bn1.weight: Tensor[(128), float32], %model.backbone.body.layer2.3.bn1.running_var: Tensor[(128), float32], %model.backbone.body.layer2.3.bn1.bias: Tensor[(128), float32], %model.backbone.body.layer2.3.bn1.running_mean: Tensor[(128), float32], %model.backbone.body.layer2.3.conv2.weight: Tensor[(128, 128, 3, 3), float32], %model.backbone.body.layer2.3.bn2.weight: Tensor[(128), float32], %model.backbone.body.layer2.3.bn2.running_var: Tensor[(128), float32], %model.backbone.body.layer2.3.bn2.bias: Tensor[(128), float32], %model.backbone.body.layer2.3.bn2.running_mean: Tensor[(128), float32], %model.backbone.body.layer2.3.conv3.weight: Tensor[(512, 128, 1, 1), float32], %model.backbone.body.layer2.3.bn3.weight: Tensor[(512), float32], %model.backbone.body.layer2.3.bn3.running_var: Tensor[(512), float32], %model.backbone.body.layer2.3.bn3.bias: Tensor[(512), float32], %model.backbone.body.layer2.3.bn3.running_mean: Tensor[(512), float32], %model.backbone.body.layer3.0.conv1.weight: Tensor[(256, 512, 1, 1), float32], %model.backbone.body.layer3.0.bn1.weight: Tensor[(256), float32], %model.backbone.body.layer3.0.bn1.running_var: Tensor[(256), float32], %model.backbone.body.layer3.0.bn1.bias: Tensor[(256), float32], %model.backbone.body.layer3.0.bn1.running_mean: Tensor[(256), float32], %model.backbone.body.layer3.0.conv2.weight: Tensor[(256, 256, 3, 3), float32], %model.backbone.body.layer3.0.bn2.weight: Tensor[(256), float32], %model.backbone.body.layer3.0.bn2.running_var: Tensor[(256), float32], %model.backbone.body.layer3.0.bn2.bias: Tensor[(256), float32], %model.backbone.body.layer3.0.bn2.running_mean: Tensor[(256), float32], %model.backbone.body.layer3.0.conv3.weight: Tensor[(1024, 256, 1, 1), float32], %model.backbone.body.layer3.0.bn3.weight: Tensor[(1024), float32], %model.backbone.body.layer3.0.bn3.running_var: Tensor[(1024), float32], %model.backbone.body.layer3.0.bn3.bias: Tensor[(1024), float32], %model.backbone.body.layer3.0.bn3.running_mean: Tensor[(1024), float32], %model.backbone.body.layer3.0.downsample.0.weight: Tensor[(1024, 512, 1, 1), float32], %model.backbone.body.layer3.0.downsample.1.weight: Tensor[(1024), float32], %model.backbone.body.layer3.0.downsample.1.running_var: Tensor[(1024), float32], %model.backbone.body.layer3.0.downsample.1.bias: Tensor[(1024), float32], %model.backbone.body.layer3.0.downsample.1.running_mean: Tensor[(1024), float32], %model.backbone.body.layer3.1.conv1.weight: Tensor[(256, 1024, 1, 1), float32], %model.backbone.body.layer3.1.bn1.weight: Tensor[(256), float32], %model.backbone.body.layer3.1.bn1.running_var: Tensor[(256), float32], %model.backbone.body.layer3.1.bn1.bias: Tensor[(256), float32], %model.backbone.body.layer3.1.bn1.running_mean: Tensor[(256), float32], %model.backbone.body.layer3.1.conv2.weight: Tensor[(256, 256, 3, 3), float32], %model.backbone.body.layer3.1.bn2.weight: Tensor[(256), float32], %model.backbone.body.layer3.1.bn2.running_var: Tensor[(256), float32], %model.backbone.body.layer3.1.bn2.bias: Tensor[(256), float32], %model.backbone.body.layer3.1.bn2.running_mean: Tensor[(256), float32], %model.backbone.body.layer3.1.conv3.weight: Tensor[(1024, 256, 1, 1), float32], %model.backbone.body.layer3.1.bn3.weight: Tensor[(1024), float32], %model.backbone.body.layer3.1.bn3.running_var: Tensor[(1024), float32], %model.backbone.body.layer3.1.bn3.bias: Tensor[(1024), float32], %model.backbone.body.layer3.1.bn3.running_mean: Tensor[(1024), float32], %model.backbone.body.layer3.2.conv1.weight: Tensor[(256, 1024, 1, 1), float32], %model.backbone.body.layer3.2.bn1.weight: Tensor[(256), float32], %model.backbone.body.layer3.2.bn1.running_var: Tensor[(256), float32], %model.backbone.body.layer3.2.bn1.bias: Tensor[(256), float32], %model.backbone.body.layer3.2.bn1.running_mean: Tensor[(256), float32], %model.backbone.body.layer3.2.conv2.weight: Tensor[(256, 256, 3, 3), float32], %model.backbone.body.layer3.2.bn2.weight: Tensor[(256), float32], %model.backbone.body.layer3.2.bn2.running_var: Tensor[(256), float32], %model.backbone.body.layer3.2.bn2.bias: Tensor[(256), float32], %model.backbone.body.layer3.2.bn2.running_mean: Tensor[(256), float32], %model.backbone.body.layer3.2.conv3.weight: Tensor[(1024, 256, 1, 1), float32], %model.backbone.body.layer3.2.bn3.weight: Tensor[(1024), float32], %model.backbone.body.layer3.2.bn3.running_var: Tensor[(1024), float32], %model.backbone.body.layer3.2.bn3.bias: Tensor[(1024), float32], %model.backbone.body.layer3.2.bn3.running_mean: Tensor[(1024), float32], %model.backbone.body.layer3.3.conv1.weight: Tensor[(256, 1024, 1, 1), float32], %model.backbone.body.layer3.3.bn1.weight: Tensor[(256), float32], %model.backbone.body.layer3.3.bn1.running_var: Tensor[(256), float32], %model.backbone.body.layer3.3.bn1.bias: Tensor[(256), float32], %model.backbone.body.layer3.3.bn1.running_mean: Tensor[(256), float32], %model.backbone.body.layer3.3.conv2.weight: Tensor[(256, 256, 3, 3), float32], %model.backbone.body.layer3.3.bn2.weight: Tensor[(256), float32], %model.backbone.body.layer3.3.bn2.running_var: Tensor[(256), float32], %model.backbone.body.layer3.3.bn2.bias: Tensor[(256), float32], %model.backbone.body.layer3.3.bn2.running_mean: Tensor[(256), float32], %model.backbone.body.layer3.3.conv3.weight: Tensor[(1024, 256, 1, 1), float32], %model.backbone.body.layer3.3.bn3.weight: Tensor[(1024), float32], %model.backbone.body.layer3.3.bn3.running_var: Tensor[(1024), float32], %model.backbone.body.layer3.3.bn3.bias: Tensor[(1024), float32], %model.backbone.body.layer3.3.bn3.running_mean: Tensor[(1024), float32], %model.backbone.body.layer3.4.conv1.weight: Tensor[(256, 1024, 1, 1), float32], %model.backbone.body.layer3.4.bn1.weight: Tensor[(256), float32], %model.backbone.body.layer3.4.bn1.running_var: Tensor[(256), float32], %model.backbone.body.layer3.4.bn1.bias: Tensor[(256), float32], %model.backbone.body.layer3.4.bn1.running_mean: Tensor[(256), float32], %model.backbone.body.layer3.4.conv2.weight: Tensor[(256, 256, 3, 3), float32], %model.backbone.body.layer3.4.bn2.weight: Tensor[(256), float32], %model.backbone.body.layer3.4.bn2.running_var: Tensor[(256), float32], %model.backbone.body.layer3.4.bn2.bias: Tensor[(256), float32], %model.backbone.body.layer3.4.bn2.running_mean: Tensor[(256), float32], %model.backbone.body.layer3.4.conv3.weight: Tensor[(1024, 256, 1, 1), float32], %model.backbone.body.layer3.4.bn3.weight: Tensor[(1024), float32], %model.backbone.body.layer3.4.bn3.running_var: Tensor[(1024), float32], %model.backbone.body.layer3.4.bn3.bias: Tensor[(1024), float32], %model.backbone.body.layer3.4.bn3.running_mean: Tensor[(1024), float32], %model.backbone.body.layer3.5.conv1.weight: Tensor[(256, 1024, 1, 1), float32], %model.backbone.body.layer3.5.bn1.weight: Tensor[(256), float32], %model.backbone.body.layer3.5.bn1.running_var: Tensor[(256), float32], %model.backbone.body.layer3.5.bn1.bias: Tensor[(256), float32], %model.backbone.body.layer3.5.bn1.running_mean: Tensor[(256), float32], %model.backbone.body.layer3.5.conv2.weight: Tensor[(256, 256, 3, 3), float32], %model.backbone.body.layer3.5.bn2.weight: Tensor[(256), float32], %model.backbone.body.layer3.5.bn2.running_var: Tensor[(256), float32], %model.backbone.body.layer3.5.bn2.bias: Tensor[(256), float32], %model.backbone.body.layer3.5.bn2.running_mean: Tensor[(256), float32], %model.backbone.body.layer3.5.conv3.weight: Tensor[(1024, 256, 1, 1), float32], %model.backbone.body.layer3.5.bn3.weight: Tensor[(1024), float32], %model.backbone.body.layer3.5.bn3.running_var: Tensor[(1024), float32], %model.backbone.body.layer3.5.bn3.bias: Tensor[(1024), float32], %model.backbone.body.layer3.5.bn3.running_mean: Tensor[(1024), float32], %model.backbone.body.layer4.0.conv1.weight: Tensor[(512, 1024, 1, 1), float32], %model.backbone.body.layer4.0.bn1.weight: Tensor[(512), float32], %model.backbone.body.layer4.0.bn1.running_var: Tensor[(512), float32], %model.backbone.body.layer4.0.bn1.bias: Tensor[(512), float32], %model.backbone.body.layer4.0.bn1.running_mean: Tensor[(512), float32], %model.backbone.body.layer4.0.conv2.weight: Tensor[(512, 512, 3, 3), float32], %model.backbone.body.layer4.0.bn2.weight: Tensor[(512), float32], %model.backbone.body.layer4.0.bn2.running_var: Tensor[(512), float32], %model.backbone.body.layer4.0.bn2.bias: Tensor[(512), float32], %model.backbone.body.layer4.0.bn2.running_mean: Tensor[(512), float32], %model.backbone.body.layer4.0.conv3.weight: Tensor[(2048, 512, 1, 1), float32], %model.backbone.body.layer4.0.bn3.weight: Tensor[(2048), float32], %model.backbone.body.layer4.0.bn3.running_var: Tensor[(2048), float32], %model.backbone.body.layer4.0.bn3.bias: Tensor[(2048), float32], %model.backbone.body.layer4.0.bn3.running_mean: Tensor[(2048), float32], %model.backbone.body.layer4.0.downsample.0.weight: Tensor[(2048, 1024, 1, 1), float32], %model.backbone.body.layer4.0.downsample.1.weight: Tensor[(2048), float32], %model.backbone.body.layer4.0.downsample.1.running_var: Tensor[(2048), float32], %model.backbone.body.layer4.0.downsample.1.bias: Tensor[(2048), float32], %model.backbone.body.layer4.0.downsample.1.running_mean: Tensor[(2048), float32], %model.backbone.body.layer4.1.conv1.weight: Tensor[(512, 2048, 1, 1), float32], %model.backbone.body.layer4.1.bn1.weight: Tensor[(512), float32], %model.backbone.body.layer4.1.bn1.running_var: Tensor[(512), float32], %model.backbone.body.layer4.1.bn1.bias: Tensor[(512), float32], %model.backbone.body.layer4.1.bn1.running_mean: Tensor[(512), float32], %model.backbone.body.layer4.1.conv2.weight: Tensor[(512, 512, 3, 3), float32], %model.backbone.body.layer4.1.bn2.weight: Tensor[(512), float32], %model.backbone.body.layer4.1.bn2.running_var: Tensor[(512), float32], %model.backbone.body.layer4.1.bn2.bias: Tensor[(512), float32], %model.backbone.body.layer4.1.bn2.running_mean: Tensor[(512), float32], %model.backbone.body.layer4.1.conv3.weight: Tensor[(2048, 512, 1, 1), float32], %model.backbone.body.layer4.1.bn3.weight: Tensor[(2048), float32], %model.backbone.body.layer4.1.bn3.running_var: Tensor[(2048), float32], %model.backbone.body.layer4.1.bn3.bias: Tensor[(2048), float32], %model.backbone.body.layer4.1.bn3.running_mean: Tensor[(2048), float32], %model.backbone.body.layer4.2.conv1.weight: Tensor[(512, 2048, 1, 1), float32], %model.backbone.body.layer4.2.bn1.weight: Tensor[(512), float32], %model.backbone.body.layer4.2.bn1.running_var: Tensor[(512), float32], %model.backbone.body.layer4.2.bn1.bias: Tensor[(512), float32], %model.backbone.body.layer4.2.bn1.running_mean: Tensor[(512), float32], %model.backbone.body.layer4.2.conv2.weight: Tensor[(512, 512, 3, 3), float32], %model.backbone.body.layer4.2.bn2.weight: Tensor[(512), float32], %model.backbone.body.layer4.2.bn2.running_var: Tensor[(512), float32], %model.backbone.body.layer4.2.bn2.bias: Tensor[(512), float32], %model.backbone.body.layer4.2.bn2.running_mean: Tensor[(512), float32], %model.backbone.body.layer4.2.conv3.weight: Tensor[(2048, 512, 1, 1), float32], %model.backbone.body.layer4.2.bn3.weight: Tensor[(2048), float32], %model.backbone.body.layer4.2.bn3.running_var: Tensor[(2048), float32], %model.backbone.body.layer4.2.bn3.bias: Tensor[(2048), float32], %model.backbone.body.layer4.2.bn3.running_mean: Tensor[(2048), float32], %model.backbone.fpn.inner_blocks.0.weight: Tensor[(256, 256, 1, 1), float32], %model.backbone.fpn.inner_blocks.0.bias: Tensor[(256), float32], %model.backbone.fpn.inner_blocks.1.weight: Tensor[(256, 512, 1, 1), float32], %model.backbone.fpn.inner_blocks.1.bias: Tensor[(256), float32], %model.backbone.fpn.inner_blocks.2.weight: Tensor[(256, 1024, 1, 1), float32], %model.backbone.fpn.inner_blocks.2.bias: Tensor[(256), float32], %model.backbone.fpn.inner_blocks.3.weight: Tensor[(256, 2048, 1, 1), float32], %model.backbone.fpn.inner_blocks.3.bias: Tensor[(256), float32], %model.backbone.fpn.layer_blocks.0.weight: Tensor[(256, 256, 3, 3), float32], %model.backbone.fpn.layer_blocks.0.bias: Tensor[(256), float32], %model.backbone.fpn.layer_blocks.1.weight: Tensor[(256, 256, 3, 3), float32], %model.backbone.fpn.layer_blocks.1.bias: Tensor[(256), float32], %model.backbone.fpn.layer_blocks.2.weight: Tensor[(256, 256, 3, 3), float32], %model.backbone.fpn.layer_blocks.2.bias: Tensor[(256), float32], %model.backbone.fpn.layer_blocks.3.weight: Tensor[(256, 256, 3, 3), float32], %model.backbone.fpn.layer_blocks.3.bias: Tensor[(256), float32], %model.rpn.head.conv.weight: Tensor[(256, 256, 3, 3), float32], %model.rpn.head.conv.bias: Tensor[(256), float32], %model.rpn.head.cls_logits.weight: Tensor[(3, 256, 1, 1), float32], %model.rpn.head.cls_logits.bias: Tensor[(3), float32], %model.rpn.head.bbox_pred.weight: Tensor[(12, 256, 1, 1), float32], %model.rpn.head.bbox_pred.bias: Tensor[(12), float32], %model.roi_heads.box_head.fc6.weight: Tensor[(1024, 12544), float32], %model.roi_heads.box_head.fc6.bias: Tensor[(1024), float32], %model.roi_heads.box_head.fc7.weight: Tensor[(1024, 1024), float32], %model.roi_heads.box_head.fc7.bias: Tensor[(1024), float32], %model.roi_heads.box_predictor.cls_score.weight: Tensor[(91, 1024), float32], %model.roi_heads.box_predictor.cls_score.bias: Tensor[(91), float32], %model.roi_heads.box_predictor.bbox_pred.weight: Tensor[(364, 1024), float32], %model.roi_heads.box_predictor.bbox_pred.bias: Tensor[(364), float32], %model.roi_heads.mask_head.mask_fcn1.weight: Tensor[(256, 256, 3, 3), float32], %model.roi_heads.mask_head.mask_fcn1.bias: Tensor[(256), float32], %model.roi_heads.mask_head.mask_fcn2.weight: Tensor[(256, 256, 3, 3), float32], %model.roi_heads.mask_head.mask_fcn2.bias: Tensor[(256), float32], %model.roi_heads.mask_head.mask_fcn3.weight: Tensor[(256, 256, 3, 3), float32], %model.roi_heads.mask_head.mask_fcn3.bias: Tensor[(256), float32], %model.roi_heads.mask_head.mask_fcn4.weight: Tensor[(256, 256, 3, 3), float32], %model.roi_heads.mask_head.mask_fcn4.bias: Tensor[(256), float32], %model.roi_heads.mask_predictor.conv5_mask.weight: Tensor[(256, 256, 2, 2), float32], %model.roi_heads.mask_predictor.conv5_mask.bias: Tensor[(256), float32], %model.roi_heads.mask_predictor.mask_fcn_logits.weight: Tensor[(91, 256, 1, 1), float32], %model.roi_heads.mask_predictor.mask_fcn_logits.bias: Tensor[(91), float32]) -> (Tensor[(?, 4), float32], Tensor[(?), float32], Tensor[(?), int64], Tensor[(?, 1, ?, ?), float32]) {
  let %x: (Tensor[(?, 4), float32], Tensor[(?), float32], Tensor[(?), int64], Tensor[(?, 1, ?, ?), float32]) = let %storage_0: Storage[] = memory.alloc_storage(7680000 /* ty=int64 */, 64 /* ty=int64 */, meta[relay.attrs.AllocStorageAttrs][0]) /* ty=Storage[] */;
  let %tensor_0: Tensor[(1, 3, 800, 800), float32] = memory.alloc_tensor(%storage_0, 0 /* ty=int64 */, meta[relay.Constant][0] /* ty=Tensor[(4), int64] */, meta[relay.attrs.AllocTensorAttrs][0]) /* ty=Tensor[(1, 3, 800, 800), float32] */;
  %10 = fn (%p0: Tensor[(1, 3, 300, 300), float32], %p1: Tensor[(3, 1, 1), float32], %p2: Tensor[(3, 1, 1), float32], Primitive=1) -> Tensor[(1, 3, 800, 800), float32] {
    %0 = split(%p0, indices_or_sections=1) /* ty=(Tensor[(1, 3, 300, 300), float32],) */;
    %1 = %0.0;
    %2 = squeeze(%1, axis=[0]) /* ty=Tensor[(3, 300, 300), float32] */;
    %3 = subtract(%2, %p1) /* ty=Tensor[(3, 300, 300), float32] */;
    %4 = divide(%3, %p2) /* ty=Tensor[(3, 300, 300), float32] */;
    %5 = expand_dims(%4, axis=0) /* ty=Tensor[(1, 3, 300, 300), float32] */;
    %6 = image.resize(%5, size=[800, 800]) /* ty=Tensor[(1, 3, 800, 800), float32] */;
    %7 = take(%6, 0 /* ty=int32 */, axis=0) /* ty=Tensor[(3, 800, 800), float32] */;
    %8 = nn.pad(%7, pad_width=[[0, 0], [0, 0], [0, 0]]) /* ty=Tensor[(3, 800, 800), float32] */;
    %9 = (%8,);
    stack(%9) /* ty=Tensor[(1, 3, 800, 800), float32] */
  };
  %11 = (%input0, meta[relay.Constant][1] /* ty=Tensor[(3, 1, 1), float32] */, meta[relay.Constant][2] /* ty=Tensor[(3, 1, 1), float32] */);
  %12 = (%tensor_0,);
  let %v: () = vm.invoke_tvm_op(%10, %11, %12) /* ty=() */;
  let %x1: Tensor[(1, 3, 800, 800), float32] = %tensor_0;
  let %storage_01: Storage[] = memory.alloc_storage(256 /* ty=int64 */, 64 /* ty=int64 */, meta[relay.attrs.AllocStorageAttrs][1]) /* ty=Storage[] */;
  let %tensor_01: Tensor[(1, 64, 1, 1), float32] = memory.alloc_tensor(%storage_01, 0 /* ty=int64 */, meta[relay.Constant][3] /* ty=Tensor[(4), int64] */, meta[relay.attrs.AllocTensorAttrs][1]) /* ty=Tensor[(1, 64, 1, 1), float32] */;
  %17 = fn (%p01: Tensor[(64), float32], %p11: Tensor[(64), float32], Primitive=1) -> Tensor[(1, 64, 1, 1), float32] {
    %13 = reshape(%p01, newshape=[1, -1, 1, 1]) /* ty=Tensor[(1, 64, 1, 1), float32] */;
    %14 = reshape(%p11, newshape=[1, -1, 1, 1]) /* ty=Tensor[(1, 64, 1, 1), float32] */;
    %15 = add(%14, 0f /* ty=float32 */) /* ty=Tensor[(1, 64, 1, 1), float32] */;
    %16 = rsqrt(%15) /* ty=Tensor[(1, 64, 1, 1), float32] */;
    multiply(%13, %16) /* ty=Tensor[(1, 64, 1, 1), float32] */
  };
  %18 = (%model.backbone.body.bn1.weight, %model.backbone.body.bn1.running_var);
  %19 = (%tensor_01,);
  let %v1: () = vm.invoke_tvm_op(%17, %18, %19) /* ty=() */;
  let %x2: Tensor[(1, 64, 1, 1), float32] = %tensor_01;
  let %storage_02: Storage[] = memory.alloc_storage(37632 /* ty=int64 */, 64 /* ty=int64 */, meta[relay.attrs.AllocStorageAttrs][2]) /* ty=Storage[] */;
  let %tensor_02: Tensor[(64, 3, 7, 7), float32] = memory.alloc_tensor(%storage_02, 0 /* ty=int64 */, meta[relay.Constant][4] /* ty=Tensor[(4), int64] */, meta[relay.attrs.AllocTensorAttrs][2]) /* ty=Tensor[(64, 3, 7, 7), float32] */;
  %22 = fn (%p02: Tensor[(64, 3, 7, 7), float32], %p12: Tensor[(1, 64, 1, 1), float32], Primitive=1) -> Tensor[(64, 3, 7, 7), float32] {
    %20 = squeeze(%p12, axis=[0, 2, 3]) /* ty=Tensor[(64), float32] */;
    %21 = expand_dims(%20, axis=1, num_newaxis=3) /* ty=Tensor[(64, 1, 1, 1), float32] */;
    multiply(%p02, %21) /* ty=Tensor[(64, 3, 7, 7), float32] */
  };
  %23 = (%model.backbone.body.conv1.weight, %x2);
  %24 = (%tensor_02,);
  let %v2: () = vm.invoke_tvm_op(%22, %23, %24) /* ty=() */;
  let %x3: Tensor[(64, 3, 7, 7), float32] = %tensor_02;
  let %x4: Tensor[(1, 64, 1, 1), float32] = vm.reshape_tensor(%model.backbone.body.bn1.bias, meta[relay.Constant][5] /* ty=Tensor[(4), int64] */, meta[relay.attrs.ReshapeTensorAttrs][0]) /* ty=Tensor[(1, 64, 1, 1), float32] */;
  let %x5: Tensor[(1, 64, 1, 1), float32] = vm.reshape_tensor(%model.backbone.body.bn1.running_mean, meta[relay.Constant][6] /* ty=Tensor[(4), int64] */, meta[relay.attrs.ReshapeTensorAttrs][1]) /* ty=Tensor[(1, 64, 1, 1), float32] */;
  let %storage_03: Storage[] = memory.alloc_storage(40960000 /* ty=int64 */, 64 /* ty=int64 */, meta[relay.attrs.AllocStorageAttrs][3]) /* ty=Storage[] */;
  let %tensor_03: Tensor[(1, 64, 400, 400), float32] = memory.alloc_tensor(%storage_03, 0 /* ty=int64 */, meta[relay.Constant][7] /* ty=Tensor[(4), int64] */, meta[relay.attrs.AllocTensorAttrs][3]) /* ty=Tensor[(1, 64, 400, 400), float32] */;
  %29 = fn (%p03: Tensor[(1, 3, 800, 800), float32], %p13: Tensor[(64, 3, 7, 7), float32], %p21: Tensor[(1, 64, 1, 1), float32], %p3: Tensor[(1, 64, 1, 1), float32], %p4: Tensor[(1, 64, 1, 1), float32], Primitive=1) -> Tensor[(1, 64, 400, 400), float32] {
    %25 = nn.conv2d(%p03, %p13, strides=[2, 2], padding=[3, 3, 3, 3], channels=64, kernel_size=[7, 7]) /* ty=Tensor[(1, 64, 400, 400), float32] */;
    %26 = multiply(%p3, %p4) /* ty=Tensor[(1, 64, 1, 1), float32] */;
    %27 = subtract(%p21, %26) /* ty=Tensor[(1, 64, 1, 1), float32] */;
    %28 = add(%25, %27) /* ty=Tensor[(1, 64, 400, 400), float32] */;
    nn.relu(%28) /* ty=Tensor[(1, 64, 400, 400), float32] */
  };
  %30 = (%x1, %x3, %x4, %x5, %x2);
  %31 = (%tensor_03,);
  let %v3: () = vm.invoke_tvm_op(%29, %30, %31) /* ty=() */;
  let %x6: Tensor[(1, 64, 400, 400), float32] = %tensor_03;
  let %storage_04: Storage[] = memory.alloc_storage(10240000 /* ty=int64 */, 64 /* ty=int64 */, meta[relay.attrs.AllocStorageAttrs][4]) /* ty=Storage[] */;
  let %tensor_04: Tensor[(1, 64, 200, 200), float32] = memory.alloc_tensor(%storage_04, 0 /* ty=int64 */, meta[relay.Constant][8] /* ty=Tensor[(4), int64] */, meta[relay.attrs.AllocTensorAttrs][4]) /* ty=Tensor[(1, 64, 200, 200), float32] */;
  %32 = fn (%p04: Tensor[(1, 64, 400, 400), float32], Primitive=1) -> Tensor[(1, 64, 200, 200), float32] {
    nn.max_pool2d(%p04, pool_size=[3, 3], strides=[2, 2], padding=[1, 1, 1, 1]) /* ty=Tensor[(1, 64, 200, 200), float32] */
  };
  %33 = (%x6,);
  %34 = (%tensor_04,);
  let %v4: () = vm.invoke_tvm_op(%32, %33, %34) /* ty=() */;
  let %x7: Tensor[(1, 64, 200, 200), float32] = %tensor_04;
  let %storage_05: Storage[] = memory.alloc_storage(256 /* ty=int64 */, 64 /* ty=int64 */, meta[relay.attrs.AllocStorageAttrs][5]) /* ty=Storage[] */;
  let %tensor_05: Tensor[(1, 64, 1, 1), float32] = memory.alloc_tensor(%storage_05, 0 /* ty=int64 */, meta[relay.Constant][9] /* ty=Tensor[(4), int64] */, meta[relay.attrs.AllocTensorAttrs][5]) /* ty=Tensor[(1, 64, 1, 1), float32] */;
  %39 = fn (%p05: Tensor[(64), float32], %p14: Tensor[(64), float32], Primitive=1) -> Tensor[(1, 64, 1, 1), float32] {
    %35 = reshape(%p05, newshape=[1, -1, 1, 1]) /* ty=Tensor[(1, 64, 1, 1), float32] */;
    %36 = reshape(%p14, newshape=[1, -1, 1, 1]) /* ty=Tensor[(1, 64, 1, 1), float32] */;
    %37 = add(%36, 0f /* ty=float32 */) /* ty=Tensor[(1, 64, 1, 1), float32] */;
    %38 = rsqrt(%37) /* ty=Tensor[(1, 64, 1, 1), float32] */;
    multiply(%35, %38) /* ty=Tensor[(1, 64, 1, 1), float32] */
  };
  %40 = (%model.backbone.body.layer1.0.bn1.weight, %model.backbone.body.layer1.0.bn1.running_var);
  %41 = (%tensor_05,);
  let %v5: () = vm.invoke_tvm_op(%39, %40, %41) /* ty=() */;
  let %x8: Tensor[(1, 64, 1, 1), float32] = %tensor_05;
  let %storage_06: Storage[] = memory.alloc_storage(16384 /* ty=int64 */, 64 /* ty=int64 */, meta[relay.attrs.AllocStorageAttrs][6]) /* ty=Storage[] */;
  let %tensor_06: Tensor[(64, 64, 1, 1), float32] = memory.alloc_tensor(%storage_06, 0 /* ty=int64 */, meta[relay.Constant][10] /* ty=Tensor[(4), int64] */, meta[relay.attrs.AllocTensorAttrs][6]) /* ty=Tensor[(64, 64, 1, 1), float32] */;
  %44 = fn (%p06: Tensor[(64, 64, 1, 1), float32], %p15: Tensor[(1, 64, 1, 1), float32], Primitive=1) -> Tensor[(64, 64, 1, 1), float32] {
    %42 = squeeze(%p15, axis=[0, 2, 3]) /* ty=Tensor[(64), float32] */;
    %43 = expand_dims(%42, axis=1, num_newaxis=3) /* ty=Tensor[(64, 1, 1, 1), float32] */;
    multiply(%p06, %43) /* ty=Tensor[(64, 64, 1, 1), float32] */
  };
  %45 = (%model.backbone.body.layer1.0.conv1.weight, %x8);
  %46 = (%tensor_06,);
  let %v6: () = vm.invoke_tvm_op(%44, %45, %46) /* ty=() */;
  let %x9: Tensor[(64, 64, 1, 1), float32] = %tensor_06;
  let %x10: Tensor[(1, 64, 1, 1), float32] = vm.reshape_tensor(%model.backbone.body.layer1.0.bn1.bias, meta[relay.Constant][11] /* ty=Tensor[(4), int64] */, meta[relay.attrs.ReshapeTensorAttrs][2]) /* ty=Tensor[(1, 64, 1, 1), float32] */;
  let %x11: Tensor[(1, 64, 1, 1), float32] = vm.reshape_tensor(%model.backbone.body.layer1.0.bn1.running_mean, meta[relay.Constant][12] /* ty=Tensor[(4), int64] */, meta[relay.attrs.ReshapeTensorAttrs][3]) /* ty=Tensor[(1, 64, 1, 1), float32] */;
  let %storage_07: Storage[] = memory.alloc_storage(10240000 /* ty=int64 */, 64 /* ty=int64 */, meta[relay.attrs.AllocStorageAttrs][7]) /* ty=Storage[] */;
  let %tensor_07: Tensor[(1, 64, 200, 200), float32] = memory.alloc_tensor(%storage_07, 0 /* ty=int64 */, meta[relay.Constant][13] /* ty=Tensor[(4), int64] */, meta[relay.attrs.AllocTensorAttrs][7]) /* ty=Tensor[(1, 64, 200, 200), float32] */;
  %51 = fn (%p07: Tensor[(1, 64, 200, 200), float32], %p16: Tensor[(64, 64, 1, 1), float32], %p22: Tensor[(1, 64, 1, 1), float32], %p31: Tensor[(1, 64, 1, 1), float32], %p41: Tensor[(1, 64, 1, 1), float32], Primitive=1) -> Tensor[(1, 64, 200, 200), float32] {
    %47 = nn.conv2d(%p07, %p16, padding=[0, 0, 0, 0], channels=64, kernel_size=[1, 1]) /* ty=Tensor[(1, 64, 200, 200), float32] */;
    %48 = multiply(%p31, %p41) /* ty=Tensor[(1, 64, 1, 1), float32] */;
    %49 = subtract(%p22, %48) /* ty=Tensor[(1, 64, 1, 1), float32] */;
    %50 = add(%47, %49) /* ty=Tensor[(1, 64, 200, 200), float32] */;
    nn.relu(%50) /* ty=Tensor[(1, 64, 200, 200), float32] */
  };
  %52 = (%x7, %x9, %x10, %x11, %x8);
  %53 = (%tensor_07,);
  let %v7: () = vm.invoke_tvm_op(%51, %52, %53) /* ty=() */;
  let %x12: Tensor[(1, 64, 200, 200), float32] = %tensor_07;
  let %storage_08: Storage[] = memory.alloc_storage(256 /* ty=int64 */, 64 /* ty=int64 */, meta[relay.attrs.AllocStorageAttrs][8]) /* ty=Storage[] */;
  let %tensor_08: Tensor[(1, 64, 1, 1), float32] = memory.alloc_tensor(%storage_08, 0 /* ty=int64 */, meta[relay.Constant][14] /* ty=Tensor[(4), int64] */, meta[relay.attrs.AllocTensorAttrs][8]) /* ty=Tensor[(1, 64, 1, 1), float32] */;
  %58 = fn (%p08: Tensor[(64), float32], %p17: Tensor[(64), float32], Primitive=1) -> Tensor[(1, 64, 1, 1), float32] {
    %54 = reshape(%p08, newshape=[1, -1, 1, 1]) /* ty=Tensor[(1, 64, 1, 1), float32] */;
    %55 = reshape(%p17, newshape=[1, -1, 1, 1]) /* ty=Tensor[(1, 64, 1, 1), float32] */;
    %56 = add(%55, 0f /* ty=float32 */) /* ty=Tensor[(1, 64, 1, 1), float32] */;
    %57 = rsqrt(%56) /* ty=Tensor[(1, 64, 1, 1), float32] */;
    multiply(%54, %57) /* ty=Tensor[(1, 64, 1, 1), float32] */
  };
  %59 = (%model.backbone.body.layer1.0.bn2.weight, %model.backbone.body.layer1.0.bn2.running_var);
  %60 = (%tensor_08,);
  let %v8: () = vm.invoke_tvm_op(%58, %59, %60) /* ty=() */;
  let %x13: Tensor[(1, 64, 1, 1), float32] = %tensor_08;
  let %storage_09: Storage[] = memory.alloc_storage(147456 /* ty=int64 */, 64 /* ty=int64 */, meta[relay.attrs.AllocStorageAttrs][9]) /* ty=Storage[] */;
  let %tensor_09: Tensor[(64, 64, 3, 3), float32] = memory.alloc_tensor(%storage_09, 0 /* ty=int64 */, meta[relay.Constant][15] /* ty=Tensor[(4), int64] */, meta[relay.attrs.AllocTensorAttrs][9]) /* ty=Tensor[(64, 64, 3, 3), float32] */;
  %63 = fn (%p09: Tensor[(64, 64, 3, 3), float32], %p18: Tensor[(1, 64, 1, 1), float32], Primitive=1) -> Tensor[(64, 64, 3, 3), float32] {
    %61 = squeeze(%p18, axis=[0, 2, 3]) /* ty=Tensor[(64), float32] */;
    %62 = expand_dims(%61, axis=1, num_newaxis=3) /* ty=Tensor[(64, 1, 1, 1), float32] */;
    multiply(%p09, %62) /* ty=Tensor[(64, 64, 3, 3), float32] */
  };
  %64 = (%model.backbone.body.layer1.0.conv2.weight, %x13);
  %65 = (%tensor_09,);
  let %v9: () = vm.invoke_tvm_op(%63, %64, %65) /* ty=() */;
  let %x14: Tensor[(64, 64, 3, 3), float32] = %tensor_09;
  let %x15: Tensor[(1, 64, 1, 1), float32] = vm.reshape_tensor(%model.backbone.body.layer1.0.bn2.bias, meta[relay.Constant][16] /* ty=Tensor[(4), int64] */, meta[relay.attrs.ReshapeTensorAttrs][4]) /* ty=Tensor[(1, 64, 1, 1), float32] */;
  let %x16: Tensor[(1, 64, 1, 1), float32] = vm.reshape_tensor(%model.backbone.body.layer1.0.bn2.running_mean, meta[relay.Constant][17] /* ty=Tensor[(4), int64] */, meta[relay.attrs.ReshapeTensorAttrs][5]) /* ty=Tensor[(1, 64, 1, 1), float32] */;
  let %storage_010: Storage[] = memory.alloc_storage(10240000 /* ty=int64 */, 64 /* ty=int64 */, meta[relay.attrs.AllocStorageAttrs][10]) /* ty=Storage[] */;
  let %tensor_010: Tensor[(1, 64, 200, 200), float32] = memory.alloc_tensor(%storage_010, 0 /* ty=int64 */, meta[relay.Constant][18] /* ty=Tensor[(4), int64] */, meta[relay.attrs.AllocTensorAttrs][10]) /* ty=Tensor[(1, 64, 200, 200), float32] */;
  %70 = fn (%p010: Tensor[(1, 64, 200, 200), float32], %p19: Tensor[(64, 64, 3, 3), float32], %p23: Tensor[(1, 64, 1, 1), float32], %p32: Tensor[(1, 64, 1, 1), float32], %p42: Tensor[(1, 64, 1, 1), float32], Primitive=1) -> Tensor[(1, 64, 200, 200), float32] {
    %66 = nn.conv2d(%p010, %p19, padding=[1, 1, 1, 1], channels=64, kernel_size=[3, 3]) /* ty=Tensor[(1, 64, 200, 200), float32] */;
    %67 = multiply(%p32, %p42) /* ty=Tensor[(1, 64, 1, 1), float32] */;
    %68 = subtract(%p23, %67) /* ty=Tensor[(1, 64, 1, 1), float32] */;
    %69 = add(%66, %68) /* ty=Tensor[(1, 64, 200, 200), float32] */;
    nn.relu(%69) /* ty=Tensor[(1, 64, 200, 200), float32] */
  };
  %71 = (%x12, %x14, %x15, %x16, %x13);
  %72 = (%tensor_010,);
  let %v10: () = vm.invoke_tvm_op(%70, %71, %72) /* ty=() */;
  let %x17: Tensor[(1, 64, 200, 200), float32] = %tensor_010;
  let %storage_011: Storage[] = memory.alloc_storage(1024 /* ty=int64 */, 64 /* ty=int64 */, meta[relay.attrs.AllocStorageAttrs][11]) /* ty=Storage[] */;
  let %tensor_011: Tensor[(1, 256, 1, 1), float32] = memory.alloc_tensor(%storage_011, 0 /* ty=int64 */, meta[relay.Constant][19] /* ty=Tensor[(4), int64] */, meta[relay.attrs.AllocTensorAttrs][11]) /* ty=Tensor[(1, 256, 1, 1), float32] */;
  %77 = fn (%p011: Tensor[(256), float32], %p110: Tensor[(256), float32], Primitive=1) -> Tensor[(1, 256, 1, 1), float32] {
    %73 = reshape(%p011, newshape=[1, -1, 1, 1]) /* ty=Tensor[(1, 256, 1, 1), float32] */;
    %74 = reshape(%p110, newshape=[1, -1, 1, 1]) /* ty=Tensor[(1, 256, 1, 1), float32] */;
    %75 = add(%74, 0f /* ty=float32 */) /* ty=Tensor[(1, 256, 1, 1), float32] */;
    %76 = rsqrt(%75) /* ty=Tensor[(1, 256, 1, 1), float32] */;
    multiply(%73, %76) /* ty=Tensor[(1, 256, 1, 1), float32] */
  };
  %78 = (%model.backbone.body.layer1.0.bn3.weight, %model.backbone.body.layer1.0.bn3.running_var);
  %79 = (%tensor_011,);
  let %v11: () = vm.invoke_tvm_op(%77, %78, %79) /* ty=() */;
  let %x18: Tensor[(1, 256, 1, 1), float32] = %tensor_011;
  let %storage_012: Storage[] = memory.alloc_storage(65536 /* ty=int64 */, 64 /* ty=int64 */, meta[relay.attrs.AllocStorageAttrs][12]) /* ty=Storage[] */;
  let %tensor_012: Tensor[(256, 64, 1, 1), float32] = memory.alloc_tensor(%storage_012, 0 /* ty=int64 */, meta[relay.Constant][20] /* ty=Tensor[(4), int64] */, meta[relay.attrs.AllocTensorAttrs][12]) /* ty=Tensor[(256, 64, 1, 1), float32] */;
  %82 = fn (%p012: Tensor[(256, 64, 1, 1), float32], %p111: Tensor[(1, 256, 1, 1), float32], Primitive=1) -> Tensor[(256, 64, 1, 1), float32] {
    %80 = squeeze(%p111, axis=[0, 2, 3]) /* ty=Tensor[(256), float32] */;
    %81 = expand_dims(%80, axis=1, num_newaxis=3) /* ty=Tensor[(256, 1, 1, 1), float32] */;
    multiply(%p012, %81) /* ty=Tensor[(256, 64, 1, 1), float32] */
  };
  %83 = (%model.backbone.body.layer1.0.conv3.weight, %x18);
  %84 = (%tensor_012,);
  let %v12: () = vm.invoke_tvm_op(%82, %83, %84) /* ty=() */;
  let %x19: Tensor[(256, 64, 1, 1), float32] = %tensor_012;
  let %x20: Tensor[(1, 256, 1, 1), float32] = vm.reshape_tensor(%model.backbone.body.layer1.0.bn3.bias, meta[relay.Constant][21] /* ty=Tensor[(4), int64] */, meta[relay.attrs.ReshapeTensorAttrs][6]) /* ty=Tensor[(1, 256, 1, 1), float32] */;
  let %x21: Tensor[(1, 256, 1, 1), float32] = vm.reshape_tensor(%model.backbone.body.layer1.0.bn3.running_mean, meta[relay.Constant][22] /* ty=Tensor[(4), int64] */, meta[relay.attrs.ReshapeTensorAttrs][7]) /* ty=Tensor[(1, 256, 1, 1), float32] */;
  let %storage_013: Storage[] = memory.alloc_storage(1024 /* ty=int64 */, 64 /* ty=int64 */, meta[relay.attrs.AllocStorageAttrs][13]) /* ty=Storage[] */;
  let %tensor_013: Tensor[(1, 256, 1, 1), float32] = memory.alloc_tensor(%storage_013, 0 /* ty=int64 */, meta[relay.Constant][23] /* ty=Tensor[(4), int64] */, meta[relay.attrs.AllocTensorAttrs][13]) /* ty=Tensor[(1, 256, 1, 1), float32] */;
  %89 = fn (%p013: Tensor[(256), float32], %p112: Tensor[(256), float32], Primitive=1) -> Tensor[(1, 256, 1, 1), float32] {
    %85 = reshape(%p013, newshape=[1, -1, 1, 1]) /* ty=Tensor[(1, 256, 1, 1), float32] */;
    %86 = reshape(%p112, newshape=[1, -1, 1, 1]) /* ty=Tensor[(1, 256, 1, 1), float32] */;
    %87 = add(%86, 0f /* ty=float32 */) /* ty=Tensor[(1, 256, 1, 1), float32] */;
    %88 = rsqrt(%87) /* ty=Tensor[(1, 256, 1, 1), float32] */;
    multiply(%85, %88) /* ty=Tensor[(1, 256, 1, 1), float32] */
  };
  %90 = (%model.backbone.body.layer1.0.downsample.1.weight, %model.backbone.body.layer1.0.downsample.1.running_var);
  %91 = (%tensor_013,);
  let %v13: () = vm.invoke_tvm_op(%89, %90, %91) /* ty=() */;
  let %x22: Tensor[(1, 256, 1, 1), float32] = %tensor_013;
  let %storage_014: Storage[] = memory.alloc_storage(65536 /* ty=int64 */, 64 /* ty=int64 */, meta[relay.attrs.AllocStorageAttrs][14]) /* ty=Storage[] */;
  let %tensor_014: Tensor[(256, 64, 1, 1), float32] = memory.alloc_tensor(%storage_014, 0 /* ty=int64 */, meta[relay.Constant][24] /* ty=Tensor[(4), int64] */, meta[relay.attrs.AllocTensorAttrs][14]) /* ty=Tensor[(256, 64, 1, 1), float32] */;
  %94 = fn (%p014: Tensor[(256, 64, 1, 1), float32], %p113: Tensor[(1, 256, 1, 1), float32], Primitive=1) -> Tensor[(256, 64, 1, 1), float32] {
    %92 = squeeze(%p113, axis=[0, 2, 3]) /* ty=Tensor[(256), float32] */;
    %93 = expand_dims(%92, axis=1, num_newaxis=3) /* ty=Tensor[(256, 1, 1, 1), float32] */;
    multiply(%p014, %93) /* ty=Tensor[(256, 64, 1, 1), float32] */
  };
  %95 = (%model.backbone.body.layer1.0.downsample.0.weight, %x22);
  %96 = (%tensor_014,);
  let %v14: () = vm.invoke_tvm_op(%94, %95, %96) /* ty=() */;
  let %x23: Tensor[(256, 64, 1, 1), float32] = %tensor_014;
  let %x24: Tensor[(1, 256, 1, 1), float32] = vm.reshape_tensor(%model.backbone.body.layer1.0.downsample.1.bias, meta[relay.Constant][25] /* ty=Tensor[(4), int64] */, meta[relay.attrs.ReshapeTensorAttrs][8]) /* ty=Tensor[(1, 256, 1, 1), float32] */;
  let %x25: Tensor[(1, 256, 1, 1), float32] = vm.reshape_tensor(%model.backbone.body.layer1.0.downsample.1.running_mean, meta[relay.Constant][26] /* ty=Tensor[(4), int64] */, meta[relay.attrs.ReshapeTensorAttrs][9]) /* ty=Tensor[(1, 256, 1, 1), float32] */;
  let %storage_015: Storage[] = memory.alloc_storage(40960000 /* ty=int64 */, 64 /* ty=int64 */, meta[relay.attrs.AllocStorageAttrs][15]) /* ty=Storage[] */;
  let %tensor_015: Tensor[(1, 256, 200, 200), float32] = memory.alloc_tensor(%storage_015, 0 /* ty=int64 */, meta[relay.Constant][27] /* ty=Tensor[(4), int64] */, meta[relay.attrs.AllocTensorAttrs][15]) /* ty=Tensor[(1, 256, 200, 200), float32] */;
  %100 = fn (%p015: Tensor[(1, 64, 200, 200), float32], %p114: Tensor[(256, 64, 1, 1), float32], %p24: Tensor[(1, 256, 1, 1), float32], %p33: Tensor[(1, 256, 1, 1), float32], %p43: Tensor[(1, 256, 1, 1), float32], Primitive=1) -> Tensor[(1, 256, 200, 200), float32] {
    %97 = nn.conv2d(%p015, %p114, padding=[0, 0, 0, 0], channels=256, kernel_size=[1, 1]) /* ty=Tensor[(1, 256, 200, 200), float32] */;
    %98 = multiply(%p33, %p43) /* ty=Tensor[(1, 256, 1, 1), float32] */;
    %99 = subtract(%p24, %98) /* ty=Tensor[(1, 256, 1, 1), float32] */;
    add(%97, %99) /* ty=Tensor[(1, 256, 200, 200), float32] */
  };
  %101 = (%x7, %x23, %x24, %x25, %x22);
  %102 = (%tensor_015,);
  let %v15: () = vm.invoke_tvm_op(%100, %101, %102) /* ty=() */;
  let %x26: Tensor[(1, 256, 200, 200), float32] = %tensor_015;
  let %storage_016: Storage[] = memory.alloc_storage(40960000 /* ty=int64 */, 64 /* ty=int64 */, meta[relay.attrs.AllocStorageAttrs][16]) /* ty=Storage[] */;
  let %tensor_016: Tensor[(1, 256, 200, 200), float32] = memory.alloc_tensor(%storage_016, 0 /* ty=int64 */, meta[relay.Constant][28] /* ty=Tensor[(4), int64] */, meta[relay.attrs.AllocTensorAttrs][16]) /* ty=Tensor[(1, 256, 200, 200), float32] */;
  %108 = fn (%p016: Tensor[(1, 64, 200, 200), float32], %p115: Tensor[(256, 64, 1, 1), float32], %p25: Tensor[(1, 256, 1, 1), float32], %p34: Tensor[(1, 256, 1, 1), float32], %p44: Tensor[(1, 256, 1, 1), float32], %p5: Tensor[(1, 256, 200, 200), float32], Primitive=1) -> Tensor[(1, 256, 200, 200), float32] {
    %103 = nn.conv2d(%p016, %p115, padding=[0, 0, 0, 0], channels=256, kernel_size=[1, 1]) /* ty=Tensor[(1, 256, 200, 200), float32] */;
    %104 = multiply(%p34, %p44) /* ty=Tensor[(1, 256, 1, 1), float32] */;
    %105 = subtract(%p25, %104) /* ty=Tensor[(1, 256, 1, 1), float32] */;
    %106 = add(%103, %105) /* ty=Tensor[(1, 256, 200, 200), float32] */;
    %107 = add(%106, %p5) /* ty=Tensor[(1, 256, 200, 200), float32] */;
    nn.relu(%107) /* ty=Tensor[(1, 256, 200, 200), float32] */
  };
  %109 = (%x17, %x19, %x20, %x21, %x18, %x26);
  %110 = (%tensor_016,);
  let %v16: () = vm.invoke_tvm_op(%108, %109, %110) /* ty=() */;
  let %x27: Tensor[(1, 256, 200, 200), float32] = %tensor_016;
  let %storage_017: Storage[] = memory.alloc_storage(256 /* ty=int64 */, 64 /* ty=int64 */, meta[relay.attrs.AllocStorageAttrs][17]) /* ty=Storage[] */;
  let %tensor_017: Tensor[(1, 64, 1, 1), float32] = memory.alloc_tensor(%storage_017, 0 /* ty=int64 */, meta[relay.Constant][29] /* ty=Tensor[(4), int64] */, meta[relay.attrs.AllocTensorAttrs][17]) /* ty=Tensor[(1, 64, 1, 1), float32] */;
  %115 = fn (%p017: Tensor[(64), float32], %p116: Tensor[(64), float32], Primitive=1) -> Tensor[(1, 64, 1, 1), float32] {
    %111 = reshape(%p017, newshape=[1, -1, 1, 1]) /* ty=Tensor[(1, 64, 1, 1), float32] */;
    %112 = reshape(%p116, newshape=[1, -1, 1, 1]) /* ty=Tensor[(1, 64, 1, 1), float32] */;
    %113 = add(%112, 0f /* ty=float32 */) /* ty=Tensor[(1, 64, 1, 1), float32] */;
    %114 = rsqrt(%113) /* ty=Tensor[(1, 64, 1, 1), float32] */;
    multiply(%111, %114) /* ty=Tensor[(1, 64, 1, 1), float32] */
  };
  %116 = (%model.backbone.body.layer1.1.bn1.weight, %model.backbone.body.layer1.1.bn1.running_var);
  %117 = (%tensor_017,);
  let %v17: () = vm.invoke_tvm_op(%115, %116, %117) /* ty=() */;
  let %x28: Tensor[(1, 64, 1, 1), float32] = %tensor_017;
  let %storage_018: Storage[] = memory.alloc_storage(65536 /* ty=int64 */, 64 /* ty=int64 */, meta[relay.attrs.AllocStorageAttrs][18]) /* ty=Storage[] */;
  let %tensor_018: Tensor[(64, 256, 1, 1), float32] = memory.alloc_tensor(%storage_018, 0 /* ty=int64 */, meta[relay.Constant][30] /* ty=Tensor[(4), int64] */, meta[relay.attrs.AllocTensorAttrs][18]) /* ty=Tensor[(64, 256, 1, 1), float32] */;
  %120 = fn (%p018: Tensor[(64, 256, 1, 1), float32], %p117: Tensor[(1, 64, 1, 1), float32], Primitive=1) -> Tensor[(64, 256, 1, 1), float32] {
    %118 = squeeze(%p117, axis=[0, 2, 3]) /* ty=Tensor[(64), float32] */;
    %119 = expand_dims(%118, axis=1, num_newaxis=3) /* ty=Tensor[(64, 1, 1, 1), float32] */;
    multiply(%p018, %119) /* ty=Tensor[(64, 256, 1, 1), float32] */
  };
  %121 = (%model.backbone.body.layer1.1.conv1.weight, %x28);
  %122 = (%tensor_018,);
  let %v18: () = vm.invoke_tvm_op(%120, %121, %122) /* ty=() */;
  let %x29: Tensor[(64, 256, 1, 1), float32] = %tensor_018;
  let %x30: Tensor[(1, 64, 1, 1), float32] = vm.reshape_tensor(%model.backbone.body.layer1.1.bn1.bias, meta[relay.Constant][31] /* ty=Tensor[(4), int64] */, meta[relay.attrs.ReshapeTensorAttrs][10]) /* ty=Tensor[(1, 64, 1, 1), float32] */;
  let %x31: Tensor[(1, 64, 1, 1), float32] = vm.reshape_tensor(%model.backbone.body.layer1.1.bn1.running_mean, meta[relay.Constant][32] /* ty=Tensor[(4), int64] */, meta[relay.attrs.ReshapeTensorAttrs][11]) /* ty=Tensor[(1, 64, 1, 1), float32] */;
  let %storage_019: Storage[] = memory.alloc_storage(10240000 /* ty=int64 */, 64 /* ty=int64 */, meta[relay.attrs.AllocStorageAttrs][19]) /* ty=Storage[] */;
  let %tensor_019: Tensor[(1, 64, 200, 200), float32] = memory.alloc_tensor(%storage_019, 0 /* ty=int64 */, meta[relay.Constant][33] /* ty=Tensor[(4), int64] */, meta[relay.attrs.AllocTensorAttrs][19]) /* ty=Tensor[(1, 64, 200, 200), float32] */;
  %127 = fn (%p019: Tensor[(1, 256, 200, 200), float32], %p118: Tensor[(64, 256, 1, 1), float32], %p26: Tensor[(1, 64, 1, 1), float32], %p35: Tensor[(1, 64, 1, 1), float32], %p45: Tensor[(1, 64, 1, 1), float32], Primitive=1) -> Tensor[(1, 64, 200, 200), float32] {
    %123 = nn.conv2d(%p019, %p118, padding=[0, 0, 0, 0], channels=64, kernel_size=[1, 1]) /* ty=Tensor[(1, 64, 200, 200), float32] */;
    %124 = multiply(%p35, %p45) /* ty=Tensor[(1, 64, 1, 1), float32] */;
    %125 = subtract(%p26, %124) /* ty=Tensor[(1, 64, 1, 1), float32] */;
    %126 = add(%123, %125) /* ty=Tensor[(1, 64, 200, 200), float32] */;
    nn.relu(%126) /* ty=Tensor[(1, 64, 200, 200), float32] */
  };
  %128 = (%x27, %x29, %x30, %x31, %x28);
  %129 = (%tensor_019,);
  let %v19: () = vm.invoke_tvm_op(%127, %128, %129) /* ty=() */;
  let %x32: Tensor[(1, 64, 200, 200), float32] = %tensor_019;
  let %storage_020: Storage[] = memory.alloc_storage(256 /* ty=int64 */, 64 /* ty=int64 */, meta[relay.attrs.AllocStorageAttrs][20]) /* ty=Storage[] */;
  let %tensor_020: Tensor[(1, 64, 1, 1), float32] = memory.alloc_tensor(%storage_020, 0 /* ty=int64 */, meta[relay.Constant][34] /* ty=Tensor[(4), int64] */, meta[relay.attrs.AllocTensorAttrs][20]) /* ty=Tensor[(1, 64, 1, 1), float32] */;
  %134 = fn (%p020: Tensor[(64), float32], %p119: Tensor[(64), float32], Primitive=1) -> Tensor[(1, 64, 1, 1), float32] {
    %130 = reshape(%p020, newshape=[1, -1, 1, 1]) /* ty=Tensor[(1, 64, 1, 1), float32] */;
    %131 = reshape(%p119, newshape=[1, -1, 1, 1]) /* ty=Tensor[(1, 64, 1, 1), float32] */;
    %132 = add(%131, 0f /* ty=float32 */) /* ty=Tensor[(1, 64, 1, 1), float32] */;
    %133 = rsqrt(%132) /* ty=Tensor[(1, 64, 1, 1), float32] */;
    multiply(%130, %133) /* ty=Tensor[(1, 64, 1, 1), float32] */
  };
  %135 = (%model.backbone.body.layer1.1.bn2.weight, %model.backbone.body.layer1.1.bn2.running_var);
  %136 = (%tensor_020,);
  let %v20: () = vm.invoke_tvm_op(%134, %135, %136) /* ty=() */;
  let %x33: Tensor[(1, 64, 1, 1), float32] = %tensor_020;
  let %storage_021: Storage[] = memory.alloc_storage(147456 /* ty=int64 */, 64 /* ty=int64 */, meta[relay.attrs.AllocStorageAttrs][21]) /* ty=Storage[] */;
  let %tensor_021: Tensor[(64, 64, 3, 3), float32] = memory.alloc_tensor(%storage_021, 0 /* ty=int64 */, meta[relay.Constant][35] /* ty=Tensor[(4), int64] */, meta[relay.attrs.AllocTensorAttrs][21]) /* ty=Tensor[(64, 64, 3, 3), float32] */;
  %139 = fn (%p021: Tensor[(64, 64, 3, 3), float32], %p120: Tensor[(1, 64, 1, 1), float32], Primitive=1) -> Tensor[(64, 64, 3, 3), float32] {
    %137 = squeeze(%p120, axis=[0, 2, 3]) /* ty=Tensor[(64), float32] */;
    %138 = expand_dims(%137, axis=1, num_newaxis=3) /* ty=Tensor[(64, 1, 1, 1), float32] */;
    multiply(%p021, %138) /* ty=Tensor[(64, 64, 3, 3), float32] */
  };
  %140 = (%model.backbone.body.layer1.1.conv2.weight, %x33);
  %141 = (%tensor_021,);
  let %v21: () = vm.invoke_tvm_op(%139, %140, %141) /* ty=() */;
  let %x34: Tensor[(64, 64, 3, 3), float32] = %tensor_021;
  let %x35: Tensor[(1, 64, 1, 1), float32] = vm.reshape_tensor(%model.backbone.body.layer1.1.bn2.bias, meta[relay.Constant][36] /* ty=Tensor[(4), int64] */, meta[relay.attrs.ReshapeTensorAttrs][12]) /* ty=Tensor[(1, 64, 1, 1), float32] */;
  let %x36: Tensor[(1, 64, 1, 1), float32] = vm.reshape_tensor(%model.backbone.body.layer1.1.bn2.running_mean, meta[relay.Constant][37] /* ty=Tensor[(4), int64] */, meta[relay.attrs.ReshapeTensorAttrs][13]) /* ty=Tensor[(1, 64, 1, 1), float32] */;
  let %storage_022: Storage[] = memory.alloc_storage(10240000 /* ty=int64 */, 64 /* ty=int64 */, meta[relay.attrs.AllocStorageAttrs][22]) /* ty=Storage[] */;
  let %tensor_022: Tensor[(1, 64, 200, 200), float32] = memory.alloc_tensor(%storage_022, 0 /* ty=int64 */, meta[relay.Constant][38] /* ty=Tensor[(4), int64] */, meta[relay.attrs.AllocTensorAttrs][22]) /* ty=Tensor[(1, 64, 200, 200), float32] */;
  %146 = fn (%p022: Tensor[(1, 64, 200, 200), float32], %p121: Tensor[(64, 64, 3, 3), float32], %p27: Tensor[(1, 64, 1, 1), float32], %p36: Tensor[(1, 64, 1, 1), float32], %p46: Tensor[(1, 64, 1, 1), float32], Primitive=1) -> Tensor[(1, 64, 200, 200), float32] {
    %142 = nn.conv2d(%p022, %p121, padding=[1, 1, 1, 1], channels=64, kernel_size=[3, 3]) /* ty=Tensor[(1, 64, 200, 200), float32] */;
    %143 = multiply(%p36, %p46) /* ty=Tensor[(1, 64, 1, 1), float32] */;
    %144 = subtract(%p27, %143) /* ty=Tensor[(1, 64, 1, 1), float32] */;
    %145 = add(%142, %144) /* ty=Tensor[(1, 64, 200, 200), float32] */;
    nn.relu(%145) /* ty=Tensor[(1, 64, 200, 200), float32] */
  };
  %147 = (%x32, %x34, %x35, %x36, %x33);
  %148 = (%tensor_022,);
  let %v22: () = vm.invoke_tvm_op(%146, %147, %148) /* ty=() */;
  let %x37: Tensor[(1, 64, 200, 200), float32] = %tensor_022;
  let %storage_023: Storage[] = memory.alloc_storage(1024 /* ty=int64 */, 64 /* ty=int64 */, meta[relay.attrs.AllocStorageAttrs][23]) /* ty=Storage[] */;
  let %tensor_023: Tensor[(1, 256, 1, 1), float32] = memory.alloc_tensor(%storage_023, 0 /* ty=int64 */, meta[relay.Constant][39] /* ty=Tensor[(4), int64] */, meta[relay.attrs.AllocTensorAttrs][23]) /* ty=Tensor[(1, 256, 1, 1), float32] */;
  %153 = fn (%p023: Tensor[(256), float32], %p122: Tensor[(256), float32], Primitive=1) -> Tensor[(1, 256, 1, 1), float32] {
    %149 = reshape(%p023, newshape=[1, -1, 1, 1]) /* ty=Tensor[(1, 256, 1, 1), float32] */;
    %150 = reshape(%p122, newshape=[1, -1, 1, 1]) /* ty=Tensor[(1, 256, 1, 1), float32] */;
    %151 = add(%150, 0f /* ty=float32 */) /* ty=Tensor[(1, 256, 1, 1), float32] */;
    %152 = rsqrt(%151) /* ty=Tensor[(1, 256, 1, 1), float32] */;
    multiply(%149, %152) /* ty=Tensor[(1, 256, 1, 1), float32] */
  };
  %154 = (%model.backbone.body.layer1.1.bn3.weight, %model.backbone.body.layer1.1.bn3.running_var);
  %155 = (%tensor_023,);
  let %v23: () = vm.invoke_tvm_op(%153, %154, %155) /* ty=() */;
  let %x38: Tensor[(1, 256, 1, 1), float32] = %tensor_023;
  let %storage_024: Storage[] = memory.alloc_storage(65536 /* ty=int64 */, 64 /* ty=int64 */, meta[relay.attrs.AllocStorageAttrs][24]) /* ty=Storage[] */;
  let %tensor_024: Tensor[(256, 64, 1, 1), float32] = memory.alloc_tensor(%storage_024, 0 /* ty=int64 */, meta[relay.Constant][40] /* ty=Tensor[(4), int64] */, meta[relay.attrs.AllocTensorAttrs][24]) /* ty=Tensor[(256, 64, 1, 1), float32] */;
  %158 = fn (%p024: Tensor[(256, 64, 1, 1), float32], %p123: Tensor[(1, 256, 1, 1), float32], Primitive=1) -> Tensor[(256, 64, 1, 1), float32] {
    %156 = squeeze(%p123, axis=[0, 2, 3]) /* ty=Tensor[(256), float32] */;
    %157 = expand_dims(%156, axis=1, num_newaxis=3) /* ty=Tensor[(256, 1, 1, 1), float32] */;
    multiply(%p024, %157) /* ty=Tensor[(256, 64, 1, 1), float32] */
  };
  %159 = (%model.backbone.body.layer1.1.conv3.weight, %x38);
  %160 = (%tensor_024,);
  let %v24: () = vm.invoke_tvm_op(%158, %159, %160) /* ty=() */;
  let %x39: Tensor[(256, 64, 1, 1), float32] = %tensor_024;
  let %x40: Tensor[(1, 256, 1, 1), float32] = vm.reshape_tensor(%model.backbone.body.layer1.1.bn3.bias, meta[relay.Constant][41] /* ty=Tensor[(4), int64] */, meta[relay.attrs.ReshapeTensorAttrs][14]) /* ty=Tensor[(1, 256, 1, 1), float32] */;
  let %x41: Tensor[(1, 256, 1, 1), float32] = vm.reshape_tensor(%model.backbone.body.layer1.1.bn3.running_mean, meta[relay.Constant][42] /* ty=Tensor[(4), int64] */, meta[relay.attrs.ReshapeTensorAttrs][15]) /* ty=Tensor[(1, 256, 1, 1), float32] */;
  let %storage_025: Storage[] = memory.alloc_storage(40960000 /* ty=int64 */, 64 /* ty=int64 */, meta[relay.attrs.AllocStorageAttrs][25]) /* ty=Storage[] */;
  let %tensor_025: Tensor[(1, 256, 200, 200), float32] = memory.alloc_tensor(%storage_025, 0 /* ty=int64 */, meta[relay.Constant][43] /* ty=Tensor[(4), int64] */, meta[relay.attrs.AllocTensorAttrs][25]) /* ty=Tensor[(1, 256, 200, 200), float32] */;
  %166 = fn (%p025: Tensor[(1, 64, 200, 200), float32], %p124: Tensor[(256, 64, 1, 1), float32], %p28: Tensor[(1, 256, 1, 1), float32], %p37: Tensor[(1, 256, 1, 1), float32], %p47: Tensor[(1, 256, 1, 1), float32], %p51: Tensor[(1, 256, 200, 200), float32], Primitive=1) -> Tensor[(1, 256, 200, 200), float32] {
    %161 = nn.conv2d(%p025, %p124, padding=[0, 0, 0, 0], channels=256, kernel_size=[1, 1]) /* ty=Tensor[(1, 256, 200, 200), float32] */;
    %162 = multiply(%p37, %p47) /* ty=Tensor[(1, 256, 1, 1), float32] */;
    %163 = subtract(%p28, %162) /* ty=Tensor[(1, 256, 1, 1), float32] */;
    %164 = add(%161, %163) /* ty=Tensor[(1, 256, 200, 200), float32] */;
    %165 = add(%164, %p51) /* ty=Tensor[(1, 256, 200, 200), float32] */;
    nn.relu(%165) /* ty=Tensor[(1, 256, 200, 200), float32] */
  };
  %167 = (%x37, %x39, %x40, %x41, %x38, %x27);
  %168 = (%tensor_025,);
  let %v25: () = vm.invoke_tvm_op(%166, %167, %168) /* ty=() */;
  let %x42: Tensor[(1, 256, 200, 200), float32] = %tensor_025;
  let %storage_026: Storage[] = memory.alloc_storage(256 /* ty=int64 */, 64 /* ty=int64 */, meta[relay.attrs.AllocStorageAttrs][26]) /* ty=Storage[] */;
  let %tensor_026: Tensor[(1, 64, 1, 1), float32] = memory.alloc_tensor(%storage_026, 0 /* ty=int64 */, meta[relay.Constant][44] /* ty=Tensor[(4), int64] */, meta[relay.attrs.AllocTensorAttrs][26]) /* ty=Tensor[(1, 64, 1, 1), float32] */;
  %173 = fn (%p026: Tensor[(64), float32], %p125: Tensor[(64), float32], Primitive=1) -> Tensor[(1, 64, 1, 1), float32] {
    %169 = reshape(%p026, newshape=[1, -1, 1, 1]) /* ty=Tensor[(1, 64, 1, 1), float32] */;
    %170 = reshape(%p125, newshape=[1, -1, 1, 1]) /* ty=Tensor[(1, 64, 1, 1), float32] */;
    %171 = add(%170, 0f /* ty=float32 */) /* ty=Tensor[(1, 64, 1, 1), float32] */;
    %172 = rsqrt(%171) /* ty=Tensor[(1, 64, 1, 1), float32] */;
    multiply(%169, %172) /* ty=Tensor[(1, 64, 1, 1), float32] */
  };
  %174 = (%model.backbone.body.layer1.2.bn1.weight, %model.backbone.body.layer1.2.bn1.running_var);
  %175 = (%tensor_026,);
  let %v26: () = vm.invoke_tvm_op(%173, %174, %175) /* ty=() */;
  let %x43: Tensor[(1, 64, 1, 1), float32] = %tensor_026;
  let %storage_027: Storage[] = memory.alloc_storage(65536 /* ty=int64 */, 64 /* ty=int64 */, meta[relay.attrs.AllocStorageAttrs][27]) /* ty=Storage[] */;
  let %tensor_027: Tensor[(64, 256, 1, 1), float32] = memory.alloc_tensor(%storage_027, 0 /* ty=int64 */, meta[relay.Constant][45] /* ty=Tensor[(4), int64] */, meta[relay.attrs.AllocTensorAttrs][27]) /* ty=Tensor[(64, 256, 1, 1), float32] */;
  %178 = fn (%p027: Tensor[(64, 256, 1, 1), float32], %p126: Tensor[(1, 64, 1, 1), float32], Primitive=1) -> Tensor[(64, 256, 1, 1), float32] {
    %176 = squeeze(%p126, axis=[0, 2, 3]) /* ty=Tensor[(64), float32] */;
    %177 = expand_dims(%176, axis=1, num_newaxis=3) /* ty=Tensor[(64, 1, 1, 1), float32] */;
    multiply(%p027, %177) /* ty=Tensor[(64, 256, 1, 1), float32] */
  };
  %179 = (%model.backbone.body.layer1.2.conv1.weight, %x43);
  %180 = (%tensor_027,);
  let %v27: () = vm.invoke_tvm_op(%178, %179, %180) /* ty=() */;
  let %x44: Tensor[(64, 256, 1, 1), float32] = %tensor_027;
  let %x45: Tensor[(1, 64, 1, 1), float32] = vm.reshape_tensor(%model.backbone.body.layer1.2.bn1.bias, meta[relay.Constant][46] /* ty=Tensor[(4), int64] */, meta[relay.attrs.ReshapeTensorAttrs][16]) /* ty=Tensor[(1, 64, 1, 1), float32] */;
  let %x46: Tensor[(1, 64, 1, 1), float32] = vm.reshape_tensor(%model.backbone.body.layer1.2.bn1.running_mean, meta[relay.Constant][47] /* ty=Tensor[(4), int64] */, meta[relay.attrs.ReshapeTensorAttrs][17]) /* ty=Tensor[(1, 64, 1, 1), float32] */;
  let %storage_028: Storage[] = memory.alloc_storage(10240000 /* ty=int64 */, 64 /* ty=int64 */, meta[relay.attrs.AllocStorageAttrs][28]) /* ty=Storage[] */;
  let %tensor_028: Tensor[(1, 64, 200, 200), float32] = memory.alloc_tensor(%storage_028, 0 /* ty=int64 */, meta[relay.Constant][48] /* ty=Tensor[(4), int64] */, meta[relay.attrs.AllocTensorAttrs][28]) /* ty=Tensor[(1, 64, 200, 200), float32] */;
  %185 = fn (%p028: Tensor[(1, 256, 200, 200), float32], %p127: Tensor[(64, 256, 1, 1), float32], %p29: Tensor[(1, 64, 1, 1), float32], %p38: Tensor[(1, 64, 1, 1), float32], %p48: Tensor[(1, 64, 1, 1), float32], Primitive=1) -> Tensor[(1, 64, 200, 200), float32] {
    %181 = nn.conv2d(%p028, %p127, padding=[0, 0, 0, 0], channels=64, kernel_size=[1, 1]) /* ty=Tensor[(1, 64, 200, 200), float32] */;
    %182 = multiply(%p38, %p48) /* ty=Tensor[(1, 64, 1, 1), float32] */;
    %183 = subtract(%p29, %182) /* ty=Tensor[(1, 64, 1, 1), float32] */;
    %184 = add(%181, %183) /* ty=Tensor[(1, 64, 200, 200), float32] */;
    nn.relu(%184) /* ty=Tensor[(1, 64, 200, 200), float32] */
  };
  %186 = (%x42, %x44, %x45, %x46, %x43);
  %187 = (%tensor_028,);
  let %v28: () = vm.invoke_tvm_op(%185, %186, %187) /* ty=() */;
  let %x47: Tensor[(1, 64, 200, 200), float32] = %tensor_028;
  let %storage_029: Storage[] = memory.alloc_storage(256 /* ty=int64 */, 64 /* ty=int64 */, meta[relay.attrs.AllocStorageAttrs][29]) /* ty=Storage[] */;
  let %tensor_029: Tensor[(1, 64, 1, 1), float32] = memory.alloc_tensor(%storage_029, 0 /* ty=int64 */, meta[relay.Constant][49] /* ty=Tensor[(4), int64] */, meta[relay.attrs.AllocTensorAttrs][29]) /* ty=Tensor[(1, 64, 1, 1), float32] */;
  %192 = fn (%p029: Tensor[(64), float32], %p128: Tensor[(64), float32], Primitive=1) -> Tensor[(1, 64, 1, 1), float32] {
    %188 = reshape(%p029, newshape=[1, -1, 1, 1]) /* ty=Tensor[(1, 64, 1, 1), float32] */;
    %189 = reshape(%p128, newshape=[1, -1, 1, 1]) /* ty=Tensor[(1, 64, 1, 1), float32] */;
    %190 = add(%189, 0f /* ty=float32 */) /* ty=Tensor[(1, 64, 1, 1), float32] */;
    %191 = rsqrt(%190) /* ty=Tensor[(1, 64, 1, 1), float32] */;
    multiply(%188, %191) /* ty=Tensor[(1, 64, 1, 1), float32] */
  };
  %193 = (%model.backbone.body.layer1.2.bn2.weight, %model.backbone.body.layer1.2.bn2.running_var);
  %194 = (%tensor_029,);
  let %v29: () = vm.invoke_tvm_op(%192, %193, %194) /* ty=() */;
  let %x48: Tensor[(1, 64, 1, 1), float32] = %tensor_029;
  let %storage_030: Storage[] = memory.alloc_storage(147456 /* ty=int64 */, 64 /* ty=int64 */, meta[relay.attrs.AllocStorageAttrs][30]) /* ty=Storage[] */;
  let %tensor_030: Tensor[(64, 64, 3, 3), float32] = memory.alloc_tensor(%storage_030, 0 /* ty=int64 */, meta[relay.Constant][50] /* ty=Tensor[(4), int64] */, meta[relay.attrs.AllocTensorAttrs][30]) /* ty=Tensor[(64, 64, 3, 3), float32] */;
  %197 = fn (%p030: Tensor[(64, 64, 3, 3), float32], %p129: Tensor[(1, 64, 1, 1), float32], Primitive=1) -> Tensor[(64, 64, 3, 3), float32] {
    %195 = squeeze(%p129, axis=[0, 2, 3]) /* ty=Tensor[(64), float32] */;
    %196 = expand_dims(%195, axis=1, num_newaxis=3) /* ty=Tensor[(64, 1, 1, 1), float32] */;
    multiply(%p030, %196) /* ty=Tensor[(64, 64, 3, 3), float32] */
  };
  %198 = (%model.backbone.body.layer1.2.conv2.weight, %x48);
  %199 = (%tensor_030,);
  let %v30: () = vm.invoke_tvm_op(%197, %198, %199) /* ty=() */;
  let %x49: Tensor[(64, 64, 3, 3), float32] = %tensor_030;
  let %x50: Tensor[(1, 64, 1, 1), float32] = vm.reshape_tensor(%model.backbone.body.layer1.2.bn2.bias, meta[relay.Constant][51] /* ty=Tensor[(4), int64] */, meta[relay.attrs.ReshapeTensorAttrs][18]) /* ty=Tensor[(1, 64, 1, 1), float32] */;
  let %x51: Tensor[(1, 64, 1, 1), float32] = vm.reshape_tensor(%model.backbone.body.layer1.2.bn2.running_mean, meta[relay.Constant][52] /* ty=Tensor[(4), int64] */, meta[relay.attrs.ReshapeTensorAttrs][19]) /* ty=Tensor[(1, 64, 1, 1), float32] */;
  let %storage_031: Storage[] = memory.alloc_storage(10240000 /* ty=int64 */, 64 /* ty=int64 */, meta[relay.attrs.AllocStorageAttrs][31]) /* ty=Storage[] */;
  let %tensor_031: Tensor[(1, 64, 200, 200), float32] = memory.alloc_tensor(%storage_031, 0 /* ty=int64 */, meta[relay.Constant][53] /* ty=Tensor[(4), int64] */, meta[relay.attrs.AllocTensorAttrs][31]) /* ty=Tensor[(1, 64, 200, 200), float32] */;
  %204 = fn (%p031: Tensor[(1, 64, 200, 200), float32], %p130: Tensor[(64, 64, 3, 3), float32], %p210: Tensor[(1, 64, 1, 1), float32], %p39: Tensor[(1, 64, 1, 1), float32], %p49: Tensor[(1, 64, 1, 1), float32], Primitive=1) -> Tensor[(1, 64, 200, 200), float32] {
    %200 = nn.conv2d(%p031, %p130, padding=[1, 1, 1, 1], channels=64, kernel_size=[3, 3]) /* ty=Tensor[(1, 64, 200, 200), float32] */;
    %201 = multiply(%p39, %p49) /* ty=Tensor[(1, 64, 1, 1), float32] */;
    %202 = subtract(%p210, %201) /* ty=Tensor[(1, 64, 1, 1), float32] */;
    %203 = add(%200, %202) /* ty=Tensor[(1, 64, 200, 200), float32] */;
    nn.relu(%203) /* ty=Tensor[(1, 64, 200, 200), float32] */
  };
  %205 = (%x47, %x49, %x50, %x51, %x48);
  %206 = (%tensor_031,);
  let %v31: () = vm.invoke_tvm_op(%204, %205, %206) /* ty=() */;
  let %x52: Tensor[(1, 64, 200, 200), float32] = %tensor_031;
  let %storage_032: Storage[] = memory.alloc_storage(1024 /* ty=int64 */, 64 /* ty=int64 */, meta[relay.attrs.AllocStorageAttrs][32]) /* ty=Storage[] */;
  let %tensor_032: Tensor[(1, 256, 1, 1), float32] = memory.alloc_tensor(%storage_032, 0 /* ty=int64 */, meta[relay.Constant][54] /* ty=Tensor[(4), int64] */, meta[relay.attrs.AllocTensorAttrs][32]) /* ty=Tensor[(1, 256, 1, 1), float32] */;
  %211 = fn (%p032: Tensor[(256), float32], %p131: Tensor[(256), float32], Primitive=1) -> Tensor[(1, 256, 1, 1), float32] {
    %207 = reshape(%p032, newshape=[1, -1, 1, 1]) /* ty=Tensor[(1, 256, 1, 1), float32] */;
    %208 = reshape(%p131, newshape=[1, -1, 1, 1]) /* ty=Tensor[(1, 256, 1, 1), float32] */;
    %209 = add(%208, 0f /* ty=float32 */) /* ty=Tensor[(1, 256, 1, 1), float32] */;
    %210 = rsqrt(%209) /* ty=Tensor[(1, 256, 1, 1), float32] */;
    multiply(%207, %210) /* ty=Tensor[(1, 256, 1, 1), float32] */
  };
  %212 = (%model.backbone.body.layer1.2.bn3.weight, %model.backbone.body.layer1.2.bn3.running_var);
  %213 = (%tensor_032,);
  let %v32: () = vm.invoke_tvm_op(%211, %212, %213) /* ty=() */;
  let %x53: Tensor[(1, 256, 1, 1), float32] = %tensor_032;
  let %storage_033: Storage[] = memory.alloc_storage(65536 /* ty=int64 */, 64 /* ty=int64 */, meta[relay.attrs.AllocStorageAttrs][33]) /* ty=Storage[] */;
  let %tensor_033: Tensor[(256, 64, 1, 1), float32] = memory.alloc_tensor(%storage_033, 0 /* ty=int64 */, meta[relay.Constant][55] /* ty=Tensor[(4), int64] */, meta[relay.attrs.AllocTensorAttrs][33]) /* ty=Tensor[(256, 64, 1, 1), float32] */;
  %216 = fn (%p033: Tensor[(256, 64, 1, 1), float32], %p132: Tensor[(1, 256, 1, 1), float32], Primitive=1) -> Tensor[(256, 64, 1, 1), float32] {
    %214 = squeeze(%p132, axis=[0, 2, 3]) /* ty=Tensor[(256), float32] */;
    %215 = expand_dims(%214, axis=1, num_newaxis=3) /* ty=Tensor[(256, 1, 1, 1), float32] */;
    multiply(%p033, %215) /* ty=Tensor[(256, 64, 1, 1), float32] */
  };
  %217 = (%model.backbone.body.layer1.2.conv3.weight, %x53);
  %218 = (%tensor_033,);
  let %v33: () = vm.invoke_tvm_op(%216, %217, %218) /* ty=() */;
  let %x54: Tensor[(256, 64, 1, 1), float32] = %tensor_033;
  let %x55: Tensor[(1, 256, 1, 1), float32] = vm.reshape_tensor(%model.backbone.body.layer1.2.bn3.bias, meta[relay.Constant][56] /* ty=Tensor[(4), int64] */, meta[relay.attrs.ReshapeTensorAttrs][20]) /* ty=Tensor[(1, 256, 1, 1), float32] */;
  let %x56: Tensor[(1, 256, 1, 1), float32] = vm.reshape_tensor(%model.backbone.body.layer1.2.bn3.running_mean, meta[relay.Constant][57] /* ty=Tensor[(4), int64] */, meta[relay.attrs.ReshapeTensorAttrs][21]) /* ty=Tensor[(1, 256, 1, 1), float32] */;
  let %storage_034: Storage[] = memory.alloc_storage(40960000 /* ty=int64 */, 64 /* ty=int64 */, meta[relay.attrs.AllocStorageAttrs][34]) /* ty=Storage[] */;
  let %tensor_034: Tensor[(1, 256, 200, 200), float32] = memory.alloc_tensor(%storage_034, 0 /* ty=int64 */, meta[relay.Constant][58] /* ty=Tensor[(4), int64] */, meta[relay.attrs.AllocTensorAttrs][34]) /* ty=Tensor[(1, 256, 200, 200), float32] */;
  %224 = fn (%p034: Tensor[(1, 64, 200, 200), float32], %p133: Tensor[(256, 64, 1, 1), float32], %p211: Tensor[(1, 256, 1, 1), float32], %p310: Tensor[(1, 256, 1, 1), float32], %p410: Tensor[(1, 256, 1, 1), float32], %p52: Tensor[(1, 256, 200, 200), float32], Primitive=1) -> Tensor[(1, 256, 200, 200), float32] {
    %219 = nn.conv2d(%p034, %p133, padding=[0, 0, 0, 0], channels=256, kernel_size=[1, 1]) /* ty=Tensor[(1, 256, 200, 200), float32] */;
    %220 = multiply(%p310, %p410) /* ty=Tensor[(1, 256, 1, 1), float32] */;
    %221 = subtract(%p211, %220) /* ty=Tensor[(1, 256, 1, 1), float32] */;
    %222 = add(%219, %221) /* ty=Tensor[(1, 256, 200, 200), float32] */;
    %223 = add(%222, %p52) /* ty=Tensor[(1, 256, 200, 200), float32] */;
    nn.relu(%223) /* ty=Tensor[(1, 256, 200, 200), float32] */
  };
  %225 = (%x52, %x54, %x55, %x56, %x53, %x42);
  %226 = (%tensor_034,);
  let %v34: () = vm.invoke_tvm_op(%224, %225, %226) /* ty=() */;
  let %x57: Tensor[(1, 256, 200, 200), float32] = %tensor_034;
  let %storage_035: Storage[] = memory.alloc_storage(512 /* ty=int64 */, 64 /* ty=int64 */, meta[relay.attrs.AllocStorageAttrs][35]) /* ty=Storage[] */;
  let %tensor_035: Tensor[(1, 128, 1, 1), float32] = memory.alloc_tensor(%storage_035, 0 /* ty=int64 */, meta[relay.Constant][59] /* ty=Tensor[(4), int64] */, meta[relay.attrs.AllocTensorAttrs][35]) /* ty=Tensor[(1, 128, 1, 1), float32] */;
  %231 = fn (%p035: Tensor[(128), float32], %p134: Tensor[(128), float32], Primitive=1) -> Tensor[(1, 128, 1, 1), float32] {
    %227 = reshape(%p035, newshape=[1, -1, 1, 1]) /* ty=Tensor[(1, 128, 1, 1), float32] */;
    %228 = reshape(%p134, newshape=[1, -1, 1, 1]) /* ty=Tensor[(1, 128, 1, 1), float32] */;
    %229 = add(%228, 0f /* ty=float32 */) /* ty=Tensor[(1, 128, 1, 1), float32] */;
    %230 = rsqrt(%229) /* ty=Tensor[(1, 128, 1, 1), float32] */;
    multiply(%227, %230) /* ty=Tensor[(1, 128, 1, 1), float32] */
  };
  %232 = (%model.backbone.body.layer2.0.bn1.weight, %model.backbone.body.layer2.0.bn1.running_var);
  %233 = (%tensor_035,);
  let %v35: () = vm.invoke_tvm_op(%231, %232, %233) /* ty=() */;
  let %x58: Tensor[(1, 128, 1, 1), float32] = %tensor_035;
  let %storage_036: Storage[] = memory.alloc_storage(131072 /* ty=int64 */, 64 /* ty=int64 */, meta[relay.attrs.AllocStorageAttrs][36]) /* ty=Storage[] */;
  let %tensor_036: Tensor[(128, 256, 1, 1), float32] = memory.alloc_tensor(%storage_036, 0 /* ty=int64 */, meta[relay.Constant][60] /* ty=Tensor[(4), int64] */, meta[relay.attrs.AllocTensorAttrs][36]) /* ty=Tensor[(128, 256, 1, 1), float32] */;
  %236 = fn (%p036: Tensor[(128, 256, 1, 1), float32], %p135: Tensor[(1, 128, 1, 1), float32], Primitive=1) -> Tensor[(128, 256, 1, 1), float32] {
    %234 = squeeze(%p135, axis=[0, 2, 3]) /* ty=Tensor[(128), float32] */;
    %235 = expand_dims(%234, axis=1, num_newaxis=3) /* ty=Tensor[(128, 1, 1, 1), float32] */;
    multiply(%p036, %235) /* ty=Tensor[(128, 256, 1, 1), float32] */
  };
  %237 = (%model.backbone.body.layer2.0.conv1.weight, %x58);
  %238 = (%tensor_036,);
  let %v36: () = vm.invoke_tvm_op(%236, %237, %238) /* ty=() */;
  let %x59: Tensor[(128, 256, 1, 1), float32] = %tensor_036;
  let %x60: Tensor[(1, 128, 1, 1), float32] = vm.reshape_tensor(%model.backbone.body.layer2.0.bn1.bias, meta[relay.Constant][61] /* ty=Tensor[(4), int64] */, meta[relay.attrs.ReshapeTensorAttrs][22]) /* ty=Tensor[(1, 128, 1, 1), float32] */;
  let %x61: Tensor[(1, 128, 1, 1), float32] = vm.reshape_tensor(%model.backbone.body.layer2.0.bn1.running_mean, meta[relay.Constant][62] /* ty=Tensor[(4), int64] */, meta[relay.attrs.ReshapeTensorAttrs][23]) /* ty=Tensor[(1, 128, 1, 1), float32] */;
  let %storage_037: Storage[] = memory.alloc_storage(20480000 /* ty=int64 */, 64 /* ty=int64 */, meta[relay.attrs.AllocStorageAttrs][37]) /* ty=Storage[] */;
  let %tensor_037: Tensor[(1, 128, 200, 200), float32] = memory.alloc_tensor(%storage_037, 0 /* ty=int64 */, meta[relay.Constant][63] /* ty=Tensor[(4), int64] */, meta[relay.attrs.AllocTensorAttrs][37]) /* ty=Tensor[(1, 128, 200, 200), float32] */;
  %243 = fn (%p037: Tensor[(1, 256, 200, 200), float32], %p136: Tensor[(128, 256, 1, 1), float32], %p212: Tensor[(1, 128, 1, 1), float32], %p311: Tensor[(1, 128, 1, 1), float32], %p411: Tensor[(1, 128, 1, 1), float32], Primitive=1) -> Tensor[(1, 128, 200, 200), float32] {
    %239 = nn.conv2d(%p037, %p136, padding=[0, 0, 0, 0], channels=128, kernel_size=[1, 1]) /* ty=Tensor[(1, 128, 200, 200), float32] */;
    %240 = multiply(%p311, %p411) /* ty=Tensor[(1, 128, 1, 1), float32] */;
    %241 = subtract(%p212, %240) /* ty=Tensor[(1, 128, 1, 1), float32] */;
    %242 = add(%239, %241) /* ty=Tensor[(1, 128, 200, 200), float32] */;
    nn.relu(%242) /* ty=Tensor[(1, 128, 200, 200), float32] */
  };
  %244 = (%x57, %x59, %x60, %x61, %x58);
  %245 = (%tensor_037,);
  let %v37: () = vm.invoke_tvm_op(%243, %244, %245) /* ty=() */;
  let %x62: Tensor[(1, 128, 200, 200), float32] = %tensor_037;
  let %storage_038: Storage[] = memory.alloc_storage(512 /* ty=int64 */, 64 /* ty=int64 */, meta[relay.attrs.AllocStorageAttrs][38]) /* ty=Storage[] */;
  let %tensor_038: Tensor[(1, 128, 1, 1), float32] = memory.alloc_tensor(%storage_038, 0 /* ty=int64 */, meta[relay.Constant][64] /* ty=Tensor[(4), int64] */, meta[relay.attrs.AllocTensorAttrs][38]) /* ty=Tensor[(1, 128, 1, 1), float32] */;
  %250 = fn (%p038: Tensor[(128), float32], %p137: Tensor[(128), float32], Primitive=1) -> Tensor[(1, 128, 1, 1), float32] {
    %246 = reshape(%p038, newshape=[1, -1, 1, 1]) /* ty=Tensor[(1, 128, 1, 1), float32] */;
    %247 = reshape(%p137, newshape=[1, -1, 1, 1]) /* ty=Tensor[(1, 128, 1, 1), float32] */;
    %248 = add(%247, 0f /* ty=float32 */) /* ty=Tensor[(1, 128, 1, 1), float32] */;
    %249 = rsqrt(%248) /* ty=Tensor[(1, 128, 1, 1), float32] */;
    multiply(%246, %249) /* ty=Tensor[(1, 128, 1, 1), float32] */
  };
  %251 = (%model.backbone.body.layer2.0.bn2.weight, %model.backbone.body.layer2.0.bn2.running_var);
  %252 = (%tensor_038,);
  let %v38: () = vm.invoke_tvm_op(%250, %251, %252) /* ty=() */;
  let %x63: Tensor[(1, 128, 1, 1), float32] = %tensor_038;
  let %storage_039: Storage[] = memory.alloc_storage(589824 /* ty=int64 */, 64 /* ty=int64 */, meta[relay.attrs.AllocStorageAttrs][39]) /* ty=Storage[] */;
  let %tensor_039: Tensor[(128, 128, 3, 3), float32] = memory.alloc_tensor(%storage_039, 0 /* ty=int64 */, meta[relay.Constant][65] /* ty=Tensor[(4), int64] */, meta[relay.attrs.AllocTensorAttrs][39]) /* ty=Tensor[(128, 128, 3, 3), float32] */;
  %255 = fn (%p039: Tensor[(128, 128, 3, 3), float32], %p138: Tensor[(1, 128, 1, 1), float32], Primitive=1) -> Tensor[(128, 128, 3, 3), float32] {
    %253 = squeeze(%p138, axis=[0, 2, 3]) /* ty=Tensor[(128), float32] */;
    %254 = expand_dims(%253, axis=1, num_newaxis=3) /* ty=Tensor[(128, 1, 1, 1), float32] */;
    multiply(%p039, %254) /* ty=Tensor[(128, 128, 3, 3), float32] */
  };
  %256 = (%model.backbone.body.layer2.0.conv2.weight, %x63);
  %257 = (%tensor_039,);
  let %v39: () = vm.invoke_tvm_op(%255, %256, %257) /* ty=() */;
  let %x64: Tensor[(128, 128, 3, 3), float32] = %tensor_039;
  let %x65: Tensor[(1, 128, 1, 1), float32] = vm.reshape_tensor(%model.backbone.body.layer2.0.bn2.bias, meta[relay.Constant][66] /* ty=Tensor[(4), int64] */, meta[relay.attrs.ReshapeTensorAttrs][24]) /* ty=Tensor[(1, 128, 1, 1), float32] */;
  let %x66: Tensor[(1, 128, 1, 1), float32] = vm.reshape_tensor(%model.backbone.body.layer2.0.bn2.running_mean, meta[relay.Constant][67] /* ty=Tensor[(4), int64] */, meta[relay.attrs.ReshapeTensorAttrs][25]) /* ty=Tensor[(1, 128, 1, 1), float32] */;
  let %storage_040: Storage[] = memory.alloc_storage(5120000 /* ty=int64 */, 64 /* ty=int64 */, meta[relay.attrs.AllocStorageAttrs][40]) /* ty=Storage[] */;
  let %tensor_040: Tensor[(1, 128, 100, 100), float32] = memory.alloc_tensor(%storage_040, 0 /* ty=int64 */, meta[relay.Constant][68] /* ty=Tensor[(4), int64] */, meta[relay.attrs.AllocTensorAttrs][40]) /* ty=Tensor[(1, 128, 100, 100), float32] */;
  %262 = fn (%p040: Tensor[(1, 128, 200, 200), float32], %p139: Tensor[(128, 128, 3, 3), float32], %p213: Tensor[(1, 128, 1, 1), float32], %p312: Tensor[(1, 128, 1, 1), float32], %p412: Tensor[(1, 128, 1, 1), float32], Primitive=1) -> Tensor[(1, 128, 100, 100), float32] {
    %258 = nn.conv2d(%p040, %p139, strides=[2, 2], padding=[1, 1, 1, 1], channels=128, kernel_size=[3, 3]) /* ty=Tensor[(1, 128, 100, 100), float32] */;
    %259 = multiply(%p312, %p412) /* ty=Tensor[(1, 128, 1, 1), float32] */;
    %260 = subtract(%p213, %259) /* ty=Tensor[(1, 128, 1, 1), float32] */;
    %261 = add(%258, %260) /* ty=Tensor[(1, 128, 100, 100), float32] */;
    nn.relu(%261) /* ty=Tensor[(1, 128, 100, 100), float32] */
  };
  %263 = (%x62, %x64, %x65, %x66, %x63);
  %264 = (%tensor_040,);
  let %v40: () = vm.invoke_tvm_op(%262, %263, %264) /* ty=() */;
  let %x67: Tensor[(1, 128, 100, 100), float32] = %tensor_040;
  let %storage_041: Storage[] = memory.alloc_storage(2048 /* ty=int64 */, 64 /* ty=int64 */, meta[relay.attrs.AllocStorageAttrs][41]) /* ty=Storage[] */;
  let %tensor_041: Tensor[(1, 512, 1, 1), float32] = memory.alloc_tensor(%storage_041, 0 /* ty=int64 */, meta[relay.Constant][69] /* ty=Tensor[(4), int64] */, meta[relay.attrs.AllocTensorAttrs][41]) /* ty=Tensor[(1, 512, 1, 1), float32] */;
  %269 = fn (%p041: Tensor[(512), float32], %p140: Tensor[(512), float32], Primitive=1) -> Tensor[(1, 512, 1, 1), float32] {
    %265 = reshape(%p041, newshape=[1, -1, 1, 1]) /* ty=Tensor[(1, 512, 1, 1), float32] */;
    %266 = reshape(%p140, newshape=[1, -1, 1, 1]) /* ty=Tensor[(1, 512, 1, 1), float32] */;
    %267 = add(%266, 0f /* ty=float32 */) /* ty=Tensor[(1, 512, 1, 1), float32] */;
    %268 = rsqrt(%267) /* ty=Tensor[(1, 512, 1, 1), float32] */;
    multiply(%265, %268) /* ty=Tensor[(1, 512, 1, 1), float32] */
  };
  %270 = (%model.backbone.body.layer2.0.bn3.weight, %model.backbone.body.layer2.0.bn3.running_var);
  %271 = (%tensor_041,);
  let %v41: () = vm.invoke_tvm_op(%269, %270, %271) /* ty=() */;
  let %x68: Tensor[(1, 512, 1, 1), float32] = %tensor_041;
  let %storage_042: Storage[] = memory.alloc_storage(262144 /* ty=int64 */, 64 /* ty=int64 */, meta[relay.attrs.AllocStorageAttrs][42]) /* ty=Storage[] */;
  let %tensor_042: Tensor[(512, 128, 1, 1), float32] = memory.alloc_tensor(%storage_042, 0 /* ty=int64 */, meta[relay.Constant][70] /* ty=Tensor[(4), int64] */, meta[relay.attrs.AllocTensorAttrs][42]) /* ty=Tensor[(512, 128, 1, 1), float32] */;
  %274 = fn (%p042: Tensor[(512, 128, 1, 1), float32], %p141: Tensor[(1, 512, 1, 1), float32], Primitive=1) -> Tensor[(512, 128, 1, 1), float32] {
    %272 = squeeze(%p141, axis=[0, 2, 3]) /* ty=Tensor[(512), float32] */;
    %273 = expand_dims(%272, axis=1, num_newaxis=3) /* ty=Tensor[(512, 1, 1, 1), float32] */;
    multiply(%p042, %273) /* ty=Tensor[(512, 128, 1, 1), float32] */
  };
  %275 = (%model.backbone.body.layer2.0.conv3.weight, %x68);
  %276 = (%tensor_042,);
  let %v42: () = vm.invoke_tvm_op(%274, %275, %276) /* ty=() */;
  let %x69: Tensor[(512, 128, 1, 1), float32] = %tensor_042;
  let %x70: Tensor[(1, 512, 1, 1), float32] = vm.reshape_tensor(%model.backbone.body.layer2.0.bn3.bias, meta[relay.Constant][71] /* ty=Tensor[(4), int64] */, meta[relay.attrs.ReshapeTensorAttrs][26]) /* ty=Tensor[(1, 512, 1, 1), float32] */;
  let %x71: Tensor[(1, 512, 1, 1), float32] = vm.reshape_tensor(%model.backbone.body.layer2.0.bn3.running_mean, meta[relay.Constant][72] /* ty=Tensor[(4), int64] */, meta[relay.attrs.ReshapeTensorAttrs][27]) /* ty=Tensor[(1, 512, 1, 1), float32] */;
  let %storage_043: Storage[] = memory.alloc_storage(2048 /* ty=int64 */, 64 /* ty=int64 */, meta[relay.attrs.AllocStorageAttrs][43]) /* ty=Storage[] */;
  let %tensor_043: Tensor[(1, 512, 1, 1), float32] = memory.alloc_tensor(%storage_043, 0 /* ty=int64 */, meta[relay.Constant][73] /* ty=Tensor[(4), int64] */, meta[relay.attrs.AllocTensorAttrs][43]) /* ty=Tensor[(1, 512, 1, 1), float32] */;
  %281 = fn (%p043: Tensor[(512), float32], %p142: Tensor[(512), float32], Primitive=1) -> Tensor[(1, 512, 1, 1), float32] {
    %277 = reshape(%p043, newshape=[1, -1, 1, 1]) /* ty=Tensor[(1, 512, 1, 1), float32] */;
    %278 = reshape(%p142, newshape=[1, -1, 1, 1]) /* ty=Tensor[(1, 512, 1, 1), float32] */;
    %279 = add(%278, 0f /* ty=float32 */) /* ty=Tensor[(1, 512, 1, 1), float32] */;
    %280 = rsqrt(%279) /* ty=Tensor[(1, 512, 1, 1), float32] */;
    multiply(%277, %280) /* ty=Tensor[(1, 512, 1, 1), float32] */
  };
  %282 = (%model.backbone.body.layer2.0.downsample.1.weight, %model.backbone.body.layer2.0.downsample.1.running_var);
  %283 = (%tensor_043,);
  let %v43: () = vm.invoke_tvm_op(%281, %282, %283) /* ty=() */;
  let %x72: Tensor[(1, 512, 1, 1), float32] = %tensor_043;
  let %storage_044: Storage[] = memory.alloc_storage(524288 /* ty=int64 */, 64 /* ty=int64 */, meta[relay.attrs.AllocStorageAttrs][44]) /* ty=Storage[] */;
  let %tensor_044: Tensor[(512, 256, 1, 1), float32] = memory.alloc_tensor(%storage_044, 0 /* ty=int64 */, meta[relay.Constant][74] /* ty=Tensor[(4), int64] */, meta[relay.attrs.AllocTensorAttrs][44]) /* ty=Tensor[(512, 256, 1, 1), float32] */;
  %286 = fn (%p044: Tensor[(512, 256, 1, 1), float32], %p143: Tensor[(1, 512, 1, 1), float32], Primitive=1) -> Tensor[(512, 256, 1, 1), float32] {
    %284 = squeeze(%p143, axis=[0, 2, 3]) /* ty=Tensor[(512), float32] */;
    %285 = expand_dims(%284, axis=1, num_newaxis=3) /* ty=Tensor[(512, 1, 1, 1), float32] */;
    multiply(%p044, %285) /* ty=Tensor[(512, 256, 1, 1), float32] */
  };
  %287 = (%model.backbone.body.layer2.0.downsample.0.weight, %x72);
  %288 = (%tensor_044,);
  let %v44: () = vm.invoke_tvm_op(%286, %287, %288) /* ty=() */;
  let %x73: Tensor[(512, 256, 1, 1), float32] = %tensor_044;
  let %x74: Tensor[(1, 512, 1, 1), float32] = vm.reshape_tensor(%model.backbone.body.layer2.0.downsample.1.bias, meta[relay.Constant][75] /* ty=Tensor[(4), int64] */, meta[relay.attrs.ReshapeTensorAttrs][28]) /* ty=Tensor[(1, 512, 1, 1), float32] */;
  let %x75: Tensor[(1, 512, 1, 1), float32] = vm.reshape_tensor(%model.backbone.body.layer2.0.downsample.1.running_mean, meta[relay.Constant][76] /* ty=Tensor[(4), int64] */, meta[relay.attrs.ReshapeTensorAttrs][29]) /* ty=Tensor[(1, 512, 1, 1), float32] */;
  let %storage_045: Storage[] = memory.alloc_storage(20480000 /* ty=int64 */, 64 /* ty=int64 */, meta[relay.attrs.AllocStorageAttrs][45]) /* ty=Storage[] */;
  let %tensor_045: Tensor[(1, 512, 100, 100), float32] = memory.alloc_tensor(%storage_045, 0 /* ty=int64 */, meta[relay.Constant][77] /* ty=Tensor[(4), int64] */, meta[relay.attrs.AllocTensorAttrs][45]) /* ty=Tensor[(1, 512, 100, 100), float32] */;
  %292 = fn (%p045: Tensor[(1, 256, 200, 200), float32], %p144: Tensor[(512, 256, 1, 1), float32], %p214: Tensor[(1, 512, 1, 1), float32], %p313: Tensor[(1, 512, 1, 1), float32], %p413: Tensor[(1, 512, 1, 1), float32], Primitive=1) -> Tensor[(1, 512, 100, 100), float32] {
    %289 = nn.conv2d(%p045, %p144, strides=[2, 2], padding=[0, 0, 0, 0], channels=512, kernel_size=[1, 1]) /* ty=Tensor[(1, 512, 100, 100), float32] */;
    %290 = multiply(%p313, %p413) /* ty=Tensor[(1, 512, 1, 1), float32] */;
    %291 = subtract(%p214, %290) /* ty=Tensor[(1, 512, 1, 1), float32] */;
    add(%289, %291) /* ty=Tensor[(1, 512, 100, 100), float32] */
  };
  %293 = (%x57, %x73, %x74, %x75, %x72);
  %294 = (%tensor_045,);
  let %v45: () = vm.invoke_tvm_op(%292, %293, %294) /* ty=() */;
  let %x76: Tensor[(1, 512, 100, 100), float32] = %tensor_045;
  let %storage_046: Storage[] = memory.alloc_storage(20480000 /* ty=int64 */, 64 /* ty=int64 */, meta[relay.attrs.AllocStorageAttrs][46]) /* ty=Storage[] */;
  let %tensor_046: Tensor[(1, 512, 100, 100), float32] = memory.alloc_tensor(%storage_046, 0 /* ty=int64 */, meta[relay.Constant][78] /* ty=Tensor[(4), int64] */, meta[relay.attrs.AllocTensorAttrs][46]) /* ty=Tensor[(1, 512, 100, 100), float32] */;
  %300 = fn (%p046: Tensor[(1, 128, 100, 100), float32], %p145: Tensor[(512, 128, 1, 1), float32], %p215: Tensor[(1, 512, 1, 1), float32], %p314: Tensor[(1, 512, 1, 1), float32], %p414: Tensor[(1, 512, 1, 1), float32], %p53: Tensor[(1, 512, 100, 100), float32], Primitive=1) -> Tensor[(1, 512, 100, 100), float32] {
    %295 = nn.conv2d(%p046, %p145, padding=[0, 0, 0, 0], channels=512, kernel_size=[1, 1]) /* ty=Tensor[(1, 512, 100, 100), float32] */;
    %296 = multiply(%p314, %p414) /* ty=Tensor[(1, 512, 1, 1), float32] */;
    %297 = subtract(%p215, %296) /* ty=Tensor[(1, 512, 1, 1), float32] */;
    %298 = add(%295, %297) /* ty=Tensor[(1, 512, 100, 100), float32] */;
    %299 = add(%298, %p53) /* ty=Tensor[(1, 512, 100, 100), float32] */;
    nn.relu(%299) /* ty=Tensor[(1, 512, 100, 100), float32] */
  };
  %301 = (%x67, %x69, %x70, %x71, %x68, %x76);
  %302 = (%tensor_046,);
  let %v46: () = vm.invoke_tvm_op(%300, %301, %302) /* ty=() */;
  let %x77: Tensor[(1, 512, 100, 100), float32] = %tensor_046;
  let %storage_047: Storage[] = memory.alloc_storage(512 /* ty=int64 */, 64 /* ty=int64 */, meta[relay.attrs.AllocStorageAttrs][47]) /* ty=Storage[] */;
  let %tensor_047: Tensor[(1, 128, 1, 1), float32] = memory.alloc_tensor(%storage_047, 0 /* ty=int64 */, meta[relay.Constant][79] /* ty=Tensor[(4), int64] */, meta[relay.attrs.AllocTensorAttrs][47]) /* ty=Tensor[(1, 128, 1, 1), float32] */;
  %307 = fn (%p047: Tensor[(128), float32], %p146: Tensor[(128), float32], Primitive=1) -> Tensor[(1, 128, 1, 1), float32] {
    %303 = reshape(%p047, newshape=[1, -1, 1, 1]) /* ty=Tensor[(1, 128, 1, 1), float32] */;
    %304 = reshape(%p146, newshape=[1, -1, 1, 1]) /* ty=Tensor[(1, 128, 1, 1), float32] */;
    %305 = add(%304, 0f /* ty=float32 */) /* ty=Tensor[(1, 128, 1, 1), float32] */;
    %306 = rsqrt(%305) /* ty=Tensor[(1, 128, 1, 1), float32] */;
    multiply(%303, %306) /* ty=Tensor[(1, 128, 1, 1), float32] */
  };
  %308 = (%model.backbone.body.layer2.1.bn1.weight, %model.backbone.body.layer2.1.bn1.running_var);
  %309 = (%tensor_047,);
  let %v47: () = vm.invoke_tvm_op(%307, %308, %309) /* ty=() */;
  let %x78: Tensor[(1, 128, 1, 1), float32] = %tensor_047;
  let %storage_048: Storage[] = memory.alloc_storage(262144 /* ty=int64 */, 64 /* ty=int64 */, meta[relay.attrs.AllocStorageAttrs][48]) /* ty=Storage[] */;
  let %tensor_048: Tensor[(128, 512, 1, 1), float32] = memory.alloc_tensor(%storage_048, 0 /* ty=int64 */, meta[relay.Constant][80] /* ty=Tensor[(4), int64] */, meta[relay.attrs.AllocTensorAttrs][48]) /* ty=Tensor[(128, 512, 1, 1), float32] */;
  %312 = fn (%p048: Tensor[(128, 512, 1, 1), float32], %p147: Tensor[(1, 128, 1, 1), float32], Primitive=1) -> Tensor[(128, 512, 1, 1), float32] {
    %310 = squeeze(%p147, axis=[0, 2, 3]) /* ty=Tensor[(128), float32] */;
    %311 = expand_dims(%310, axis=1, num_newaxis=3) /* ty=Tensor[(128, 1, 1, 1), float32] */;
    multiply(%p048, %311) /* ty=Tensor[(128, 512, 1, 1), float32] */
  };
  %313 = (%model.backbone.body.layer2.1.conv1.weight, %x78);
  %314 = (%tensor_048,);
  let %v48: () = vm.invoke_tvm_op(%312, %313, %314) /* ty=() */;
  let %x79: Tensor[(128, 512, 1, 1), float32] = %tensor_048;
  let %x80: Tensor[(1, 128, 1, 1), float32] = vm.reshape_tensor(%model.backbone.body.layer2.1.bn1.bias, meta[relay.Constant][81] /* ty=Tensor[(4), int64] */, meta[relay.attrs.ReshapeTensorAttrs][30]) /* ty=Tensor[(1, 128, 1, 1), float32] */;
  let %x81: Tensor[(1, 128, 1, 1), float32] = vm.reshape_tensor(%model.backbone.body.layer2.1.bn1.running_mean, meta[relay.Constant][82] /* ty=Tensor[(4), int64] */, meta[relay.attrs.ReshapeTensorAttrs][31]) /* ty=Tensor[(1, 128, 1, 1), float32] */;
  let %storage_049: Storage[] = memory.alloc_storage(5120000 /* ty=int64 */, 64 /* ty=int64 */, meta[relay.attrs.AllocStorageAttrs][49]) /* ty=Storage[] */;
  let %tensor_049: Tensor[(1, 128, 100, 100), float32] = memory.alloc_tensor(%storage_049, 0 /* ty=int64 */, meta[relay.Constant][83] /* ty=Tensor[(4), int64] */, meta[relay.attrs.AllocTensorAttrs][49]) /* ty=Tensor[(1, 128, 100, 100), float32] */;
  %319 = fn (%p049: Tensor[(1, 512, 100, 100), float32], %p148: Tensor[(128, 512, 1, 1), float32], %p216: Tensor[(1, 128, 1, 1), float32], %p315: Tensor[(1, 128, 1, 1), float32], %p415: Tensor[(1, 128, 1, 1), float32], Primitive=1) -> Tensor[(1, 128, 100, 100), float32] {
    %315 = nn.conv2d(%p049, %p148, padding=[0, 0, 0, 0], channels=128, kernel_size=[1, 1]) /* ty=Tensor[(1, 128, 100, 100), float32] */;
    %316 = multiply(%p315, %p415) /* ty=Tensor[(1, 128, 1, 1), float32] */;
    %317 = subtract(%p216, %316) /* ty=Tensor[(1, 128, 1, 1), float32] */;
    %318 = add(%315, %317) /* ty=Tensor[(1, 128, 100, 100), float32] */;
    nn.relu(%318) /* ty=Tensor[(1, 128, 100, 100), float32] */
  };
  %320 = (%x77, %x79, %x80, %x81, %x78);
  %321 = (%tensor_049,);
  let %v49: () = vm.invoke_tvm_op(%319, %320, %321) /* ty=() */;
  let %x82: Tensor[(1, 128, 100, 100), float32] = %tensor_049;
  let %storage_050: Storage[] = memory.alloc_storage(512 /* ty=int64 */, 64 /* ty=int64 */, meta[relay.attrs.AllocStorageAttrs][50]) /* ty=Storage[] */;
  let %tensor_050: Tensor[(1, 128, 1, 1), float32] = memory.alloc_tensor(%storage_050, 0 /* ty=int64 */, meta[relay.Constant][84] /* ty=Tensor[(4), int64] */, meta[relay.attrs.AllocTensorAttrs][50]) /* ty=Tensor[(1, 128, 1, 1), float32] */;
  %326 = fn (%p050: Tensor[(128), float32], %p149: Tensor[(128), float32], Primitive=1) -> Tensor[(1, 128, 1, 1), float32] {
    %322 = reshape(%p050, newshape=[1, -1, 1, 1]) /* ty=Tensor[(1, 128, 1, 1), float32] */;
    %323 = reshape(%p149, newshape=[1, -1, 1, 1]) /* ty=Tensor[(1, 128, 1, 1), float32] */;
    %324 = add(%323, 0f /* ty=float32 */) /* ty=Tensor[(1, 128, 1, 1), float32] */;
    %325 = rsqrt(%324) /* ty=Tensor[(1, 128, 1, 1), float32] */;
    multiply(%322, %325) /* ty=Tensor[(1, 128, 1, 1), float32] */
  };
  %327 = (%model.backbone.body.layer2.1.bn2.weight, %model.backbone.body.layer2.1.bn2.running_var);
  %328 = (%tensor_050,);
  let %v50: () = vm.invoke_tvm_op(%326, %327, %328) /* ty=() */;
  let %x83: Tensor[(1, 128, 1, 1), float32] = %tensor_050;
  let %storage_051: Storage[] = memory.alloc_storage(589824 /* ty=int64 */, 64 /* ty=int64 */, meta[relay.attrs.AllocStorageAttrs][51]) /* ty=Storage[] */;
  let %tensor_051: Tensor[(128, 128, 3, 3), float32] = memory.alloc_tensor(%storage_051, 0 /* ty=int64 */, meta[relay.Constant][85] /* ty=Tensor[(4), int64] */, meta[relay.attrs.AllocTensorAttrs][51]) /* ty=Tensor[(128, 128, 3, 3), float32] */;
  %331 = fn (%p051: Tensor[(128, 128, 3, 3), float32], %p150: Tensor[(1, 128, 1, 1), float32], Primitive=1) -> Tensor[(128, 128, 3, 3), float32] {
    %329 = squeeze(%p150, axis=[0, 2, 3]) /* ty=Tensor[(128), float32] */;
    %330 = expand_dims(%329, axis=1, num_newaxis=3) /* ty=Tensor[(128, 1, 1, 1), float32] */;
    multiply(%p051, %330) /* ty=Tensor[(128, 128, 3, 3), float32] */
  };
  %332 = (%model.backbone.body.layer2.1.conv2.weight, %x83);
  %333 = (%tensor_051,);
  let %v51: () = vm.invoke_tvm_op(%331, %332, %333) /* ty=() */;
  let %x84: Tensor[(128, 128, 3, 3), float32] = %tensor_051;
  let %x85: Tensor[(1, 128, 1, 1), float32] = vm.reshape_tensor(%model.backbone.body.layer2.1.bn2.bias, meta[relay.Constant][86] /* ty=Tensor[(4), int64] */, meta[relay.attrs.ReshapeTensorAttrs][32]) /* ty=Tensor[(1, 128, 1, 1), float32] */;
  let %x86: Tensor[(1, 128, 1, 1), float32] = vm.reshape_tensor(%model.backbone.body.layer2.1.bn2.running_mean, meta[relay.Constant][87] /* ty=Tensor[(4), int64] */, meta[relay.attrs.ReshapeTensorAttrs][33]) /* ty=Tensor[(1, 128, 1, 1), float32] */;
  let %storage_052: Storage[] = memory.alloc_storage(5120000 /* ty=int64 */, 64 /* ty=int64 */, meta[relay.attrs.AllocStorageAttrs][52]) /* ty=Storage[] */;
  let %tensor_052: Tensor[(1, 128, 100, 100), float32] = memory.alloc_tensor(%storage_052, 0 /* ty=int64 */, meta[relay.Constant][88] /* ty=Tensor[(4), int64] */, meta[relay.attrs.AllocTensorAttrs][52]) /* ty=Tensor[(1, 128, 100, 100), float32] */;
  %338 = fn (%p052: Tensor[(1, 128, 100, 100), float32], %p151: Tensor[(128, 128, 3, 3), float32], %p217: Tensor[(1, 128, 1, 1), float32], %p316: Tensor[(1, 128, 1, 1), float32], %p416: Tensor[(1, 128, 1, 1), float32], Primitive=1) -> Tensor[(1, 128, 100, 100), float32] {
    %334 = nn.conv2d(%p052, %p151, padding=[1, 1, 1, 1], channels=128, kernel_size=[3, 3]) /* ty=Tensor[(1, 128, 100, 100), float32] */;
    %335 = multiply(%p316, %p416) /* ty=Tensor[(1, 128, 1, 1), float32] */;
    %336 = subtract(%p217, %335) /* ty=Tensor[(1, 128, 1, 1), float32] */;
    %337 = add(%334, %336) /* ty=Tensor[(1, 128, 100, 100), float32] */;
    nn.relu(%337) /* ty=Tensor[(1, 128, 100, 100), float32] */
  };
  %339 = (%x82, %x84, %x85, %x86, %x83);
  %340 = (%tensor_052,);
  let %v52: () = vm.invoke_tvm_op(%338, %339, %340) /* ty=() */;
  let %x87: Tensor[(1, 128, 100, 100), float32] = %tensor_052;
  let %storage_053: Storage[] = memory.alloc_storage(2048 /* ty=int64 */, 64 /* ty=int64 */, meta[relay.attrs.AllocStorageAttrs][53]) /* ty=Storage[] */;
  let %tensor_053: Tensor[(1, 512, 1, 1), float32] = memory.alloc_tensor(%storage_053, 0 /* ty=int64 */, meta[relay.Constant][89] /* ty=Tensor[(4), int64] */, meta[relay.attrs.AllocTensorAttrs][53]) /* ty=Tensor[(1, 512, 1, 1), float32] */;
  %345 = fn (%p053: Tensor[(512), float32], %p152: Tensor[(512), float32], Primitive=1) -> Tensor[(1, 512, 1, 1), float32] {
    %341 = reshape(%p053, newshape=[1, -1, 1, 1]) /* ty=Tensor[(1, 512, 1, 1), float32] */;
    %342 = reshape(%p152, newshape=[1, -1, 1, 1]) /* ty=Tensor[(1, 512, 1, 1), float32] */;
    %343 = add(%342, 0f /* ty=float32 */) /* ty=Tensor[(1, 512, 1, 1), float32] */;
    %344 = rsqrt(%343) /* ty=Tensor[(1, 512, 1, 1), float32] */;
    multiply(%341, %344) /* ty=Tensor[(1, 512, 1, 1), float32] */
  };
  %346 = (%model.backbone.body.layer2.1.bn3.weight, %model.backbone.body.layer2.1.bn3.running_var);
  %347 = (%tensor_053,);
  let %v53: () = vm.invoke_tvm_op(%345, %346, %347) /* ty=() */;
  let %x88: Tensor[(1, 512, 1, 1), float32] = %tensor_053;
  let %storage_054: Storage[] = memory.alloc_storage(262144 /* ty=int64 */, 64 /* ty=int64 */, meta[relay.attrs.AllocStorageAttrs][54]) /* ty=Storage[] */;
  let %tensor_054: Tensor[(512, 128, 1, 1), float32] = memory.alloc_tensor(%storage_054, 0 /* ty=int64 */, meta[relay.Constant][90] /* ty=Tensor[(4), int64] */, meta[relay.attrs.AllocTensorAttrs][54]) /* ty=Tensor[(512, 128, 1, 1), float32] */;
  %350 = fn (%p054: Tensor[(512, 128, 1, 1), float32], %p153: Tensor[(1, 512, 1, 1), float32], Primitive=1) -> Tensor[(512, 128, 1, 1), float32] {
    %348 = squeeze(%p153, axis=[0, 2, 3]) /* ty=Tensor[(512), float32] */;
    %349 = expand_dims(%348, axis=1, num_newaxis=3) /* ty=Tensor[(512, 1, 1, 1), float32] */;
    multiply(%p054, %349) /* ty=Tensor[(512, 128, 1, 1), float32] */
  };
  %351 = (%model.backbone.body.layer2.1.conv3.weight, %x88);
  %352 = (%tensor_054,);
  let %v54: () = vm.invoke_tvm_op(%350, %351, %352) /* ty=() */;
  let %x89: Tensor[(512, 128, 1, 1), float32] = %tensor_054;
  let %x90: Tensor[(1, 512, 1, 1), float32] = vm.reshape_tensor(%model.backbone.body.layer2.1.bn3.bias, meta[relay.Constant][91] /* ty=Tensor[(4), int64] */, meta[relay.attrs.ReshapeTensorAttrs][34]) /* ty=Tensor[(1, 512, 1, 1), float32] */;
  let %x91: Tensor[(1, 512, 1, 1), float32] = vm.reshape_tensor(%model.backbone.body.layer2.1.bn3.running_mean, meta[relay.Constant][92] /* ty=Tensor[(4), int64] */, meta[relay.attrs.ReshapeTensorAttrs][35]) /* ty=Tensor[(1, 512, 1, 1), float32] */;
  let %storage_055: Storage[] = memory.alloc_storage(20480000 /* ty=int64 */, 64 /* ty=int64 */, meta[relay.attrs.AllocStorageAttrs][55]) /* ty=Storage[] */;
  let %tensor_055: Tensor[(1, 512, 100, 100), float32] = memory.alloc_tensor(%storage_055, 0 /* ty=int64 */, meta[relay.Constant][93] /* ty=Tensor[(4), int64] */, meta[relay.attrs.AllocTensorAttrs][55]) /* ty=Tensor[(1, 512, 100, 100), float32] */;
  %358 = fn (%p055: Tensor[(1, 128, 100, 100), float32], %p154: Tensor[(512, 128, 1, 1), float32], %p218: Tensor[(1, 512, 1, 1), float32], %p317: Tensor[(1, 512, 1, 1), float32], %p417: Tensor[(1, 512, 1, 1), float32], %p54: Tensor[(1, 512, 100, 100), float32], Primitive=1) -> Tensor[(1, 512, 100, 100), float32] {
    %353 = nn.conv2d(%p055, %p154, padding=[0, 0, 0, 0], channels=512, kernel_size=[1, 1]) /* ty=Tensor[(1, 512, 100, 100), float32] */;
    %354 = multiply(%p317, %p417) /* ty=Tensor[(1, 512, 1, 1), float32] */;
    %355 = subtract(%p218, %354) /* ty=Tensor[(1, 512, 1, 1), float32] */;
    %356 = add(%353, %355) /* ty=Tensor[(1, 512, 100, 100), float32] */;
    %357 = add(%356, %p54) /* ty=Tensor[(1, 512, 100, 100), float32] */;
    nn.relu(%357) /* ty=Tensor[(1, 512, 100, 100), float32] */
  };
  %359 = (%x87, %x89, %x90, %x91, %x88, %x77);
  %360 = (%tensor_055,);
  let %v55: () = vm.invoke_tvm_op(%358, %359, %360) /* ty=() */;
  let %x92: Tensor[(1, 512, 100, 100), float32] = %tensor_055;
  let %storage_056: Storage[] = memory.alloc_storage(512 /* ty=int64 */, 64 /* ty=int64 */, meta[relay.attrs.AllocStorageAttrs][56]) /* ty=Storage[] */;
  let %tensor_056: Tensor[(1, 128, 1, 1), float32] = memory.alloc_tensor(%storage_056, 0 /* ty=int64 */, meta[relay.Constant][94] /* ty=Tensor[(4), int64] */, meta[relay.attrs.AllocTensorAttrs][56]) /* ty=Tensor[(1, 128, 1, 1), float32] */;
  %365 = fn (%p056: Tensor[(128), float32], %p155: Tensor[(128), float32], Primitive=1) -> Tensor[(1, 128, 1, 1), float32] {
    %361 = reshape(%p056, newshape=[1, -1, 1, 1]) /* ty=Tensor[(1, 128, 1, 1), float32] */;
    %362 = reshape(%p155, newshape=[1, -1, 1, 1]) /* ty=Tensor[(1, 128, 1, 1), float32] */;
    %363 = add(%362, 0f /* ty=float32 */) /* ty=Tensor[(1, 128, 1, 1), float32] */;
    %364 = rsqrt(%363) /* ty=Tensor[(1, 128, 1, 1), float32] */;
    multiply(%361, %364) /* ty=Tensor[(1, 128, 1, 1), float32] */
  };
  %366 = (%model.backbone.body.layer2.2.bn1.weight, %model.backbone.body.layer2.2.bn1.running_var);
  %367 = (%tensor_056,);
  let %v56: () = vm.invoke_tvm_op(%365, %366, %367) /* ty=() */;
  let %x93: Tensor[(1, 128, 1, 1), float32] = %tensor_056;
  let %storage_057: Storage[] = memory.alloc_storage(262144 /* ty=int64 */, 64 /* ty=int64 */, meta[relay.attrs.AllocStorageAttrs][57]) /* ty=Storage[] */;
  let %tensor_057: Tensor[(128, 512, 1, 1), float32] = memory.alloc_tensor(%storage_057, 0 /* ty=int64 */, meta[relay.Constant][95] /* ty=Tensor[(4), int64] */, meta[relay.attrs.AllocTensorAttrs][57]) /* ty=Tensor[(128, 512, 1, 1), float32] */;
  %370 = fn (%p057: Tensor[(128, 512, 1, 1), float32], %p156: Tensor[(1, 128, 1, 1), float32], Primitive=1) -> Tensor[(128, 512, 1, 1), float32] {
    %368 = squeeze(%p156, axis=[0, 2, 3]) /* ty=Tensor[(128), float32] */;
    %369 = expand_dims(%368, axis=1, num_newaxis=3) /* ty=Tensor[(128, 1, 1, 1), float32] */;
    multiply(%p057, %369) /* ty=Tensor[(128, 512, 1, 1), float32] */
  };
  %371 = (%model.backbone.body.layer2.2.conv1.weight, %x93);
  %372 = (%tensor_057,);
  let %v57: () = vm.invoke_tvm_op(%370, %371, %372) /* ty=() */;
  let %x94: Tensor[(128, 512, 1, 1), float32] = %tensor_057;
  let %x95: Tensor[(1, 128, 1, 1), float32] = vm.reshape_tensor(%model.backbone.body.layer2.2.bn1.bias, meta[relay.Constant][96] /* ty=Tensor[(4), int64] */, meta[relay.attrs.ReshapeTensorAttrs][36]) /* ty=Tensor[(1, 128, 1, 1), float32] */;
  let %x96: Tensor[(1, 128, 1, 1), float32] = vm.reshape_tensor(%model.backbone.body.layer2.2.bn1.running_mean, meta[relay.Constant][97] /* ty=Tensor[(4), int64] */, meta[relay.attrs.ReshapeTensorAttrs][37]) /* ty=Tensor[(1, 128, 1, 1), float32] */;
  let %storage_058: Storage[] = memory.alloc_storage(5120000 /* ty=int64 */, 64 /* ty=int64 */, meta[relay.attrs.AllocStorageAttrs][58]) /* ty=Storage[] */;
  let %tensor_058: Tensor[(1, 128, 100, 100), float32] = memory.alloc_tensor(%storage_058, 0 /* ty=int64 */, meta[relay.Constant][98] /* ty=Tensor[(4), int64] */, meta[relay.attrs.AllocTensorAttrs][58]) /* ty=Tensor[(1, 128, 100, 100), float32] */;
  %377 = fn (%p058: Tensor[(1, 512, 100, 100), float32], %p157: Tensor[(128, 512, 1, 1), float32], %p219: Tensor[(1, 128, 1, 1), float32], %p318: Tensor[(1, 128, 1, 1), float32], %p418: Tensor[(1, 128, 1, 1), float32], Primitive=1) -> Tensor[(1, 128, 100, 100), float32] {
    %373 = nn.conv2d(%p058, %p157, padding=[0, 0, 0, 0], channels=128, kernel_size=[1, 1]) /* ty=Tensor[(1, 128, 100, 100), float32] */;
    %374 = multiply(%p318, %p418) /* ty=Tensor[(1, 128, 1, 1), float32] */;
    %375 = subtract(%p219, %374) /* ty=Tensor[(1, 128, 1, 1), float32] */;
    %376 = add(%373, %375) /* ty=Tensor[(1, 128, 100, 100), float32] */;
    nn.relu(%376) /* ty=Tensor[(1, 128, 100, 100), float32] */
  };
  %378 = (%x92, %x94, %x95, %x96, %x93);
  %379 = (%tensor_058,);
  let %v58: () = vm.invoke_tvm_op(%377, %378, %379) /* ty=() */;
  let %x97: Tensor[(1, 128, 100, 100), float32] = %tensor_058;
  let %storage_059: Storage[] = memory.alloc_storage(512 /* ty=int64 */, 64 /* ty=int64 */, meta[relay.attrs.AllocStorageAttrs][59]) /* ty=Storage[] */;
  let %tensor_059: Tensor[(1, 128, 1, 1), float32] = memory.alloc_tensor(%storage_059, 0 /* ty=int64 */, meta[relay.Constant][99] /* ty=Tensor[(4), int64] */, meta[relay.attrs.AllocTensorAttrs][59]) /* ty=Tensor[(1, 128, 1, 1), float32] */;
  %384 = fn (%p059: Tensor[(128), float32], %p158: Tensor[(128), float32], Primitive=1) -> Tensor[(1, 128, 1, 1), float32] {
    %380 = reshape(%p059, newshape=[1, -1, 1, 1]) /* ty=Tensor[(1, 128, 1, 1), float32] */;
    %381 = reshape(%p158, newshape=[1, -1, 1, 1]) /* ty=Tensor[(1, 128, 1, 1), float32] */;
    %382 = add(%381, 0f /* ty=float32 */) /* ty=Tensor[(1, 128, 1, 1), float32] */;
    %383 = rsqrt(%382) /* ty=Tensor[(1, 128, 1, 1), float32] */;
    multiply(%380, %383) /* ty=Tensor[(1, 128, 1, 1), float32] */
  };
  %385 = (%model.backbone.body.layer2.2.bn2.weight, %model.backbone.body.layer2.2.bn2.running_var);
  %386 = (%tensor_059,);
  let %v59: () = vm.invoke_tvm_op(%384, %385, %386) /* ty=() */;
  let %x98: Tensor[(1, 128, 1, 1), float32] = %tensor_059;
  let %storage_060: Storage[] = memory.alloc_storage(589824 /* ty=int64 */, 64 /* ty=int64 */, meta[relay.attrs.AllocStorageAttrs][60]) /* ty=Storage[] */;
  let %tensor_060: Tensor[(128, 128, 3, 3), float32] = memory.alloc_tensor(%storage_060, 0 /* ty=int64 */, meta[relay.Constant][100] /* ty=Tensor[(4), int64] */, meta[relay.attrs.AllocTensorAttrs][60]) /* ty=Tensor[(128, 128, 3, 3), float32] */;
  %389 = fn (%p060: Tensor[(128, 128, 3, 3), float32], %p159: Tensor[(1, 128, 1, 1), float32], Primitive=1) -> Tensor[(128, 128, 3, 3), float32] {
    %387 = squeeze(%p159, axis=[0, 2, 3]) /* ty=Tensor[(128), float32] */;
    %388 = expand_dims(%387, axis=1, num_newaxis=3) /* ty=Tensor[(128, 1, 1, 1), float32] */;
    multiply(%p060, %388) /* ty=Tensor[(128, 128, 3, 3), float32] */
  };
  %390 = (%model.backbone.body.layer2.2.conv2.weight, %x98);
  %391 = (%tensor_060,);
  let %v60: () = vm.invoke_tvm_op(%389, %390, %391) /* ty=() */;
  let %x99: Tensor[(128, 128, 3, 3), float32] = %tensor_060;
  let %x100: Tensor[(1, 128, 1, 1), float32] = vm.reshape_tensor(%model.backbone.body.layer2.2.bn2.bias, meta[relay.Constant][101] /* ty=Tensor[(4), int64] */, meta[relay.attrs.ReshapeTensorAttrs][38]) /* ty=Tensor[(1, 128, 1, 1), float32] */;
  let %x101: Tensor[(1, 128, 1, 1), float32] = vm.reshape_tensor(%model.backbone.body.layer2.2.bn2.running_mean, meta[relay.Constant][102] /* ty=Tensor[(4), int64] */, meta[relay.attrs.ReshapeTensorAttrs][39]) /* ty=Tensor[(1, 128, 1, 1), float32] */;
  let %storage_061: Storage[] = memory.alloc_storage(5120000 /* ty=int64 */, 64 /* ty=int64 */, meta[relay.attrs.AllocStorageAttrs][61]) /* ty=Storage[] */;
  let %tensor_061: Tensor[(1, 128, 100, 100), float32] = memory.alloc_tensor(%storage_061, 0 /* ty=int64 */, meta[relay.Constant][103] /* ty=Tensor[(4), int64] */, meta[relay.attrs.AllocTensorAttrs][61]) /* ty=Tensor[(1, 128, 100, 100), float32] */;
  %396 = fn (%p061: Tensor[(1, 128, 100, 100), float32], %p160: Tensor[(128, 128, 3, 3), float32], %p220: Tensor[(1, 128, 1, 1), float32], %p319: Tensor[(1, 128, 1, 1), float32], %p419: Tensor[(1, 128, 1, 1), float32], Primitive=1) -> Tensor[(1, 128, 100, 100), float32] {
    %392 = nn.conv2d(%p061, %p160, padding=[1, 1, 1, 1], channels=128, kernel_size=[3, 3]) /* ty=Tensor[(1, 128, 100, 100), float32] */;
    %393 = multiply(%p319, %p419) /* ty=Tensor[(1, 128, 1, 1), float32] */;
    %394 = subtract(%p220, %393) /* ty=Tensor[(1, 128, 1, 1), float32] */;
    %395 = add(%392, %394) /* ty=Tensor[(1, 128, 100, 100), float32] */;
    nn.relu(%395) /* ty=Tensor[(1, 128, 100, 100), float32] */
  };
  %397 = (%x97, %x99, %x100, %x101, %x98);
  %398 = (%tensor_061,);
  let %v61: () = vm.invoke_tvm_op(%396, %397, %398) /* ty=() */;
  let %x102: Tensor[(1, 128, 100, 100), float32] = %tensor_061;
  let %storage_062: Storage[] = memory.alloc_storage(2048 /* ty=int64 */, 64 /* ty=int64 */, meta[relay.attrs.AllocStorageAttrs][62]) /* ty=Storage[] */;
  let %tensor_062: Tensor[(1, 512, 1, 1), float32] = memory.alloc_tensor(%storage_062, 0 /* ty=int64 */, meta[relay.Constant][104] /* ty=Tensor[(4), int64] */, meta[relay.attrs.AllocTensorAttrs][62]) /* ty=Tensor[(1, 512, 1, 1), float32] */;
  %403 = fn (%p062: Tensor[(512), float32], %p161: Tensor[(512), float32], Primitive=1) -> Tensor[(1, 512, 1, 1), float32] {
    %399 = reshape(%p062, newshape=[1, -1, 1, 1]) /* ty=Tensor[(1, 512, 1, 1), float32] */;
    %400 = reshape(%p161, newshape=[1, -1, 1, 1]) /* ty=Tensor[(1, 512, 1, 1), float32] */;
    %401 = add(%400, 0f /* ty=float32 */) /* ty=Tensor[(1, 512, 1, 1), float32] */;
    %402 = rsqrt(%401) /* ty=Tensor[(1, 512, 1, 1), float32] */;
    multiply(%399, %402) /* ty=Tensor[(1, 512, 1, 1), float32] */
  };
  %404 = (%model.backbone.body.layer2.2.bn3.weight, %model.backbone.body.layer2.2.bn3.running_var);
  %405 = (%tensor_062,);
  let %v62: () = vm.invoke_tvm_op(%403, %404, %405) /* ty=() */;
  let %x103: Tensor[(1, 512, 1, 1), float32] = %tensor_062;
  let %storage_063: Storage[] = memory.alloc_storage(262144 /* ty=int64 */, 64 /* ty=int64 */, meta[relay.attrs.AllocStorageAttrs][63]) /* ty=Storage[] */;
  let %tensor_063: Tensor[(512, 128, 1, 1), float32] = memory.alloc_tensor(%storage_063, 0 /* ty=int64 */, meta[relay.Constant][105] /* ty=Tensor[(4), int64] */, meta[relay.attrs.AllocTensorAttrs][63]) /* ty=Tensor[(512, 128, 1, 1), float32] */;
  %408 = fn (%p063: Tensor[(512, 128, 1, 1), float32], %p162: Tensor[(1, 512, 1, 1), float32], Primitive=1) -> Tensor[(512, 128, 1, 1), float32] {
    %406 = squeeze(%p162, axis=[0, 2, 3]) /* ty=Tensor[(512), float32] */;
    %407 = expand_dims(%406, axis=1, num_newaxis=3) /* ty=Tensor[(512, 1, 1, 1), float32] */;
    multiply(%p063, %407) /* ty=Tensor[(512, 128, 1, 1), float32] */
  };
  %409 = (%model.backbone.body.layer2.2.conv3.weight, %x103);
  %410 = (%tensor_063,);
  let %v63: () = vm.invoke_tvm_op(%408, %409, %410) /* ty=() */;
  let %x104: Tensor[(512, 128, 1, 1), float32] = %tensor_063;
  let %x105: Tensor[(1, 512, 1, 1), float32] = vm.reshape_tensor(%model.backbone.body.layer2.2.bn3.bias, meta[relay.Constant][106] /* ty=Tensor[(4), int64] */, meta[relay.attrs.ReshapeTensorAttrs][40]) /* ty=Tensor[(1, 512, 1, 1), float32] */;
  let %x106: Tensor[(1, 512, 1, 1), float32] = vm.reshape_tensor(%model.backbone.body.layer2.2.bn3.running_mean, meta[relay.Constant][107] /* ty=Tensor[(4), int64] */, meta[relay.attrs.ReshapeTensorAttrs][41]) /* ty=Tensor[(1, 512, 1, 1), float32] */;
  let %storage_064: Storage[] = memory.alloc_storage(20480000 /* ty=int64 */, 64 /* ty=int64 */, meta[relay.attrs.AllocStorageAttrs][64]) /* ty=Storage[] */;
  let %tensor_064: Tensor[(1, 512, 100, 100), float32] = memory.alloc_tensor(%storage_064, 0 /* ty=int64 */, meta[relay.Constant][108] /* ty=Tensor[(4), int64] */, meta[relay.attrs.AllocTensorAttrs][64]) /* ty=Tensor[(1, 512, 100, 100), float32] */;
  %416 = fn (%p064: Tensor[(1, 128, 100, 100), float32], %p163: Tensor[(512, 128, 1, 1), float32], %p221: Tensor[(1, 512, 1, 1), float32], %p320: Tensor[(1, 512, 1, 1), float32], %p420: Tensor[(1, 512, 1, 1), float32], %p55: Tensor[(1, 512, 100, 100), float32], Primitive=1) -> Tensor[(1, 512, 100, 100), float32] {
    %411 = nn.conv2d(%p064, %p163, padding=[0, 0, 0, 0], channels=512, kernel_size=[1, 1]) /* ty=Tensor[(1, 512, 100, 100), float32] */;
    %412 = multiply(%p320, %p420) /* ty=Tensor[(1, 512, 1, 1), float32] */;
    %413 = subtract(%p221, %412) /* ty=Tensor[(1, 512, 1, 1), float32] */;
    %414 = add(%411, %413) /* ty=Tensor[(1, 512, 100, 100), float32] */;
    %415 = add(%414, %p55) /* ty=Tensor[(1, 512, 100, 100), float32] */;
    nn.relu(%415) /* ty=Tensor[(1, 512, 100, 100), float32] */
  };
  %417 = (%x102, %x104, %x105, %x106, %x103, %x92);
  %418 = (%tensor_064,);
  let %v64: () = vm.invoke_tvm_op(%416, %417, %418) /* ty=() */;
  let %x107: Tensor[(1, 512, 100, 100), float32] = %tensor_064;
  let %storage_065: Storage[] = memory.alloc_storage(512 /* ty=int64 */, 64 /* ty=int64 */, meta[relay.attrs.AllocStorageAttrs][65]) /* ty=Storage[] */;
  let %tensor_065: Tensor[(1, 128, 1, 1), float32] = memory.alloc_tensor(%storage_065, 0 /* ty=int64 */, meta[relay.Constant][109] /* ty=Tensor[(4), int64] */, meta[relay.attrs.AllocTensorAttrs][65]) /* ty=Tensor[(1, 128, 1, 1), float32] */;
  %423 = fn (%p065: Tensor[(128), float32], %p164: Tensor[(128), float32], Primitive=1) -> Tensor[(1, 128, 1, 1), float32] {
    %419 = reshape(%p065, newshape=[1, -1, 1, 1]) /* ty=Tensor[(1, 128, 1, 1), float32] */;
    %420 = reshape(%p164, newshape=[1, -1, 1, 1]) /* ty=Tensor[(1, 128, 1, 1), float32] */;
    %421 = add(%420, 0f /* ty=float32 */) /* ty=Tensor[(1, 128, 1, 1), float32] */;
    %422 = rsqrt(%421) /* ty=Tensor[(1, 128, 1, 1), float32] */;
    multiply(%419, %422) /* ty=Tensor[(1, 128, 1, 1), float32] */
  };
  %424 = (%model.backbone.body.layer2.3.bn1.weight, %model.backbone.body.layer2.3.bn1.running_var);
  %425 = (%tensor_065,);
  let %v65: () = vm.invoke_tvm_op(%423, %424, %425) /* ty=() */;
  let %x108: Tensor[(1, 128, 1, 1), float32] = %tensor_065;
  let %storage_066: Storage[] = memory.alloc_storage(262144 /* ty=int64 */, 64 /* ty=int64 */, meta[relay.attrs.AllocStorageAttrs][66]) /* ty=Storage[] */;
  let %tensor_066: Tensor[(128, 512, 1, 1), float32] = memory.alloc_tensor(%storage_066, 0 /* ty=int64 */, meta[relay.Constant][110] /* ty=Tensor[(4), int64] */, meta[relay.attrs.AllocTensorAttrs][66]) /* ty=Tensor[(128, 512, 1, 1), float32] */;
  %428 = fn (%p066: Tensor[(128, 512, 1, 1), float32], %p165: Tensor[(1, 128, 1, 1), float32], Primitive=1) -> Tensor[(128, 512, 1, 1), float32] {
    %426 = squeeze(%p165, axis=[0, 2, 3]) /* ty=Tensor[(128), float32] */;
    %427 = expand_dims(%426, axis=1, num_newaxis=3) /* ty=Tensor[(128, 1, 1, 1), float32] */;
    multiply(%p066, %427) /* ty=Tensor[(128, 512, 1, 1), float32] */
  };
  %429 = (%model.backbone.body.layer2.3.conv1.weight, %x108);
  %430 = (%tensor_066,);
  let %v66: () = vm.invoke_tvm_op(%428, %429, %430) /* ty=() */;
  let %x109: Tensor[(128, 512, 1, 1), float32] = %tensor_066;
  let %x110: Tensor[(1, 128, 1, 1), float32] = vm.reshape_tensor(%model.backbone.body.layer2.3.bn1.bias, meta[relay.Constant][111] /* ty=Tensor[(4), int64] */, meta[relay.attrs.ReshapeTensorAttrs][42]) /* ty=Tensor[(1, 128, 1, 1), float32] */;
  let %x111: Tensor[(1, 128, 1, 1), float32] = vm.reshape_tensor(%model.backbone.body.layer2.3.bn1.running_mean, meta[relay.Constant][112] /* ty=Tensor[(4), int64] */, meta[relay.attrs.ReshapeTensorAttrs][43]) /* ty=Tensor[(1, 128, 1, 1), float32] */;
  let %storage_067: Storage[] = memory.alloc_storage(5120000 /* ty=int64 */, 64 /* ty=int64 */, meta[relay.attrs.AllocStorageAttrs][67]) /* ty=Storage[] */;
  let %tensor_067: Tensor[(1, 128, 100, 100), float32] = memory.alloc_tensor(%storage_067, 0 /* ty=int64 */, meta[relay.Constant][113] /* ty=Tensor[(4), int64] */, meta[relay.attrs.AllocTensorAttrs][67]) /* ty=Tensor[(1, 128, 100, 100), float32] */;
  %435 = fn (%p067: Tensor[(1, 512, 100, 100), float32], %p166: Tensor[(128, 512, 1, 1), float32], %p222: Tensor[(1, 128, 1, 1), float32], %p321: Tensor[(1, 128, 1, 1), float32], %p421: Tensor[(1, 128, 1, 1), float32], Primitive=1) -> Tensor[(1, 128, 100, 100), float32] {
    %431 = nn.conv2d(%p067, %p166, padding=[0, 0, 0, 0], channels=128, kernel_size=[1, 1]) /* ty=Tensor[(1, 128, 100, 100), float32] */;
    %432 = multiply(%p321, %p421) /* ty=Tensor[(1, 128, 1, 1), float32] */;
    %433 = subtract(%p222, %432) /* ty=Tensor[(1, 128, 1, 1), float32] */;
    %434 = add(%431, %433) /* ty=Tensor[(1, 128, 100, 100), float32] */;
    nn.relu(%434) /* ty=Tensor[(1, 128, 100, 100), float32] */
  };
  %436 = (%x107, %x109, %x110, %x111, %x108);
  %437 = (%tensor_067,);
  let %v67: () = vm.invoke_tvm_op(%435, %436, %437) /* ty=() */;
  let %x112: Tensor[(1, 128, 100, 100), float32] = %tensor_067;
  let %storage_068: Storage[] = memory.alloc_storage(512 /* ty=int64 */, 64 /* ty=int64 */, meta[relay.attrs.AllocStorageAttrs][68]) /* ty=Storage[] */;
  let %tensor_068: Tensor[(1, 128, 1, 1), float32] = memory.alloc_tensor(%storage_068, 0 /* ty=int64 */, meta[relay.Constant][114] /* ty=Tensor[(4), int64] */, meta[relay.attrs.AllocTensorAttrs][68]) /* ty=Tensor[(1, 128, 1, 1), float32] */;
  %442 = fn (%p068: Tensor[(128), float32], %p167: Tensor[(128), float32], Primitive=1) -> Tensor[(1, 128, 1, 1), float32] {
    %438 = reshape(%p068, newshape=[1, -1, 1, 1]) /* ty=Tensor[(1, 128, 1, 1), float32] */;
    %439 = reshape(%p167, newshape=[1, -1, 1, 1]) /* ty=Tensor[(1, 128, 1, 1), float32] */;
    %440 = add(%439, 0f /* ty=float32 */) /* ty=Tensor[(1, 128, 1, 1), float32] */;
    %441 = rsqrt(%440) /* ty=Tensor[(1, 128, 1, 1), float32] */;
    multiply(%438, %441) /* ty=Tensor[(1, 128, 1, 1), float32] */
  };
  %443 = (%model.backbone.body.layer2.3.bn2.weight, %model.backbone.body.layer2.3.bn2.running_var);
  %444 = (%tensor_068,);
  let %v68: () = vm.invoke_tvm_op(%442, %443, %444) /* ty=() */;
  let %x113: Tensor[(1, 128, 1, 1), float32] = %tensor_068;
  let %storage_069: Storage[] = memory.alloc_storage(589824 /* ty=int64 */, 64 /* ty=int64 */, meta[relay.attrs.AllocStorageAttrs][69]) /* ty=Storage[] */;
  let %tensor_069: Tensor[(128, 128, 3, 3), float32] = memory.alloc_tensor(%storage_069, 0 /* ty=int64 */, meta[relay.Constant][115] /* ty=Tensor[(4), int64] */, meta[relay.attrs.AllocTensorAttrs][69]) /* ty=Tensor[(128, 128, 3, 3), float32] */;
  %447 = fn (%p069: Tensor[(128, 128, 3, 3), float32], %p168: Tensor[(1, 128, 1, 1), float32], Primitive=1) -> Tensor[(128, 128, 3, 3), float32] {
    %445 = squeeze(%p168, axis=[0, 2, 3]) /* ty=Tensor[(128), float32] */;
    %446 = expand_dims(%445, axis=1, num_newaxis=3) /* ty=Tensor[(128, 1, 1, 1), float32] */;
    multiply(%p069, %446) /* ty=Tensor[(128, 128, 3, 3), float32] */
  };
  %448 = (%model.backbone.body.layer2.3.conv2.weight, %x113);
  %449 = (%tensor_069,);
  let %v69: () = vm.invoke_tvm_op(%447, %448, %449) /* ty=() */;
  let %x114: Tensor[(128, 128, 3, 3), float32] = %tensor_069;
  let %x115: Tensor[(1, 128, 1, 1), float32] = vm.reshape_tensor(%model.backbone.body.layer2.3.bn2.bias, meta[relay.Constant][116] /* ty=Tensor[(4), int64] */, meta[relay.attrs.ReshapeTensorAttrs][44]) /* ty=Tensor[(1, 128, 1, 1), float32] */;
  let %x116: Tensor[(1, 128, 1, 1), float32] = vm.reshape_tensor(%model.backbone.body.layer2.3.bn2.running_mean, meta[relay.Constant][117] /* ty=Tensor[(4), int64] */, meta[relay.attrs.ReshapeTensorAttrs][45]) /* ty=Tensor[(1, 128, 1, 1), float32] */;
  let %storage_070: Storage[] = memory.alloc_storage(5120000 /* ty=int64 */, 64 /* ty=int64 */, meta[relay.attrs.AllocStorageAttrs][70]) /* ty=Storage[] */;
  let %tensor_070: Tensor[(1, 128, 100, 100), float32] = memory.alloc_tensor(%storage_070, 0 /* ty=int64 */, meta[relay.Constant][118] /* ty=Tensor[(4), int64] */, meta[relay.attrs.AllocTensorAttrs][70]) /* ty=Tensor[(1, 128, 100, 100), float32] */;
  %454 = fn (%p070: Tensor[(1, 128, 100, 100), float32], %p169: Tensor[(128, 128, 3, 3), float32], %p223: Tensor[(1, 128, 1, 1), float32], %p322: Tensor[(1, 128, 1, 1), float32], %p422: Tensor[(1, 128, 1, 1), float32], Primitive=1) -> Tensor[(1, 128, 100, 100), float32] {
    %450 = nn.conv2d(%p070, %p169, padding=[1, 1, 1, 1], channels=128, kernel_size=[3, 3]) /* ty=Tensor[(1, 128, 100, 100), float32] */;
    %451 = multiply(%p322, %p422) /* ty=Tensor[(1, 128, 1, 1), float32] */;
    %452 = subtract(%p223, %451) /* ty=Tensor[(1, 128, 1, 1), float32] */;
    %453 = add(%450, %452) /* ty=Tensor[(1, 128, 100, 100), float32] */;
    nn.relu(%453) /* ty=Tensor[(1, 128, 100, 100), float32] */
  };
  %455 = (%x112, %x114, %x115, %x116, %x113);
  %456 = (%tensor_070,);
  let %v70: () = vm.invoke_tvm_op(%454, %455, %456) /* ty=() */;
  let %x117: Tensor[(1, 128, 100, 100), float32] = %tensor_070;
  let %storage_071: Storage[] = memory.alloc_storage(2048 /* ty=int64 */, 64 /* ty=int64 */, meta[relay.attrs.AllocStorageAttrs][71]) /* ty=Storage[] */;
  let %tensor_071: Tensor[(1, 512, 1, 1), float32] = memory.alloc_tensor(%storage_071, 0 /* ty=int64 */, meta[relay.Constant][119] /* ty=Tensor[(4), int64] */, meta[relay.attrs.AllocTensorAttrs][71]) /* ty=Tensor[(1, 512, 1, 1), float32] */;
  %461 = fn (%p071: Tensor[(512), float32], %p170: Tensor[(512), float32], Primitive=1) -> Tensor[(1, 512, 1, 1), float32] {
    %457 = reshape(%p071, newshape=[1, -1, 1, 1]) /* ty=Tensor[(1, 512, 1, 1), float32] */;
    %458 = reshape(%p170, newshape=[1, -1, 1, 1]) /* ty=Tensor[(1, 512, 1, 1), float32] */;
    %459 = add(%458, 0f /* ty=float32 */) /* ty=Tensor[(1, 512, 1, 1), float32] */;
    %460 = rsqrt(%459) /* ty=Tensor[(1, 512, 1, 1), float32] */;
    multiply(%457, %460) /* ty=Tensor[(1, 512, 1, 1), float32] */
  };
  %462 = (%model.backbone.body.layer2.3.bn3.weight, %model.backbone.body.layer2.3.bn3.running_var);
  %463 = (%tensor_071,);
  let %v71: () = vm.invoke_tvm_op(%461, %462, %463) /* ty=() */;
  let %x118: Tensor[(1, 512, 1, 1), float32] = %tensor_071;
  let %storage_072: Storage[] = memory.alloc_storage(262144 /* ty=int64 */, 64 /* ty=int64 */, meta[relay.attrs.AllocStorageAttrs][72]) /* ty=Storage[] */;
  let %tensor_072: Tensor[(512, 128, 1, 1), float32] = memory.alloc_tensor(%storage_072, 0 /* ty=int64 */, meta[relay.Constant][120] /* ty=Tensor[(4), int64] */, meta[relay.attrs.AllocTensorAttrs][72]) /* ty=Tensor[(512, 128, 1, 1), float32] */;
  %466 = fn (%p072: Tensor[(512, 128, 1, 1), float32], %p171: Tensor[(1, 512, 1, 1), float32], Primitive=1) -> Tensor[(512, 128, 1, 1), float32] {
    %464 = squeeze(%p171, axis=[0, 2, 3]) /* ty=Tensor[(512), float32] */;
    %465 = expand_dims(%464, axis=1, num_newaxis=3) /* ty=Tensor[(512, 1, 1, 1), float32] */;
    multiply(%p072, %465) /* ty=Tensor[(512, 128, 1, 1), float32] */
  };
  %467 = (%model.backbone.body.layer2.3.conv3.weight, %x118);
  %468 = (%tensor_072,);
  let %v72: () = vm.invoke_tvm_op(%466, %467, %468) /* ty=() */;
  let %x119: Tensor[(512, 128, 1, 1), float32] = %tensor_072;
  let %x120: Tensor[(1, 512, 1, 1), float32] = vm.reshape_tensor(%model.backbone.body.layer2.3.bn3.bias, meta[relay.Constant][121] /* ty=Tensor[(4), int64] */, meta[relay.attrs.ReshapeTensorAttrs][46]) /* ty=Tensor[(1, 512, 1, 1), float32] */;
  let %x121: Tensor[(1, 512, 1, 1), float32] = vm.reshape_tensor(%model.backbone.body.layer2.3.bn3.running_mean, meta[relay.Constant][122] /* ty=Tensor[(4), int64] */, meta[relay.attrs.ReshapeTensorAttrs][47]) /* ty=Tensor[(1, 512, 1, 1), float32] */;
  let %storage_073: Storage[] = memory.alloc_storage(20480000 /* ty=int64 */, 64 /* ty=int64 */, meta[relay.attrs.AllocStorageAttrs][73]) /* ty=Storage[] */;
  let %tensor_073: Tensor[(1, 512, 100, 100), float32] = memory.alloc_tensor(%storage_073, 0 /* ty=int64 */, meta[relay.Constant][123] /* ty=Tensor[(4), int64] */, meta[relay.attrs.AllocTensorAttrs][73]) /* ty=Tensor[(1, 512, 100, 100), float32] */;
  %474 = fn (%p073: Tensor[(1, 128, 100, 100), float32], %p172: Tensor[(512, 128, 1, 1), float32], %p224: Tensor[(1, 512, 1, 1), float32], %p323: Tensor[(1, 512, 1, 1), float32], %p423: Tensor[(1, 512, 1, 1), float32], %p56: Tensor[(1, 512, 100, 100), float32], Primitive=1) -> Tensor[(1, 512, 100, 100), float32] {
    %469 = nn.conv2d(%p073, %p172, padding=[0, 0, 0, 0], channels=512, kernel_size=[1, 1]) /* ty=Tensor[(1, 512, 100, 100), float32] */;
    %470 = multiply(%p323, %p423) /* ty=Tensor[(1, 512, 1, 1), float32] */;
    %471 = subtract(%p224, %470) /* ty=Tensor[(1, 512, 1, 1), float32] */;
    %472 = add(%469, %471) /* ty=Tensor[(1, 512, 100, 100), float32] */;
    %473 = add(%472, %p56) /* ty=Tensor[(1, 512, 100, 100), float32] */;
    nn.relu(%473) /* ty=Tensor[(1, 512, 100, 100), float32] */
  };
  %475 = (%x117, %x119, %x120, %x121, %x118, %x107);
  %476 = (%tensor_073,);
  let %v73: () = vm.invoke_tvm_op(%474, %475, %476) /* ty=() */;
  let %x122: Tensor[(1, 512, 100, 100), float32] = %tensor_073;
  let %storage_074: Storage[] = memory.alloc_storage(1024 /* ty=int64 */, 64 /* ty=int64 */, meta[relay.attrs.AllocStorageAttrs][74]) /* ty=Storage[] */;
  let %tensor_074: Tensor[(1, 256, 1, 1), float32] = memory.alloc_tensor(%storage_074, 0 /* ty=int64 */, meta[relay.Constant][124] /* ty=Tensor[(4), int64] */, meta[relay.attrs.AllocTensorAttrs][74]) /* ty=Tensor[(1, 256, 1, 1), float32] */;
  %481 = fn (%p074: Tensor[(256), float32], %p173: Tensor[(256), float32], Primitive=1) -> Tensor[(1, 256, 1, 1), float32] {
    %477 = reshape(%p074, newshape=[1, -1, 1, 1]) /* ty=Tensor[(1, 256, 1, 1), float32] */;
    %478 = reshape(%p173, newshape=[1, -1, 1, 1]) /* ty=Tensor[(1, 256, 1, 1), float32] */;
    %479 = add(%478, 0f /* ty=float32 */) /* ty=Tensor[(1, 256, 1, 1), float32] */;
    %480 = rsqrt(%479) /* ty=Tensor[(1, 256, 1, 1), float32] */;
    multiply(%477, %480) /* ty=Tensor[(1, 256, 1, 1), float32] */
  };
  %482 = (%model.backbone.body.layer3.0.bn1.weight, %model.backbone.body.layer3.0.bn1.running_var);
  %483 = (%tensor_074,);
  let %v74: () = vm.invoke_tvm_op(%481, %482, %483) /* ty=() */;
  let %x123: Tensor[(1, 256, 1, 1), float32] = %tensor_074;
  let %storage_075: Storage[] = memory.alloc_storage(524288 /* ty=int64 */, 64 /* ty=int64 */, meta[relay.attrs.AllocStorageAttrs][75]) /* ty=Storage[] */;
  let %tensor_075: Tensor[(256, 512, 1, 1), float32] = memory.alloc_tensor(%storage_075, 0 /* ty=int64 */, meta[relay.Constant][125] /* ty=Tensor[(4), int64] */, meta[relay.attrs.AllocTensorAttrs][75]) /* ty=Tensor[(256, 512, 1, 1), float32] */;
  %486 = fn (%p075: Tensor[(256, 512, 1, 1), float32], %p174: Tensor[(1, 256, 1, 1), float32], Primitive=1) -> Tensor[(256, 512, 1, 1), float32] {
    %484 = squeeze(%p174, axis=[0, 2, 3]) /* ty=Tensor[(256), float32] */;
    %485 = expand_dims(%484, axis=1, num_newaxis=3) /* ty=Tensor[(256, 1, 1, 1), float32] */;
    multiply(%p075, %485) /* ty=Tensor[(256, 512, 1, 1), float32] */
  };
  %487 = (%model.backbone.body.layer3.0.conv1.weight, %x123);
  %488 = (%tensor_075,);
  let %v75: () = vm.invoke_tvm_op(%486, %487, %488) /* ty=() */;
  let %x124: Tensor[(256, 512, 1, 1), float32] = %tensor_075;
  let %x125: Tensor[(1, 256, 1, 1), float32] = vm.reshape_tensor(%model.backbone.body.layer3.0.bn1.bias, meta[relay.Constant][126] /* ty=Tensor[(4), int64] */, meta[relay.attrs.ReshapeTensorAttrs][48]) /* ty=Tensor[(1, 256, 1, 1), float32] */;
  let %x126: Tensor[(1, 256, 1, 1), float32] = vm.reshape_tensor(%model.backbone.body.layer3.0.bn1.running_mean, meta[relay.Constant][127] /* ty=Tensor[(4), int64] */, meta[relay.attrs.ReshapeTensorAttrs][49]) /* ty=Tensor[(1, 256, 1, 1), float32] */;
  let %storage_076: Storage[] = memory.alloc_storage(10240000 /* ty=int64 */, 64 /* ty=int64 */, meta[relay.attrs.AllocStorageAttrs][76]) /* ty=Storage[] */;
  let %tensor_076: Tensor[(1, 256, 100, 100), float32] = memory.alloc_tensor(%storage_076, 0 /* ty=int64 */, meta[relay.Constant][128] /* ty=Tensor[(4), int64] */, meta[relay.attrs.AllocTensorAttrs][76]) /* ty=Tensor[(1, 256, 100, 100), float32] */;
  %493 = fn (%p076: Tensor[(1, 512, 100, 100), float32], %p175: Tensor[(256, 512, 1, 1), float32], %p225: Tensor[(1, 256, 1, 1), float32], %p324: Tensor[(1, 256, 1, 1), float32], %p424: Tensor[(1, 256, 1, 1), float32], Primitive=1) -> Tensor[(1, 256, 100, 100), float32] {
    %489 = nn.conv2d(%p076, %p175, padding=[0, 0, 0, 0], channels=256, kernel_size=[1, 1]) /* ty=Tensor[(1, 256, 100, 100), float32] */;
    %490 = multiply(%p324, %p424) /* ty=Tensor[(1, 256, 1, 1), float32] */;
    %491 = subtract(%p225, %490) /* ty=Tensor[(1, 256, 1, 1), float32] */;
    %492 = add(%489, %491) /* ty=Tensor[(1, 256, 100, 100), float32] */;
    nn.relu(%492) /* ty=Tensor[(1, 256, 100, 100), float32] */
  };
  %494 = (%x122, %x124, %x125, %x126, %x123);
  %495 = (%tensor_076,);
  let %v76: () = vm.invoke_tvm_op(%493, %494, %495) /* ty=() */;
  let %x127: Tensor[(1, 256, 100, 100), float32] = %tensor_076;
  let %storage_077: Storage[] = memory.alloc_storage(1024 /* ty=int64 */, 64 /* ty=int64 */, meta[relay.attrs.AllocStorageAttrs][77]) /* ty=Storage[] */;
  let %tensor_077: Tensor[(1, 256, 1, 1), float32] = memory.alloc_tensor(%storage_077, 0 /* ty=int64 */, meta[relay.Constant][129] /* ty=Tensor[(4), int64] */, meta[relay.attrs.AllocTensorAttrs][77]) /* ty=Tensor[(1, 256, 1, 1), float32] */;
  %500 = fn (%p077: Tensor[(256), float32], %p176: Tensor[(256), float32], Primitive=1) -> Tensor[(1, 256, 1, 1), float32] {
    %496 = reshape(%p077, newshape=[1, -1, 1, 1]) /* ty=Tensor[(1, 256, 1, 1), float32] */;
    %497 = reshape(%p176, newshape=[1, -1, 1, 1]) /* ty=Tensor[(1, 256, 1, 1), float32] */;
    %498 = add(%497, 0f /* ty=float32 */) /* ty=Tensor[(1, 256, 1, 1), float32] */;
    %499 = rsqrt(%498) /* ty=Tensor[(1, 256, 1, 1), float32] */;
    multiply(%496, %499) /* ty=Tensor[(1, 256, 1, 1), float32] */
  };
  %501 = (%model.backbone.body.layer3.0.bn2.weight, %model.backbone.body.layer3.0.bn2.running_var);
  %502 = (%tensor_077,);
  let %v77: () = vm.invoke_tvm_op(%500, %501, %502) /* ty=() */;
  let %x128: Tensor[(1, 256, 1, 1), float32] = %tensor_077;
  let %storage_078: Storage[] = memory.alloc_storage(2359296 /* ty=int64 */, 64 /* ty=int64 */, meta[relay.attrs.AllocStorageAttrs][78]) /* ty=Storage[] */;
  let %tensor_078: Tensor[(256, 256, 3, 3), float32] = memory.alloc_tensor(%storage_078, 0 /* ty=int64 */, meta[relay.Constant][130] /* ty=Tensor[(4), int64] */, meta[relay.attrs.AllocTensorAttrs][78]) /* ty=Tensor[(256, 256, 3, 3), float32] */;
  %505 = fn (%p078: Tensor[(256, 256, 3, 3), float32], %p177: Tensor[(1, 256, 1, 1), float32], Primitive=1) -> Tensor[(256, 256, 3, 3), float32] {
    %503 = squeeze(%p177, axis=[0, 2, 3]) /* ty=Tensor[(256), float32] */;
    %504 = expand_dims(%503, axis=1, num_newaxis=3) /* ty=Tensor[(256, 1, 1, 1), float32] */;
    multiply(%p078, %504) /* ty=Tensor[(256, 256, 3, 3), float32] */
  };
  %506 = (%model.backbone.body.layer3.0.conv2.weight, %x128);
  %507 = (%tensor_078,);
  let %v78: () = vm.invoke_tvm_op(%505, %506, %507) /* ty=() */;
  let %x129: Tensor[(256, 256, 3, 3), float32] = %tensor_078;
  let %x130: Tensor[(1, 256, 1, 1), float32] = vm.reshape_tensor(%model.backbone.body.layer3.0.bn2.bias, meta[relay.Constant][131] /* ty=Tensor[(4), int64] */, meta[relay.attrs.ReshapeTensorAttrs][50]) /* ty=Tensor[(1, 256, 1, 1), float32] */;
  let %x131: Tensor[(1, 256, 1, 1), float32] = vm.reshape_tensor(%model.backbone.body.layer3.0.bn2.running_mean, meta[relay.Constant][132] /* ty=Tensor[(4), int64] */, meta[relay.attrs.ReshapeTensorAttrs][51]) /* ty=Tensor[(1, 256, 1, 1), float32] */;
  let %storage_079: Storage[] = memory.alloc_storage(2560000 /* ty=int64 */, 64 /* ty=int64 */, meta[relay.attrs.AllocStorageAttrs][79]) /* ty=Storage[] */;
  let %tensor_079: Tensor[(1, 256, 50, 50), float32] = memory.alloc_tensor(%storage_079, 0 /* ty=int64 */, meta[relay.Constant][133] /* ty=Tensor[(4), int64] */, meta[relay.attrs.AllocTensorAttrs][79]) /* ty=Tensor[(1, 256, 50, 50), float32] */;
  %512 = fn (%p079: Tensor[(1, 256, 100, 100), float32], %p178: Tensor[(256, 256, 3, 3), float32], %p226: Tensor[(1, 256, 1, 1), float32], %p325: Tensor[(1, 256, 1, 1), float32], %p425: Tensor[(1, 256, 1, 1), float32], Primitive=1) -> Tensor[(1, 256, 50, 50), float32] {
    %508 = nn.conv2d(%p079, %p178, strides=[2, 2], padding=[1, 1, 1, 1], channels=256, kernel_size=[3, 3]) /* ty=Tensor[(1, 256, 50, 50), float32] */;
    %509 = multiply(%p325, %p425) /* ty=Tensor[(1, 256, 1, 1), float32] */;
    %510 = subtract(%p226, %509) /* ty=Tensor[(1, 256, 1, 1), float32] */;
    %511 = add(%508, %510) /* ty=Tensor[(1, 256, 50, 50), float32] */;
    nn.relu(%511) /* ty=Tensor[(1, 256, 50, 50), float32] */
  };
  %513 = (%x127, %x129, %x130, %x131, %x128);
  %514 = (%tensor_079,);
  let %v79: () = vm.invoke_tvm_op(%512, %513, %514) /* ty=() */;
  let %x132: Tensor[(1, 256, 50, 50), float32] = %tensor_079;
  let %storage_080: Storage[] = memory.alloc_storage(4096 /* ty=int64 */, 64 /* ty=int64 */, meta[relay.attrs.AllocStorageAttrs][80]) /* ty=Storage[] */;
  let %tensor_080: Tensor[(1, 1024, 1, 1), float32] = memory.alloc_tensor(%storage_080, 0 /* ty=int64 */, meta[relay.Constant][134] /* ty=Tensor[(4), int64] */, meta[relay.attrs.AllocTensorAttrs][80]) /* ty=Tensor[(1, 1024, 1, 1), float32] */;
  %519 = fn (%p080: Tensor[(1024), float32], %p179: Tensor[(1024), float32], Primitive=1) -> Tensor[(1, 1024, 1, 1), float32] {
    %515 = reshape(%p080, newshape=[1, -1, 1, 1]) /* ty=Tensor[(1, 1024, 1, 1), float32] */;
    %516 = reshape(%p179, newshape=[1, -1, 1, 1]) /* ty=Tensor[(1, 1024, 1, 1), float32] */;
    %517 = add(%516, 0f /* ty=float32 */) /* ty=Tensor[(1, 1024, 1, 1), float32] */;
    %518 = rsqrt(%517) /* ty=Tensor[(1, 1024, 1, 1), float32] */;
    multiply(%515, %518) /* ty=Tensor[(1, 1024, 1, 1), float32] */
  };
  %520 = (%model.backbone.body.layer3.0.bn3.weight, %model.backbone.body.layer3.0.bn3.running_var);
  %521 = (%tensor_080,);
  let %v80: () = vm.invoke_tvm_op(%519, %520, %521) /* ty=() */;
  let %x133: Tensor[(1, 1024, 1, 1), float32] = %tensor_080;
  let %storage_081: Storage[] = memory.alloc_storage(1048576 /* ty=int64 */, 64 /* ty=int64 */, meta[relay.attrs.AllocStorageAttrs][81]) /* ty=Storage[] */;
  let %tensor_081: Tensor[(1024, 256, 1, 1), float32] = memory.alloc_tensor(%storage_081, 0 /* ty=int64 */, meta[relay.Constant][135] /* ty=Tensor[(4), int64] */, meta[relay.attrs.AllocTensorAttrs][81]) /* ty=Tensor[(1024, 256, 1, 1), float32] */;
  %524 = fn (%p081: Tensor[(1024, 256, 1, 1), float32], %p180: Tensor[(1, 1024, 1, 1), float32], Primitive=1) -> Tensor[(1024, 256, 1, 1), float32] {
    %522 = squeeze(%p180, axis=[0, 2, 3]) /* ty=Tensor[(1024), float32] */;
    %523 = expand_dims(%522, axis=1, num_newaxis=3) /* ty=Tensor[(1024, 1, 1, 1), float32] */;
    multiply(%p081, %523) /* ty=Tensor[(1024, 256, 1, 1), float32] */
  };
  %525 = (%model.backbone.body.layer3.0.conv3.weight, %x133);
  %526 = (%tensor_081,);
  let %v81: () = vm.invoke_tvm_op(%524, %525, %526) /* ty=() */;
  let %x134: Tensor[(1024, 256, 1, 1), float32] = %tensor_081;
  let %x135: Tensor[(1, 1024, 1, 1), float32] = vm.reshape_tensor(%model.backbone.body.layer3.0.bn3.bias, meta[relay.Constant][136] /* ty=Tensor[(4), int64] */, meta[relay.attrs.ReshapeTensorAttrs][52]) /* ty=Tensor[(1, 1024, 1, 1), float32] */;
  let %x136: Tensor[(1, 1024, 1, 1), float32] = vm.reshape_tensor(%model.backbone.body.layer3.0.bn3.running_mean, meta[relay.Constant][137] /* ty=Tensor[(4), int64] */, meta[relay.attrs.ReshapeTensorAttrs][53]) /* ty=Tensor[(1, 1024, 1, 1), float32] */;
  let %storage_082: Storage[] = memory.alloc_storage(4096 /* ty=int64 */, 64 /* ty=int64 */, meta[relay.attrs.AllocStorageAttrs][82]) /* ty=Storage[] */;
  let %tensor_082: Tensor[(1, 1024, 1, 1), float32] = memory.alloc_tensor(%storage_082, 0 /* ty=int64 */, meta[relay.Constant][138] /* ty=Tensor[(4), int64] */, meta[relay.attrs.AllocTensorAttrs][82]) /* ty=Tensor[(1, 1024, 1, 1), float32] */;
  %531 = fn (%p082: Tensor[(1024), float32], %p181: Tensor[(1024), float32], Primitive=1) -> Tensor[(1, 1024, 1, 1), float32] {
    %527 = reshape(%p082, newshape=[1, -1, 1, 1]) /* ty=Tensor[(1, 1024, 1, 1), float32] */;
    %528 = reshape(%p181, newshape=[1, -1, 1, 1]) /* ty=Tensor[(1, 1024, 1, 1), float32] */;
    %529 = add(%528, 0f /* ty=float32 */) /* ty=Tensor[(1, 1024, 1, 1), float32] */;
    %530 = rsqrt(%529) /* ty=Tensor[(1, 1024, 1, 1), float32] */;
    multiply(%527, %530) /* ty=Tensor[(1, 1024, 1, 1), float32] */
  };
  %532 = (%model.backbone.body.layer3.0.downsample.1.weight, %model.backbone.body.layer3.0.downsample.1.running_var);
  %533 = (%tensor_082,);
  let %v82: () = vm.invoke_tvm_op(%531, %532, %533) /* ty=() */;
  let %x137: Tensor[(1, 1024, 1, 1), float32] = %tensor_082;
  let %storage_083: Storage[] = memory.alloc_storage(2097152 /* ty=int64 */, 64 /* ty=int64 */, meta[relay.attrs.AllocStorageAttrs][83]) /* ty=Storage[] */;
  let %tensor_083: Tensor[(1024, 512, 1, 1), float32] = memory.alloc_tensor(%storage_083, 0 /* ty=int64 */, meta[relay.Constant][139] /* ty=Tensor[(4), int64] */, meta[relay.attrs.AllocTensorAttrs][83]) /* ty=Tensor[(1024, 512, 1, 1), float32] */;
  %536 = fn (%p083: Tensor[(1024, 512, 1, 1), float32], %p182: Tensor[(1, 1024, 1, 1), float32], Primitive=1) -> Tensor[(1024, 512, 1, 1), float32] {
    %534 = squeeze(%p182, axis=[0, 2, 3]) /* ty=Tensor[(1024), float32] */;
    %535 = expand_dims(%534, axis=1, num_newaxis=3) /* ty=Tensor[(1024, 1, 1, 1), float32] */;
    multiply(%p083, %535) /* ty=Tensor[(1024, 512, 1, 1), float32] */
  };
  %537 = (%model.backbone.body.layer3.0.downsample.0.weight, %x137);
  %538 = (%tensor_083,);
  let %v83: () = vm.invoke_tvm_op(%536, %537, %538) /* ty=() */;
  let %x138: Tensor[(1024, 512, 1, 1), float32] = %tensor_083;
  let %x139: Tensor[(1, 1024, 1, 1), float32] = vm.reshape_tensor(%model.backbone.body.layer3.0.downsample.1.bias, meta[relay.Constant][140] /* ty=Tensor[(4), int64] */, meta[relay.attrs.ReshapeTensorAttrs][54]) /* ty=Tensor[(1, 1024, 1, 1), float32] */;
  let %x140: Tensor[(1, 1024, 1, 1), float32] = vm.reshape_tensor(%model.backbone.body.layer3.0.downsample.1.running_mean, meta[relay.Constant][141] /* ty=Tensor[(4), int64] */, meta[relay.attrs.ReshapeTensorAttrs][55]) /* ty=Tensor[(1, 1024, 1, 1), float32] */;
  let %storage_084: Storage[] = memory.alloc_storage(10240000 /* ty=int64 */, 64 /* ty=int64 */, meta[relay.attrs.AllocStorageAttrs][84]) /* ty=Storage[] */;
  let %tensor_084: Tensor[(1, 1024, 50, 50), float32] = memory.alloc_tensor(%storage_084, 0 /* ty=int64 */, meta[relay.Constant][142] /* ty=Tensor[(4), int64] */, meta[relay.attrs.AllocTensorAttrs][84]) /* ty=Tensor[(1, 1024, 50, 50), float32] */;
  %542 = fn (%p084: Tensor[(1, 512, 100, 100), float32], %p183: Tensor[(1024, 512, 1, 1), float32], %p227: Tensor[(1, 1024, 1, 1), float32], %p326: Tensor[(1, 1024, 1, 1), float32], %p426: Tensor[(1, 1024, 1, 1), float32], Primitive=1) -> Tensor[(1, 1024, 50, 50), float32] {
    %539 = nn.conv2d(%p084, %p183, strides=[2, 2], padding=[0, 0, 0, 0], channels=1024, kernel_size=[1, 1]) /* ty=Tensor[(1, 1024, 50, 50), float32] */;
    %540 = multiply(%p326, %p426) /* ty=Tensor[(1, 1024, 1, 1), float32] */;
    %541 = subtract(%p227, %540) /* ty=Tensor[(1, 1024, 1, 1), float32] */;
    add(%539, %541) /* ty=Tensor[(1, 1024, 50, 50), float32] */
  };
  %543 = (%x122, %x138, %x139, %x140, %x137);
  %544 = (%tensor_084,);
  let %v84: () = vm.invoke_tvm_op(%542, %543, %544) /* ty=() */;
  let %x141: Tensor[(1, 1024, 50, 50), float32] = %tensor_084;
  let %storage_085: Storage[] = memory.alloc_storage(10240000 /* ty=int64 */, 64 /* ty=int64 */, meta[relay.attrs.AllocStorageAttrs][85]) /* ty=Storage[] */;
  let %tensor_085: Tensor[(1, 1024, 50, 50), float32] = memory.alloc_tensor(%storage_085, 0 /* ty=int64 */, meta[relay.Constant][143] /* ty=Tensor[(4), int64] */, meta[relay.attrs.AllocTensorAttrs][85]) /* ty=Tensor[(1, 1024, 50, 50), float32] */;
  %550 = fn (%p085: Tensor[(1, 256, 50, 50), float32], %p184: Tensor[(1024, 256, 1, 1), float32], %p228: Tensor[(1, 1024, 1, 1), float32], %p327: Tensor[(1, 1024, 1, 1), float32], %p427: Tensor[(1, 1024, 1, 1), float32], %p57: Tensor[(1, 1024, 50, 50), float32], Primitive=1) -> Tensor[(1, 1024, 50, 50), float32] {
    %545 = nn.conv2d(%p085, %p184, padding=[0, 0, 0, 0], channels=1024, kernel_size=[1, 1]) /* ty=Tensor[(1, 1024, 50, 50), float32] */;
    %546 = multiply(%p327, %p427) /* ty=Tensor[(1, 1024, 1, 1), float32] */;
    %547 = subtract(%p228, %546) /* ty=Tensor[(1, 1024, 1, 1), float32] */;
    %548 = add(%545, %547) /* ty=Tensor[(1, 1024, 50, 50), float32] */;
    %549 = add(%548, %p57) /* ty=Tensor[(1, 1024, 50, 50), float32] */;
    nn.relu(%549) /* ty=Tensor[(1, 1024, 50, 50), float32] */
  };
  %551 = (%x132, %x134, %x135, %x136, %x133, %x141);
  %552 = (%tensor_085,);
  let %v85: () = vm.invoke_tvm_op(%550, %551, %552) /* ty=() */;
  let %x142: Tensor[(1, 1024, 50, 50), float32] = %tensor_085;
  let %storage_086: Storage[] = memory.alloc_storage(1024 /* ty=int64 */, 64 /* ty=int64 */, meta[relay.attrs.AllocStorageAttrs][86]) /* ty=Storage[] */;
  let %tensor_086: Tensor[(1, 256, 1, 1), float32] = memory.alloc_tensor(%storage_086, 0 /* ty=int64 */, meta[relay.Constant][144] /* ty=Tensor[(4), int64] */, meta[relay.attrs.AllocTensorAttrs][86]) /* ty=Tensor[(1, 256, 1, 1), float32] */;
  %557 = fn (%p086: Tensor[(256), float32], %p185: Tensor[(256), float32], Primitive=1) -> Tensor[(1, 256, 1, 1), float32] {
    %553 = reshape(%p086, newshape=[1, -1, 1, 1]) /* ty=Tensor[(1, 256, 1, 1), float32] */;
    %554 = reshape(%p185, newshape=[1, -1, 1, 1]) /* ty=Tensor[(1, 256, 1, 1), float32] */;
    %555 = add(%554, 0f /* ty=float32 */) /* ty=Tensor[(1, 256, 1, 1), float32] */;
    %556 = rsqrt(%555) /* ty=Tensor[(1, 256, 1, 1), float32] */;
    multiply(%553, %556) /* ty=Tensor[(1, 256, 1, 1), float32] */
  };
  %558 = (%model.backbone.body.layer3.1.bn1.weight, %model.backbone.body.layer3.1.bn1.running_var);
  %559 = (%tensor_086,);
  let %v86: () = vm.invoke_tvm_op(%557, %558, %559) /* ty=() */;
  let %x143: Tensor[(1, 256, 1, 1), float32] = %tensor_086;
  let %storage_087: Storage[] = memory.alloc_storage(1048576 /* ty=int64 */, 64 /* ty=int64 */, meta[relay.attrs.AllocStorageAttrs][87]) /* ty=Storage[] */;
  let %tensor_087: Tensor[(256, 1024, 1, 1), float32] = memory.alloc_tensor(%storage_087, 0 /* ty=int64 */, meta[relay.Constant][145] /* ty=Tensor[(4), int64] */, meta[relay.attrs.AllocTensorAttrs][87]) /* ty=Tensor[(256, 1024, 1, 1), float32] */;
  %562 = fn (%p087: Tensor[(256, 1024, 1, 1), float32], %p186: Tensor[(1, 256, 1, 1), float32], Primitive=1) -> Tensor[(256, 1024, 1, 1), float32] {
    %560 = squeeze(%p186, axis=[0, 2, 3]) /* ty=Tensor[(256), float32] */;
    %561 = expand_dims(%560, axis=1, num_newaxis=3) /* ty=Tensor[(256, 1, 1, 1), float32] */;
    multiply(%p087, %561) /* ty=Tensor[(256, 1024, 1, 1), float32] */
  };
  %563 = (%model.backbone.body.layer3.1.conv1.weight, %x143);
  %564 = (%tensor_087,);
  let %v87: () = vm.invoke_tvm_op(%562, %563, %564) /* ty=() */;
  let %x144: Tensor[(256, 1024, 1, 1), float32] = %tensor_087;
  let %x145: Tensor[(1, 256, 1, 1), float32] = vm.reshape_tensor(%model.backbone.body.layer3.1.bn1.bias, meta[relay.Constant][146] /* ty=Tensor[(4), int64] */, meta[relay.attrs.ReshapeTensorAttrs][56]) /* ty=Tensor[(1, 256, 1, 1), float32] */;
  let %x146: Tensor[(1, 256, 1, 1), float32] = vm.reshape_tensor(%model.backbone.body.layer3.1.bn1.running_mean, meta[relay.Constant][147] /* ty=Tensor[(4), int64] */, meta[relay.attrs.ReshapeTensorAttrs][57]) /* ty=Tensor[(1, 256, 1, 1), float32] */;
  let %storage_088: Storage[] = memory.alloc_storage(2560000 /* ty=int64 */, 64 /* ty=int64 */, meta[relay.attrs.AllocStorageAttrs][88]) /* ty=Storage[] */;
  let %tensor_088: Tensor[(1, 256, 50, 50), float32] = memory.alloc_tensor(%storage_088, 0 /* ty=int64 */, meta[relay.Constant][148] /* ty=Tensor[(4), int64] */, meta[relay.attrs.AllocTensorAttrs][88]) /* ty=Tensor[(1, 256, 50, 50), float32] */;
  %569 = fn (%p088: Tensor[(1, 1024, 50, 50), float32], %p187: Tensor[(256, 1024, 1, 1), float32], %p229: Tensor[(1, 256, 1, 1), float32], %p328: Tensor[(1, 256, 1, 1), float32], %p428: Tensor[(1, 256, 1, 1), float32], Primitive=1) -> Tensor[(1, 256, 50, 50), float32] {
    %565 = nn.conv2d(%p088, %p187, padding=[0, 0, 0, 0], channels=256, kernel_size=[1, 1]) /* ty=Tensor[(1, 256, 50, 50), float32] */;
    %566 = multiply(%p328, %p428) /* ty=Tensor[(1, 256, 1, 1), float32] */;
    %567 = subtract(%p229, %566) /* ty=Tensor[(1, 256, 1, 1), float32] */;
    %568 = add(%565, %567) /* ty=Tensor[(1, 256, 50, 50), float32] */;
    nn.relu(%568) /* ty=Tensor[(1, 256, 50, 50), float32] */
  };
  %570 = (%x142, %x144, %x145, %x146, %x143);
  %571 = (%tensor_088,);
  let %v88: () = vm.invoke_tvm_op(%569, %570, %571) /* ty=() */;
  let %x147: Tensor[(1, 256, 50, 50), float32] = %tensor_088;
  let %storage_089: Storage[] = memory.alloc_storage(1024 /* ty=int64 */, 64 /* ty=int64 */, meta[relay.attrs.AllocStorageAttrs][89]) /* ty=Storage[] */;
  let %tensor_089: Tensor[(1, 256, 1, 1), float32] = memory.alloc_tensor(%storage_089, 0 /* ty=int64 */, meta[relay.Constant][149] /* ty=Tensor[(4), int64] */, meta[relay.attrs.AllocTensorAttrs][89]) /* ty=Tensor[(1, 256, 1, 1), float32] */;
  %576 = fn (%p089: Tensor[(256), float32], %p188: Tensor[(256), float32], Primitive=1) -> Tensor[(1, 256, 1, 1), float32] {
    %572 = reshape(%p089, newshape=[1, -1, 1, 1]) /* ty=Tensor[(1, 256, 1, 1), float32] */;
    %573 = reshape(%p188, newshape=[1, -1, 1, 1]) /* ty=Tensor[(1, 256, 1, 1), float32] */;
    %574 = add(%573, 0f /* ty=float32 */) /* ty=Tensor[(1, 256, 1, 1), float32] */;
    %575 = rsqrt(%574) /* ty=Tensor[(1, 256, 1, 1), float32] */;
    multiply(%572, %575) /* ty=Tensor[(1, 256, 1, 1), float32] */
  };
  %577 = (%model.backbone.body.layer3.1.bn2.weight, %model.backbone.body.layer3.1.bn2.running_var);
  %578 = (%tensor_089,);
  let %v89: () = vm.invoke_tvm_op(%576, %577, %578) /* ty=() */;
  let %x148: Tensor[(1, 256, 1, 1), float32] = %tensor_089;
  let %storage_090: Storage[] = memory.alloc_storage(2359296 /* ty=int64 */, 64 /* ty=int64 */, meta[relay.attrs.AllocStorageAttrs][90]) /* ty=Storage[] */;
  let %tensor_090: Tensor[(256, 256, 3, 3), float32] = memory.alloc_tensor(%storage_090, 0 /* ty=int64 */, meta[relay.Constant][150] /* ty=Tensor[(4), int64] */, meta[relay.attrs.AllocTensorAttrs][90]) /* ty=Tensor[(256, 256, 3, 3), float32] */;
  %581 = fn (%p090: Tensor[(256, 256, 3, 3), float32], %p189: Tensor[(1, 256, 1, 1), float32], Primitive=1) -> Tensor[(256, 256, 3, 3), float32] {
    %579 = squeeze(%p189, axis=[0, 2, 3]) /* ty=Tensor[(256), float32] */;
    %580 = expand_dims(%579, axis=1, num_newaxis=3) /* ty=Tensor[(256, 1, 1, 1), float32] */;
    multiply(%p090, %580) /* ty=Tensor[(256, 256, 3, 3), float32] */
  };
  %582 = (%model.backbone.body.layer3.1.conv2.weight, %x148);
  %583 = (%tensor_090,);
  let %v90: () = vm.invoke_tvm_op(%581, %582, %583) /* ty=() */;
  let %x149: Tensor[(256, 256, 3, 3), float32] = %tensor_090;
  let %x150: Tensor[(1, 256, 1, 1), float32] = vm.reshape_tensor(%model.backbone.body.layer3.1.bn2.bias, meta[relay.Constant][151] /* ty=Tensor[(4), int64] */, meta[relay.attrs.ReshapeTensorAttrs][58]) /* ty=Tensor[(1, 256, 1, 1), float32] */;
  let %x151: Tensor[(1, 256, 1, 1), float32] = vm.reshape_tensor(%model.backbone.body.layer3.1.bn2.running_mean, meta[relay.Constant][152] /* ty=Tensor[(4), int64] */, meta[relay.attrs.ReshapeTensorAttrs][59]) /* ty=Tensor[(1, 256, 1, 1), float32] */;
  let %storage_091: Storage[] = memory.alloc_storage(2560000 /* ty=int64 */, 64 /* ty=int64 */, meta[relay.attrs.AllocStorageAttrs][91]) /* ty=Storage[] */;
  let %tensor_091: Tensor[(1, 256, 50, 50), float32] = memory.alloc_tensor(%storage_091, 0 /* ty=int64 */, meta[relay.Constant][153] /* ty=Tensor[(4), int64] */, meta[relay.attrs.AllocTensorAttrs][91]) /* ty=Tensor[(1, 256, 50, 50), float32] */;
  %588 = fn (%p091: Tensor[(1, 256, 50, 50), float32], %p190: Tensor[(256, 256, 3, 3), float32], %p230: Tensor[(1, 256, 1, 1), float32], %p329: Tensor[(1, 256, 1, 1), float32], %p429: Tensor[(1, 256, 1, 1), float32], Primitive=1) -> Tensor[(1, 256, 50, 50), float32] {
    %584 = nn.conv2d(%p091, %p190, padding=[1, 1, 1, 1], channels=256, kernel_size=[3, 3]) /* ty=Tensor[(1, 256, 50, 50), float32] */;
    %585 = multiply(%p329, %p429) /* ty=Tensor[(1, 256, 1, 1), float32] */;
    %586 = subtract(%p230, %585) /* ty=Tensor[(1, 256, 1, 1), float32] */;
    %587 = add(%584, %586) /* ty=Tensor[(1, 256, 50, 50), float32] */;
    nn.relu(%587) /* ty=Tensor[(1, 256, 50, 50), float32] */
  };
  %589 = (%x147, %x149, %x150, %x151, %x148);
  %590 = (%tensor_091,);
  let %v91: () = vm.invoke_tvm_op(%588, %589, %590) /* ty=() */;
  let %x152: Tensor[(1, 256, 50, 50), float32] = %tensor_091;
  let %storage_092: Storage[] = memory.alloc_storage(4096 /* ty=int64 */, 64 /* ty=int64 */, meta[relay.attrs.AllocStorageAttrs][92]) /* ty=Storage[] */;
  let %tensor_092: Tensor[(1, 1024, 1, 1), float32] = memory.alloc_tensor(%storage_092, 0 /* ty=int64 */, meta[relay.Constant][154] /* ty=Tensor[(4), int64] */, meta[relay.attrs.AllocTensorAttrs][92]) /* ty=Tensor[(1, 1024, 1, 1), float32] */;
  %595 = fn (%p092: Tensor[(1024), float32], %p191: Tensor[(1024), float32], Primitive=1) -> Tensor[(1, 1024, 1, 1), float32] {
    %591 = reshape(%p092, newshape=[1, -1, 1, 1]) /* ty=Tensor[(1, 1024, 1, 1), float32] */;
    %592 = reshape(%p191, newshape=[1, -1, 1, 1]) /* ty=Tensor[(1, 1024, 1, 1), float32] */;
    %593 = add(%592, 0f /* ty=float32 */) /* ty=Tensor[(1, 1024, 1, 1), float32] */;
    %594 = rsqrt(%593) /* ty=Tensor[(1, 1024, 1, 1), float32] */;
    multiply(%591, %594) /* ty=Tensor[(1, 1024, 1, 1), float32] */
  };
  %596 = (%model.backbone.body.layer3.1.bn3.weight, %model.backbone.body.layer3.1.bn3.running_var);
  %597 = (%tensor_092,);
  let %v92: () = vm.invoke_tvm_op(%595, %596, %597) /* ty=() */;
  let %x153: Tensor[(1, 1024, 1, 1), float32] = %tensor_092;
  let %storage_093: Storage[] = memory.alloc_storage(1048576 /* ty=int64 */, 64 /* ty=int64 */, meta[relay.attrs.AllocStorageAttrs][93]) /* ty=Storage[] */;
  let %tensor_093: Tensor[(1024, 256, 1, 1), float32] = memory.alloc_tensor(%storage_093, 0 /* ty=int64 */, meta[relay.Constant][155] /* ty=Tensor[(4), int64] */, meta[relay.attrs.AllocTensorAttrs][93]) /* ty=Tensor[(1024, 256, 1, 1), float32] */;
  %600 = fn (%p093: Tensor[(1024, 256, 1, 1), float32], %p192: Tensor[(1, 1024, 1, 1), float32], Primitive=1) -> Tensor[(1024, 256, 1, 1), float32] {
    %598 = squeeze(%p192, axis=[0, 2, 3]) /* ty=Tensor[(1024), float32] */;
    %599 = expand_dims(%598, axis=1, num_newaxis=3) /* ty=Tensor[(1024, 1, 1, 1), float32] */;
    multiply(%p093, %599) /* ty=Tensor[(1024, 256, 1, 1), float32] */
  };
  %601 = (%model.backbone.body.layer3.1.conv3.weight, %x153);
  %602 = (%tensor_093,);
  let %v93: () = vm.invoke_tvm_op(%600, %601, %602) /* ty=() */;
  let %x154: Tensor[(1024, 256, 1, 1), float32] = %tensor_093;
  let %x155: Tensor[(1, 1024, 1, 1), float32] = vm.reshape_tensor(%model.backbone.body.layer3.1.bn3.bias, meta[relay.Constant][156] /* ty=Tensor[(4), int64] */, meta[relay.attrs.ReshapeTensorAttrs][60]) /* ty=Tensor[(1, 1024, 1, 1), float32] */;
  let %x156: Tensor[(1, 1024, 1, 1), float32] = vm.reshape_tensor(%model.backbone.body.layer3.1.bn3.running_mean, meta[relay.Constant][157] /* ty=Tensor[(4), int64] */, meta[relay.attrs.ReshapeTensorAttrs][61]) /* ty=Tensor[(1, 1024, 1, 1), float32] */;
  let %storage_094: Storage[] = memory.alloc_storage(10240000 /* ty=int64 */, 64 /* ty=int64 */, meta[relay.attrs.AllocStorageAttrs][94]) /* ty=Storage[] */;
  let %tensor_094: Tensor[(1, 1024, 50, 50), float32] = memory.alloc_tensor(%storage_094, 0 /* ty=int64 */, meta[relay.Constant][158] /* ty=Tensor[(4), int64] */, meta[relay.attrs.AllocTensorAttrs][94]) /* ty=Tensor[(1, 1024, 50, 50), float32] */;
  %608 = fn (%p094: Tensor[(1, 256, 50, 50), float32], %p193: Tensor[(1024, 256, 1, 1), float32], %p231: Tensor[(1, 1024, 1, 1), float32], %p330: Tensor[(1, 1024, 1, 1), float32], %p430: Tensor[(1, 1024, 1, 1), float32], %p58: Tensor[(1, 1024, 50, 50), float32], Primitive=1) -> Tensor[(1, 1024, 50, 50), float32] {
    %603 = nn.conv2d(%p094, %p193, padding=[0, 0, 0, 0], channels=1024, kernel_size=[1, 1]) /* ty=Tensor[(1, 1024, 50, 50), float32] */;
    %604 = multiply(%p330, %p430) /* ty=Tensor[(1, 1024, 1, 1), float32] */;
    %605 = subtract(%p231, %604) /* ty=Tensor[(1, 1024, 1, 1), float32] */;
    %606 = add(%603, %605) /* ty=Tensor[(1, 1024, 50, 50), float32] */;
    %607 = add(%606, %p58) /* ty=Tensor[(1, 1024, 50, 50), float32] */;
    nn.relu(%607) /* ty=Tensor[(1, 1024, 50, 50), float32] */
  };
  %609 = (%x152, %x154, %x155, %x156, %x153, %x142);
  %610 = (%tensor_094,);
  let %v94: () = vm.invoke_tvm_op(%608, %609, %610) /* ty=() */;
  let %x157: Tensor[(1, 1024, 50, 50), float32] = %tensor_094;
  let %storage_095: Storage[] = memory.alloc_storage(1024 /* ty=int64 */, 64 /* ty=int64 */, meta[relay.attrs.AllocStorageAttrs][95]) /* ty=Storage[] */;
  let %tensor_095: Tensor[(1, 256, 1, 1), float32] = memory.alloc_tensor(%storage_095, 0 /* ty=int64 */, meta[relay.Constant][159] /* ty=Tensor[(4), int64] */, meta[relay.attrs.AllocTensorAttrs][95]) /* ty=Tensor[(1, 256, 1, 1), float32] */;
  %615 = fn (%p095: Tensor[(256), float32], %p194: Tensor[(256), float32], Primitive=1) -> Tensor[(1, 256, 1, 1), float32] {
    %611 = reshape(%p095, newshape=[1, -1, 1, 1]) /* ty=Tensor[(1, 256, 1, 1), float32] */;
    %612 = reshape(%p194, newshape=[1, -1, 1, 1]) /* ty=Tensor[(1, 256, 1, 1), float32] */;
    %613 = add(%612, 0f /* ty=float32 */) /* ty=Tensor[(1, 256, 1, 1), float32] */;
    %614 = rsqrt(%613) /* ty=Tensor[(1, 256, 1, 1), float32] */;
    multiply(%611, %614) /* ty=Tensor[(1, 256, 1, 1), float32] */
  };
  %616 = (%model.backbone.body.layer3.2.bn1.weight, %model.backbone.body.layer3.2.bn1.running_var);
  %617 = (%tensor_095,);
  let %v95: () = vm.invoke_tvm_op(%615, %616, %617) /* ty=() */;
  let %x158: Tensor[(1, 256, 1, 1), float32] = %tensor_095;
  let %storage_096: Storage[] = memory.alloc_storage(1048576 /* ty=int64 */, 64 /* ty=int64 */, meta[relay.attrs.AllocStorageAttrs][96]) /* ty=Storage[] */;
  let %tensor_096: Tensor[(256, 1024, 1, 1), float32] = memory.alloc_tensor(%storage_096, 0 /* ty=int64 */, meta[relay.Constant][160] /* ty=Tensor[(4), int64] */, meta[relay.attrs.AllocTensorAttrs][96]) /* ty=Tensor[(256, 1024, 1, 1), float32] */;
  %620 = fn (%p096: Tensor[(256, 1024, 1, 1), float32], %p195: Tensor[(1, 256, 1, 1), float32], Primitive=1) -> Tensor[(256, 1024, 1, 1), float32] {
    %618 = squeeze(%p195, axis=[0, 2, 3]) /* ty=Tensor[(256), float32] */;
    %619 = expand_dims(%618, axis=1, num_newaxis=3) /* ty=Tensor[(256, 1, 1, 1), float32] */;
…
    where(%p0865, %4095, %p1373) /* ty=Tensor[(2), int32] */
  };
  %4097 = (meta[relay.Constant][849] /* ty=Tensor[(2), bool] */, meta[relay.Constant][850] /* ty=Tensor[(2), int32] */, %x611);
  %4098 = (%tensor_0868,);
  let %v861: () = vm.invoke_tvm_op(%4096, %4097, %4098) /* ty=() */;
  let %x628: Tensor[(2), int32] = %tensor_0868;
  let %in_shape_0168: Tensor[(?, 4), float32] = device_copy(%x608, meta[relay.attrs.DeviceCopyAttrs][246]) /* ty=Tensor[(?, 4), float32] */;
  let %in_shape_1108: Tensor[(2), int32] = device_copy(%x628, meta[relay.attrs.DeviceCopyAttrs][247]) /* ty=Tensor[(2), int32] */;
  let %in_shape_276: Tensor[(2), int64] = device_copy(%x613, meta[relay.attrs.DeviceCopyAttrs][248]) /* ty=Tensor[(2), int64] */;
  let %in_shape_360: Tensor[(2), int32] = device_copy(meta[relay.Constant][851] /* ty=Tensor[(2), int32] */, meta[relay.attrs.DeviceCopyAttrs][249]) /* ty=Tensor[(2), int32] */;
  let %storage_01045: Storage[] = memory.alloc_storage(16 /* ty=int64 */, 64 /* ty=int64 */, meta[relay.attrs.AllocStorageAttrs][1058]) /* ty=Storage[] */;
  let %tensor_0869: Tensor[(2), int64] = memory.alloc_tensor(%storage_01045, 0 /* ty=int64 */, meta[relay.Constant][852] /* ty=Tensor[(1), int64] */, meta[relay.attrs.AllocTensorAttrs][1058]) /* ty=Tensor[(2), int64] */;
  let %shape_func_out_0183: Tensor[(2), int64] = %tensor_0869;
  %4099 = fn (%p0866: Tensor[(?, 4), float32], %p1374: Tensor[(2), int32], %p2226: Tensor[(2), int64], %p3122: Tensor[(2), int32], Primitive=1) -> Tensor[(?, ?), float32] {
    dyn.strided_slice(%p0866, %p1374, %p2226, %p3122, begin=None, end=None, strides=None) /* ty=Tensor[(?, ?), float32] */
  };
  %4100 = (%in_shape_0168, %in_shape_1108, %in_shape_276, %in_shape_360);
  %4101 = (%shape_func_out_0183,);
  let %shape_func183: () = vm.shape_func(%4099, %4100, %4101, meta[relay.attrs.ShapeFuncAttrs][183]) /* ty=() */;
  let %storage_01046: Storage[] = memory.alloc_storage(8 /* ty=int64 */, 64 /* ty=int64 */, meta[relay.attrs.AllocStorageAttrs][1059]) /* ty=Storage[] */;
  let %tensor_0870: int64 = memory.alloc_tensor(%storage_01046, 0 /* ty=int64 */, 0 /* ty=int64 */, meta[relay.attrs.AllocTensorAttrs][1059]) /* ty=int64 */;
  %4102 = fn (%p0867: Tensor[(2), int64], Primitive=1) -> int64 {
    prod(%p0867) /* ty=int64 */
  };
  %4103 = (%shape_func_out_0183,);
  %4104 = (%tensor_0870,);
  let %v862: () = vm.invoke_tvm_op(%4102, %4103, %4104) /* ty=() */;
  let %storage_01047: Storage[] = memory.alloc_storage(8 /* ty=int64 */, 64 /* ty=int64 */, meta[relay.attrs.AllocStorageAttrs][1060]) /* ty=Storage[] */;
  let %tensor_0871: int64 = memory.alloc_tensor(%storage_01047, 0 /* ty=int64 */, 0 /* ty=int64 */, meta[relay.attrs.AllocTensorAttrs][1060]) /* ty=int64 */;
  %4105 = fn (%p0868: int64, Primitive=1) -> int64 {
    multiply(%p0868, 4 /* ty=int64 */) /* ty=int64 */
  };
  %4106 = (%tensor_0870,);
  %4107 = (%tensor_0871,);
  let %v863: () = vm.invoke_tvm_op(%4105, %4106, %4107) /* ty=() */;
  let %storage_01048: Storage[] = memory.alloc_storage(%tensor_0871, 64 /* ty=int64 */, meta[relay.attrs.AllocStorageAttrs][1061]) /* ty=Storage[] */;
  let %out_0176: Tensor[(?, ?), float32] = memory.alloc_tensor(%storage_01048, 0 /* ty=int64 */, %shape_func_out_0183, meta[relay.attrs.AllocTensorAttrs][1061]) /* ty=Tensor[(?, ?), float32] */;
  %4108 = (%x608, %x628, %x613, meta[relay.Constant][851] /* ty=Tensor[(2), int32] */);
  %4109 = (%out_0176,);
  let %v864: () = vm.invoke_tvm_op(%4099, %4108, %4109) /* ty=() */;
  let %x629: Tensor[(?, ?), float32] = %out_0176;
  let %in_shape_0169: Tensor[(2), int64] = vm.shape_of(%x614, meta[relay.attrs.ShapeOfAttrs][174]) /* ty=Tensor[(2), int64] */;
  let %in_shape_1109: Tensor[(2), int64] = vm.shape_of(%x616, meta[relay.attrs.ShapeOfAttrs][175]) /* ty=Tensor[(2), int64] */;
  let %in_shape_277: Tensor[(2), int64] = vm.shape_of(%x618, meta[relay.attrs.ShapeOfAttrs][176]) /* ty=Tensor[(2), int64] */;
  let %in_shape_361: Tensor[(2), int64] = vm.shape_of(%x620, meta[relay.attrs.ShapeOfAttrs][177]) /* ty=Tensor[(2), int64] */;
  let %in_shape_52: Tensor[(2), int64] = vm.shape_of(%x623, meta[relay.attrs.ShapeOfAttrs][178]) /* ty=Tensor[(2), int64] */;
  let %in_shape_61: Tensor[(2), int64] = vm.shape_of(%x625, meta[relay.attrs.ShapeOfAttrs][179]) /* ty=Tensor[(2), int64] */;
  let %in_shape_71: Tensor[(2), int64] = vm.shape_of(%x627, meta[relay.attrs.ShapeOfAttrs][180]) /* ty=Tensor[(2), int64] */;
  let %in_shape_81: Tensor[(2), int64] = vm.shape_of(%x629, meta[relay.attrs.ShapeOfAttrs][181]) /* ty=Tensor[(2), int64] */;
  let %storage_01049: Storage[] = memory.alloc_storage(16 /* ty=int64 */, 64 /* ty=int64 */, meta[relay.attrs.AllocStorageAttrs][1062]) /* ty=Storage[] */;
  let %tensor_0872: Tensor[(2), int64] = memory.alloc_tensor(%storage_01049, 0 /* ty=int64 */, meta[relay.Constant][853] /* ty=Tensor[(1), int64] */, meta[relay.attrs.AllocTensorAttrs][1062]) /* ty=Tensor[(2), int64] */;
  let %shape_func_out_0184: Tensor[(2), int64] = %tensor_0872;
  %4141 = fn (%p0869: Tensor[(?, ?), float32], %p1375: Tensor[(?, ?), float32], %p2227: Tensor[(?, ?), float32], %p3123: Tensor[(?, ?), float32], %p460: Tensor[(4), int32], %p520: Tensor[(?, ?), float32], %p63: Tensor[(?, ?), float32], %p73: Tensor[(?, ?), float32], %p83: Tensor[(?, ?), float32], Primitive=1) -> Tensor[(?, 4), int64] {
    %4110 = take(%p0869, 2 /* ty=int32 */, axis=1) /* ty=Tensor[(?), float32] */;
    %4111 = take(%p1375, 0 /* ty=int32 */, axis=1) /* ty=Tensor[(?), float32] */;
    %4112 = add(%4110, %4111) /* ty=Tensor[(?), float32] */;
    %4113 = multiply(%4112, 0.5f /* ty=float32 */) /* ty=Tensor[(?), float32] */;
    %4114 = take(%p2227, 2 /* ty=int32 */, axis=1) /* ty=Tensor[(?), float32] */;
    %4115 = take(%p3123, 0 /* ty=int32 */, axis=1) /* ty=Tensor[(?), float32] */;
    %4116 = subtract(%4114, %4115) /* ty=Tensor[(?), float32] */;
    %4117 = multiply(%4116, 0.5f /* ty=float32 */) /* ty=Tensor[(?), float32] */;
    %4118 = take(%p460, 3 /* ty=int32 */, axis=0) /* ty=int32 */;
    %4119 = add(%4118, 2 /* ty=int32 */) /* ty=int32 */;
    %4120 = cast(%4119, dtype="int64") /* ty=int64 */;
    %4121 = cast(%4120, dtype="float32") /* ty=float32 */;
    %4122 = cast(%4118, dtype="int64") /* ty=int64 */;
    %4123 = cast(%4122, dtype="float32") /* ty=float32 */;
    %4124 = divide(%4121, %4123) /* ty=float32 */;
    %4125 = multiply(%4117, %4124) /* ty=Tensor[(?), float32] */;
    %4126 = subtract(%4113, %4125) /* ty=Tensor[(?), float32] */;
    %4127 = take(%p520, 3 /* ty=int32 */, axis=1) /* ty=Tensor[(?), float32] */;
    %4128 = take(%p63, 1 /* ty=int32 */, axis=1) /* ty=Tensor[(?), float32] */;
    %4129 = add(%4127, %4128) /* ty=Tensor[(?), float32] */;
    %4130 = multiply(%4129, 0.5f /* ty=float32 */) /* ty=Tensor[(?), float32] */;
    %4131 = take(%p73, 3 /* ty=int32 */, axis=1) /* ty=Tensor[(?), float32] */;
    %4132 = take(%p83, 1 /* ty=int32 */, axis=1) /* ty=Tensor[(?), float32] */;
    %4133 = subtract(%4131, %4132) /* ty=Tensor[(?), float32] */;
    %4134 = multiply(%4133, 0.5f /* ty=float32 */) /* ty=Tensor[(?), float32] */;
    %4135 = multiply(%4134, %4124) /* ty=Tensor[(?), float32] */;
    %4136 = subtract(%4130, %4135) /* ty=Tensor[(?), float32] */;
    %4137 = add(%4113, %4125) /* ty=Tensor[(?), float32] */;
    %4138 = add(%4130, %4135) /* ty=Tensor[(?), float32] */;
    %4139 = (%4126, %4136, %4137, %4138);
    %4140 = stack(%4139, axis=1) /* ty=Tensor[(?, 4), float32] */;
    cast(%4140, dtype="int64") /* ty=Tensor[(?, 4), int64] */
  };
  %4142 = (%in_shape_0169, %in_shape_1109, %in_shape_277, %in_shape_361, meta[relay.Constant][854] /* ty=Tensor[(1), int64] */, %in_shape_52, %in_shape_61, %in_shape_71, %in_shape_81);
  %4143 = (%shape_func_out_0184,);
  let %shape_func184: () = vm.shape_func(%4141, %4142, %4143, meta[relay.attrs.ShapeFuncAttrs][184]) /* ty=() */;
  let %storage_01050: Storage[] = memory.alloc_storage(8 /* ty=int64 */, 64 /* ty=int64 */, meta[relay.attrs.AllocStorageAttrs][1063]) /* ty=Storage[] */;
  let %tensor_0873: int64 = memory.alloc_tensor(%storage_01050, 0 /* ty=int64 */, 0 /* ty=int64 */, meta[relay.attrs.AllocTensorAttrs][1063]) /* ty=int64 */;
  %4144 = fn (%p0870: Tensor[(2), int64], Primitive=1) -> int64 {
    prod(%p0870) /* ty=int64 */
  };
  %4145 = (%shape_func_out_0184,);
  %4146 = (%tensor_0873,);
  let %v865: () = vm.invoke_tvm_op(%4144, %4145, %4146) /* ty=() */;
  let %storage_01051: Storage[] = memory.alloc_storage(8 /* ty=int64 */, 64 /* ty=int64 */, meta[relay.attrs.AllocStorageAttrs][1064]) /* ty=Storage[] */;
  let %tensor_0874: int64 = memory.alloc_tensor(%storage_01051, 0 /* ty=int64 */, 0 /* ty=int64 */, meta[relay.attrs.AllocTensorAttrs][1064]) /* ty=int64 */;
  %4147 = fn (%p0871: int64, Primitive=1) -> int64 {
    multiply(%p0871, 8 /* ty=int64 */) /* ty=int64 */
  };
  %4148 = (%tensor_0873,);
  %4149 = (%tensor_0874,);
  let %v866: () = vm.invoke_tvm_op(%4147, %4148, %4149) /* ty=() */;
  let %storage_01052: Storage[] = memory.alloc_storage(%tensor_0874, 64 /* ty=int64 */, meta[relay.attrs.AllocStorageAttrs][1065]) /* ty=Storage[] */;
  let %out_0177: Tensor[(?, 4), int64] = memory.alloc_tensor(%storage_01052, 0 /* ty=int64 */, %shape_func_out_0184, meta[relay.attrs.AllocTensorAttrs][1065]) /* ty=Tensor[(?, 4), int64] */;
  %4150 = (%x614, %x616, %x618, %x620, %x621, %x623, %x625, %x627, %x629);
  %4151 = (%out_0177,);
  let %v867: () = vm.invoke_tvm_op(%4141, %4150, %4151) /* ty=() */;
  let %x630: Tensor[(?, 4), int64] = %out_0177;
  let %x631: fn (int32, Tensor[(?, ?, ?), float32], Tensor[(?, 4), int64], Tensor[(?, 1, ?, ?), float32]) -> (int32, Tensor[(?, ?, ?), float32], Tensor[(?, 4), int64], Tensor[(?, 1, ?, ?), float32]) = let %while_loop: fn (int32, Tensor[(?, ?, ?), float32], Tensor[(?, 4), int64], Tensor[(?, 1, ?, ?), float32]) -> (int32, Tensor[(?, ?, ?), float32], Tensor[(?, 4), int64], Tensor[(?, 1, ?, ?), float32]) = @lifted_name2452113581219567712(%x607, meta[relay.Constant][400] /* ty=Tensor[(1), int32] */) /* ty=fn (int32, Tensor[(?, ?, ?), float32], Tensor[(?, 4), int64], Tensor[(?, 1, ?, ?), float32]) -> (int32, Tensor[(?, ?, ?), float32], Tensor[(?, 4), int64], Tensor[(?, 1, ?, ?), float32]) */;
  %while_loop;
  let %x632: (int32, Tensor[(?, ?, ?), float32], Tensor[(?, 4), int64], Tensor[(?, 1, ?, ?), float32]) = %x631(0 /* ty=int32 */, %x610, %x630, %x607) /* ty=(int32, Tensor[(?, ?, ?), float32], Tensor[(?, 4), int64], Tensor[(?, 1, ?, ?), float32]) */;
  let %x633: Tensor[(?, ?, ?), float32] = %x632.1;
  let %storage_01053: Storage[] = memory.alloc_storage(12 /* ty=int64 */, 64 /* ty=int64 */, meta[relay.attrs.AllocStorageAttrs][1066]) /* ty=Storage[] */;
  let %tensor_0875: Tensor[(3), int32] = memory.alloc_tensor(%storage_01053, 0 /* ty=int64 */, meta[relay.Constant][855] /* ty=Tensor[(1), int64] */, meta[relay.attrs.AllocTensorAttrs][1066]) /* ty=Tensor[(3), int32] */;
  %4152 = fn (%p0872: Tensor[(?, ?, ?), float32], Primitive=1) -> Tensor[(3), int32] {
    shape_of(%p0872, dtype="int32") /* ty=Tensor[(3), int32] */
  };
  %4153 = (%x633,);
  %4154 = (%tensor_0875,);
  let %v868: () = vm.invoke_tvm_op(%4152, %4153, %4154) /* ty=() */;
  let %x634: Tensor[(3), int32] = %tensor_0875;
  let %storage_01054: Storage[] = memory.alloc_storage(12 /* ty=int64 */, 64 /* ty=int64 */, meta[relay.attrs.AllocStorageAttrs][1067]) /* ty=Storage[] */;
  let %tensor_0876: Tensor[(3), int32] = memory.alloc_tensor(%storage_01054, 0 /* ty=int64 */, meta[relay.Constant][856] /* ty=Tensor[(1), int64] */, meta[relay.attrs.AllocTensorAttrs][1067]) /* ty=Tensor[(3), int32] */;
  %4157 = fn (%p0873: Tensor[(3), bool], %p1376: Tensor[(3), int32], %p2228: Tensor[(3), int32], Primitive=1) -> Tensor[(3), int32] {
    %4155 = cast_like(%p2228, %p1376) /* ty=Tensor[(3), int32] */;
    %4156 = add(%p1376, %4155) /* ty=Tensor[(3), int32] */;
    where(%p0873, %4156, %p1376) /* ty=Tensor[(3), int32] */
  };
  %4158 = (meta[relay.Constant][857] /* ty=Tensor[(3), bool] */, meta[relay.Constant][858] /* ty=Tensor[(3), int32] */, %x634);
  %4159 = (%tensor_0876,);
  let %v869: () = vm.invoke_tvm_op(%4157, %4158, %4159) /* ty=() */;
  let %x635: Tensor[(3), int32] = %tensor_0876;
  let %storage_01055: Storage[] = memory.alloc_storage(24 /* ty=int64 */, 64 /* ty=int64 */, meta[relay.attrs.AllocStorageAttrs][1068]) /* ty=Storage[] */;
  let %tensor_0877: Tensor[(3), int64] = memory.alloc_tensor(%storage_01055, 0 /* ty=int64 */, meta[relay.Constant][859] /* ty=Tensor[(1), int64] */, meta[relay.attrs.AllocTensorAttrs][1068]) /* ty=Tensor[(3), int64] */;
  %4160 = fn (%p0874: Tensor[(3), int32], Primitive=1) -> Tensor[(3), int64] {
    cast(%p0874, dtype="int64") /* ty=Tensor[(3), int64] */
  };
  %4161 = (%x634,);
  %4162 = (%tensor_0877,);
  let %v870: () = vm.invoke_tvm_op(%4160, %4161, %4162) /* ty=() */;
  let %x636: Tensor[(3), int64] = %tensor_0877;
  let %in_shape_0170: Tensor[(?, ?, ?), float32] = device_copy(%x633, meta[relay.attrs.DeviceCopyAttrs][250]) /* ty=Tensor[(?, ?, ?), float32] */;
  let %in_shape_1110: Tensor[(3), int32] = device_copy(%x635, meta[relay.attrs.DeviceCopyAttrs][251]) /* ty=Tensor[(3), int32] */;
  let %in_shape_278: Tensor[(3), int64] = device_copy(%x636, meta[relay.attrs.DeviceCopyAttrs][252]) /* ty=Tensor[(3), int64] */;
  let %in_shape_362: Tensor[(3), int32] = device_copy(meta[relay.Constant][860] /* ty=Tensor[(3), int32] */, meta[relay.attrs.DeviceCopyAttrs][253]) /* ty=Tensor[(3), int32] */;
  let %storage_01056: Storage[] = memory.alloc_storage(24 /* ty=int64 */, 64 /* ty=int64 */, meta[relay.attrs.AllocStorageAttrs][1069]) /* ty=Storage[] */;
  let %tensor_0878: Tensor[(3), int64] = memory.alloc_tensor(%storage_01056, 0 /* ty=int64 */, meta[relay.Constant][861] /* ty=Tensor[(1), int64] */, meta[relay.attrs.AllocTensorAttrs][1069]) /* ty=Tensor[(3), int64] */;
  let %shape_func_out_0185: Tensor[(3), int64] = %tensor_0878;
  %4163 = fn (%p0875: Tensor[(?, ?, ?), float32], %p1377: Tensor[(3), int32], %p2229: Tensor[(3), int64], %p3124: Tensor[(3), int32], Primitive=1) -> Tensor[(?, ?, ?), float32] {
    dyn.strided_slice(%p0875, %p1377, %p2229, %p3124, begin=None, end=None, strides=None) /* ty=Tensor[(?, ?, ?), float32] */
  };
  %4164 = (%in_shape_0170, %in_shape_1110, %in_shape_278, %in_shape_362);
  %4165 = (%shape_func_out_0185,);
  let %shape_func185: () = vm.shape_func(%4163, %4164, %4165, meta[relay.attrs.ShapeFuncAttrs][185]) /* ty=() */;
  let %storage_01057: Storage[] = memory.alloc_storage(8 /* ty=int64 */, 64 /* ty=int64 */, meta[relay.attrs.AllocStorageAttrs][1070]) /* ty=Storage[] */;
  let %tensor_0879: int64 = memory.alloc_tensor(%storage_01057, 0 /* ty=int64 */, 0 /* ty=int64 */, meta[relay.attrs.AllocTensorAttrs][1070]) /* ty=int64 */;
  %4166 = fn (%p0876: Tensor[(3), int64], Primitive=1) -> int64 {
    prod(%p0876) /* ty=int64 */
  };
  %4167 = (%shape_func_out_0185,);
  %4168 = (%tensor_0879,);
  let %v871: () = vm.invoke_tvm_op(%4166, %4167, %4168) /* ty=() */;
  let %storage_01058: Storage[] = memory.alloc_storage(8 /* ty=int64 */, 64 /* ty=int64 */, meta[relay.attrs.AllocStorageAttrs][1071]) /* ty=Storage[] */;
  let %tensor_0880: int64 = memory.alloc_tensor(%storage_01058, 0 /* ty=int64 */, 0 /* ty=int64 */, meta[relay.attrs.AllocTensorAttrs][1071]) /* ty=int64 */;
  %4169 = fn (%p0877: int64, Primitive=1) -> int64 {
    multiply(%p0877, 4 /* ty=int64 */) /* ty=int64 */
  };
  %4170 = (%tensor_0879,);
  %4171 = (%tensor_0880,);
  let %v872: () = vm.invoke_tvm_op(%4169, %4170, %4171) /* ty=() */;
  let %storage_01059: Storage[] = memory.alloc_storage(%tensor_0880, 64 /* ty=int64 */, meta[relay.attrs.AllocStorageAttrs][1072]) /* ty=Storage[] */;
  let %out_0178: Tensor[(?, ?, ?), float32] = memory.alloc_tensor(%storage_01059, 0 /* ty=int64 */, %shape_func_out_0185, meta[relay.attrs.AllocTensorAttrs][1072]) /* ty=Tensor[(?, ?, ?), float32] */;
  %4172 = (%x633, %x635, %x636, meta[relay.Constant][860] /* ty=Tensor[(3), int32] */);
  %4173 = (%out_0178,);
  let %v873: () = vm.invoke_tvm_op(%4163, %4172, %4173) /* ty=() */;
  let %x637: Tensor[(?, ?, ?), float32] = %out_0178;
  let %in_shape_0171: Tensor[(3), int64] = vm.shape_of(%x637, meta[relay.attrs.ShapeOfAttrs][182]) /* ty=Tensor[(3), int64] */;
  let %storage_01060: Storage[] = memory.alloc_storage(32 /* ty=int64 */, 64 /* ty=int64 */, meta[relay.attrs.AllocStorageAttrs][1073]) /* ty=Storage[] */;
  let %tensor_0881: Tensor[(4), int64] = memory.alloc_tensor(%storage_01060, 0 /* ty=int64 */, meta[relay.Constant][862] /* ty=Tensor[(1), int64] */, meta[relay.attrs.AllocTensorAttrs][1073]) /* ty=Tensor[(4), int64] */;
  let %shape_func_out_0186: Tensor[(4), int64] = %tensor_0881;
  %4174 = fn (%p0878: Tensor[(?, ?, ?), float32], Primitive=1) -> Tensor[(?, 1, ?, ?), float32] {
    expand_dims(%p0878, axis=1) /* ty=Tensor[(?, 1, ?, ?), float32] */
  };
  %4175 = (%in_shape_0171,);
  %4176 = (%shape_func_out_0186,);
  let %shape_func186: () = vm.shape_func(%4174, %4175, %4176, meta[relay.attrs.ShapeFuncAttrs][186]) /* ty=() */;
  let %storage_01061: Storage[] = memory.alloc_storage(8 /* ty=int64 */, 64 /* ty=int64 */, meta[relay.attrs.AllocStorageAttrs][1074]) /* ty=Storage[] */;
  let %tensor_0882: int64 = memory.alloc_tensor(%storage_01061, 0 /* ty=int64 */, 0 /* ty=int64 */, meta[relay.attrs.AllocTensorAttrs][1074]) /* ty=int64 */;
  %4177 = fn (%p0879: Tensor[(4), int64], Primitive=1) -> int64 {
    prod(%p0879) /* ty=int64 */
  };
  %4178 = (%shape_func_out_0186,);
  %4179 = (%tensor_0882,);
  let %v874: () = vm.invoke_tvm_op(%4177, %4178, %4179) /* ty=() */;
  let %storage_01062: Storage[] = memory.alloc_storage(8 /* ty=int64 */, 64 /* ty=int64 */, meta[relay.attrs.AllocStorageAttrs][1075]) /* ty=Storage[] */;
  let %tensor_0883: int64 = memory.alloc_tensor(%storage_01062, 0 /* ty=int64 */, 0 /* ty=int64 */, meta[relay.attrs.AllocTensorAttrs][1075]) /* ty=int64 */;
  %4180 = fn (%p0880: int64, Primitive=1) -> int64 {
    multiply(%p0880, 4 /* ty=int64 */) /* ty=int64 */
  };
  %4181 = (%tensor_0882,);
  %4182 = (%tensor_0883,);
  let %v875: () = vm.invoke_tvm_op(%4180, %4181, %4182) /* ty=() */;
  let %storage_01063: Storage[] = memory.alloc_storage(%tensor_0883, 64 /* ty=int64 */, meta[relay.attrs.AllocStorageAttrs][1076]) /* ty=Storage[] */;
  let %out_0179: Tensor[(?, 1, ?, ?), float32] = memory.alloc_tensor(%storage_01063, 0 /* ty=int64 */, %shape_func_out_0186, meta[relay.attrs.AllocTensorAttrs][1076]) /* ty=Tensor[(?, 1, ?, ?), float32] */;
  %4183 = (%x637,);
  %4184 = (%out_0179,);
  let %v876: () = vm.invoke_tvm_op(%4174, %4183, %4184) /* ty=() */;
  let %x638: Tensor[(?, 1, ?, ?), float32] = %out_0179;
  let %x639: (Tensor[(?, 4), float32], Tensor[(?), float32], Tensor[(?), int64], Tensor[(?, 1, ?, ?), float32]) = (%x608, %x609, %x600, %x638);
  %x639;
  %x520;
  %x518;
  %x
}
#[version = "0.0.5"]
fn (%x: Tensor[(?, 1, ?, ?), float32], %x1: Tensor[(1), int32], Closure=1) -> fn (int32, Tensor[(?, ?, ?), float32], Tensor[(?, 4), int64], Tensor[(?, 1, ?, ?), float32]) -> (int32, Tensor[(?, ?, ?), float32], Tensor[(?, 4), int64], Tensor[(?, 1, ?, ?), float32]) {
  fn (%i.1: int32, %res_append.6: Tensor[(?, ?, ?), float32], %v7394: Tensor[(?, 4), int64], %v7286: Tensor[(?, 1, ?, ?), float32]) -> (int32, Tensor[(?, ?, ?), float32], Tensor[(?, 4), int64], Tensor[(?, 1, ?, ?), float32]) {
    let %x2: fn (Tensor[(?, 1, ?, ?), float32]) -> Tensor[(4), int32] = fn (%p0: Tensor[(?, 1, ?, ?), float32], Primitive=1) -> Tensor[(4), int32] {
      shape_of(%p0, dtype="int32") /* ty=Tensor[(4), int32] */
    };
    let %x3: Tensor[(4), int32] = %x2(%x);
    let %x4: fn (int32, Tensor[(4), int32]) -> bool = fn (%p01: int32, %p1: Tensor[(4), int32], Primitive=1) -> bool {
      %0 = take(%p1, 0 /* ty=int32 */, axis=0) /* ty=int32 */;
      less(%p01, %0) /* ty=bool */
    };
    let %x5: bool = %x4(%i.1, %x3) /* ty=bool */;
    let %x6: (int32, Tensor[(?, ?, ?), float32], Tensor[(?, 4), int64], Tensor[(?, 1, ?, ?), float32]) = if (%x5) {
      let %x7: fn (int32) -> int32 = fn (%p02: int32, Primitive=1) -> int32 {
        add(%p02, 1 /* ty=int32 */) /* ty=int32 */
      };
      let %x8: int32 = %x7(%i.1) /* ty=int32 */;
      let %x9: int32 = 0 /* ty=int32 */;
      let %x10: int32 = 0 /* ty=int32 */;
      let %x11: fn (Tensor[(?, 4), int64], int32) -> Tensor[(4), int64] = fn (%p03: Tensor[(?, 4), int64], %p11: int32, Primitive=1) -> Tensor[(4), int64] {
        take(%p03, %p11, axis=0) /* ty=Tensor[(4), int64] */
      };
      let %x12: Tensor[(4), int64] = %x11(%v7394, %i.1) /* ty=Tensor[(4), int64] */;
      let %x13: fn (Tensor[(4), int64]) -> int64 = fn (%p04: Tensor[(4), int64], Primitive=1) -> int64 {
        take(%p04, 1 /* ty=int32 */, axis=0) /* ty=int64 */
      };
      let %x14: int64 = %x13(%x12) /* ty=int64 */;
      let %x15: fn () -> Tensor[(1), int64] = fn (Primitive=1) -> Tensor[(1), int64] {
        full(0 /* ty=int32 */, shape=[1], dtype="int64") /* ty=Tensor[(1), int64] */
      };
      let %x16: Tensor[(1), int64] = %x15() /* ty=Tensor[(1), int64] */;
      let %x17: fn (int64, Tensor[(1), int64]) -> Tensor[(2), int64] = fn (%p05: int64, %p12: Tensor[(1), int64], Primitive=1) -> Tensor[(2), int64] {
        %1 = expand_dims(%p05, axis=0) /* ty=Tensor[(1), int64] */;
        %2 = (%1, %p12);
        concatenate(%2) /* ty=Tensor[(2), int64] */
      };
      let %x18: Tensor[(2), int64] = %x17(%x14, %x16) /* ty=Tensor[(2), int64] */;
      let %x19: fn (Tensor[(2), int64]) -> int64 = fn (%p06: Tensor[(2), int64], Primitive=1) -> int64 {
        max(%p06) /* ty=int64 */
      };
      let %x20: int64 = %x19(%x18) /* ty=int64 */;
      let %x21: fn (Tensor[(?, 1, ?, ?), float32], int32) -> Tensor[(1, ?, ?), float32] = fn (%p07: Tensor[(?, 1, ?, ?), float32], %p13: int32, Primitive=1) -> Tensor[(1, ?, ?), float32] {
        take(%p07, %p13, axis=0) /* ty=Tensor[(1, ?, ?), float32] */
      };
      let %x22: Tensor[(1, ?, ?), float32] = %x21(%v7286, %i.1) /* ty=Tensor[(1, ?, ?), float32] */;
      let %x23: fn (Tensor[(1, ?, ?), float32]) -> Tensor[(1, 1, ?, ?), float32] = fn (%p08: Tensor[(1, ?, ?), float32], Primitive=1) -> Tensor[(1, 1, ?, ?), float32] {
        %3 = take(%p08, 0 /* ty=int32 */, axis=0) /* ty=Tensor[(?, ?), float32] */;
        %4 = expand_dims(%3, axis=0, num_newaxis=2) /* ty=Tensor[(1, 1, ?, ?), float32] */;
        %5 = repeat(%4, repeats=1, axis=0) /* ty=Tensor[(1, 1, ?, ?), float32] */;
        repeat(%5, repeats=1, axis=1) /* ty=Tensor[(1, 1, ?, ?), float32] */
      };
      let %x24: Tensor[(1, 1, ?, ?), float32] = %x23(%x22) /* ty=Tensor[(1, 1, ?, ?), float32] */;
      let %x25: fn (Tensor[(4), int64]) -> int64 = fn (%p09: Tensor[(4), int64], Primitive=1) -> int64 {
        take(%p09, 3 /* ty=int32 */, axis=0) /* ty=int64 */
      };
      let %x26: int64 = %x25(%x12) /* ty=int64 */;
      let %x27: fn () -> Tensor[(1), int64] = fn (Primitive=1) -> Tensor[(1), int64] {
        full(1 /* ty=int32 */, shape=[1], dtype="int64") /* ty=Tensor[(1), int64] */
      };
      let %x28: Tensor[(1), int64] = %x27() /* ty=Tensor[(1), int64] */;
      let %x29: fn (int64, int64, Tensor[(1), int64]) -> Tensor[(2), int64] = fn (%p010: int64, %p14: int64, %p2: Tensor[(1), int64], Primitive=1) -> Tensor[(2), int64] {
        %6 = subtract(%p010, %p14) /* ty=int64 */;
        %7 = add(%6, %p2) /* ty=Tensor[(1), int64] */;
        %8 = (%7, %p2);
        concatenate(%8) /* ty=Tensor[(2), int64] */
      };
      let %x30: Tensor[(2), int64] = %x29(%x26, %x14, %x28) /* ty=Tensor[(2), int64] */;
      let %x31: fn (Tensor[(2), int64]) -> int64 = fn (%p011: Tensor[(2), int64], Primitive=1) -> int64 {
        max(%p011) /* ty=int64 */
      };
      let %x32: int64 = %x31(%x30) /* ty=int64 */;
      let %x33: fn (Tensor[(4), int64]) -> int64 = fn (%p012: Tensor[(4), int64], Primitive=1) -> int64 {
        take(%p012, 2 /* ty=int32 */, axis=0) /* ty=int64 */
      };
      let %x34: int64 = %x33(%x12) /* ty=int64 */;
      let %x35: fn (Tensor[(4), int64]) -> int64 = fn (%p013: Tensor[(4), int64], Primitive=1) -> int64 {
        take(%p013, 0 /* ty=int32 */, axis=0) /* ty=int64 */
      };
      let %x36: int64 = %x35(%x12) /* ty=int64 */;
      let %x37: fn (int64, int64, Tensor[(1), int64]) -> Tensor[(2), int64] = fn (%p014: int64, %p15: int64, %p21: Tensor[(1), int64], Primitive=1) -> Tensor[(2), int64] {
        %9 = subtract(%p014, %p15) /* ty=int64 */;
        %10 = add(%9, %p21) /* ty=Tensor[(1), int64] */;
        %11 = (%10, %p21);
        concatenate(%11) /* ty=Tensor[(2), int64] */
      };
      let %x38: Tensor[(2), int64] = %x37(%x34, %x36, %x28) /* ty=Tensor[(2), int64] */;
      let %x39: fn (Tensor[(2), int64]) -> int64 = fn (%p015: Tensor[(2), int64], Primitive=1) -> int64 {
        max(%p015) /* ty=int64 */
      };
      let %x40: int64 = %x39(%x38) /* ty=int64 */;
      let %x41: fn (int64, int64) -> Tensor[(2), int64] = fn (%p016: int64, %p16: int64, Primitive=1) -> Tensor[(2), int64] {
        %12 = expand_dims(%p016, axis=0) /* ty=Tensor[(1), int64] */;
        %13 = expand_dims(%p16, axis=0) /* ty=Tensor[(1), int64] */;
        %14 = (%12, %13);
        concatenate(%14) /* ty=Tensor[(2), int64] */
      };
      let %x42: Tensor[(2), int64] = %x41(%x32, %x40) /* ty=Tensor[(2), int64] */;
      let %x43: fn (Tensor[(1, 1, ?, ?), float32], Tensor[(2), int64]) -> Tensor[(1, 1, ?, ?), float32] = fn (%p017: Tensor[(1, 1, ?, ?), float32], %p17: Tensor[(2), int64], Primitive=1) -> Tensor[(1, 1, ?, ?), float32] {
        dyn.image.resize(%p017, %p17, size=[]) /* ty=Tensor[(1, 1, ?, ?), float32] */
      };
      let %x44: Tensor[(1, 1, ?, ?), float32] = %x43(%x24, %x42) /* ty=Tensor[(1, 1, ?, ?), float32] */;
      let %x45: fn (Tensor[(1, 1, ?, ?), float32]) -> Tensor[(1, ?, ?), float32] = fn (%p018: Tensor[(1, 1, ?, ?), float32], Primitive=1) -> Tensor[(1, ?, ?), float32] {
        take(%p018, 0 /* ty=int32 */, axis=0) /* ty=Tensor[(1, ?, ?), float32] */
      };
      let %x46: Tensor[(1, ?, ?), float32] = %x45(%x44) /* ty=Tensor[(1, ?, ?), float32] */;
      let %x47: fn (Tensor[(1, ?, ?), float32]) -> Tensor[(?, ?), float32] = fn (%p019: Tensor[(1, ?, ?), float32], Primitive=1) -> Tensor[(?, ?), float32] {
        take(%p019, 0 /* ty=int32 */, axis=0) /* ty=Tensor[(?, ?), float32] */
      };
      let %x48: Tensor[(?, ?), float32] = %x47(%x46) /* ty=Tensor[(?, ?), float32] */;
      let %x49: Tensor[(1), int64] = meta[relay.Constant][0] /* ty=Tensor[(1), int64] */;
      let %x50: fn (Tensor[(?, ?), float32]) -> Tensor[(2), int32] = fn (%p020: Tensor[(?, ?), float32], Primitive=1) -> Tensor[(2), int32] {
        shape_of(%p020, dtype="int32") /* ty=Tensor[(2), int32] */
      };
      let %x51: Tensor[(2), int32] = %x50(%x48) /* ty=Tensor[(2), int32] */;
      let %x52: fn (int64, int64, Tensor[(1), int64], Tensor[(2), int32]) -> Tensor[(2), int64] = fn (%p021: int64, %p18: int64, %p22: Tensor[(1), int64], %p3: Tensor[(2), int32], Primitive=1) -> Tensor[(2), int64] {
        %15 = subtract(%p021, %p18) /* ty=int64 */;
        %16 = expand_dims(%15, axis=0) /* ty=Tensor[(1), int64] */;
        %17 = cast(%16, dtype="int64") /* ty=Tensor[(1), int64] */;
        %18 = (%17, %p22);
        %19 = concatenate(%18) /* ty=Tensor[(2), int64] */;
        %20 = cast_like(0 /* ty=int32 */, %19) /* ty=int64 */;
        %21 = less(%19, %20) /* ty=Tensor[(2), bool] */;
        %22 = cast_like(%p3, %19) /* ty=Tensor[(2), int64] */;
        %23 = add(%19, %22) /* ty=Tensor[(2), int64] */;
        where(%21, %23, %19) /* ty=Tensor[(2), int64] */
      };
      let %x53: Tensor[(2), int64] = %x52(%x20, %x14, %x49, %x51) /* ty=Tensor[(2), int64] */;
      let %x54: fn (Tensor[(2), int32]) -> Tensor[(2), int64] = fn (%p022: Tensor[(2), int32], Primitive=1) -> Tensor[(2), int64] {
        cast(%p022, dtype="int64") /* ty=Tensor[(2), int64] */
      };
      let %x55: Tensor[(2), int64] = %x54(%x51) /* ty=Tensor[(2), int64] */;
      let %x56: Tensor[(1), int32] = meta[relay.Constant][1] /* ty=Tensor[(1), int32] */;
      let %x57: Tensor[(1), int64] = meta[relay.Constant][2] /* ty=Tensor[(1), int64] */;
      let %x58: fn (int64, Tensor[(1), int64], Tensor[(1), int64]) -> Tensor[(2), int64] = fn (%p023: int64, %p19: Tensor[(1), int64], %p23: Tensor[(1), int64], Primitive=1) -> Tensor[(2), int64] {
        %24 = expand_dims(%p023, axis=0) /* ty=Tensor[(1), int64] */;
        %25 = add(%24, %p19) /* ty=Tensor[(1), int64] */;
        %26 = (%25, %p23);
        concatenate(%26) /* ty=Tensor[(2), int64] */
      };
      let %x59: Tensor[(2), int64] = %x58(%x26, %x28, %x57) /* ty=Tensor[(2), int64] */;
      let %x60: fn (Tensor[(2), int64]) -> int64 = fn (%p024: Tensor[(2), int64], Primitive=1) -> int64 {
        min(%p024) /* ty=int64 */
      };
      let %x61: int64 = %x60(%x59) /* ty=int64 */;
      let %x62: fn (int64, int64) -> Tensor[(1), int64] = fn (%p025: int64, %p110: int64, Primitive=1) -> Tensor[(1), int64] {
        %27 = subtract(%p025, %p110) /* ty=int64 */;
        expand_dims(%27, axis=0) /* ty=Tensor[(1), int64] */
      };
      let %x63: Tensor[(1), int64] = %x62(%x61, %x14) /* ty=Tensor[(1), int64] */;
      let %x64: fn (Tensor[(2), int64], Tensor[(1), int32], Tensor[(1), int64]) -> Tensor[(2), int64] = fn (%p026: Tensor[(2), int64], %p111: Tensor[(1), int32], %p24: Tensor[(1), int64], Primitive=1) -> Tensor[(2), int64] {
        scatter(%p026, %p111, %p24, meta[relay.attrs.ScatterAttrs][0]) /* ty=Tensor[(2), int64] */
      };
      let %x65: Tensor[(2), int64] = %x64(%x55, %x56, %x63) /* ty=Tensor[(2), int64] */;
      let %x66: Tensor[(2), int32] = meta[relay.Constant][3] /* ty=Tensor[(2), int32] */;
      let %x67: fn (Tensor[(?, ?), float32], Tensor[(2), int64], Tensor[(2), int64], Tensor[(2), int32]) -> Tensor[(?, ?), float32] = fn (%p027: Tensor[(?, ?), float32], %p112: Tensor[(2), int64], %p25: Tensor[(2), int64], %p31: Tensor[(2), int32], Primitive=1) -> Tensor[(?, ?), float32] {
        dyn.strided_slice(%p027, %p112, %p25, %p31, begin=None, end=None, strides=None) /* ty=Tensor[(?, ?), float32] */
      };
      let %x68: Tensor[(?, ?), float32] = %x67(%x48, %x53, %x65, %x66) /* ty=Tensor[(?, ?), float32] */;
      let %x69: fn (int64, Tensor[(1), int64]) -> Tensor[(2), int64] = fn (%p028: int64, %p113: Tensor[(1), int64], Primitive=1) -> Tensor[(2), int64] {
        %28 = expand_dims(%p028, axis=0) /* ty=Tensor[(1), int64] */;
        %29 = (%28, %p113);
        concatenate(%29) /* ty=Tensor[(2), int64] */
      };
      let %x70: Tensor[(2), int64] = %x69(%x36, %x16) /* ty=Tensor[(2), int64] */;
      let %x71: fn (Tensor[(2), int64]) -> int64 = fn (%p029: Tensor[(2), int64], Primitive=1) -> int64 {
        max(%p029) /* ty=int64 */
      };
      let %x72: int64 = %x71(%x70) /* ty=int64 */;
      let %x73: fn (Tensor[(?, ?), float32]) -> Tensor[(2), int32] = fn (%p030: Tensor[(?, ?), float32], Primitive=1) -> Tensor[(2), int32] {
        shape_of(%p030, dtype="int32") /* ty=Tensor[(2), int32] */
      };
      let %x74: Tensor[(2), int32] = %x73(%x68) /* ty=Tensor[(2), int32] */;
      let %x75: fn (Tensor[(1), int64], int64, int64, Tensor[(2), int32]) -> Tensor[(2), int64] = fn (%p031: Tensor[(1), int64], %p114: int64, %p26: int64, %p32: Tensor[(2), int32], Primitive=1) -> Tensor[(2), int64] {
        %30 = subtract(%p114, %p26) /* ty=int64 */;
        %31 = expand_dims(%30, axis=0) /* ty=Tensor[(1), int64] */;
        %32 = cast(%31, dtype="int64") /* ty=Tensor[(1), int64] */;
        %33 = (%p031, %32);
        %34 = concatenate(%33) /* ty=Tensor[(2), int64] */;
        %35 = cast_like(0 /* ty=int32 */, %34) /* ty=int64 */;
        %36 = less(%34, %35) /* ty=Tensor[(2), bool] */;
        %37 = cast_like(%p32, %34) /* ty=Tensor[(2), int64] */;
        %38 = add(%34, %37) /* ty=Tensor[(2), int64] */;
        where(%36, %38, %34) /* ty=Tensor[(2), int64] */
      };
      let %x76: Tensor[(2), int64] = %x75(%x49, %x72, %x36, %x74) /* ty=Tensor[(2), int64] */;
      let %x77: fn (Tensor[(2), int32]) -> Tensor[(2), int64] = fn (%p032: Tensor[(2), int32], Primitive=1) -> Tensor[(2), int64] {
        cast(%p032, dtype="int64") /* ty=Tensor[(2), int64] */
      };
      let %x78: Tensor[(2), int64] = %x77(%x74) /* ty=Tensor[(2), int64] */;
      let %x79: fn (int64, Tensor[(1), int64], Tensor[(1), int64]) -> Tensor[(2), int64] = fn (%p033: int64, %p115: Tensor[(1), int64], %p27: Tensor[(1), int64], Primitive=1) -> Tensor[(2), int64] {
        %39 = expand_dims(%p033, axis=0) /* ty=Tensor[(1), int64] */;
        %40 = add(%39, %p115) /* ty=Tensor[(1), int64] */;
        %41 = (%40, %p27);
        concatenate(%41) /* ty=Tensor[(2), int64] */
      };
      let %x80: Tensor[(2), int64] = %x79(%x34, %x28, %x57) /* ty=Tensor[(2), int64] */;
      let %x81: fn (Tensor[(2), int64]) -> int64 = fn (%p034: Tensor[(2), int64], Primitive=1) -> int64 {
        min(%p034) /* ty=int64 */
      };
      let %x82: int64 = %x81(%x80) /* ty=int64 */;
      let %x83: fn (int64, int64) -> Tensor[(1), int64] = fn (%p035: int64, %p116: int64, Primitive=1) -> Tensor[(1), int64] {
        %42 = subtract(%p035, %p116) /* ty=int64 */;
        expand_dims(%42, axis=0) /* ty=Tensor[(1), int64] */
      };
      let %x84: Tensor[(1), int64] = %x83(%x82, %x36) /* ty=Tensor[(1), int64] */;
      let %x85: fn (Tensor[(2), int64], Tensor[(1), int32], Tensor[(1), int64]) -> Tensor[(2), int64] = fn (%p036: Tensor[(2), int64], %p117: Tensor[(1), int32], %p28: Tensor[(1), int64], Primitive=1) -> Tensor[(2), int64] {
        scatter(%p036, %p117, %p28, meta[relay.attrs.ScatterAttrs][1]) /* ty=Tensor[(2), int64] */
      };
      let %x86: Tensor[(2), int64] = %x85(%x78, %x1, %x84);
      let %x87: Tensor[(2), int32] = meta[relay.Constant][4] /* ty=Tensor[(2), int32] */;
      let %x88: fn (Tensor[(?, ?), float32], Tensor[(2), int64], Tensor[(2), int64], Tensor[(2), int32]) -> Tensor[(?, ?), float32] = fn (%p037: Tensor[(?, ?), float32], %p118: Tensor[(2), int64], %p29: Tensor[(2), int64], %p33: Tensor[(2), int32], Primitive=1) -> Tensor[(?, ?), float32] {
        dyn.strided_slice(%p037, %p118, %p29, %p33, begin=None, end=None, strides=None) /* ty=Tensor[(?, ?), float32] */
      };
      let %x89: Tensor[(?, ?), float32] = %x88(%x68, %x76, %x86, %x87) /* ty=Tensor[(?, ?), float32] */;
      let %x90: fn (Tensor[(?, ?), float32]) -> Tensor[(2), int32] = fn (%p038: Tensor[(?, ?), float32], Primitive=1) -> Tensor[(2), int32] {
        shape_of(%p038, dtype="int32") /* ty=Tensor[(2), int32] */
      };
      let %x91: Tensor[(2), int32] = %x90(%x89) /* ty=Tensor[(2), int32] */;
      let %x92: fn (Tensor[(2), int32]) -> Tensor[(1), int64] = fn (%p039: Tensor[(2), int32], Primitive=1) -> Tensor[(1), int64] {
        %43 = take(%p039, 1 /* ty=int32 */, axis=0) /* ty=int32 */;
        %44 = expand_dims(%43, axis=0) /* ty=Tensor[(1), int32] */;
        cast(%44, dtype="int64") /* ty=Tensor[(1), int64] */
      };
      let %x93: Tensor[(1), int64] = %x92(%x91) /* ty=Tensor[(1), int64] */;
      let %x94: fn (int64, Tensor[(1), int64]) -> Tensor[(2), int64] = fn (%p040: int64, %p119: Tensor[(1), int64], Primitive=1) -> Tensor[(2), int64] {
        %45 = expand_dims(%p040, axis=0) /* ty=Tensor[(1), int64] */;
        %46 = cast(%45, dtype="int64") /* ty=Tensor[(1), int64] */;
        %47 = (%46, %p119);
        concatenate(%47) /* ty=Tensor[(2), int64] */
      };
      let %x95: Tensor[(2), int64] = %x94(%x20, %x93) /* ty=Tensor[(2), int64] */;
      let %x96: fn (int32, Tensor[(2), int64]) -> Tensor[(?, ?), float32] = fn (%p041: int32, %p120: Tensor[(2), int64], Primitive=1) -> Tensor[(?, ?), float32] {
        dyn.full(%p041, %p120, shape=None, dtype="float32") /* ty=Tensor[(?, ?), float32] */
      };
      let %x97: Tensor[(?, ?), float32] = %x96(%x10, %x95) /* ty=Tensor[(?, ?), float32] */;
      let %x98: int32 = 0 /* ty=int32 */;
      let %x99: fn (int64, Tensor[(1), int64]) -> Tensor[(2), int64] = fn (%p042: int64, %p121: Tensor[(1), int64], Primitive=1) -> Tensor[(2), int64] {
        %48 = subtract(300 /* ty=int64 */, %p042) /* ty=int64 */;
        %49 = expand_dims(%48, axis=0) /* ty=Tensor[(1), int64] */;
        %50 = cast(%49, dtype="int64") /* ty=Tensor[(1), int64] */;
        %51 = (%50, %p121);
        concatenate(%51) /* ty=Tensor[(2), int64] */
      };
      let %x100: Tensor[(2), int64] = %x99(%x61, %x93) /* ty=Tensor[(2), int64] */;
      let %x101: fn (int32, Tensor[(2), int64]) -> Tensor[(?, ?), float32] = fn (%p043: int32, %p122: Tensor[(2), int64], Primitive=1) -> Tensor[(?, ?), float32] {
        dyn.full(%p043, %p122, shape=None, dtype="float32") /* ty=Tensor[(?, ?), float32] */
      };
      let %x102: Tensor[(?, ?), float32] = %x101(%x98, %x100) /* ty=Tensor[(?, ?), float32] */;
      let %x103: fn (Tensor[(?, ?), float32], Tensor[(?, ?), float32], Tensor[(?, ?), float32]) -> Tensor[(?, ?), float32] = fn (%p044: Tensor[(?, ?), float32], %p123: Tensor[(?, ?), float32], %p210: Tensor[(?, ?), float32], Primitive=1) -> Tensor[(?, ?), float32] {
        %52 = reshape(%p044, newshape=[0, 0]) /* ty=Tensor[(?, ?), float32] */;
        %53 = reshape(%p210, newshape=[0, 0]) /* ty=Tensor[(?, ?), float32] */;
        %54 = (%52, %p123, %53);
        concatenate(%54) /* ty=Tensor[(?, ?), float32] */
      };
      let %x104: Tensor[(?, ?), float32] = %x103(%x97, %x89, %x102) /* ty=Tensor[(?, ?), float32] */;
      let %x105: Tensor[(2), bool] = meta[relay.Constant][5] /* ty=Tensor[(2), bool] */;
      let %x106: Tensor[(2), int32] = meta[relay.Constant][6] /* ty=Tensor[(2), int32] */;
      let %x107: fn (Tensor[(?, ?), float32]) -> Tensor[(2), int32] = fn (%p045: Tensor[(?, ?), float32], Primitive=1) -> Tensor[(2), int32] {
        shape_of(%p045, dtype="int32") /* ty=Tensor[(2), int32] */
      };
      let %x108: Tensor[(2), int32] = %x107(%x104) /* ty=Tensor[(2), int32] */;
      let %x109: fn (Tensor[(2), bool], Tensor[(2), int32], Tensor[(2), int32]) -> Tensor[(2), int32] = fn (%p046: Tensor[(2), bool], %p124: Tensor[(2), int32], %p211: Tensor[(2), int32], Primitive=1) -> Tensor[(2), int32] {
        %55 = cast_like(%p211, %p124) /* ty=Tensor[(2), int32] */;
        %56 = add(%p124, %55) /* ty=Tensor[(2), int32] */;
        where(%p046, %56, %p124) /* ty=Tensor[(2), int32] */
      };
      let %x110: Tensor[(2), int32] = %x109(%x105, %x106, %x108) /* ty=Tensor[(2), int32] */;
      let %x111: Tensor[(1), int32] = meta[relay.Constant][7] /* ty=Tensor[(1), int32] */;
      let %x112: fn (Tensor[(2), int32], Tensor[(1), int32], Tensor[(1), int32]) -> Tensor[(2), int32] = fn (%p047: Tensor[(2), int32], %p125: Tensor[(1), int32], %p212: Tensor[(1), int32], Primitive=1) -> Tensor[(2), int32] {
        scatter(%p047, %p125, %p212, meta[relay.attrs.ScatterAttrs][2]) /* ty=Tensor[(2), int32] */
      };
      let %x113: Tensor[(2), int32] = %x112(%x108, %x56, %x111) /* ty=Tensor[(2), int32] */;
      let %x114: fn (Tensor[(2), int32]) -> Tensor[(2), int64] = fn (%p048: Tensor[(2), int32], Primitive=1) -> Tensor[(2), int64] {
        cast(%p048, dtype="int64") /* ty=Tensor[(2), int64] */
      };
      let %x115: Tensor[(2), int64] = %x114(%x113) /* ty=Tensor[(2), int64] */;
      let %x116: Tensor[(2), int32] = meta[relay.Constant][8] /* ty=Tensor[(2), int32] */;
      let %x117: fn (Tensor[(?, ?), float32], Tensor[(2), int32], Tensor[(2), int64], Tensor[(2), int32]) -> Tensor[(?, ?), float32] = fn (%p049: Tensor[(?, ?), float32], %p126: Tensor[(2), int32], %p213: Tensor[(2), int64], %p34: Tensor[(2), int32], Primitive=1) -> Tensor[(?, ?), float32] {
        dyn.strided_slice(%p049, %p126, %p213, %p34, begin=None, end=None, strides=None) /* ty=Tensor[(?, ?), float32] */
      };
      let %x118: Tensor[(?, ?), float32] = %x117(%x104, %x110, %x115, %x116) /* ty=Tensor[(?, ?), float32] */;
      let %x119: Tensor[(2), bool] = meta[relay.Constant][9] /* ty=Tensor[(2), bool] */;
      let %x120: Tensor[(2), int32] = meta[relay.Constant][10] /* ty=Tensor[(2), int32] */;
      let %x121: fn (Tensor[(?, ?), float32]) -> Tensor[(2), int32] = fn (%p050: Tensor[(?, ?), float32], Primitive=1) -> Tensor[(2), int32] {
        shape_of(%p050, dtype="int32") /* ty=Tensor[(2), int32] */
      };
      let %x122: Tensor[(2), int32] = %x121(%x118) /* ty=Tensor[(2), int32] */;
      let %x123: fn (Tensor[(2), bool], Tensor[(2), int32], Tensor[(2), int32]) -> Tensor[(2), int32] = fn (%p051: Tensor[(2), bool], %p127: Tensor[(2), int32], %p214: Tensor[(2), int32], Primitive=1) -> Tensor[(2), int32] {
        %57 = cast_like(%p214, %p127) /* ty=Tensor[(2), int32] */;
        %58 = add(%p127, %57) /* ty=Tensor[(2), int32] */;
        where(%p051, %58, %p127) /* ty=Tensor[(2), int32] */
      };
      let %x124: Tensor[(2), int32] = %x123(%x119, %x120, %x122) /* ty=Tensor[(2), int32] */;
      let %x125: fn (Tensor[(2), int32]) -> Tensor[(2), int64] = fn (%p052: Tensor[(2), int32], Primitive=1) -> Tensor[(2), int64] {
        cast(%p052, dtype="int64") /* ty=Tensor[(2), int64] */
      };
      let %x126: Tensor[(2), int64] = %x125(%x122) /* ty=Tensor[(2), int64] */;
      let %x127: Tensor[(2), int32] = meta[relay.Constant][11] /* ty=Tensor[(2), int32] */;
      let %x128: fn (Tensor[(?, ?), float32], Tensor[(2), int32], Tensor[(2), int64], Tensor[(2), int32]) -> Tensor[(?, ?), float32] = fn (%p053: Tensor[(?, ?), float32], %p128: Tensor[(2), int32], %p215: Tensor[(2), int64], %p35: Tensor[(2), int32], Primitive=1) -> Tensor[(?, ?), float32] {
        dyn.strided_slice(%p053, %p128, %p215, %p35, begin=None, end=None, strides=None) /* ty=Tensor[(?, ?), float32] */
      };
      let %x129: Tensor[(?, ?), float32] = %x128(%x118, %x124, %x126, %x127) /* ty=Tensor[(?, ?), float32] */;
      let %x130: fn (Tensor[(?, ?), float32]) -> Tensor[(2), int32] = fn (%p054: Tensor[(?, ?), float32], Primitive=1) -> Tensor[(2), int32] {
        shape_of(%p054, dtype="int32") /* ty=Tensor[(2), int32] */
      };
      let %x131: Tensor[(2), int32] = %x130(%x129) /* ty=Tensor[(2), int32] */;
      let %x132: fn (Tensor[(2), int32]) -> Tensor[(1), int64] = fn (%p055: Tensor[(2), int32], Primitive=1) -> Tensor[(1), int64] {
        %59 = take(%p055, 0 /* ty=int32 */, axis=0) /* ty=int32 */;
        %60 = expand_dims(%59, axis=0) /* ty=Tensor[(1), int32] */;
        cast(%60, dtype="int64") /* ty=Tensor[(1), int64] */
      };
      let %x133: Tensor[(1), int64] = %x132(%x131) /* ty=Tensor[(1), int64] */;
      let %x134: fn (Tensor[(1), int64], int64) -> Tensor[(2), int64] = fn (%p056: Tensor[(1), int64], %p129: int64, Primitive=1) -> Tensor[(2), int64] {
        %61 = expand_dims(%p129, axis=0) /* ty=Tensor[(1), int64] */;
        %62 = cast(%61, dtype="int64") /* ty=Tensor[(1), int64] */;
        %63 = (%p056, %62);
        concatenate(%63) /* ty=Tensor[(2), int64] */
      };
      let %x135: Tensor[(2), int64] = %x134(%x133, %x72) /* ty=Tensor[(2), int64] */;
      let %x136: fn (int32, Tensor[(2), int64]) -> Tensor[(?, ?), float32] = fn (%p057: int32, %p130: Tensor[(2), int64], Primitive=1) -> Tensor[(?, ?), float32] {
        dyn.full(%p057, %p130, shape=None, dtype="float32") /* ty=Tensor[(?, ?), float32] */
      };
      let %x137: Tensor[(?, ?), float32] = %x136(%x9, %x135) /* ty=Tensor[(?, ?), float32] */;
      let %x138: int32 = 0 /* ty=int32 */;
      let %x139: fn (Tensor[(1), int64], int64) -> Tensor[(2), int64] = fn (%p058: Tensor[(1), int64], %p131: int64, Primitive=1) -> Tensor[(2), int64] {
        %64 = subtract(300 /* ty=int64 */, %p131) /* ty=int64 */;
        %65 = expand_dims(%64, axis=0) /* ty=Tensor[(1), int64] */;
        %66 = cast(%65, dtype="int64") /* ty=Tensor[(1), int64] */;
        %67 = (%p058, %66);
        concatenate(%67) /* ty=Tensor[(2), int64] */
      };
      let %x140: Tensor[(2), int64] = %x139(%x133, %x82) /* ty=Tensor[(2), int64] */;
      let %x141: fn (int32, Tensor[(2), int64]) -> Tensor[(?, ?), float32] = fn (%p059: int32, %p132: Tensor[(2), int64], Primitive=1) -> Tensor[(?, ?), float32] {
        dyn.full(%p059, %p132, shape=None, dtype="float32") /* ty=Tensor[(?, ?), float32] */
      };
      let %x142: Tensor[(?, ?), float32] = %x141(%x138, %x140) /* ty=Tensor[(?, ?), float32] */;
      let %x143: fn (Tensor[(?, ?), float32], Tensor[(?, ?), float32], Tensor[(?, ?), float32]) -> Tensor[(?, ?), float32] = fn (%p060: Tensor[(?, ?), float32], %p133: Tensor[(?, ?), float32], %p216: Tensor[(?, ?), float32], Primitive=1) -> Tensor[(?, ?), float32] {
        %68 = reshape(%p060, newshape=[0, 0]) /* ty=Tensor[(?, ?), float32] */;
        %69 = reshape(%p216, newshape=[0, 0]) /* ty=Tensor[(?, ?), float32] */;
        %70 = (%68, %p133, %69);
        concatenate(%70, axis=1) /* ty=Tensor[(?, ?), float32] */
      };
      let %x144: Tensor[(?, ?), float32] = %x143(%x137, %x129, %x142) /* ty=Tensor[(?, ?), float32] */;
      let %x145: Tensor[(2), bool] = meta[relay.Constant][12] /* ty=Tensor[(2), bool] */;
      let %x146: Tensor[(2), int32] = meta[relay.Constant][13] /* ty=Tensor[(2), int32] */;
      let %x147: fn (Tensor[(?, ?), float32]) -> Tensor[(2), int32] = fn (%p061: Tensor[(?, ?), float32], Primitive=1) -> Tensor[(2), int32] {
        shape_of(%p061, dtype="int32") /* ty=Tensor[(2), int32] */
      };
      let %x148: Tensor[(2), int32] = %x147(%x144) /* ty=Tensor[(2), int32] */;
      let %x149: fn (Tensor[(2), bool], Tensor[(2), int32], Tensor[(2), int32]) -> Tensor[(2), int32] = fn (%p062: Tensor[(2), bool], %p134: Tensor[(2), int32], %p217: Tensor[(2), int32], Primitive=1) -> Tensor[(2), int32] {
        %71 = cast_like(%p217, %p134) /* ty=Tensor[(2), int32] */;
        %72 = add(%p134, %71) /* ty=Tensor[(2), int32] */;
        where(%p062, %72, %p134) /* ty=Tensor[(2), int32] */
      };
      let %x150: Tensor[(2), int32] = %x149(%x145, %x146, %x148) /* ty=Tensor[(2), int32] */;
      let %x151: fn (Tensor[(2), int32]) -> Tensor[(2), int64] = fn (%p063: Tensor[(2), int32], Primitive=1) -> Tensor[(2), int64] {
        cast(%p063, dtype="int64") /* ty=Tensor[(2), int64] */
      };
      let %x152: Tensor[(2), int64] = %x151(%x148) /* ty=Tensor[(2), int64] */;
      let %x153: Tensor[(2), int32] = meta[relay.Constant][14] /* ty=Tensor[(2), int32] */;
      let %x154: fn (Tensor[(?, ?), float32], Tensor[(2), int32], Tensor[(2), int64], Tensor[(2), int32]) -> Tensor[(?, ?), float32] = fn (%p064: Tensor[(?, ?), float32], %p135: Tensor[(2), int32], %p218: Tensor[(2), int64], %p36: Tensor[(2), int32], Primitive=1) -> Tensor[(?, ?), float32] {
        dyn.strided_slice(%p064, %p135, %p218, %p36, begin=None, end=None, strides=None) /* ty=Tensor[(?, ?), float32] */
      };
      let %x155: Tensor[(?, ?), float32] = %x154(%x144, %x150, %x152, %x153) /* ty=Tensor[(?, ?), float32] */;
      let %x156: Tensor[(2), bool] = meta[relay.Constant][15] /* ty=Tensor[(2), bool] */;
      let %x157: Tensor[(2), int32] = meta[relay.Constant][16] /* ty=Tensor[(2), int32] */;
      let %x158: fn (Tensor[(?, ?), float32]) -> Tensor[(2), int32] = fn (%p065: Tensor[(?, ?), float32], Primitive=1) -> Tensor[(2), int32] {
        shape_of(%p065, dtype="int32") /* ty=Tensor[(2), int32] */
      };
      let %x159: Tensor[(2), int32] = %x158(%x155) /* ty=Tensor[(2), int32] */;
      let %x160: fn (Tensor[(2), bool], Tensor[(2), int32], Tensor[(2), int32]) -> Tensor[(2), int32] = fn (%p066: Tensor[(2), bool], %p136: Tensor[(2), int32], %p219: Tensor[(2), int32], Primitive=1) -> Tensor[(2), int32] {
        %73 = cast_like(%p219, %p136) /* ty=Tensor[(2), int32] */;
        %74 = add(%p136, %73) /* ty=Tensor[(2), int32] */;
        where(%p066, %74, %p136) /* ty=Tensor[(2), int32] */
      };
      let %x161: Tensor[(2), int32] = %x160(%x156, %x157, %x159) /* ty=Tensor[(2), int32] */;
      let %x162: fn (Tensor[(2), int32], Tensor[(1), int32], Tensor[(1), int32]) -> Tensor[(2), int32] = fn (%p067: Tensor[(2), int32], %p137: Tensor[(1), int32], %p220: Tensor[(1), int32], Primitive=1) -> Tensor[(2), int32] {
        scatter(%p067, %p137, %p220, meta[relay.attrs.ScatterAttrs][3]) /* ty=Tensor[(2), int32] */
      };
      let %x163: Tensor[(2), int32] = %x162(%x159, %x1, %x111);
      let %x164: fn (Tensor[(2), int32]) -> Tensor[(2), int64] = fn (%p068: Tensor[(2), int32], Primitive=1) -> Tensor[(2), int64] {
        cast(%p068, dtype="int64") /* ty=Tensor[(2), int64] */
      };
      let %x165: Tensor[(2), int64] = %x164(%x163) /* ty=Tensor[(2), int64] */;
      let %x166: Tensor[(2), int32] = meta[relay.Constant][17] /* ty=Tensor[(2), int32] */;
      let %x167: fn (Tensor[(?, ?), float32], Tensor[(2), int32], Tensor[(2), int64], Tensor[(2), int32]) -> Tensor[(?, ?), float32] = fn (%p069: Tensor[(?, ?), float32], %p138: Tensor[(2), int32], %p221: Tensor[(2), int64], %p37: Tensor[(2), int32], Primitive=1) -> Tensor[(?, ?), float32] {
        dyn.strided_slice(%p069, %p138, %p221, %p37, begin=None, end=None, strides=None) /* ty=Tensor[(?, ?), float32] */
      };
      let %x168: Tensor[(?, ?), float32] = %x167(%x155, %x161, %x165, %x166) /* ty=Tensor[(?, ?), float32] */;
      let %x169: fn (Tensor[(?, ?, ?), float32], Tensor[(?, ?), float32]) -> Tensor[(?, ?, ?), float32] = fn (%p070: Tensor[(?, ?, ?), float32], %p139: Tensor[(?, ?), float32], Primitive=1) -> Tensor[(?, ?, ?), float32] {
        %75 = expand_dims(%p139, axis=0) /* ty=Tensor[(1, ?, ?), float32] */;
        %76 = (%p070, %75);
        concatenate(%76) /* ty=Tensor[(?, ?, ?), float32] */
      };
      let %x170: Tensor[(?, ?, ?), float32] = %x169(%res_append.6, %x168) /* ty=Tensor[(?, ?, ?), float32] */;
      %77 = @lifted_name12992284627567120431(%x, %x1);
      let %x171: (int32, Tensor[(?, ?, ?), float32], Tensor[(?, 4), int64], Tensor[(?, 1, ?, ?), float32]) = %77(%x8, %x170, %v7394, %v7286);
      %x171
    } else {
      let %x172: (int32, Tensor[(?, ?, ?), float32], Tensor[(?, 4), int64], Tensor[(?, 1, ?, ?), float32]) = (%i.1, %res_append.6, %v7394, %v7286);
      %x172
    };
    %x6
  }
}
