File test_street_small.jpg exists, skip.
type tensor_int64_t {
  tensor_nil_int64,
  tensor0_int64(int64),
  tensor1_int64(Tensor[(?), int64]),
  tensor2_int64(Tensor[(?, ?), int64]),
  tensor3_int64(Tensor[(?, ?, ?), int64]),
  tensor4_int64(Tensor[(?, ?, ?, ?), int64]),
  tensor5_int64(Tensor[(?, ?, ?, ?, ?), int64]),
  tensor6_int64(Tensor[(?, ?, ?, ?, ?, ?), int64]),
}

type tensor_int8_t {
  tensor_nil_int8,
  tensor0_int8(int8),
  tensor1_int8(Tensor[(?), int8]),
  tensor2_int8(Tensor[(?, ?), int8]),
  tensor3_int8(Tensor[(?, ?, ?), int8]),
  tensor4_int8(Tensor[(?, ?, ?, ?), int8]),
  tensor5_int8(Tensor[(?, ?, ?, ?, ?), int8]),
  tensor6_int8(Tensor[(?, ?, ?, ?, ?, ?), int8]),
}

type tensor_int16_t {
  tensor_nil_int16,
  tensor0_int16(int16),
  tensor1_int16(Tensor[(?), int16]),
  tensor2_int16(Tensor[(?, ?), int16]),
  tensor3_int16(Tensor[(?, ?, ?), int16]),
  tensor4_int16(Tensor[(?, ?, ?, ?), int16]),
  tensor5_int16(Tensor[(?, ?, ?, ?, ?), int16]),
  tensor6_int16(Tensor[(?, ?, ?, ?, ?, ?), int16]),
}

type tensor_uint8_t {
  tensor_nil_uint8,
  tensor0_uint8(uint8),
  tensor1_uint8(Tensor[(?), uint8]),
  tensor2_uint8(Tensor[(?, ?), uint8]),
  tensor3_uint8(Tensor[(?, ?, ?), uint8]),
  tensor4_uint8(Tensor[(?, ?, ?, ?), uint8]),
  tensor5_uint8(Tensor[(?, ?, ?, ?, ?), uint8]),
  tensor6_uint8(Tensor[(?, ?, ?, ?, ?, ?), uint8]),
}

type tensor_uint16_t {
  tensor_nil_uint16,
  tensor0_uint16(uint16),
  tensor1_uint16(Tensor[(?), uint16]),
  tensor2_uint16(Tensor[(?, ?), uint16]),
  tensor3_uint16(Tensor[(?, ?, ?), uint16]),
  tensor4_uint16(Tensor[(?, ?, ?, ?), uint16]),
  tensor5_uint16(Tensor[(?, ?, ?, ?, ?), uint16]),
  tensor6_uint16(Tensor[(?, ?, ?, ?, ?, ?), uint16]),
}

type tensor_float64_t {
  tensor_nil_float64,
  tensor0_float64(float64),
  tensor1_float64(Tensor[(?), float64]),
  tensor2_float64(Tensor[(?, ?), float64]),
  tensor3_float64(Tensor[(?, ?, ?), float64]),
  tensor4_float64(Tensor[(?, ?, ?, ?), float64]),
  tensor5_float64(Tensor[(?, ?, ?, ?, ?), float64]),
  tensor6_float64(Tensor[(?, ?, ?, ?, ?, ?), float64]),
}

type tensor_int32_t {
  tensor_nil_int32,
  tensor0_int32(int32),
  tensor1_int32(Tensor[(?), int32]),
  tensor2_int32(Tensor[(?, ?), int32]),
  tensor3_int32(Tensor[(?, ?, ?), int32]),
  tensor4_int32(Tensor[(?, ?, ?, ?), int32]),
  tensor5_int32(Tensor[(?, ?, ?, ?, ?), int32]),
  tensor6_int32(Tensor[(?, ?, ?, ?, ?, ?), int32]),
}

type Storage {
  
}

type Tree[A] {
  Rose(A, List[Tree[A]]),
}

type tensor_float16_t {
  tensor_nil_float16,
  tensor0_float16(float16),
  tensor1_float16(Tensor[(?), float16]),
  tensor2_float16(Tensor[(?, ?), float16]),
  tensor3_float16(Tensor[(?, ?, ?), float16]),
  tensor4_float16(Tensor[(?, ?, ?, ?), float16]),
  tensor5_float16(Tensor[(?, ?, ?, ?, ?), float16]),
  tensor6_float16(Tensor[(?, ?, ?, ?, ?, ?), float16]),
}

type tensor_float32_t {
  tensor_nil_float32,
  tensor0_float32(float32),
  tensor1_float32(Tensor[(?), float32]),
  tensor2_float32(Tensor[(?, ?), float32]),
  tensor3_float32(Tensor[(?, ?, ?), float32]),
  tensor4_float32(Tensor[(?, ?, ?, ?), float32]),
  tensor5_float32(Tensor[(?, ?, ?, ?, ?), float32]),
  tensor6_float32(Tensor[(?, ?, ?, ?, ?, ?), float32]),
}

type Option[A] {
  Some(A),
  None,
}

type List[A] {
  Cons(A, List[A]),
  Nil,
}

def @main(%input0: Tensor[(1, 3, 300, 300), float32]) -> (Tensor[(?, 4), float32], Tensor[(?), float32], Tensor[(?), int64], Tensor[(?, 1, ?, ?), float32]) {
  let %x: (Tensor[(?, 4), float32], Tensor[(?), float32], Tensor[(?), int64], Tensor[(?, 1, ?, ?), float32]) = let %storage_0: Storage[] = memory.alloc_storage(7680000 /* ty=int64 */, 64 /* ty=int64 */, meta[relay.attrs.AllocStorageAttrs][0]) /* ty=Storage[] */;
  let %tensor_0: Tensor[(1, 800, 800, 3), float32] = memory.alloc_tensor(%storage_0, 0 /* ty=int64 */, meta[relay.Constant][0] /* ty=Tensor[(4), int64] */, meta[relay.attrs.AllocTensorAttrs][0]) /* ty=Tensor[(1, 800, 800, 3), float32] */;
  %11 = fn (%p0: Tensor[(1, 3, 300, 300), float32], %p1: Tensor[(3, 1, 1), float32], %p2: Tensor[(3, 1, 1), float32], Primitive=1) -> Tensor[(1, 800, 800, 3), float32] {
    %0 = split(%p0, indices_or_sections=1) /* ty=(Tensor[(1, 3, 300, 300), float32],) */;
    %1 = %0.0;
    %2 = squeeze(%1, axis=[0]) /* ty=Tensor[(3, 300, 300), float32] */;
    %3 = subtract(%2, %p1) /* ty=Tensor[(3, 300, 300), float32] */;
    %4 = divide(%3, %p2) /* ty=Tensor[(3, 300, 300), float32] */;
    %5 = expand_dims(%4, axis=0) /* ty=Tensor[(1, 3, 300, 300), float32] */;
    %6 = image.resize(%5, size=[800, 800]) /* ty=Tensor[(1, 3, 800, 800), float32] */;
    %7 = take(%6, 0 /* ty=int32 */, axis=0, mode="wrap") /* ty=Tensor[(3, 800, 800), float32] */;
    %8 = nn.pad(%7, pad_width=[[0, 0], [0, 0], [0, 0]]) /* ty=Tensor[(3, 800, 800), float32] */;
    %9 = (%8,);
    %10 = stack(%9) /* ty=Tensor[(1, 3, 800, 800), float32] */;
    layout_transform(%10, src_layout="NCHW", dst_layout="NHWC") /* ty=Tensor[(1, 800, 800, 3), float32] */
  };
  %12 = (%input0, meta[relay.Constant][1] /* ty=Tensor[(3, 1, 1), float32] */, meta[relay.Constant][2] /* ty=Tensor[(3, 1, 1), float32] */);
  %13 = (%tensor_0,);
  let %x1: () = vm.invoke_tvm_op(%11, %12, %13) /* ty=() */;
  let %x2: Tensor[(1, 800, 800, 3), float32] = %tensor_0;
  let %storage_01: Storage[] = memory.alloc_storage(40960000 /* ty=int64 */, 64 /* ty=int64 */, meta[relay.attrs.AllocStorageAttrs][1]) /* ty=Storage[] */;
  let %tensor_01: Tensor[(1, 400, 400, 64), float32] = memory.alloc_tensor(%storage_01, 0 /* ty=int64 */, meta[relay.Constant][3] /* ty=Tensor[(4), int64] */, meta[relay.attrs.AllocTensorAttrs][1]) /* ty=Tensor[(1, 400, 400, 64), float32] */;
  %16 = fn (%p01: Tensor[(1, 800, 800, 3), float32], %p11: Tensor[(7, 7, 3, 64), float32], %p21: Tensor[(1, 1, 1, 64), float32], Primitive=1) -> Tensor[(1, 400, 400, 64), float32] {
    %14 = nn.conv2d(%p01, %p11, strides=[2, 2], padding=[3, 3, 3, 3], channels=64, kernel_size=[7, 7], data_layout="NHWC", kernel_layout="HWIO") /* ty=Tensor[(1, 400, 400, 64), float32] */;
    %15 = add(%14, %p21) /* ty=Tensor[(1, 400, 400, 64), float32] */;
    nn.relu(%15) /* ty=Tensor[(1, 400, 400, 64), float32] */
  };
  %17 = (%x2, meta[relay.Constant][4] /* ty=Tensor[(7, 7, 3, 64), float32] */, meta[relay.Constant][5] /* ty=Tensor[(1, 1, 1, 64), float32] */);
  %18 = (%tensor_01,);
  let %x3: () = vm.invoke_tvm_op(%16, %17, %18) /* ty=() */;
  let %x4: Tensor[(1, 400, 400, 64), float32] = %tensor_01;
  let %storage_02: Storage[] = memory.alloc_storage(10240000 /* ty=int64 */, 64 /* ty=int64 */, meta[relay.attrs.AllocStorageAttrs][2]) /* ty=Storage[] */;
  let %tensor_02: Tensor[(1, 200, 200, 64), float32] = memory.alloc_tensor(%storage_02, 0 /* ty=int64 */, meta[relay.Constant][6] /* ty=Tensor[(4), int64] */, meta[relay.attrs.AllocTensorAttrs][2]) /* ty=Tensor[(1, 200, 200, 64), float32] */;
  %19 = fn (%p02: Tensor[(1, 400, 400, 64), float32], Primitive=1) -> Tensor[(1, 200, 200, 64), float32] {
    nn.max_pool2d(%p02, pool_size=[3, 3], strides=[2, 2], padding=[1, 1, 1, 1], layout="NHWC") /* ty=Tensor[(1, 200, 200, 64), float32] */
  };
  %20 = (%x4,);
  %21 = (%tensor_02,);
  let %x5: () = vm.invoke_tvm_op(%19, %20, %21) /* ty=() */;
  let %x6: Tensor[(1, 200, 200, 64), float32] = %tensor_02;
  let %storage_03: Storage[] = memory.alloc_storage(10240000 /* ty=int64 */, 64 /* ty=int64 */, meta[relay.attrs.AllocStorageAttrs][3]) /* ty=Storage[] */;
  let %tensor_03: Tensor[(1, 200, 200, 64), float32] = memory.alloc_tensor(%storage_03, 0 /* ty=int64 */, meta[relay.Constant][7] /* ty=Tensor[(4), int64] */, meta[relay.attrs.AllocTensorAttrs][3]) /* ty=Tensor[(1, 200, 200, 64), float32] */;
  %24 = fn (%p03: Tensor[(1, 200, 200, 64), float32], %p12: Tensor[(1, 1, 64, 64), float32], %p22: Tensor[(1, 1, 1, 64), float32], Primitive=1) -> Tensor[(1, 200, 200, 64), float32] {
    %22 = nn.conv2d(%p03, %p12, padding=[0, 0, 0, 0], channels=64, kernel_size=[1, 1], data_layout="NHWC", kernel_layout="HWIO") /* ty=Tensor[(1, 200, 200, 64), float32] */;
    %23 = add(%22, %p22) /* ty=Tensor[(1, 200, 200, 64), float32] */;
    nn.relu(%23) /* ty=Tensor[(1, 200, 200, 64), float32] */
  };
  %25 = (%x6, meta[relay.Constant][8] /* ty=Tensor[(1, 1, 64, 64), float32] */, meta[relay.Constant][9] /* ty=Tensor[(1, 1, 1, 64), float32] */);
  %26 = (%tensor_03,);
  let %x7: () = vm.invoke_tvm_op(%24, %25, %26) /* ty=() */;
  let %x8: Tensor[(1, 200, 200, 64), float32] = %tensor_03;
  let %storage_04: Storage[] = memory.alloc_storage(10240000 /* ty=int64 */, 64 /* ty=int64 */, meta[relay.attrs.AllocStorageAttrs][4]) /* ty=Storage[] */;
  let %tensor_04: Tensor[(1, 200, 200, 64), float32] = memory.alloc_tensor(%storage_04, 0 /* ty=int64 */, meta[relay.Constant][10] /* ty=Tensor[(4), int64] */, meta[relay.attrs.AllocTensorAttrs][4]) /* ty=Tensor[(1, 200, 200, 64), float32] */;
  %29 = fn (%p04: Tensor[(1, 200, 200, 64), float32], %p13: Tensor[(3, 3, 64, 64), float32], %p23: Tensor[(1, 1, 1, 64), float32], Primitive=1) -> Tensor[(1, 200, 200, 64), float32] {
    %27 = nn.conv2d(%p04, %p13, padding=[1, 1, 1, 1], channels=64, kernel_size=[3, 3], data_layout="NHWC", kernel_layout="HWIO") /* ty=Tensor[(1, 200, 200, 64), float32] */;
    %28 = add(%27, %p23) /* ty=Tensor[(1, 200, 200, 64), float32] */;
    nn.relu(%28) /* ty=Tensor[(1, 200, 200, 64), float32] */
  };
  %30 = (%x8, meta[relay.Constant][11] /* ty=Tensor[(3, 3, 64, 64), float32] */, meta[relay.Constant][12] /* ty=Tensor[(1, 1, 1, 64), float32] */);
  %31 = (%tensor_04,);
  let %x9: () = vm.invoke_tvm_op(%29, %30, %31) /* ty=() */;
  let %x10: Tensor[(1, 200, 200, 64), float32] = %tensor_04;
  let %storage_05: Storage[] = memory.alloc_storage(40960000 /* ty=int64 */, 64 /* ty=int64 */, meta[relay.attrs.AllocStorageAttrs][5]) /* ty=Storage[] */;
  let %tensor_05: Tensor[(1, 200, 200, 256), float32] = memory.alloc_tensor(%storage_05, 0 /* ty=int64 */, meta[relay.Constant][13] /* ty=Tensor[(4), int64] */, meta[relay.attrs.AllocTensorAttrs][5]) /* ty=Tensor[(1, 200, 200, 256), float32] */;
  %33 = fn (%p05: Tensor[(1, 200, 200, 64), float32], %p14: Tensor[(1, 1, 64, 256), float32], %p24: Tensor[(1, 1, 1, 256), float32], Primitive=1) -> Tensor[(1, 200, 200, 256), float32] {
    %32 = nn.conv2d(%p05, %p14, padding=[0, 0, 0, 0], channels=256, kernel_size=[1, 1], data_layout="NHWC", kernel_layout="HWIO") /* ty=Tensor[(1, 200, 200, 256), float32] */;
    add(%32, %p24) /* ty=Tensor[(1, 200, 200, 256), float32] */
  };
  %34 = (%x6, meta[relay.Constant][14] /* ty=Tensor[(1, 1, 64, 256), float32] */, meta[relay.Constant][15] /* ty=Tensor[(1, 1, 1, 256), float32] */);
  %35 = (%tensor_05,);
  let %x11: () = vm.invoke_tvm_op(%33, %34, %35) /* ty=() */;
  let %x12: Tensor[(1, 200, 200, 256), float32] = %tensor_05;
  let %storage_06: Storage[] = memory.alloc_storage(40960000 /* ty=int64 */, 64 /* ty=int64 */, meta[relay.attrs.AllocStorageAttrs][6]) /* ty=Storage[] */;
  let %tensor_06: Tensor[(1, 200, 200, 256), float32] = memory.alloc_tensor(%storage_06, 0 /* ty=int64 */, meta[relay.Constant][16] /* ty=Tensor[(4), int64] */, meta[relay.attrs.AllocTensorAttrs][6]) /* ty=Tensor[(1, 200, 200, 256), float32] */;
  %39 = fn (%p06: Tensor[(1, 200, 200, 64), float32], %p15: Tensor[(1, 1, 64, 256), float32], %p25: Tensor[(1, 1, 1, 256), float32], %p3: Tensor[(1, 200, 200, 256), float32], Primitive=1) -> Tensor[(1, 200, 200, 256), float32] {
    %36 = nn.conv2d(%p06, %p15, padding=[0, 0, 0, 0], channels=256, kernel_size=[1, 1], data_layout="NHWC", kernel_layout="HWIO") /* ty=Tensor[(1, 200, 200, 256), float32] */;
    %37 = add(%36, %p25) /* ty=Tensor[(1, 200, 200, 256), float32] */;
    %38 = add(%37, %p3) /* ty=Tensor[(1, 200, 200, 256), float32] */;
    nn.relu(%38) /* ty=Tensor[(1, 200, 200, 256), float32] */
  };
  %40 = (%x10, meta[relay.Constant][17] /* ty=Tensor[(1, 1, 64, 256), float32] */, meta[relay.Constant][18] /* ty=Tensor[(1, 1, 1, 256), float32] */, %x12);
  %41 = (%tensor_06,);
  let %x13: () = vm.invoke_tvm_op(%39, %40, %41) /* ty=() */;
  let %x14: Tensor[(1, 200, 200, 256), float32] = %tensor_06;
  let %storage_07: Storage[] = memory.alloc_storage(10240000 /* ty=int64 */, 64 /* ty=int64 */, meta[relay.attrs.AllocStorageAttrs][7]) /* ty=Storage[] */;
  let %tensor_07: Tensor[(1, 200, 200, 64), float32] = memory.alloc_tensor(%storage_07, 0 /* ty=int64 */, meta[relay.Constant][19] /* ty=Tensor[(4), int64] */, meta[relay.attrs.AllocTensorAttrs][7]) /* ty=Tensor[(1, 200, 200, 64), float32] */;
  %44 = fn (%p07: Tensor[(1, 200, 200, 256), float32], %p16: Tensor[(1, 1, 256, 64), float32], %p26: Tensor[(1, 1, 1, 64), float32], Primitive=1) -> Tensor[(1, 200, 200, 64), float32] {
    %42 = nn.conv2d(%p07, %p16, padding=[0, 0, 0, 0], channels=64, kernel_size=[1, 1], data_layout="NHWC", kernel_layout="HWIO") /* ty=Tensor[(1, 200, 200, 64), float32] */;
    %43 = add(%42, %p26) /* ty=Tensor[(1, 200, 200, 64), float32] */;
    nn.relu(%43) /* ty=Tensor[(1, 200, 200, 64), float32] */
  };
  %45 = (%x14, meta[relay.Constant][20] /* ty=Tensor[(1, 1, 256, 64), float32] */, meta[relay.Constant][21] /* ty=Tensor[(1, 1, 1, 64), float32] */);
  %46 = (%tensor_07,);
  let %x15: () = vm.invoke_tvm_op(%44, %45, %46) /* ty=() */;
  let %x16: Tensor[(1, 200, 200, 64), float32] = %tensor_07;
  let %storage_08: Storage[] = memory.alloc_storage(10240000 /* ty=int64 */, 64 /* ty=int64 */, meta[relay.attrs.AllocStorageAttrs][8]) /* ty=Storage[] */;
  let %tensor_08: Tensor[(1, 200, 200, 64), float32] = memory.alloc_tensor(%storage_08, 0 /* ty=int64 */, meta[relay.Constant][22] /* ty=Tensor[(4), int64] */, meta[relay.attrs.AllocTensorAttrs][8]) /* ty=Tensor[(1, 200, 200, 64), float32] */;
  %49 = fn (%p08: Tensor[(1, 200, 200, 64), float32], %p17: Tensor[(3, 3, 64, 64), float32], %p27: Tensor[(1, 1, 1, 64), float32], Primitive=1) -> Tensor[(1, 200, 200, 64), float32] {
    %47 = nn.conv2d(%p08, %p17, padding=[1, 1, 1, 1], channels=64, kernel_size=[3, 3], data_layout="NHWC", kernel_layout="HWIO") /* ty=Tensor[(1, 200, 200, 64), float32] */;
    %48 = add(%47, %p27) /* ty=Tensor[(1, 200, 200, 64), float32] */;
    nn.relu(%48) /* ty=Tensor[(1, 200, 200, 64), float32] */
  };
  %50 = (%x16, meta[relay.Constant][23] /* ty=Tensor[(3, 3, 64, 64), float32] */, meta[relay.Constant][24] /* ty=Tensor[(1, 1, 1, 64), float32] */);
  %51 = (%tensor_08,);
  let %x17: () = vm.invoke_tvm_op(%49, %50, %51) /* ty=() */;
  let %x18: Tensor[(1, 200, 200, 64), float32] = %tensor_08;
  let %storage_09: Storage[] = memory.alloc_storage(40960000 /* ty=int64 */, 64 /* ty=int64 */, meta[relay.attrs.AllocStorageAttrs][9]) /* ty=Storage[] */;
  let %tensor_09: Tensor[(1, 200, 200, 256), float32] = memory.alloc_tensor(%storage_09, 0 /* ty=int64 */, meta[relay.Constant][25] /* ty=Tensor[(4), int64] */, meta[relay.attrs.AllocTensorAttrs][9]) /* ty=Tensor[(1, 200, 200, 256), float32] */;
  %55 = fn (%p09: Tensor[(1, 200, 200, 64), float32], %p18: Tensor[(1, 1, 64, 256), float32], %p28: Tensor[(1, 1, 1, 256), float32], %p31: Tensor[(1, 200, 200, 256), float32], Primitive=1) -> Tensor[(1, 200, 200, 256), float32] {
    %52 = nn.conv2d(%p09, %p18, padding=[0, 0, 0, 0], channels=256, kernel_size=[1, 1], data_layout="NHWC", kernel_layout="HWIO") /* ty=Tensor[(1, 200, 200, 256), float32] */;
    %53 = add(%52, %p28) /* ty=Tensor[(1, 200, 200, 256), float32] */;
    %54 = add(%53, %p31) /* ty=Tensor[(1, 200, 200, 256), float32] */;
    nn.relu(%54) /* ty=Tensor[(1, 200, 200, 256), float32] */
  };
  %56 = (%x18, meta[relay.Constant][26] /* ty=Tensor[(1, 1, 64, 256), float32] */, meta[relay.Constant][27] /* ty=Tensor[(1, 1, 1, 256), float32] */, %x14);
  %57 = (%tensor_09,);
  let %x19: () = vm.invoke_tvm_op(%55, %56, %57) /* ty=() */;
  let %x20: Tensor[(1, 200, 200, 256), float32] = %tensor_09;
  let %storage_010: Storage[] = memory.alloc_storage(10240000 /* ty=int64 */, 64 /* ty=int64 */, meta[relay.attrs.AllocStorageAttrs][10]) /* ty=Storage[] */;
  let %tensor_010: Tensor[(1, 200, 200, 64), float32] = memory.alloc_tensor(%storage_010, 0 /* ty=int64 */, meta[relay.Constant][28] /* ty=Tensor[(4), int64] */, meta[relay.attrs.AllocTensorAttrs][10]) /* ty=Tensor[(1, 200, 200, 64), float32] */;
  %60 = fn (%p010: Tensor[(1, 200, 200, 256), float32], %p19: Tensor[(1, 1, 256, 64), float32], %p29: Tensor[(1, 1, 1, 64), float32], Primitive=1) -> Tensor[(1, 200, 200, 64), float32] {
    %58 = nn.conv2d(%p010, %p19, padding=[0, 0, 0, 0], channels=64, kernel_size=[1, 1], data_layout="NHWC", kernel_layout="HWIO") /* ty=Tensor[(1, 200, 200, 64), float32] */;
    %59 = add(%58, %p29) /* ty=Tensor[(1, 200, 200, 64), float32] */;
    nn.relu(%59) /* ty=Tensor[(1, 200, 200, 64), float32] */
  };
  %61 = (%x20, meta[relay.Constant][29] /* ty=Tensor[(1, 1, 256, 64), float32] */, meta[relay.Constant][30] /* ty=Tensor[(1, 1, 1, 64), float32] */);
  %62 = (%tensor_010,);
  let %x21: () = vm.invoke_tvm_op(%60, %61, %62) /* ty=() */;
  let %x22: Tensor[(1, 200, 200, 64), float32] = %tensor_010;
  let %storage_011: Storage[] = memory.alloc_storage(10240000 /* ty=int64 */, 64 /* ty=int64 */, meta[relay.attrs.AllocStorageAttrs][11]) /* ty=Storage[] */;
  let %tensor_011: Tensor[(1, 200, 200, 64), float32] = memory.alloc_tensor(%storage_011, 0 /* ty=int64 */, meta[relay.Constant][31] /* ty=Tensor[(4), int64] */, meta[relay.attrs.AllocTensorAttrs][11]) /* ty=Tensor[(1, 200, 200, 64), float32] */;
  %65 = fn (%p011: Tensor[(1, 200, 200, 64), float32], %p110: Tensor[(3, 3, 64, 64), float32], %p210: Tensor[(1, 1, 1, 64), float32], Primitive=1) -> Tensor[(1, 200, 200, 64), float32] {
    %63 = nn.conv2d(%p011, %p110, padding=[1, 1, 1, 1], channels=64, kernel_size=[3, 3], data_layout="NHWC", kernel_layout="HWIO") /* ty=Tensor[(1, 200, 200, 64), float32] */;
    %64 = add(%63, %p210) /* ty=Tensor[(1, 200, 200, 64), float32] */;
    nn.relu(%64) /* ty=Tensor[(1, 200, 200, 64), float32] */
  };
  %66 = (%x22, meta[relay.Constant][32] /* ty=Tensor[(3, 3, 64, 64), float32] */, meta[relay.Constant][33] /* ty=Tensor[(1, 1, 1, 64), float32] */);
  %67 = (%tensor_011,);
  let %x23: () = vm.invoke_tvm_op(%65, %66, %67) /* ty=() */;
  let %x24: Tensor[(1, 200, 200, 64), float32] = %tensor_011;
  let %storage_012: Storage[] = memory.alloc_storage(40960000 /* ty=int64 */, 64 /* ty=int64 */, meta[relay.attrs.AllocStorageAttrs][12]) /* ty=Storage[] */;
  let %tensor_012: Tensor[(1, 200, 200, 256), float32] = memory.alloc_tensor(%storage_012, 0 /* ty=int64 */, meta[relay.Constant][34] /* ty=Tensor[(4), int64] */, meta[relay.attrs.AllocTensorAttrs][12]) /* ty=Tensor[(1, 200, 200, 256), float32] */;
  %71 = fn (%p012: Tensor[(1, 200, 200, 64), float32], %p111: Tensor[(1, 1, 64, 256), float32], %p211: Tensor[(1, 1, 1, 256), float32], %p32: Tensor[(1, 200, 200, 256), float32], Primitive=1) -> Tensor[(1, 200, 200, 256), float32] {
    %68 = nn.conv2d(%p012, %p111, padding=[0, 0, 0, 0], channels=256, kernel_size=[1, 1], data_layout="NHWC", kernel_layout="HWIO") /* ty=Tensor[(1, 200, 200, 256), float32] */;
    %69 = add(%68, %p211) /* ty=Tensor[(1, 200, 200, 256), float32] */;
    %70 = add(%69, %p32) /* ty=Tensor[(1, 200, 200, 256), float32] */;
    nn.relu(%70) /* ty=Tensor[(1, 200, 200, 256), float32] */
  };
  %72 = (%x24, meta[relay.Constant][35] /* ty=Tensor[(1, 1, 64, 256), float32] */, meta[relay.Constant][36] /* ty=Tensor[(1, 1, 1, 256), float32] */, %x20);
  %73 = (%tensor_012,);
  let %x25: () = vm.invoke_tvm_op(%71, %72, %73) /* ty=() */;
  let %x26: Tensor[(1, 200, 200, 256), float32] = %tensor_012;
  let %storage_013: Storage[] = memory.alloc_storage(20480000 /* ty=int64 */, 64 /* ty=int64 */, meta[relay.attrs.AllocStorageAttrs][13]) /* ty=Storage[] */;
  let %tensor_013: Tensor[(1, 200, 200, 128), float32] = memory.alloc_tensor(%storage_013, 0 /* ty=int64 */, meta[relay.Constant][37] /* ty=Tensor[(4), int64] */, meta[relay.attrs.AllocTensorAttrs][13]) /* ty=Tensor[(1, 200, 200, 128), float32] */;
  %76 = fn (%p013: Tensor[(1, 200, 200, 256), float32], %p112: Tensor[(1, 1, 256, 128), float32], %p212: Tensor[(1, 1, 1, 128), float32], Primitive=1) -> Tensor[(1, 200, 200, 128), float32] {
    %74 = nn.conv2d(%p013, %p112, padding=[0, 0, 0, 0], channels=128, kernel_size=[1, 1], data_layout="NHWC", kernel_layout="HWIO") /* ty=Tensor[(1, 200, 200, 128), float32] */;
    %75 = add(%74, %p212) /* ty=Tensor[(1, 200, 200, 128), float32] */;
    nn.relu(%75) /* ty=Tensor[(1, 200, 200, 128), float32] */
  };
  %77 = (%x26, meta[relay.Constant][38] /* ty=Tensor[(1, 1, 256, 128), float32] */, meta[relay.Constant][39] /* ty=Tensor[(1, 1, 1, 128), float32] */);
  %78 = (%tensor_013,);
  let %x27: () = vm.invoke_tvm_op(%76, %77, %78) /* ty=() */;
  let %x28: Tensor[(1, 200, 200, 128), float32] = %tensor_013;
  let %storage_014: Storage[] = memory.alloc_storage(5120000 /* ty=int64 */, 64 /* ty=int64 */, meta[relay.attrs.AllocStorageAttrs][14]) /* ty=Storage[] */;
  let %tensor_014: Tensor[(1, 100, 100, 128), float32] = memory.alloc_tensor(%storage_014, 0 /* ty=int64 */, meta[relay.Constant][40] /* ty=Tensor[(4), int64] */, meta[relay.attrs.AllocTensorAttrs][14]) /* ty=Tensor[(1, 100, 100, 128), float32] */;
  %81 = fn (%p014: Tensor[(1, 200, 200, 128), float32], %p113: Tensor[(3, 3, 128, 128), float32], %p213: Tensor[(1, 1, 1, 128), float32], Primitive=1) -> Tensor[(1, 100, 100, 128), float32] {
    %79 = nn.conv2d(%p014, %p113, strides=[2, 2], padding=[1, 1, 1, 1], channels=128, kernel_size=[3, 3], data_layout="NHWC", kernel_layout="HWIO") /* ty=Tensor[(1, 100, 100, 128), float32] */;
    %80 = add(%79, %p213) /* ty=Tensor[(1, 100, 100, 128), float32] */;
    nn.relu(%80) /* ty=Tensor[(1, 100, 100, 128), float32] */
  };
  %82 = (%x28, meta[relay.Constant][41] /* ty=Tensor[(3, 3, 128, 128), float32] */, meta[relay.Constant][42] /* ty=Tensor[(1, 1, 1, 128), float32] */);
  %83 = (%tensor_014,);
  let %x29: () = vm.invoke_tvm_op(%81, %82, %83) /* ty=() */;
  let %x30: Tensor[(1, 100, 100, 128), float32] = %tensor_014;
  let %storage_015: Storage[] = memory.alloc_storage(20480000 /* ty=int64 */, 64 /* ty=int64 */, meta[relay.attrs.AllocStorageAttrs][15]) /* ty=Storage[] */;
  let %tensor_015: Tensor[(1, 100, 100, 512), float32] = memory.alloc_tensor(%storage_015, 0 /* ty=int64 */, meta[relay.Constant][43] /* ty=Tensor[(4), int64] */, meta[relay.attrs.AllocTensorAttrs][15]) /* ty=Tensor[(1, 100, 100, 512), float32] */;
  %85 = fn (%p015: Tensor[(1, 200, 200, 256), float32], %p114: Tensor[(1, 1, 256, 512), float32], %p214: Tensor[(1, 1, 1, 512), float32], Primitive=1) -> Tensor[(1, 100, 100, 512), float32] {
    %84 = nn.conv2d(%p015, %p114, strides=[2, 2], padding=[0, 0, 0, 0], channels=512, kernel_size=[1, 1], data_layout="NHWC", kernel_layout="HWIO") /* ty=Tensor[(1, 100, 100, 512), float32] */;
    add(%84, %p214) /* ty=Tensor[(1, 100, 100, 512), float32] */
  };
  %86 = (%x26, meta[relay.Constant][44] /* ty=Tensor[(1, 1, 256, 512), float32] */, meta[relay.Constant][45] /* ty=Tensor[(1, 1, 1, 512), float32] */);
  %87 = (%tensor_015,);
  let %x31: () = vm.invoke_tvm_op(%85, %86, %87) /* ty=() */;
  let %x32: Tensor[(1, 100, 100, 512), float32] = %tensor_015;
  let %storage_016: Storage[] = memory.alloc_storage(20480000 /* ty=int64 */, 64 /* ty=int64 */, meta[relay.attrs.AllocStorageAttrs][16]) /* ty=Storage[] */;
  let %tensor_016: Tensor[(1, 100, 100, 512), float32] = memory.alloc_tensor(%storage_016, 0 /* ty=int64 */, meta[relay.Constant][46] /* ty=Tensor[(4), int64] */, meta[relay.attrs.AllocTensorAttrs][16]) /* ty=Tensor[(1, 100, 100, 512), float32] */;
  %91 = fn (%p016: Tensor[(1, 100, 100, 128), float32], %p115: Tensor[(1, 1, 128, 512), float32], %p215: Tensor[(1, 1, 1, 512), float32], %p33: Tensor[(1, 100, 100, 512), float32], Primitive=1) -> Tensor[(1, 100, 100, 512), float32] {
    %88 = nn.conv2d(%p016, %p115, padding=[0, 0, 0, 0], channels=512, kernel_size=[1, 1], data_layout="NHWC", kernel_layout="HWIO") /* ty=Tensor[(1, 100, 100, 512), float32] */;
    %89 = add(%88, %p215) /* ty=Tensor[(1, 100, 100, 512), float32] */;
    %90 = add(%89, %p33) /* ty=Tensor[(1, 100, 100, 512), float32] */;
    nn.relu(%90) /* ty=Tensor[(1, 100, 100, 512), float32] */
  };
  %92 = (%x30, meta[relay.Constant][47] /* ty=Tensor[(1, 1, 128, 512), float32] */, meta[relay.Constant][48] /* ty=Tensor[(1, 1, 1, 512), float32] */, %x32);
  %93 = (%tensor_016,);
  let %x33: () = vm.invoke_tvm_op(%91, %92, %93) /* ty=() */;
  let %x34: Tensor[(1, 100, 100, 512), float32] = %tensor_016;
  let %storage_017: Storage[] = memory.alloc_storage(5120000 /* ty=int64 */, 64 /* ty=int64 */, meta[relay.attrs.AllocStorageAttrs][17]) /* ty=Storage[] */;
  let %tensor_017: Tensor[(1, 100, 100, 128), float32] = memory.alloc_tensor(%storage_017, 0 /* ty=int64 */, meta[relay.Constant][49] /* ty=Tensor[(4), int64] */, meta[relay.attrs.AllocTensorAttrs][17]) /* ty=Tensor[(1, 100, 100, 128), float32] */;
  %96 = fn (%p017: Tensor[(1, 100, 100, 512), float32], %p116: Tensor[(1, 1, 512, 128), float32], %p216: Tensor[(1, 1, 1, 128), float32], Primitive=1) -> Tensor[(1, 100, 100, 128), float32] {
    %94 = nn.conv2d(%p017, %p116, padding=[0, 0, 0, 0], channels=128, kernel_size=[1, 1], data_layout="NHWC", kernel_layout="HWIO") /* ty=Tensor[(1, 100, 100, 128), float32] */;
    %95 = add(%94, %p216) /* ty=Tensor[(1, 100, 100, 128), float32] */;
    nn.relu(%95) /* ty=Tensor[(1, 100, 100, 128), float32] */
  };
  %97 = (%x34, meta[relay.Constant][50] /* ty=Tensor[(1, 1, 512, 128), float32] */, meta[relay.Constant][51] /* ty=Tensor[(1, 1, 1, 128), float32] */);
  %98 = (%tensor_017,);
  let %x35: () = vm.invoke_tvm_op(%96, %97, %98) /* ty=() */;
  let %x36: Tensor[(1, 100, 100, 128), float32] = %tensor_017;
  let %storage_018: Storage[] = memory.alloc_storage(5120000 /* ty=int64 */, 64 /* ty=int64 */, meta[relay.attrs.AllocStorageAttrs][18]) /* ty=Storage[] */;
  let %tensor_018: Tensor[(1, 100, 100, 128), float32] = memory.alloc_tensor(%storage_018, 0 /* ty=int64 */, meta[relay.Constant][52] /* ty=Tensor[(4), int64] */, meta[relay.attrs.AllocTensorAttrs][18]) /* ty=Tensor[(1, 100, 100, 128), float32] */;
  %101 = fn (%p018: Tensor[(1, 100, 100, 128), float32], %p117: Tensor[(3, 3, 128, 128), float32], %p217: Tensor[(1, 1, 1, 128), float32], Primitive=1) -> Tensor[(1, 100, 100, 128), float32] {
    %99 = nn.conv2d(%p018, %p117, padding=[1, 1, 1, 1], channels=128, kernel_size=[3, 3], data_layout="NHWC", kernel_layout="HWIO") /* ty=Tensor[(1, 100, 100, 128), float32] */;
    %100 = add(%99, %p217) /* ty=Tensor[(1, 100, 100, 128), float32] */;
    nn.relu(%100) /* ty=Tensor[(1, 100, 100, 128), float32] */
  };
  %102 = (%x36, meta[relay.Constant][53] /* ty=Tensor[(3, 3, 128, 128), float32] */, meta[relay.Constant][54] /* ty=Tensor[(1, 1, 1, 128), float32] */);
  %103 = (%tensor_018,);
  let %x37: () = vm.invoke_tvm_op(%101, %102, %103) /* ty=() */;
  let %x38: Tensor[(1, 100, 100, 128), float32] = %tensor_018;
  let %storage_019: Storage[] = memory.alloc_storage(20480000 /* ty=int64 */, 64 /* ty=int64 */, meta[relay.attrs.AllocStorageAttrs][19]) /* ty=Storage[] */;
  let %tensor_019: Tensor[(1, 100, 100, 512), float32] = memory.alloc_tensor(%storage_019, 0 /* ty=int64 */, meta[relay.Constant][55] /* ty=Tensor[(4), int64] */, meta[relay.attrs.AllocTensorAttrs][19]) /* ty=Tensor[(1, 100, 100, 512), float32] */;
  %107 = fn (%p019: Tensor[(1, 100, 100, 128), float32], %p118: Tensor[(1, 1, 128, 512), float32], %p218: Tensor[(1, 1, 1, 512), float32], %p34: Tensor[(1, 100, 100, 512), float32], Primitive=1) -> Tensor[(1, 100, 100, 512), float32] {
    %104 = nn.conv2d(%p019, %p118, padding=[0, 0, 0, 0], channels=512, kernel_size=[1, 1], data_layout="NHWC", kernel_layout="HWIO") /* ty=Tensor[(1, 100, 100, 512), float32] */;
    %105 = add(%104, %p218) /* ty=Tensor[(1, 100, 100, 512), float32] */;
    %106 = add(%105, %p34) /* ty=Tensor[(1, 100, 100, 512), float32] */;
    nn.relu(%106) /* ty=Tensor[(1, 100, 100, 512), float32] */
  };
  %108 = (%x38, meta[relay.Constant][56] /* ty=Tensor[(1, 1, 128, 512), float32] */, meta[relay.Constant][57] /* ty=Tensor[(1, 1, 1, 512), float32] */, %x34);
  %109 = (%tensor_019,);
  let %x39: () = vm.invoke_tvm_op(%107, %108, %109) /* ty=() */;
  let %x40: Tensor[(1, 100, 100, 512), float32] = %tensor_019;
  let %storage_020: Storage[] = memory.alloc_storage(5120000 /* ty=int64 */, 64 /* ty=int64 */, meta[relay.attrs.AllocStorageAttrs][20]) /* ty=Storage[] */;
  let %tensor_020: Tensor[(1, 100, 100, 128), float32] = memory.alloc_tensor(%storage_020, 0 /* ty=int64 */, meta[relay.Constant][58] /* ty=Tensor[(4), int64] */, meta[relay.attrs.AllocTensorAttrs][20]) /* ty=Tensor[(1, 100, 100, 128), float32] */;
  %112 = fn (%p020: Tensor[(1, 100, 100, 512), float32], %p119: Tensor[(1, 1, 512, 128), float32], %p219: Tensor[(1, 1, 1, 128), float32], Primitive=1) -> Tensor[(1, 100, 100, 128), float32] {
    %110 = nn.conv2d(%p020, %p119, padding=[0, 0, 0, 0], channels=128, kernel_size=[1, 1], data_layout="NHWC", kernel_layout="HWIO") /* ty=Tensor[(1, 100, 100, 128), float32] */;
    %111 = add(%110, %p219) /* ty=Tensor[(1, 100, 100, 128), float32] */;
    nn.relu(%111) /* ty=Tensor[(1, 100, 100, 128), float32] */
  };
  %113 = (%x40, meta[relay.Constant][59] /* ty=Tensor[(1, 1, 512, 128), float32] */, meta[relay.Constant][60] /* ty=Tensor[(1, 1, 1, 128), float32] */);
  %114 = (%tensor_020,);
  let %x41: () = vm.invoke_tvm_op(%112, %113, %114) /* ty=() */;
  let %x42: Tensor[(1, 100, 100, 128), float32] = %tensor_020;
  let %storage_021: Storage[] = memory.alloc_storage(5120000 /* ty=int64 */, 64 /* ty=int64 */, meta[relay.attrs.AllocStorageAttrs][21]) /* ty=Storage[] */;
  let %tensor_021: Tensor[(1, 100, 100, 128), float32] = memory.alloc_tensor(%storage_021, 0 /* ty=int64 */, meta[relay.Constant][61] /* ty=Tensor[(4), int64] */, meta[relay.attrs.AllocTensorAttrs][21]) /* ty=Tensor[(1, 100, 100, 128), float32] */;
  %117 = fn (%p021: Tensor[(1, 100, 100, 128), float32], %p120: Tensor[(3, 3, 128, 128), float32], %p220: Tensor[(1, 1, 1, 128), float32], Primitive=1) -> Tensor[(1, 100, 100, 128), float32] {
    %115 = nn.conv2d(%p021, %p120, padding=[1, 1, 1, 1], channels=128, kernel_size=[3, 3], data_layout="NHWC", kernel_layout="HWIO") /* ty=Tensor[(1, 100, 100, 128), float32] */;
    %116 = add(%115, %p220) /* ty=Tensor[(1, 100, 100, 128), float32] */;
    nn.relu(%116) /* ty=Tensor[(1, 100, 100, 128), float32] */
  };
  %118 = (%x42, meta[relay.Constant][62] /* ty=Tensor[(3, 3, 128, 128), float32] */, meta[relay.Constant][63] /* ty=Tensor[(1, 1, 1, 128), float32] */);
  %119 = (%tensor_021,);
  let %x43: () = vm.invoke_tvm_op(%117, %118, %119) /* ty=() */;
  let %x44: Tensor[(1, 100, 100, 128), float32] = %tensor_021;
  let %storage_022: Storage[] = memory.alloc_storage(20480000 /* ty=int64 */, 64 /* ty=int64 */, meta[relay.attrs.AllocStorageAttrs][22]) /* ty=Storage[] */;
  let %tensor_022: Tensor[(1, 100, 100, 512), float32] = memory.alloc_tensor(%storage_022, 0 /* ty=int64 */, meta[relay.Constant][64] /* ty=Tensor[(4), int64] */, meta[relay.attrs.AllocTensorAttrs][22]) /* ty=Tensor[(1, 100, 100, 512), float32] */;
  %123 = fn (%p022: Tensor[(1, 100, 100, 128), float32], %p121: Tensor[(1, 1, 128, 512), float32], %p221: Tensor[(1, 1, 1, 512), float32], %p35: Tensor[(1, 100, 100, 512), float32], Primitive=1) -> Tensor[(1, 100, 100, 512), float32] {
    %120 = nn.conv2d(%p022, %p121, padding=[0, 0, 0, 0], channels=512, kernel_size=[1, 1], data_layout="NHWC", kernel_layout="HWIO") /* ty=Tensor[(1, 100, 100, 512), float32] */;
    %121 = add(%120, %p221) /* ty=Tensor[(1, 100, 100, 512), float32] */;
    %122 = add(%121, %p35) /* ty=Tensor[(1, 100, 100, 512), float32] */;
    nn.relu(%122) /* ty=Tensor[(1, 100, 100, 512), float32] */
  };
  %124 = (%x44, meta[relay.Constant][65] /* ty=Tensor[(1, 1, 128, 512), float32] */, meta[relay.Constant][66] /* ty=Tensor[(1, 1, 1, 512), float32] */, %x40);
  %125 = (%tensor_022,);
  let %x45: () = vm.invoke_tvm_op(%123, %124, %125) /* ty=() */;
  let %x46: Tensor[(1, 100, 100, 512), float32] = %tensor_022;
  let %storage_023: Storage[] = memory.alloc_storage(5120000 /* ty=int64 */, 64 /* ty=int64 */, meta[relay.attrs.AllocStorageAttrs][23]) /* ty=Storage[] */;
  let %tensor_023: Tensor[(1, 100, 100, 128), float32] = memory.alloc_tensor(%storage_023, 0 /* ty=int64 */, meta[relay.Constant][67] /* ty=Tensor[(4), int64] */, meta[relay.attrs.AllocTensorAttrs][23]) /* ty=Tensor[(1, 100, 100, 128), float32] */;
  %128 = fn (%p023: Tensor[(1, 100, 100, 512), float32], %p122: Tensor[(1, 1, 512, 128), float32], %p222: Tensor[(1, 1, 1, 128), float32], Primitive=1) -> Tensor[(1, 100, 100, 128), float32] {
    %126 = nn.conv2d(%p023, %p122, padding=[0, 0, 0, 0], channels=128, kernel_size=[1, 1], data_layout="NHWC", kernel_layout="HWIO") /* ty=Tensor[(1, 100, 100, 128), float32] */;
    %127 = add(%126, %p222) /* ty=Tensor[(1, 100, 100, 128), float32] */;
    nn.relu(%127) /* ty=Tensor[(1, 100, 100, 128), float32] */
  };
  %129 = (%x46, meta[relay.Constant][68] /* ty=Tensor[(1, 1, 512, 128), float32] */, meta[relay.Constant][69] /* ty=Tensor[(1, 1, 1, 128), float32] */);
  %130 = (%tensor_023,);
  let %x47: () = vm.invoke_tvm_op(%128, %129, %130) /* ty=() */;
  let %x48: Tensor[(1, 100, 100, 128), float32] = %tensor_023;
  let %storage_024: Storage[] = memory.alloc_storage(5120000 /* ty=int64 */, 64 /* ty=int64 */, meta[relay.attrs.AllocStorageAttrs][24]) /* ty=Storage[] */;
  let %tensor_024: Tensor[(1, 100, 100, 128), float32] = memory.alloc_tensor(%storage_024, 0 /* ty=int64 */, meta[relay.Constant][70] /* ty=Tensor[(4), int64] */, meta[relay.attrs.AllocTensorAttrs][24]) /* ty=Tensor[(1, 100, 100, 128), float32] */;
  %133 = fn (%p024: Tensor[(1, 100, 100, 128), float32], %p123: Tensor[(3, 3, 128, 128), float32], %p223: Tensor[(1, 1, 1, 128), float32], Primitive=1) -> Tensor[(1, 100, 100, 128), float32] {
    %131 = nn.conv2d(%p024, %p123, padding=[1, 1, 1, 1], channels=128, kernel_size=[3, 3], data_layout="NHWC", kernel_layout="HWIO") /* ty=Tensor[(1, 100, 100, 128), float32] */;
    %132 = add(%131, %p223) /* ty=Tensor[(1, 100, 100, 128), float32] */;
    nn.relu(%132) /* ty=Tensor[(1, 100, 100, 128), float32] */
  };
  %134 = (%x48, meta[relay.Constant][71] /* ty=Tensor[(3, 3, 128, 128), float32] */, meta[relay.Constant][72] /* ty=Tensor[(1, 1, 1, 128), float32] */);
  %135 = (%tensor_024,);
  let %x49: () = vm.invoke_tvm_op(%133, %134, %135) /* ty=() */;
  let %x50: Tensor[(1, 100, 100, 128), float32] = %tensor_024;
  let %storage_025: Storage[] = memory.alloc_storage(20480000 /* ty=int64 */, 64 /* ty=int64 */, meta[relay.attrs.AllocStorageAttrs][25]) /* ty=Storage[] */;
  let %tensor_025: Tensor[(1, 100, 100, 512), float32] = memory.alloc_tensor(%storage_025, 0 /* ty=int64 */, meta[relay.Constant][73] /* ty=Tensor[(4), int64] */, meta[relay.attrs.AllocTensorAttrs][25]) /* ty=Tensor[(1, 100, 100, 512), float32] */;
  %139 = fn (%p025: Tensor[(1, 100, 100, 128), float32], %p124: Tensor[(1, 1, 128, 512), float32], %p224: Tensor[(1, 1, 1, 512), float32], %p36: Tensor[(1, 100, 100, 512), float32], Primitive=1) -> Tensor[(1, 100, 100, 512), float32] {
    %136 = nn.conv2d(%p025, %p124, padding=[0, 0, 0, 0], channels=512, kernel_size=[1, 1], data_layout="NHWC", kernel_layout="HWIO") /* ty=Tensor[(1, 100, 100, 512), float32] */;
    %137 = add(%136, %p224) /* ty=Tensor[(1, 100, 100, 512), float32] */;
    %138 = add(%137, %p36) /* ty=Tensor[(1, 100, 100, 512), float32] */;
    nn.relu(%138) /* ty=Tensor[(1, 100, 100, 512), float32] */
  };
  %140 = (%x50, meta[relay.Constant][74] /* ty=Tensor[(1, 1, 128, 512), float32] */, meta[relay.Constant][75] /* ty=Tensor[(1, 1, 1, 512), float32] */, %x46);
  %141 = (%tensor_025,);
  let %x51: () = vm.invoke_tvm_op(%139, %140, %141) /* ty=() */;
  let %x52: Tensor[(1, 100, 100, 512), float32] = %tensor_025;
  let %storage_026: Storage[] = memory.alloc_storage(10240000 /* ty=int64 */, 64 /* ty=int64 */, meta[relay.attrs.AllocStorageAttrs][26]) /* ty=Storage[] */;
  let %tensor_026: Tensor[(1, 100, 100, 256), float32] = memory.alloc_tensor(%storage_026, 0 /* ty=int64 */, meta[relay.Constant][76] /* ty=Tensor[(4), int64] */, meta[relay.attrs.AllocTensorAttrs][26]) /* ty=Tensor[(1, 100, 100, 256), float32] */;
  %144 = fn (%p026: Tensor[(1, 100, 100, 512), float32], %p125: Tensor[(1, 1, 512, 256), float32], %p225: Tensor[(1, 1, 1, 256), float32], Primitive=1) -> Tensor[(1, 100, 100, 256), float32] {
    %142 = nn.conv2d(%p026, %p125, padding=[0, 0, 0, 0], channels=256, kernel_size=[1, 1], data_layout="NHWC", kernel_layout="HWIO") /* ty=Tensor[(1, 100, 100, 256), float32] */;
    %143 = add(%142, %p225) /* ty=Tensor[(1, 100, 100, 256), float32] */;
    nn.relu(%143) /* ty=Tensor[(1, 100, 100, 256), float32] */
  };
  %145 = (%x52, meta[relay.Constant][77] /* ty=Tensor[(1, 1, 512, 256), float32] */, meta[relay.Constant][78] /* ty=Tensor[(1, 1, 1, 256), float32] */);
  %146 = (%tensor_026,);
  let %x53: () = vm.invoke_tvm_op(%144, %145, %146) /* ty=() */;
  let %x54: Tensor[(1, 100, 100, 256), float32] = %tensor_026;
  let %storage_027: Storage[] = memory.alloc_storage(2560000 /* ty=int64 */, 64 /* ty=int64 */, meta[relay.attrs.AllocStorageAttrs][27]) /* ty=Storage[] */;
  let %tensor_027: Tensor[(1, 50, 50, 256), float32] = memory.alloc_tensor(%storage_027, 0 /* ty=int64 */, meta[relay.Constant][79] /* ty=Tensor[(4), int64] */, meta[relay.attrs.AllocTensorAttrs][27]) /* ty=Tensor[(1, 50, 50, 256), float32] */;
  %149 = fn (%p027: Tensor[(1, 100, 100, 256), float32], %p126: Tensor[(3, 3, 256, 256), float32], %p226: Tensor[(1, 1, 1, 256), float32], Primitive=1) -> Tensor[(1, 50, 50, 256), float32] {
    %147 = nn.conv2d(%p027, %p126, strides=[2, 2], padding=[1, 1, 1, 1], channels=256, kernel_size=[3, 3], data_layout="NHWC", kernel_layout="HWIO") /* ty=Tensor[(1, 50, 50, 256), float32] */;
    %148 = add(%147, %p226) /* ty=Tensor[(1, 50, 50, 256), float32] */;
    nn.relu(%148) /* ty=Tensor[(1, 50, 50, 256), float32] */
  };
  %150 = (%x54, meta[relay.Constant][80] /* ty=Tensor[(3, 3, 256, 256), float32] */, meta[relay.Constant][81] /* ty=Tensor[(1, 1, 1, 256), float32] */);
  %151 = (%tensor_027,);
  let %x55: () = vm.invoke_tvm_op(%149, %150, %151) /* ty=() */;
  let %x56: Tensor[(1, 50, 50, 256), float32] = %tensor_027;
  let %storage_028: Storage[] = memory.alloc_storage(10240000 /* ty=int64 */, 64 /* ty=int64 */, meta[relay.attrs.AllocStorageAttrs][28]) /* ty=Storage[] */;
  let %tensor_028: Tensor[(1, 50, 50, 1024), float32] = memory.alloc_tensor(%storage_028, 0 /* ty=int64 */, meta[relay.Constant][82] /* ty=Tensor[(4), int64] */, meta[relay.attrs.AllocTensorAttrs][28]) /* ty=Tensor[(1, 50, 50, 1024), float32] */;
  %153 = fn (%p028: Tensor[(1, 100, 100, 512), float32], %p127: Tensor[(1, 1, 512, 1024), float32], %p227: Tensor[(1, 1, 1, 1024), float32], Primitive=1) -> Tensor[(1, 50, 50, 1024), float32] {
    %152 = nn.conv2d(%p028, %p127, strides=[2, 2], padding=[0, 0, 0, 0], channels=1024, kernel_size=[1, 1], data_layout="NHWC", kernel_layout="HWIO") /* ty=Tensor[(1, 50, 50, 1024), float32] */;
    add(%152, %p227) /* ty=Tensor[(1, 50, 50, 1024), float32] */
  };
  %154 = (%x52, meta[relay.Constant][83] /* ty=Tensor[(1, 1, 512, 1024), float32] */, meta[relay.Constant][84] /* ty=Tensor[(1, 1, 1, 1024), float32] */);
  %155 = (%tensor_028,);
  let %x57: () = vm.invoke_tvm_op(%153, %154, %155) /* ty=() */;
  let %x58: Tensor[(1, 50, 50, 1024), float32] = %tensor_028;
  let %storage_029: Storage[] = memory.alloc_storage(10240000 /* ty=int64 */, 64 /* ty=int64 */, meta[relay.attrs.AllocStorageAttrs][29]) /* ty=Storage[] */;
  let %tensor_029: Tensor[(1, 50, 50, 1024), float32] = memory.alloc_tensor(%storage_029, 0 /* ty=int64 */, meta[relay.Constant][85] /* ty=Tensor[(4), int64] */, meta[relay.attrs.AllocTensorAttrs][29]) /* ty=Tensor[(1, 50, 50, 1024), float32] */;
  %159 = fn (%p029: Tensor[(1, 50, 50, 256), float32], %p128: Tensor[(1, 1, 256, 1024), float32], %p228: Tensor[(1, 1, 1, 1024), float32], %p37: Tensor[(1, 50, 50, 1024), float32], Primitive=1) -> Tensor[(1, 50, 50, 1024), float32] {
    %156 = nn.conv2d(%p029, %p128, padding=[0, 0, 0, 0], channels=1024, kernel_size=[1, 1], data_layout="NHWC", kernel_layout="HWIO") /* ty=Tensor[(1, 50, 50, 1024), float32] */;
    %157 = add(%156, %p228) /* ty=Tensor[(1, 50, 50, 1024), float32] */;
    %158 = add(%157, %p37) /* ty=Tensor[(1, 50, 50, 1024), float32] */;
    nn.relu(%158) /* ty=Tensor[(1, 50, 50, 1024), float32] */
  };
  %160 = (%x56, meta[relay.Constant][86] /* ty=Tensor[(1, 1, 256, 1024), float32] */, meta[relay.Constant][87] /* ty=Tensor[(1, 1, 1, 1024), float32] */, %x58);
  %161 = (%tensor_029,);
  let %x59: () = vm.invoke_tvm_op(%159, %160, %161) /* ty=() */;
  let %x60: Tensor[(1, 50, 50, 1024), float32] = %tensor_029;
  let %storage_030: Storage[] = memory.alloc_storage(2560000 /* ty=int64 */, 64 /* ty=int64 */, meta[relay.attrs.AllocStorageAttrs][30]) /* ty=Storage[] */;
  let %tensor_030: Tensor[(1, 50, 50, 256), float32] = memory.alloc_tensor(%storage_030, 0 /* ty=int64 */, meta[relay.Constant][88] /* ty=Tensor[(4), int64] */, meta[relay.attrs.AllocTensorAttrs][30]) /* ty=Tensor[(1, 50, 50, 256), float32] */;
  %164 = fn (%p030: Tensor[(1, 50, 50, 1024), float32], %p129: Tensor[(1, 1, 1024, 256), float32], %p229: Tensor[(1, 1, 1, 256), float32], Primitive=1) -> Tensor[(1, 50, 50, 256), float32] {
    %162 = nn.conv2d(%p030, %p129, padding=[0, 0, 0, 0], channels=256, kernel_size=[1, 1], data_layout="NHWC", kernel_layout="HWIO") /* ty=Tensor[(1, 50, 50, 256), float32] */;
    %163 = add(%162, %p229) /* ty=Tensor[(1, 50, 50, 256), float32] */;
    nn.relu(%163) /* ty=Tensor[(1, 50, 50, 256), float32] */
  };
  %165 = (%x60, meta[relay.Constant][89] /* ty=Tensor[(1, 1, 1024, 256), float32] */, meta[relay.Constant][90] /* ty=Tensor[(1, 1, 1, 256), float32] */);
  %166 = (%tensor_030,);
  let %x61: () = vm.invoke_tvm_op(%164, %165, %166) /* ty=() */;
  let %x62: Tensor[(1, 50, 50, 256), float32] = %tensor_030;
  let %storage_031: Storage[] = memory.alloc_storage(2560000 /* ty=int64 */, 64 /* ty=int64 */, meta[relay.attrs.AllocStorageAttrs][31]) /* ty=Storage[] */;
  let %tensor_031: Tensor[(1, 50, 50, 256), float32] = memory.alloc_tensor(%storage_031, 0 /* ty=int64 */, meta[relay.Constant][91] /* ty=Tensor[(4), int64] */, meta[relay.attrs.AllocTensorAttrs][31]) /* ty=Tensor[(1, 50, 50, 256), float32] */;
  %169 = fn (%p031: Tensor[(1, 50, 50, 256), float32], %p130: Tensor[(3, 3, 256, 256), float32], %p230: Tensor[(1, 1, 1, 256), float32], Primitive=1) -> Tensor[(1, 50, 50, 256), float32] {
    %167 = nn.conv2d(%p031, %p130, padding=[1, 1, 1, 1], channels=256, kernel_size=[3, 3], data_layout="NHWC", kernel_layout="HWIO") /* ty=Tensor[(1, 50, 50, 256), float32] */;
    %168 = add(%167, %p230) /* ty=Tensor[(1, 50, 50, 256), float32] */;
    nn.relu(%168) /* ty=Tensor[(1, 50, 50, 256), float32] */
  };
  %170 = (%x62, meta[relay.Constant][92] /* ty=Tensor[(3, 3, 256, 256), float32] */, meta[relay.Constant][93] /* ty=Tensor[(1, 1, 1, 256), float32] */);
  %171 = (%tensor_031,);
  let %x63: () = vm.invoke_tvm_op(%169, %170, %171) /* ty=() */;
  let %x64: Tensor[(1, 50, 50, 256), float32] = %tensor_031;
  let %storage_032: Storage[] = memory.alloc_storage(10240000 /* ty=int64 */, 64 /* ty=int64 */, meta[relay.attrs.AllocStorageAttrs][32]) /* ty=Storage[] */;
  let %tensor_032: Tensor[(1, 50, 50, 1024), float32] = memory.alloc_tensor(%storage_032, 0 /* ty=int64 */, meta[relay.Constant][94] /* ty=Tensor[(4), int64] */, meta[relay.attrs.AllocTensorAttrs][32]) /* ty=Tensor[(1, 50, 50, 1024), float32] */;
  %175 = fn (%p032: Tensor[(1, 50, 50, 256), float32], %p131: Tensor[(1, 1, 256, 1024), float32], %p231: Tensor[(1, 1, 1, 1024), float32], %p38: Tensor[(1, 50, 50, 1024), float32], Primitive=1) -> Tensor[(1, 50, 50, 1024), float32] {
    %172 = nn.conv2d(%p032, %p131, padding=[0, 0, 0, 0], channels=1024, kernel_size=[1, 1], data_layout="NHWC", kernel_layout="HWIO") /* ty=Tensor[(1, 50, 50, 1024), float32] */;
    %173 = add(%172, %p231) /* ty=Tensor[(1, 50, 50, 1024), float32] */;
    %174 = add(%173, %p38) /* ty=Tensor[(1, 50, 50, 1024), float32] */;
    nn.relu(%174) /* ty=Tensor[(1, 50, 50, 1024), float32] */
  };
  %176 = (%x64, meta[relay.Constant][95] /* ty=Tensor[(1, 1, 256, 1024), float32] */, meta[relay.Constant][96] /* ty=Tensor[(1, 1, 1, 1024), float32] */, %x60);
  %177 = (%tensor_032,);
  let %x65: () = vm.invoke_tvm_op(%175, %176, %177) /* ty=() */;
  let %x66: Tensor[(1, 50, 50, 1024), float32] = %tensor_032;
  let %storage_033: Storage[] = memory.alloc_storage(2560000 /* ty=int64 */, 64 /* ty=int64 */, meta[relay.attrs.AllocStorageAttrs][33]) /* ty=Storage[] */;
  let %tensor_033: Tensor[(1, 50, 50, 256), float32] = memory.alloc_tensor(%storage_033, 0 /* ty=int64 */, meta[relay.Constant][97] /* ty=Tensor[(4), int64] */, meta[relay.attrs.AllocTensorAttrs][33]) /* ty=Tensor[(1, 50, 50, 256), float32] */;
  %180 = fn (%p033: Tensor[(1, 50, 50, 1024), float32], %p132: Tensor[(1, 1, 1024, 256), float32], %p232: Tensor[(1, 1, 1, 256), float32], Primitive=1) -> Tensor[(1, 50, 50, 256), float32] {
    %178 = nn.conv2d(%p033, %p132, padding=[0, 0, 0, 0], channels=256, kernel_size=[1, 1], data_layout="NHWC", kernel_layout="HWIO") /* ty=Tensor[(1, 50, 50, 256), float32] */;
    %179 = add(%178, %p232) /* ty=Tensor[(1, 50, 50, 256), float32] */;
    nn.relu(%179) /* ty=Tensor[(1, 50, 50, 256), float32] */
  };
  %181 = (%x66, meta[relay.Constant][98] /* ty=Tensor[(1, 1, 1024, 256), float32] */, meta[relay.Constant][99] /* ty=Tensor[(1, 1, 1, 256), float32] */);
  %182 = (%tensor_033,);
  let %x67: () = vm.invoke_tvm_op(%180, %181, %182) /* ty=() */;
  let %x68: Tensor[(1, 50, 50, 256), float32] = %tensor_033;
  let %storage_034: Storage[] = memory.alloc_storage(2560000 /* ty=int64 */, 64 /* ty=int64 */, meta[relay.attrs.AllocStorageAttrs][34]) /* ty=Storage[] */;
  let %tensor_034: Tensor[(1, 50, 50, 256), float32] = memory.alloc_tensor(%storage_034, 0 /* ty=int64 */, meta[relay.Constant][100] /* ty=Tensor[(4), int64] */, meta[relay.attrs.AllocTensorAttrs][34]) /* ty=Tensor[(1, 50, 50, 256), float32] */;
  %185 = fn (%p034: Tensor[(1, 50, 50, 256), float32], %p133: Tensor[(3, 3, 256, 256), float32], %p233: Tensor[(1, 1, 1, 256), float32], Primitive=1) -> Tensor[(1, 50, 50, 256), float32] {
    %183 = nn.conv2d(%p034, %p133, padding=[1, 1, 1, 1], channels=256, kernel_size=[3, 3], data_layout="NHWC", kernel_layout="HWIO") /* ty=Tensor[(1, 50, 50, 256), float32] */;
    %184 = add(%183, %p233) /* ty=Tensor[(1, 50, 50, 256), float32] */;
    nn.relu(%184) /* ty=Tensor[(1, 50, 50, 256), float32] */
  };
  %186 = (%x68, meta[relay.Constant][101] /* ty=Tensor[(3, 3, 256, 256), float32] */, meta[relay.Constant][102] /* ty=Tensor[(1, 1, 1, 256), float32] */);
  %187 = (%tensor_034,);
  let %x69: () = vm.invoke_tvm_op(%185, %186, %187) /* ty=() */;
  let %x70: Tensor[(1, 50, 50, 256), float32] = %tensor_034;
  let %storage_035: Storage[] = memory.alloc_storage(10240000 /* ty=int64 */, 64 /* ty=int64 */, meta[relay.attrs.AllocStorageAttrs][35]) /* ty=Storage[] */;
  let %tensor_035: Tensor[(1, 50, 50, 1024), float32] = memory.alloc_tensor(%storage_035, 0 /* ty=int64 */, meta[relay.Constant][103] /* ty=Tensor[(4), int64] */, meta[relay.attrs.AllocTensorAttrs][35]) /* ty=Tensor[(1, 50, 50, 1024), float32] */;
  %191 = fn (%p035: Tensor[(1, 50, 50, 256), float32], %p134: Tensor[(1, 1, 256, 1024), float32], %p234: Tensor[(1, 1, 1, 1024), float32], %p39: Tensor[(1, 50, 50, 1024), float32], Primitive=1) -> Tensor[(1, 50, 50, 1024), float32] {
    %188 = nn.conv2d(%p035, %p134, padding=[0, 0, 0, 0], channels=1024, kernel_size=[1, 1], data_layout="NHWC", kernel_layout="HWIO") /* ty=Tensor[(1, 50, 50, 1024), float32] */;
    %189 = add(%188, %p234) /* ty=Tensor[(1, 50, 50, 1024), float32] */;
    %190 = add(%189, %p39) /* ty=Tensor[(1, 50, 50, 1024), float32] */;
    nn.relu(%190) /* ty=Tensor[(1, 50, 50, 1024), float32] */
  };
  %192 = (%x70, meta[relay.Constant][104] /* ty=Tensor[(1, 1, 256, 1024), float32] */, meta[relay.Constant][105] /* ty=Tensor[(1, 1, 1, 1024), float32] */, %x66);
  %193 = (%tensor_035,);
  let %x71: () = vm.invoke_tvm_op(%191, %192, %193) /* ty=() */;
  let %x72: Tensor[(1, 50, 50, 1024), float32] = %tensor_035;
  let %storage_036: Storage[] = memory.alloc_storage(2560000 /* ty=int64 */, 64 /* ty=int64 */, meta[relay.attrs.AllocStorageAttrs][36]) /* ty=Storage[] */;
  let %tensor_036: Tensor[(1, 50, 50, 256), float32] = memory.alloc_tensor(%storage_036, 0 /* ty=int64 */, meta[relay.Constant][106] /* ty=Tensor[(4), int64] */, meta[relay.attrs.AllocTensorAttrs][36]) /* ty=Tensor[(1, 50, 50, 256), float32] */;
  %196 = fn (%p036: Tensor[(1, 50, 50, 1024), float32], %p135: Tensor[(1, 1, 1024, 256), float32], %p235: Tensor[(1, 1, 1, 256), float32], Primitive=1) -> Tensor[(1, 50, 50, 256), float32] {
    %194 = nn.conv2d(%p036, %p135, padding=[0, 0, 0, 0], channels=256, kernel_size=[1, 1], data_layout="NHWC", kernel_layout="HWIO") /* ty=Tensor[(1, 50, 50, 256), float32] */;
    %195 = add(%194, %p235) /* ty=Tensor[(1, 50, 50, 256), float32] */;
    nn.relu(%195) /* ty=Tensor[(1, 50, 50, 256), float32] */
  };
  %197 = (%x72, meta[relay.Constant][107] /* ty=Tensor[(1, 1, 1024, 256), float32] */, meta[relay.Constant][108] /* ty=Tensor[(1, 1, 1, 256), float32] */);
  %198 = (%tensor_036,);
  let %x73: () = vm.invoke_tvm_op(%196, %197, %198) /* ty=() */;
  let %x74: Tensor[(1, 50, 50, 256), float32] = %tensor_036;
  let %storage_037: Storage[] = memory.alloc_storage(2560000 /* ty=int64 */, 64 /* ty=int64 */, meta[relay.attrs.AllocStorageAttrs][37]) /* ty=Storage[] */;
  let %tensor_037: Tensor[(1, 50, 50, 256), float32] = memory.alloc_tensor(%storage_037, 0 /* ty=int64 */, meta[relay.Constant][109] /* ty=Tensor[(4), int64] */, meta[relay.attrs.AllocTensorAttrs][37]) /* ty=Tensor[(1, 50, 50, 256), float32] */;
  %201 = fn (%p037: Tensor[(1, 50, 50, 256), float32], %p136: Tensor[(3, 3, 256, 256), float32], %p236: Tensor[(1, 1, 1, 256), float32], Primitive=1) -> Tensor[(1, 50, 50, 256), float32] {
    %199 = nn.conv2d(%p037, %p136, padding=[1, 1, 1, 1], channels=256, kernel_size=[3, 3], data_layout="NHWC", kernel_layout="HWIO") /* ty=Tensor[(1, 50, 50, 256), float32] */;
    %200 = add(%199, %p236) /* ty=Tensor[(1, 50, 50, 256), float32] */;
    nn.relu(%200) /* ty=Tensor[(1, 50, 50, 256), float32] */
  };
  %202 = (%x74, meta[relay.Constant][110] /* ty=Tensor[(3, 3, 256, 256), float32] */, meta[relay.Constant][111] /* ty=Tensor[(1, 1, 1, 256), float32] */);
  %203 = (%tensor_037,);
  let %x75: () = vm.invoke_tvm_op(%201, %202, %203) /* ty=() */;
  let %x76: Tensor[(1, 50, 50, 256), float32] = %tensor_037;
  let %storage_038: Storage[] = memory.alloc_storage(10240000 /* ty=int64 */, 64 /* ty=int64 */, meta[relay.attrs.AllocStorageAttrs][38]) /* ty=Storage[] */;
  let %tensor_038: Tensor[(1, 50, 50, 1024), float32] = memory.alloc_tensor(%storage_038, 0 /* ty=int64 */, meta[relay.Constant][112] /* ty=Tensor[(4), int64] */, meta[relay.attrs.AllocTensorAttrs][38]) /* ty=Tensor[(1, 50, 50, 1024), float32] */;
  %207 = fn (%p038: Tensor[(1, 50, 50, 256), float32], %p137: Tensor[(1, 1, 256, 1024), float32], %p237: Tensor[(1, 1, 1, 1024), float32], %p310: Tensor[(1, 50, 50, 1024), float32], Primitive=1) -> Tensor[(1, 50, 50, 1024), float32] {
    %204 = nn.conv2d(%p038, %p137, padding=[0, 0, 0, 0], channels=1024, kernel_size=[1, 1], data_layout="NHWC", kernel_layout="HWIO") /* ty=Tensor[(1, 50, 50, 1024), float32] */;
    %205 = add(%204, %p237) /* ty=Tensor[(1, 50, 50, 1024), float32] */;
    %206 = add(%205, %p310) /* ty=Tensor[(1, 50, 50, 1024), float32] */;
    nn.relu(%206) /* ty=Tensor[(1, 50, 50, 1024), float32] */
  };
  %208 = (%x76, meta[relay.Constant][113] /* ty=Tensor[(1, 1, 256, 1024), float32] */, meta[relay.Constant][114] /* ty=Tensor[(1, 1, 1, 1024), float32] */, %x72);
  %209 = (%tensor_038,);
  let %x77: () = vm.invoke_tvm_op(%207, %208, %209) /* ty=() */;
  let %x78: Tensor[(1, 50, 50, 1024), float32] = %tensor_038;
  let %storage_039: Storage[] = memory.alloc_storage(2560000 /* ty=int64 */, 64 /* ty=int64 */, meta[relay.attrs.AllocStorageAttrs][39]) /* ty=Storage[] */;
  let %tensor_039: Tensor[(1, 50, 50, 256), float32] = memory.alloc_tensor(%storage_039, 0 /* ty=int64 */, meta[relay.Constant][115] /* ty=Tensor[(4), int64] */, meta[relay.attrs.AllocTensorAttrs][39]) /* ty=Tensor[(1, 50, 50, 256), float32] */;
  %212 = fn (%p039: Tensor[(1, 50, 50, 1024), float32], %p138: Tensor[(1, 1, 1024, 256), float32], %p238: Tensor[(1, 1, 1, 256), float32], Primitive=1) -> Tensor[(1, 50, 50, 256), float32] {
    %210 = nn.conv2d(%p039, %p138, padding=[0, 0, 0, 0], channels=256, kernel_size=[1, 1], data_layout="NHWC", kernel_layout="HWIO") /* ty=Tensor[(1, 50, 50, 256), float32] */;
    %211 = add(%210, %p238) /* ty=Tensor[(1, 50, 50, 256), float32] */;
    nn.relu(%211) /* ty=Tensor[(1, 50, 50, 256), float32] */
  };
  %213 = (%x78, meta[relay.Constant][116] /* ty=Tensor[(1, 1, 1024, 256), float32] */, meta[relay.Constant][117] /* ty=Tensor[(1, 1, 1, 256), float32] */);
  %214 = (%tensor_039,);
  let %x79: () = vm.invoke_tvm_op(%212, %213, %214) /* ty=() */;
  let %x80: Tensor[(1, 50, 50, 256), float32] = %tensor_039;
  let %storage_040: Storage[] = memory.alloc_storage(2560000 /* ty=int64 */, 64 /* ty=int64 */, meta[relay.attrs.AllocStorageAttrs][40]) /* ty=Storage[] */;
  let %tensor_040: Tensor[(1, 50, 50, 256), float32] = memory.alloc_tensor(%storage_040, 0 /* ty=int64 */, meta[relay.Constant][118] /* ty=Tensor[(4), int64] */, meta[relay.attrs.AllocTensorAttrs][40]) /* ty=Tensor[(1, 50, 50, 256), float32] */;
  %217 = fn (%p040: Tensor[(1, 50, 50, 256), float32], %p139: Tensor[(3, 3, 256, 256), float32], %p239: Tensor[(1, 1, 1, 256), float32], Primitive=1) -> Tensor[(1, 50, 50, 256), float32] {
    %215 = nn.conv2d(%p040, %p139, padding=[1, 1, 1, 1], channels=256, kernel_size=[3, 3], data_layout="NHWC", kernel_layout="HWIO") /* ty=Tensor[(1, 50, 50, 256), float32] */;
    %216 = add(%215, %p239) /* ty=Tensor[(1, 50, 50, 256), float32] */;
    nn.relu(%216) /* ty=Tensor[(1, 50, 50, 256), float32] */
  };
  %218 = (%x80, meta[relay.Constant][119] /* ty=Tensor[(3, 3, 256, 256), float32] */, meta[relay.Constant][120] /* ty=Tensor[(1, 1, 1, 256), float32] */);
  %219 = (%tensor_040,);
  let %x81: () = vm.invoke_tvm_op(%217, %218, %219) /* ty=() */;
  let %x82: Tensor[(1, 50, 50, 256), float32] = %tensor_040;
  let %storage_041: Storage[] = memory.alloc_storage(10240000 /* ty=int64 */, 64 /* ty=int64 */, meta[relay.attrs.AllocStorageAttrs][41]) /* ty=Storage[] */;
  let %tensor_041: Tensor[(1, 50, 50, 1024), float32] = memory.alloc_tensor(%storage_041, 0 /* ty=int64 */, meta[relay.Constant][121] /* ty=Tensor[(4), int64] */, meta[relay.attrs.AllocTensorAttrs][41]) /* ty=Tensor[(1, 50, 50, 1024), float32] */;
  %223 = fn (%p041: Tensor[(1, 50, 50, 256), float32], %p140: Tensor[(1, 1, 256, 1024), float32], %p240: Tensor[(1, 1, 1, 1024), float32], %p311: Tensor[(1, 50, 50, 1024), float32], Primitive=1) -> Tensor[(1, 50, 50, 1024), float32] {
    %220 = nn.conv2d(%p041, %p140, padding=[0, 0, 0, 0], channels=1024, kernel_size=[1, 1], data_layout="NHWC", kernel_layout="HWIO") /* ty=Tensor[(1, 50, 50, 1024), float32] */;
    %221 = add(%220, %p240) /* ty=Tensor[(1, 50, 50, 1024), float32] */;
    %222 = add(%221, %p311) /* ty=Tensor[(1, 50, 50, 1024), float32] */;
    nn.relu(%222) /* ty=Tensor[(1, 50, 50, 1024), float32] */
  };
  %224 = (%x82, meta[relay.Constant][122] /* ty=Tensor[(1, 1, 256, 1024), float32] */, meta[relay.Constant][123] /* ty=Tensor[(1, 1, 1, 1024), float32] */, %x78);
  %225 = (%tensor_041,);
  let %x83: () = vm.invoke_tvm_op(%223, %224, %225) /* ty=() */;
  let %x84: Tensor[(1, 50, 50, 1024), float32] = %tensor_041;
  let %storage_042: Storage[] = memory.alloc_storage(2560000 /* ty=int64 */, 64 /* ty=int64 */, meta[relay.attrs.AllocStorageAttrs][42]) /* ty=Storage[] */;
  let %tensor_042: Tensor[(1, 50, 50, 256), float32] = memory.alloc_tensor(%storage_042, 0 /* ty=int64 */, meta[relay.Constant][124] /* ty=Tensor[(4), int64] */, meta[relay.attrs.AllocTensorAttrs][42]) /* ty=Tensor[(1, 50, 50, 256), float32] */;
  %228 = fn (%p042: Tensor[(1, 50, 50, 1024), float32], %p141: Tensor[(1, 1, 1024, 256), float32], %p241: Tensor[(1, 1, 1, 256), float32], Primitive=1) -> Tensor[(1, 50, 50, 256), float32] {
    %226 = nn.conv2d(%p042, %p141, padding=[0, 0, 0, 0], channels=256, kernel_size=[1, 1], data_layout="NHWC", kernel_layout="HWIO") /* ty=Tensor[(1, 50, 50, 256), float32] */;
    %227 = add(%226, %p241) /* ty=Tensor[(1, 50, 50, 256), float32] */;
    nn.relu(%227) /* ty=Tensor[(1, 50, 50, 256), float32] */
  };
  %229 = (%x84, meta[relay.Constant][125] /* ty=Tensor[(1, 1, 1024, 256), float32] */, meta[relay.Constant][126] /* ty=Tensor[(1, 1, 1, 256), float32] */);
  %230 = (%tensor_042,);
  let %x85: () = vm.invoke_tvm_op(%228, %229, %230) /* ty=() */;
  let %x86: Tensor[(1, 50, 50, 256), float32] = %tensor_042;
  let %storage_043: Storage[] = memory.alloc_storage(2560000 /* ty=int64 */, 64 /* ty=int64 */, meta[relay.attrs.AllocStorageAttrs][43]) /* ty=Storage[] */;
  let %tensor_043: Tensor[(1, 50, 50, 256), float32] = memory.alloc_tensor(%storage_043, 0 /* ty=int64 */, meta[relay.Constant][127] /* ty=Tensor[(4), int64] */, meta[relay.attrs.AllocTensorAttrs][43]) /* ty=Tensor[(1, 50, 50, 256), float32] */;
  %233 = fn (%p043: Tensor[(1, 50, 50, 256), float32], %p142: Tensor[(3, 3, 256, 256), float32], %p242: Tensor[(1, 1, 1, 256), float32], Primitive=1) -> Tensor[(1, 50, 50, 256), float32] {
    %231 = nn.conv2d(%p043, %p142, padding=[1, 1, 1, 1], channels=256, kernel_size=[3, 3], data_layout="NHWC", kernel_layout="HWIO") /* ty=Tensor[(1, 50, 50, 256), float32] */;
    %232 = add(%231, %p242) /* ty=Tensor[(1, 50, 50, 256), float32] */;
    nn.relu(%232) /* ty=Tensor[(1, 50, 50, 256), float32] */
  };
  %234 = (%x86, meta[relay.Constant][128] /* ty=Tensor[(3, 3, 256, 256), float32] */, meta[relay.Constant][129] /* ty=Tensor[(1, 1, 1, 256), float32] */);
  %235 = (%tensor_043,);
  let %x87: () = vm.invoke_tvm_op(%233, %234, %235) /* ty=() */;
  let %x88: Tensor[(1, 50, 50, 256), float32] = %tensor_043;
  let %storage_044: Storage[] = memory.alloc_storage(10240000 /* ty=int64 */, 64 /* ty=int64 */, meta[relay.attrs.AllocStorageAttrs][44]) /* ty=Storage[] */;
  let %tensor_044: Tensor[(1, 50, 50, 1024), float32] = memory.alloc_tensor(%storage_044, 0 /* ty=int64 */, meta[relay.Constant][130] /* ty=Tensor[(4), int64] */, meta[relay.attrs.AllocTensorAttrs][44]) /* ty=Tensor[(1, 50, 50, 1024), float32] */;
  %239 = fn (%p044: Tensor[(1, 50, 50, 256), float32], %p143: Tensor[(1, 1, 256, 1024), float32], %p243: Tensor[(1, 1, 1, 1024), float32], %p312: Tensor[(1, 50, 50, 1024), float32], Primitive=1) -> Tensor[(1, 50, 50, 1024), float32] {
    %236 = nn.conv2d(%p044, %p143, padding=[0, 0, 0, 0], channels=1024, kernel_size=[1, 1], data_layout="NHWC", kernel_layout="HWIO") /* ty=Tensor[(1, 50, 50, 1024), float32] */;
    %237 = add(%236, %p243) /* ty=Tensor[(1, 50, 50, 1024), float32] */;
    %238 = add(%237, %p312) /* ty=Tensor[(1, 50, 50, 1024), float32] */;
    nn.relu(%238) /* ty=Tensor[(1, 50, 50, 1024), float32] */
  };
  %240 = (%x88, meta[relay.Constant][131] /* ty=Tensor[(1, 1, 256, 1024), float32] */, meta[relay.Constant][132] /* ty=Tensor[(1, 1, 1, 1024), float32] */, %x84);
  %241 = (%tensor_044,);
  let %x89: () = vm.invoke_tvm_op(%239, %240, %241) /* ty=() */;
  let %x90: Tensor[(1, 50, 50, 1024), float32] = %tensor_044;
  let %storage_045: Storage[] = memory.alloc_storage(5120000 /* ty=int64 */, 64 /* ty=int64 */, meta[relay.attrs.AllocStorageAttrs][45]) /* ty=Storage[] */;
  let %tensor_045: Tensor[(1, 50, 50, 512), float32] = memory.alloc_tensor(%storage_045, 0 /* ty=int64 */, meta[relay.Constant][133] /* ty=Tensor[(4), int64] */, meta[relay.attrs.AllocTensorAttrs][45]) /* ty=Tensor[(1, 50, 50, 512), float32] */;
  %244 = fn (%p045: Tensor[(1, 50, 50, 1024), float32], %p144: Tensor[(1, 1, 1024, 512), float32], %p244: Tensor[(1, 1, 1, 512), float32], Primitive=1) -> Tensor[(1, 50, 50, 512), float32] {
    %242 = nn.conv2d(%p045, %p144, padding=[0, 0, 0, 0], channels=512, kernel_size=[1, 1], data_layout="NHWC", kernel_layout="HWIO") /* ty=Tensor[(1, 50, 50, 512), float32] */;
    %243 = add(%242, %p244) /* ty=Tensor[(1, 50, 50, 512), float32] */;
    nn.relu(%243) /* ty=Tensor[(1, 50, 50, 512), float32] */
  };
  %245 = (%x90, meta[relay.Constant][134] /* ty=Tensor[(1, 1, 1024, 512), float32] */, meta[relay.Constant][135] /* ty=Tensor[(1, 1, 1, 512), float32] */);
  %246 = (%tensor_045,);
  let %x91: () = vm.invoke_tvm_op(%244, %245, %246) /* ty=() */;
  let %x92: Tensor[(1, 50, 50, 512), float32] = %tensor_045;
  let %storage_046: Storage[] = memory.alloc_storage(1280000 /* ty=int64 */, 64 /* ty=int64 */, meta[relay.attrs.AllocStorageAttrs][46]) /* ty=Storage[] */;
  let %tensor_046: Tensor[(1, 25, 25, 512), float32] = memory.alloc_tensor(%storage_046, 0 /* ty=int64 */, meta[relay.Constant][136] /* ty=Tensor[(4), int64] */, meta[relay.attrs.AllocTensorAttrs][46]) /* ty=Tensor[(1, 25, 25, 512), float32] */;
  %249 = fn (%p046: Tensor[(1, 50, 50, 512), float32], %p145: Tensor[(3, 3, 512, 512), float32], %p245: Tensor[(1, 1, 1, 512), float32], Primitive=1) -> Tensor[(1, 25, 25, 512), float32] {
    %247 = nn.conv2d(%p046, %p145, strides=[2, 2], padding=[1, 1, 1, 1], channels=512, kernel_size=[3, 3], data_layout="NHWC", kernel_layout="HWIO") /* ty=Tensor[(1, 25, 25, 512), float32] */;
    %248 = add(%247, %p245) /* ty=Tensor[(1, 25, 25, 512), float32] */;
    nn.relu(%248) /* ty=Tensor[(1, 25, 25, 512), float32] */
  };
  %250 = (%x92, meta[relay.Constant][137] /* ty=Tensor[(3, 3, 512, 512), float32] */, meta[relay.Constant][138] /* ty=Tensor[(1, 1, 1, 512), float32] */);
  %251 = (%tensor_046,);
  let %x93: () = vm.invoke_tvm_op(%249, %250, %251) /* ty=() */;
  let %x94: Tensor[(1, 25, 25, 512), float32] = %tensor_046;
  let %storage_047: Storage[] = memory.alloc_storage(5120000 /* ty=int64 */, 64 /* ty=int64 */, meta[relay.attrs.AllocStorageAttrs][47]) /* ty=Storage[] */;
  let %tensor_047: Tensor[(1, 25, 25, 2048), float32] = memory.alloc_tensor(%storage_047, 0 /* ty=int64 */, meta[relay.Constant][139] /* ty=Tensor[(4), int64] */, meta[relay.attrs.AllocTensorAttrs][47]) /* ty=Tensor[(1, 25, 25, 2048), float32] */;
  %253 = fn (%p047: Tensor[(1, 50, 50, 1024), float32], %p146: Tensor[(1, 1, 1024, 2048), float32], %p246: Tensor[(1, 1, 1, 2048), float32], Primitive=1) -> Tensor[(1, 25, 25, 2048), float32] {
    %252 = nn.conv2d(%p047, %p146, strides=[2, 2], padding=[0, 0, 0, 0], channels=2048, kernel_size=[1, 1], data_layout="NHWC", kernel_layout="HWIO") /* ty=Tensor[(1, 25, 25, 2048), float32] */;
    add(%252, %p246) /* ty=Tensor[(1, 25, 25, 2048), float32] */
  };
  %254 = (%x90, meta[relay.Constant][140] /* ty=Tensor[(1, 1, 1024, 2048), float32] */, meta[relay.Constant][141] /* ty=Tensor[(1, 1, 1, 2048), float32] */);
  %255 = (%tensor_047,);
  let %x95: () = vm.invoke_tvm_op(%253, %254, %255) /* ty=() */;
  let %x96: Tensor[(1, 25, 25, 2048), float32] = %tensor_047;
  let %storage_048: Storage[] = memory.alloc_storage(5120000 /* ty=int64 */, 64 /* ty=int64 */, meta[relay.attrs.AllocStorageAttrs][48]) /* ty=Storage[] */;
  let %tensor_048: Tensor[(1, 25, 25, 2048), float32] = memory.alloc_tensor(%storage_048, 0 /* ty=int64 */, meta[relay.Constant][142] /* ty=Tensor[(4), int64] */, meta[relay.attrs.AllocTensorAttrs][48]) /* ty=Tensor[(1, 25, 25, 2048), float32] */;
  %259 = fn (%p048: Tensor[(1, 25, 25, 512), float32], %p147: Tensor[(1, 1, 512, 2048), float32], %p247: Tensor[(1, 1, 1, 2048), float32], %p313: Tensor[(1, 25, 25, 2048), float32], Primitive=1) -> Tensor[(1, 25, 25, 2048), float32] {
    %256 = nn.conv2d(%p048, %p147, padding=[0, 0, 0, 0], channels=2048, kernel_size=[1, 1], data_layout="NHWC", kernel_layout="HWIO") /* ty=Tensor[(1, 25, 25, 2048), float32] */;
    %257 = add(%256, %p247) /* ty=Tensor[(1, 25, 25, 2048), float32] */;
    %258 = add(%257, %p313) /* ty=Tensor[(1, 25, 25, 2048), float32] */;
    nn.relu(%258) /* ty=Tensor[(1, 25, 25, 2048), float32] */
  };
  %260 = (%x94, meta[relay.Constant][143] /* ty=Tensor[(1, 1, 512, 2048), float32] */, meta[relay.Constant][144] /* ty=Tensor[(1, 1, 1, 2048), float32] */, %x96);
  %261 = (%tensor_048,);
  let %x97: () = vm.invoke_tvm_op(%259, %260, %261) /* ty=() */;
  let %x98: Tensor[(1, 25, 25, 2048), float32] = %tensor_048;
  let %storage_049: Storage[] = memory.alloc_storage(1280000 /* ty=int64 */, 64 /* ty=int64 */, meta[relay.attrs.AllocStorageAttrs][49]) /* ty=Storage[] */;
  let %tensor_049: Tensor[(1, 25, 25, 512), float32] = memory.alloc_tensor(%storage_049, 0 /* ty=int64 */, meta[relay.Constant][145] /* ty=Tensor[(4), int64] */, meta[relay.attrs.AllocTensorAttrs][49]) /* ty=Tensor[(1, 25, 25, 512), float32] */;
  %264 = fn (%p049: Tensor[(1, 25, 25, 2048), float32], %p148: Tensor[(1, 1, 2048, 512), float32], %p248: Tensor[(1, 1, 1, 512), float32], Primitive=1) -> Tensor[(1, 25, 25, 512), float32] {
    %262 = nn.conv2d(%p049, %p148, padding=[0, 0, 0, 0], channels=512, kernel_size=[1, 1], data_layout="NHWC", kernel_layout="HWIO") /* ty=Tensor[(1, 25, 25, 512), float32] */;
    %263 = add(%262, %p248) /* ty=Tensor[(1, 25, 25, 512), float32] */;
    nn.relu(%263) /* ty=Tensor[(1, 25, 25, 512), float32] */
  };
  %265 = (%x98, meta[relay.Constant][146] /* ty=Tensor[(1, 1, 2048, 512), float32] */, meta[relay.Constant][147] /* ty=Tensor[(1, 1, 1, 512), float32] */);
  %266 = (%tensor_049,);
  let %x99: () = vm.invoke_tvm_op(%264, %265, %266) /* ty=() */;
  let %x100: Tensor[(1, 25, 25, 512), float32] = %tensor_049;
  let %storage_050: Storage[] = memory.alloc_storage(1280000 /* ty=int64 */, 64 /* ty=int64 */, meta[relay.attrs.AllocStorageAttrs][50]) /* ty=Storage[] */;
  let %tensor_050: Tensor[(1, 25, 25, 512), float32] = memory.alloc_tensor(%storage_050, 0 /* ty=int64 */, meta[relay.Constant][148] /* ty=Tensor[(4), int64] */, meta[relay.attrs.AllocTensorAttrs][50]) /* ty=Tensor[(1, 25, 25, 512), float32] */;
  %269 = fn (%p050: Tensor[(1, 25, 25, 512), float32], %p149: Tensor[(3, 3, 512, 512), float32], %p249: Tensor[(1, 1, 1, 512), float32], Primitive=1) -> Tensor[(1, 25, 25, 512), float32] {
    %267 = nn.conv2d(%p050, %p149, padding=[1, 1, 1, 1], channels=512, kernel_size=[3, 3], data_layout="NHWC", kernel_layout="HWIO") /* ty=Tensor[(1, 25, 25, 512), float32] */;
    %268 = add(%267, %p249) /* ty=Tensor[(1, 25, 25, 512), float32] */;
    nn.relu(%268) /* ty=Tensor[(1, 25, 25, 512), float32] */
  };
  %270 = (%x100, meta[relay.Constant][149] /* ty=Tensor[(3, 3, 512, 512), float32] */, meta[relay.Constant][150] /* ty=Tensor[(1, 1, 1, 512), float32] */);
  %271 = (%tensor_050,);
  let %x101: () = vm.invoke_tvm_op(%269, %270, %271) /* ty=() */;
  let %x102: Tensor[(1, 25, 25, 512), float32] = %tensor_050;
  let %storage_051: Storage[] = memory.alloc_storage(5120000 /* ty=int64 */, 64 /* ty=int64 */, meta[relay.attrs.AllocStorageAttrs][51]) /* ty=Storage[] */;
  let %tensor_051: Tensor[(1, 25, 25, 2048), float32] = memory.alloc_tensor(%storage_051, 0 /* ty=int64 */, meta[relay.Constant][151] /* ty=Tensor[(4), int64] */, meta[relay.attrs.AllocTensorAttrs][51]) /* ty=Tensor[(1, 25, 25, 2048), float32] */;
  %275 = fn (%p051: Tensor[(1, 25, 25, 512), float32], %p150: Tensor[(1, 1, 512, 2048), float32], %p250: Tensor[(1, 1, 1, 2048), float32], %p314: Tensor[(1, 25, 25, 2048), float32], Primitive=1) -> Tensor[(1, 25, 25, 2048), float32] {
    %272 = nn.conv2d(%p051, %p150, padding=[0, 0, 0, 0], channels=2048, kernel_size=[1, 1], data_layout="NHWC", kernel_layout="HWIO") /* ty=Tensor[(1, 25, 25, 2048), float32] */;
    %273 = add(%272, %p250) /* ty=Tensor[(1, 25, 25, 2048), float32] */;
    %274 = add(%273, %p314) /* ty=Tensor[(1, 25, 25, 2048), float32] */;
    nn.relu(%274) /* ty=Tensor[(1, 25, 25, 2048), float32] */
  };
  %276 = (%x102, meta[relay.Constant][152] /* ty=Tensor[(1, 1, 512, 2048), float32] */, meta[relay.Constant][153] /* ty=Tensor[(1, 1, 1, 2048), float32] */, %x98);
  %277 = (%tensor_051,);
  let %x103: () = vm.invoke_tvm_op(%275, %276, %277) /* ty=() */;
  let %x104: Tensor[(1, 25, 25, 2048), float32] = %tensor_051;
  let %storage_052: Storage[] = memory.alloc_storage(1280000 /* ty=int64 */, 64 /* ty=int64 */, meta[relay.attrs.AllocStorageAttrs][52]) /* ty=Storage[] */;
  let %tensor_052: Tensor[(1, 25, 25, 512), float32] = memory.alloc_tensor(%storage_052, 0 /* ty=int64 */, meta[relay.Constant][154] /* ty=Tensor[(4), int64] */, meta[relay.attrs.AllocTensorAttrs][52]) /* ty=Tensor[(1, 25, 25, 512), float32] */;
  %280 = fn (%p052: Tensor[(1, 25, 25, 2048), float32], %p151: Tensor[(1, 1, 2048, 512), float32], %p251: Tensor[(1, 1, 1, 512), float32], Primitive=1) -> Tensor[(1, 25, 25, 512), float32] {
    %278 = nn.conv2d(%p052, %p151, padding=[0, 0, 0, 0], channels=512, kernel_size=[1, 1], data_layout="NHWC", kernel_layout="HWIO") /* ty=Tensor[(1, 25, 25, 512), float32] */;
    %279 = add(%278, %p251) /* ty=Tensor[(1, 25, 25, 512), float32] */;
    nn.relu(%279) /* ty=Tensor[(1, 25, 25, 512), float32] */
  };
  %281 = (%x104, meta[relay.Constant][155] /* ty=Tensor[(1, 1, 2048, 512), float32] */, meta[relay.Constant][156] /* ty=Tensor[(1, 1, 1, 512), float32] */);
  %282 = (%tensor_052,);
  let %x105: () = vm.invoke_tvm_op(%280, %281, %282) /* ty=() */;
  let %x106: Tensor[(1, 25, 25, 512), float32] = %tensor_052;
  let %storage_053: Storage[] = memory.alloc_storage(1280000 /* ty=int64 */, 64 /* ty=int64 */, meta[relay.attrs.AllocStorageAttrs][53]) /* ty=Storage[] */;
  let %tensor_053: Tensor[(1, 25, 25, 512), float32] = memory.alloc_tensor(%storage_053, 0 /* ty=int64 */, meta[relay.Constant][157] /* ty=Tensor[(4), int64] */, meta[relay.attrs.AllocTensorAttrs][53]) /* ty=Tensor[(1, 25, 25, 512), float32] */;
  %285 = fn (%p053: Tensor[(1, 25, 25, 512), float32], %p152: Tensor[(3, 3, 512, 512), float32], %p252: Tensor[(1, 1, 1, 512), float32], Primitive=1) -> Tensor[(1, 25, 25, 512), float32] {
    %283 = nn.conv2d(%p053, %p152, padding=[1, 1, 1, 1], channels=512, kernel_size=[3, 3], data_layout="NHWC", kernel_layout="HWIO") /* ty=Tensor[(1, 25, 25, 512), float32] */;
    %284 = add(%283, %p252) /* ty=Tensor[(1, 25, 25, 512), float32] */;
    nn.relu(%284) /* ty=Tensor[(1, 25, 25, 512), float32] */
  };
  %286 = (%x106, meta[relay.Constant][158] /* ty=Tensor[(3, 3, 512, 512), float32] */, meta[relay.Constant][159] /* ty=Tensor[(1, 1, 1, 512), float32] */);
  %287 = (%tensor_053,);
  let %x107: () = vm.invoke_tvm_op(%285, %286, %287) /* ty=() */;
  let %x108: Tensor[(1, 25, 25, 512), float32] = %tensor_053;
  let %storage_054: Storage[] = memory.alloc_storage(5120000 /* ty=int64 */, 64 /* ty=int64 */, meta[relay.attrs.AllocStorageAttrs][54]) /* ty=Storage[] */;
  let %tensor_054: Tensor[(1, 25, 25, 2048), float32] = memory.alloc_tensor(%storage_054, 0 /* ty=int64 */, meta[relay.Constant][160] /* ty=Tensor[(4), int64] */, meta[relay.attrs.AllocTensorAttrs][54]) /* ty=Tensor[(1, 25, 25, 2048), float32] */;
  %291 = fn (%p054: Tensor[(1, 25, 25, 512), float32], %p153: Tensor[(1, 1, 512, 2048), float32], %p253: Tensor[(1, 1, 1, 2048), float32], %p315: Tensor[(1, 25, 25, 2048), float32], Primitive=1) -> Tensor[(1, 25, 25, 2048), float32] {
    %288 = nn.conv2d(%p054, %p153, padding=[0, 0, 0, 0], channels=2048, kernel_size=[1, 1], data_layout="NHWC", kernel_layout="HWIO") /* ty=Tensor[(1, 25, 25, 2048), float32] */;
    %289 = add(%288, %p253) /* ty=Tensor[(1, 25, 25, 2048), float32] */;
    %290 = add(%289, %p315) /* ty=Tensor[(1, 25, 25, 2048), float32] */;
    nn.relu(%290) /* ty=Tensor[(1, 25, 25, 2048), float32] */
  };
  %292 = (%x108, meta[relay.Constant][161] /* ty=Tensor[(1, 1, 512, 2048), float32] */, meta[relay.Constant][162] /* ty=Tensor[(1, 1, 1, 2048), float32] */, %x104);
  %293 = (%tensor_054,);
  let %x109: () = vm.invoke_tvm_op(%291, %292, %293) /* ty=() */;
  let %x110: Tensor[(1, 25, 25, 2048), float32] = %tensor_054;
  let %storage_055: Storage[] = memory.alloc_storage(640000 /* ty=int64 */, 64 /* ty=int64 */, meta[relay.attrs.AllocStorageAttrs][55]) /* ty=Storage[] */;
  let %tensor_055: Tensor[(1, 25, 25, 256), float32] = memory.alloc_tensor(%storage_055, 0 /* ty=int64 */, meta[relay.Constant][163] /* ty=Tensor[(4), int64] */, meta[relay.attrs.AllocTensorAttrs][55]) /* ty=Tensor[(1, 25, 25, 256), float32] */;
  %295 = fn (%p055: Tensor[(1, 25, 25, 2048), float32], %p154: Tensor[(1, 1, 2048, 256), float32], %p254: Tensor[(1, 1, 1, 256), float32], Primitive=1) -> Tensor[(1, 25, 25, 256), float32] {
    %294 = nn.conv2d(%p055, %p154, padding=[0, 0, 0, 0], channels=256, kernel_size=[1, 1], data_layout="NHWC", kernel_layout="HWIO") /* ty=Tensor[(1, 25, 25, 256), float32] */;
    add(%294, %p254) /* ty=Tensor[(1, 25, 25, 256), float32] */
  };
  %296 = (%x110, meta[relay.Constant][164] /* ty=Tensor[(1, 1, 2048, 256), float32] */, meta[relay.Constant][165] /* ty=Tensor[(1, 1, 1, 256), float32] */);
  %297 = (%tensor_055,);
  let %x111: () = vm.invoke_tvm_op(%295, %296, %297) /* ty=() */;
  let %x112: Tensor[(1, 25, 25, 256), float32] = %tensor_055;
  let %storage_056: Storage[] = memory.alloc_storage(2560000 /* ty=int64 */, 64 /* ty=int64 */, meta[relay.attrs.AllocStorageAttrs][56]) /* ty=Storage[] */;
  let %tensor_056: Tensor[(1, 50, 50, 256), float32] = memory.alloc_tensor(%storage_056, 0 /* ty=int64 */, meta[relay.Constant][166] /* ty=Tensor[(4), int64] */, meta[relay.attrs.AllocTensorAttrs][56]) /* ty=Tensor[(1, 50, 50, 256), float32] */;
  %300 = fn (%p056: Tensor[(1, 25, 25, 256), float32], Primitive=1) -> Tensor[(1, 50, 50, 256), float32] {
    %298 = layout_transform(%p056, src_layout="NHWC", dst_layout="NCHW") /* ty=Tensor[(1, 256, 25, 25), float32] */;
    %299 = image.resize(%298, size=[50, 50], method="nearest_neighbor", coordinate_transformation_mode="asymmetric") /* ty=Tensor[(1, 256, 50, 50), float32] */;
    layout_transform(%299, src_layout="NCHW", dst_layout="NHWC") /* ty=Tensor[(1, 50, 50, 256), float32] */
  };
  %301 = (%x112,);
  %302 = (%tensor_056,);
  let %x113: () = vm.invoke_tvm_op(%300, %301, %302) /* ty=() */;
  let %x114: Tensor[(1, 50, 50, 256), float32] = %tensor_056;
  let %storage_057: Storage[] = memory.alloc_storage(2560000 /* ty=int64 */, 64 /* ty=int64 */, meta[relay.attrs.AllocStorageAttrs][57]) /* ty=Storage[] */;
  let %tensor_057: Tensor[(1, 50, 50, 256), float32] = memory.alloc_tensor(%storage_057, 0 /* ty=int64 */, meta[relay.Constant][167] /* ty=Tensor[(4), int64] */, meta[relay.attrs.AllocTensorAttrs][57]) /* ty=Tensor[(1, 50, 50, 256), float32] */;
  %305 = fn (%p057: Tensor[(1, 50, 50, 1024), float32], %p155: Tensor[(1, 1, 1024, 256), float32], %p255: Tensor[(1, 1, 1, 256), float32], %p316: Tensor[(1, 50, 50, 256), float32], Primitive=1) -> Tensor[(1, 50, 50, 256), float32] {
    %303 = nn.conv2d(%p057, %p155, padding=[0, 0, 0, 0], channels=256, kernel_size=[1, 1], data_layout="NHWC", kernel_layout="HWIO") /* ty=Tensor[(1, 50, 50, 256), float32] */;
    %304 = add(%303, %p255) /* ty=Tensor[(1, 50, 50, 256), float32] */;
    add(%304, %p316) /* ty=Tensor[(1, 50, 50, 256), float32] */
  };
  %306 = (%x90, meta[relay.Constant][168] /* ty=Tensor[(1, 1, 1024, 256), float32] */, meta[relay.Constant][169] /* ty=Tensor[(1, 1, 1, 256), float32] */, %x114);
  %307 = (%tensor_057,);
  let %x115: () = vm.invoke_tvm_op(%305, %306, %307) /* ty=() */;
  let %x116: Tensor[(1, 50, 50, 256), float32] = %tensor_057;
  let %storage_058: Storage[] = memory.alloc_storage(10240000 /* ty=int64 */, 64 /* ty=int64 */, meta[relay.attrs.AllocStorageAttrs][58]) /* ty=Storage[] */;
  let %tensor_058: Tensor[(1, 100, 100, 256), float32] = memory.alloc_tensor(%storage_058, 0 /* ty=int64 */, meta[relay.Constant][170] /* ty=Tensor[(4), int64] */, meta[relay.attrs.AllocTensorAttrs][58]) /* ty=Tensor[(1, 100, 100, 256), float32] */;
  %310 = fn (%p058: Tensor[(1, 50, 50, 256), float32], Primitive=1) -> Tensor[(1, 100, 100, 256), float32] {
    %308 = layout_transform(%p058, src_layout="NHWC", dst_layout="NCHW") /* ty=Tensor[(1, 256, 50, 50), float32] */;
    %309 = image.resize(%308, size=[100, 100], method="nearest_neighbor", coordinate_transformation_mode="asymmetric") /* ty=Tensor[(1, 256, 100, 100), float32] */;
    layout_transform(%309, src_layout="NCHW", dst_layout="NHWC") /* ty=Tensor[(1, 100, 100, 256), float32] */
  };
  %311 = (%x116,);
  %312 = (%tensor_058,);
  let %x117: () = vm.invoke_tvm_op(%310, %311, %312) /* ty=() */;
  let %x118: Tensor[(1, 100, 100, 256), float32] = %tensor_058;
  let %storage_059: Storage[] = memory.alloc_storage(10240000 /* ty=int64 */, 64 /* ty=int64 */, meta[relay.attrs.AllocStorageAttrs][59]) /* ty=Storage[] */;
  let %tensor_059: Tensor[(1, 100, 100, 256), float32] = memory.alloc_tensor(%storage_059, 0 /* ty=int64 */, meta[relay.Constant][171] /* ty=Tensor[(4), int64] */, meta[relay.attrs.AllocTensorAttrs][59]) /* ty=Tensor[(1, 100, 100, 256), float32] */;
  %315 = fn (%p059: Tensor[(1, 100, 100, 512), float32], %p156: Tensor[(1, 1, 512, 256), float32], %p256: Tensor[(1, 1, 1, 256), float32], %p317: Tensor[(1, 100, 100, 256), float32], Primitive=1) -> Tensor[(1, 100, 100, 256), float32] {
    %313 = nn.conv2d(%p059, %p156, padding=[0, 0, 0, 0], channels=256, kernel_size=[1, 1], data_layout="NHWC", kernel_layout="HWIO") /* ty=Tensor[(1, 100, 100, 256), float32] */;
    %314 = add(%313, %p256) /* ty=Tensor[(1, 100, 100, 256), float32] */;
    add(%314, %p317) /* ty=Tensor[(1, 100, 100, 256), float32] */
  };
  %316 = (%x52, meta[relay.Constant][172] /* ty=Tensor[(1, 1, 512, 256), float32] */, meta[relay.Constant][173] /* ty=Tensor[(1, 1, 1, 256), float32] */, %x118);
  %317 = (%tensor_059,);
  let %x119: () = vm.invoke_tvm_op(%315, %316, %317) /* ty=() */;
  let %x120: Tensor[(1, 100, 100, 256), float32] = %tensor_059;
  let %storage_060: Storage[] = memory.alloc_storage(40960000 /* ty=int64 */, 64 /* ty=int64 */, meta[relay.attrs.AllocStorageAttrs][60]) /* ty=Storage[] */;
  let %tensor_060: Tensor[(1, 200, 200, 256), float32] = memory.alloc_tensor(%storage_060, 0 /* ty=int64 */, meta[relay.Constant][174] /* ty=Tensor[(4), int64] */, meta[relay.attrs.AllocTensorAttrs][60]) /* ty=Tensor[(1, 200, 200, 256), float32] */;
  %320 = fn (%p060: Tensor[(1, 100, 100, 256), float32], Primitive=1) -> Tensor[(1, 200, 200, 256), float32] {
    %318 = layout_transform(%p060, src_layout="NHWC", dst_layout="NCHW") /* ty=Tensor[(1, 256, 100, 100), float32] */;
    %319 = image.resize(%318, size=[200, 200], method="nearest_neighbor", coordinate_transformation_mode="asymmetric") /* ty=Tensor[(1, 256, 200, 200), float32] */;
    layout_transform(%319, src_layout="NCHW", dst_layout="NHWC") /* ty=Tensor[(1, 200, 200, 256), float32] */
  };
  %321 = (%x120,);
  %322 = (%tensor_060,);
  let %x121: () = vm.invoke_tvm_op(%320, %321, %322) /* ty=() */;
  let %x122: Tensor[(1, 200, 200, 256), float32] = %tensor_060;
  let %storage_061: Storage[] = memory.alloc_storage(40960000 /* ty=int64 */, 64 /* ty=int64 */, meta[relay.attrs.AllocStorageAttrs][61]) /* ty=Storage[] */;
  let %tensor_061: Tensor[(1, 200, 200, 256), float32] = memory.alloc_tensor(%storage_061, 0 /* ty=int64 */, meta[relay.Constant][175] /* ty=Tensor[(4), int64] */, meta[relay.attrs.AllocTensorAttrs][61]) /* ty=Tensor[(1, 200, 200, 256), float32] */;
  %325 = fn (%p061: Tensor[(1, 200, 200, 256), float32], %p157: Tensor[(1, 1, 256, 256), float32], %p257: Tensor[(1, 1, 1, 256), float32], %p318: Tensor[(1, 200, 200, 256), float32], Primitive=1) -> Tensor[(1, 200, 200, 256), float32] {
    %323 = nn.conv2d(%p061, %p157, padding=[0, 0, 0, 0], channels=256, kernel_size=[1, 1], data_layout="NHWC", kernel_layout="HWIO") /* ty=Tensor[(1, 200, 200, 256), float32] */;
    %324 = add(%323, %p257) /* ty=Tensor[(1, 200, 200, 256), float32] */;
    add(%324, %p318) /* ty=Tensor[(1, 200, 200, 256), float32] */
  };
  %326 = (%x26, meta[relay.Constant][176] /* ty=Tensor[(1, 1, 256, 256), float32] */, meta[relay.Constant][177] /* ty=Tensor[(1, 1, 1, 256), float32] */, %x122);
  %327 = (%tensor_061,);
  let %x123: () = vm.invoke_tvm_op(%325, %326, %327) /* ty=() */;
  let %x124: Tensor[(1, 200, 200, 256), float32] = %tensor_061;
  let %storage_062: Storage[] = memory.alloc_storage(40960000 /* ty=int64 */, 64 /* ty=int64 */, meta[relay.attrs.AllocStorageAttrs][62]) /* ty=Storage[] */;
  let %tensor_062: Tensor[(1, 200, 200, 256), float32] = memory.alloc_tensor(%storage_062, 0 /* ty=int64 */, meta[relay.Constant][178] /* ty=Tensor[(4), int64] */, meta[relay.attrs.AllocTensorAttrs][62]) /* ty=Tensor[(1, 200, 200, 256), float32] */;
  %329 = fn (%p062: Tensor[(1, 200, 200, 256), float32], %p158: Tensor[(3, 3, 256, 256), float32], %p258: Tensor[(1, 1, 1, 256), float32], Primitive=1) -> Tensor[(1, 200, 200, 256), float32] {
    %328 = nn.conv2d(%p062, %p158, padding=[1, 1, 1, 1], channels=256, kernel_size=[3, 3], data_layout="NHWC", kernel_layout="HWIO") /* ty=Tensor[(1, 200, 200, 256), float32] */;
    add(%328, %p258) /* ty=Tensor[(1, 200, 200, 256), float32] */
  };
  %330 = (%x124, meta[relay.Constant][179] /* ty=Tensor[(3, 3, 256, 256), float32] */, meta[relay.Constant][180] /* ty=Tensor[(1, 1, 1, 256), float32] */);
  %331 = (%tensor_062,);
  let %x125: () = vm.invoke_tvm_op(%329, %330, %331) /* ty=() */;
  let %x126: Tensor[(1, 200, 200, 256), float32] = %tensor_062;
  let %storage_063: Storage[] = memory.alloc_storage(40960000 /* ty=int64 */, 64 /* ty=int64 */, meta[relay.attrs.AllocStorageAttrs][63]) /* ty=Storage[] */;
  let %tensor_063: Tensor[(1, 200, 200, 256), float32] = memory.alloc_tensor(%storage_063, 0 /* ty=int64 */, meta[relay.Constant][181] /* ty=Tensor[(4), int64] */, meta[relay.attrs.AllocTensorAttrs][63]) /* ty=Tensor[(1, 200, 200, 256), float32] */;
  %334 = fn (%p063: Tensor[(1, 200, 200, 256), float32], %p159: Tensor[(3, 3, 256, 256), float32], %p259: Tensor[(1, 1, 1, 256), float32], Primitive=1) -> Tensor[(1, 200, 200, 256), float32] {
    %332 = nn.conv2d(%p063, %p159, padding=[1, 1, 1, 1], channels=256, kernel_size=[3, 3], data_layout="NHWC", kernel_layout="HWIO") /* ty=Tensor[(1, 200, 200, 256), float32] */;
    %333 = add(%332, %p259) /* ty=Tensor[(1, 200, 200, 256), float32] */;
    nn.relu(%333) /* ty=Tensor[(1, 200, 200, 256), float32] */
  };
  %335 = (%x126, meta[relay.Constant][182] /* ty=Tensor[(3, 3, 256, 256), float32] */, meta[relay.Constant][183] /* ty=Tensor[(1, 1, 1, 256), float32] */);
  %336 = (%tensor_063,);
  let %x127: () = vm.invoke_tvm_op(%334, %335, %336) /* ty=() */;
  let %x128: Tensor[(1, 200, 200, 256), float32] = %tensor_063;
  let %storage_064: Storage[] = memory.alloc_storage(1920000 /* ty=int64 */, 64 /* ty=int64 */, meta[relay.attrs.AllocStorageAttrs][64]) /* ty=Storage[] */;
  let %tensor_064: Tensor[(1, 200, 200, 12), float32] = memory.alloc_tensor(%storage_064, 0 /* ty=int64 */, meta[relay.Constant][184] /* ty=Tensor[(4), int64] */, meta[relay.attrs.AllocTensorAttrs][64]) /* ty=Tensor[(1, 200, 200, 12), float32] */;
  %338 = fn (%p064: Tensor[(1, 200, 200, 256), float32], %p160: Tensor[(1, 1, 256, 12), float32], %p260: Tensor[(1, 1, 1, 12), float32], Primitive=1) -> Tensor[(1, 200, 200, 12), float32] {
    %337 = nn.conv2d(%p064, %p160, padding=[0, 0, 0, 0], channels=12, kernel_size=[1, 1], data_layout="NHWC", kernel_layout="HWIO") /* ty=Tensor[(1, 200, 200, 12), float32] */;
    add(%337, %p260) /* ty=Tensor[(1, 200, 200, 12), float32] */
  };
  %339 = (%x128, meta[relay.Constant][185] /* ty=Tensor[(1, 1, 256, 12), float32] */, meta[relay.Constant][186] /* ty=Tensor[(1, 1, 1, 12), float32] */);
  %340 = (%tensor_064,);
  let %x129: () = vm.invoke_tvm_op(%338, %339, %340) /* ty=() */;
  let %x130: Tensor[(1, 200, 200, 12), float32] = %tensor_064;
  let %storage_065: Storage[] = memory.alloc_storage(10240000 /* ty=int64 */, 64 /* ty=int64 */, meta[relay.attrs.AllocStorageAttrs][65]) /* ty=Storage[] */;
  let %tensor_065: Tensor[(1, 100, 100, 256), float32] = memory.alloc_tensor(%storage_065, 0 /* ty=int64 */, meta[relay.Constant][187] /* ty=Tensor[(4), int64] */, meta[relay.attrs.AllocTensorAttrs][65]) /* ty=Tensor[(1, 100, 100, 256), float32] */;
  %342 = fn (%p065: Tensor[(1, 100, 100, 256), float32], %p161: Tensor[(3, 3, 256, 256), float32], %p261: Tensor[(1, 1, 1, 256), float32], Primitive=1) -> Tensor[(1, 100, 100, 256), float32] {
    %341 = nn.conv2d(%p065, %p161, padding=[1, 1, 1, 1], channels=256, kernel_size=[3, 3], data_layout="NHWC", kernel_layout="HWIO") /* ty=Tensor[(1, 100, 100, 256), float32] */;
    add(%341, %p261) /* ty=Tensor[(1, 100, 100, 256), float32] */
  };
  %343 = (%x120, meta[relay.Constant][188] /* ty=Tensor[(3, 3, 256, 256), float32] */, meta[relay.Constant][189] /* ty=Tensor[(1, 1, 1, 256), float32] */);
  %344 = (%tensor_065,);
  let %x131: () = vm.invoke_tvm_op(%342, %343, %344) /* ty=() */;
  let %x132: Tensor[(1, 100, 100, 256), float32] = %tensor_065;
  let %storage_066: Storage[] = memory.alloc_storage(10240000 /* ty=int64 */, 64 /* ty=int64 */, meta[relay.attrs.AllocStorageAttrs][66]) /* ty=Storage[] */;
  let %tensor_066: Tensor[(1, 100, 100, 256), float32] = memory.alloc_tensor(%storage_066, 0 /* ty=int64 */, meta[relay.Constant][190] /* ty=Tensor[(4), int64] */, meta[relay.attrs.AllocTensorAttrs][66]) /* ty=Tensor[(1, 100, 100, 256), float32] */;
  %347 = fn (%p066: Tensor[(1, 100, 100, 256), float32], %p162: Tensor[(3, 3, 256, 256), float32], %p262: Tensor[(1, 1, 1, 256), float32], Primitive=1) -> Tensor[(1, 100, 100, 256), float32] {
    %345 = nn.conv2d(%p066, %p162, padding=[1, 1, 1, 1], channels=256, kernel_size=[3, 3], data_layout="NHWC", kernel_layout="HWIO") /* ty=Tensor[(1, 100, 100, 256), float32] */;
    %346 = add(%345, %p262) /* ty=Tensor[(1, 100, 100, 256), float32] */;
    nn.relu(%346) /* ty=Tensor[(1, 100, 100, 256), float32] */
  };
  %348 = (%x132, meta[relay.Constant][182] /* ty=Tensor[(3, 3, 256, 256), float32] */, meta[relay.Constant][183] /* ty=Tensor[(1, 1, 1, 256), float32] */);
  %349 = (%tensor_066,);
  let %x133: () = vm.invoke_tvm_op(%347, %348, %349) /* ty=() */;
  let %x134: Tensor[(1, 100, 100, 256), float32] = %tensor_066;
  let %storage_067: Storage[] = memory.alloc_storage(480000 /* ty=int64 */, 64 /* ty=int64 */, meta[relay.attrs.AllocStorageAttrs][67]) /* ty=Storage[] */;
  let %tensor_067: Tensor[(1, 100, 100, 12), float32] = memory.alloc_tensor(%storage_067, 0 /* ty=int64 */, meta[relay.Constant][191] /* ty=Tensor[(4), int64] */, meta[relay.attrs.AllocTensorAttrs][67]) /* ty=Tensor[(1, 100, 100, 12), float32] */;
  %351 = fn (%p067: Tensor[(1, 100, 100, 256), float32], %p163: Tensor[(1, 1, 256, 12), float32], %p263: Tensor[(1, 1, 1, 12), float32], Primitive=1) -> Tensor[(1, 100, 100, 12), float32] {
    %350 = nn.conv2d(%p067, %p163, padding=[0, 0, 0, 0], channels=12, kernel_size=[1, 1], data_layout="NHWC", kernel_layout="HWIO") /* ty=Tensor[(1, 100, 100, 12), float32] */;
    add(%350, %p263) /* ty=Tensor[(1, 100, 100, 12), float32] */
  };
  %352 = (%x134, meta[relay.Constant][185] /* ty=Tensor[(1, 1, 256, 12), float32] */, meta[relay.Constant][186] /* ty=Tensor[(1, 1, 1, 12), float32] */);
  %353 = (%tensor_067,);
  let %x135: () = vm.invoke_tvm_op(%351, %352, %353) /* ty=() */;
  let %x136: Tensor[(1, 100, 100, 12), float32] = %tensor_067;
  let %storage_068: Storage[] = memory.alloc_storage(2560000 /* ty=int64 */, 64 /* ty=int64 */, meta[relay.attrs.AllocStorageAttrs][68]) /* ty=Storage[] */;
  let %tensor_068: Tensor[(1, 50, 50, 256), float32] = memory.alloc_tensor(%storage_068, 0 /* ty=int64 */, meta[relay.Constant][192] /* ty=Tensor[(4), int64] */, meta[relay.attrs.AllocTensorAttrs][68]) /* ty=Tensor[(1, 50, 50, 256), float32] */;
  %355 = fn (%p068: Tensor[(1, 50, 50, 256), float32], %p164: Tensor[(3, 3, 256, 256), float32], %p264: Tensor[(1, 1, 1, 256), float32], Primitive=1) -> Tensor[(1, 50, 50, 256), float32] {
    %354 = nn.conv2d(%p068, %p164, padding=[1, 1, 1, 1], channels=256, kernel_size=[3, 3], data_layout="NHWC", kernel_layout="HWIO") /* ty=Tensor[(1, 50, 50, 256), float32] */;
    add(%354, %p264) /* ty=Tensor[(1, 50, 50, 256), float32] */
  };
  %356 = (%x116, meta[relay.Constant][193] /* ty=Tensor[(3, 3, 256, 256), float32] */, meta[relay.Constant][194] /* ty=Tensor[(1, 1, 1, 256), float32] */);
  %357 = (%tensor_068,);
  let %x137: () = vm.invoke_tvm_op(%355, %356, %357) /* ty=() */;
  let %x138: Tensor[(1, 50, 50, 256), float32] = %tensor_068;
  let %storage_069: Storage[] = memory.alloc_storage(2560000 /* ty=int64 */, 64 /* ty=int64 */, meta[relay.attrs.AllocStorageAttrs][69]) /* ty=Storage[] */;
  let %tensor_069: Tensor[(1, 50, 50, 256), float32] = memory.alloc_tensor(%storage_069, 0 /* ty=int64 */, meta[relay.Constant][195] /* ty=Tensor[(4), int64] */, meta[relay.attrs.AllocTensorAttrs][69]) /* ty=Tensor[(1, 50, 50, 256), float32] */;
  %360 = fn (%p069: Tensor[(1, 50, 50, 256), float32], %p165: Tensor[(3, 3, 256, 256), float32], %p265: Tensor[(1, 1, 1, 256), float32], Primitive=1) -> Tensor[(1, 50, 50, 256), float32] {
    %358 = nn.conv2d(%p069, %p165, padding=[1, 1, 1, 1], channels=256, kernel_size=[3, 3], data_layout="NHWC", kernel_layout="HWIO") /* ty=Tensor[(1, 50, 50, 256), float32] */;
    %359 = add(%358, %p265) /* ty=Tensor[(1, 50, 50, 256), float32] */;
    nn.relu(%359) /* ty=Tensor[(1, 50, 50, 256), float32] */
  };
  %361 = (%x138, meta[relay.Constant][182] /* ty=Tensor[(3, 3, 256, 256), float32] */, meta[relay.Constant][183] /* ty=Tensor[(1, 1, 1, 256), float32] */);
  %362 = (%tensor_069,);
  let %x139: () = vm.invoke_tvm_op(%360, %361, %362) /* ty=() */;
  let %x140: Tensor[(1, 50, 50, 256), float32] = %tensor_069;
  let %storage_070: Storage[] = memory.alloc_storage(120000 /* ty=int64 */, 64 /* ty=int64 */, meta[relay.attrs.AllocStorageAttrs][70]) /* ty=Storage[] */;
  let %tensor_070: Tensor[(1, 50, 50, 12), float32] = memory.alloc_tensor(%storage_070, 0 /* ty=int64 */, meta[relay.Constant][196] /* ty=Tensor[(4), int64] */, meta[relay.attrs.AllocTensorAttrs][70]) /* ty=Tensor[(1, 50, 50, 12), float32] */;
  %364 = fn (%p070: Tensor[(1, 50, 50, 256), float32], %p166: Tensor[(1, 1, 256, 12), float32], %p266: Tensor[(1, 1, 1, 12), float32], Primitive=1) -> Tensor[(1, 50, 50, 12), float32] {
    %363 = nn.conv2d(%p070, %p166, padding=[0, 0, 0, 0], channels=12, kernel_size=[1, 1], data_layout="NHWC", kernel_layout="HWIO") /* ty=Tensor[(1, 50, 50, 12), float32] */;
    add(%363, %p266) /* ty=Tensor[(1, 50, 50, 12), float32] */
  };
  %365 = (%x140, meta[relay.Constant][185] /* ty=Tensor[(1, 1, 256, 12), float32] */, meta[relay.Constant][186] /* ty=Tensor[(1, 1, 1, 12), float32] */);
  %366 = (%tensor_070,);
  let %x141: () = vm.invoke_tvm_op(%364, %365, %366) /* ty=() */;
  let %x142: Tensor[(1, 50, 50, 12), float32] = %tensor_070;
  let %storage_071: Storage[] = memory.alloc_storage(640000 /* ty=int64 */, 64 /* ty=int64 */, meta[relay.attrs.AllocStorageAttrs][71]) /* ty=Storage[] */;
  let %tensor_071: Tensor[(1, 25, 25, 256), float32] = memory.alloc_tensor(%storage_071, 0 /* ty=int64 */, meta[relay.Constant][197] /* ty=Tensor[(4), int64] */, meta[relay.attrs.AllocTensorAttrs][71]) /* ty=Tensor[(1, 25, 25, 256), float32] */;
  %368 = fn (%p071: Tensor[(1, 25, 25, 256), float32], %p167: Tensor[(3, 3, 256, 256), float32], %p267: Tensor[(1, 1, 1, 256), float32], Primitive=1) -> Tensor[(1, 25, 25, 256), float32] {
    %367 = nn.conv2d(%p071, %p167, padding=[1, 1, 1, 1], channels=256, kernel_size=[3, 3], data_layout="NHWC", kernel_layout="HWIO") /* ty=Tensor[(1, 25, 25, 256), float32] */;
    add(%367, %p267) /* ty=Tensor[(1, 25, 25, 256), float32] */
  };
  %369 = (%x112, meta[relay.Constant][198] /* ty=Tensor[(3, 3, 256, 256), float32] */, meta[relay.Constant][199] /* ty=Tensor[(1, 1, 1, 256), float32] */);
  %370 = (%tensor_071,);
  let %x143: () = vm.invoke_tvm_op(%368, %369, %370) /* ty=() */;
  let %x144: Tensor[(1, 25, 25, 256), float32] = %tensor_071;
  let %storage_072: Storage[] = memory.alloc_storage(640000 /* ty=int64 */, 64 /* ty=int64 */, meta[relay.attrs.AllocStorageAttrs][72]) /* ty=Storage[] */;
  let %tensor_072: Tensor[(1, 25, 25, 256), float32] = memory.alloc_tensor(%storage_072, 0 /* ty=int64 */, meta[relay.Constant][200] /* ty=Tensor[(4), int64] */, meta[relay.attrs.AllocTensorAttrs][72]) /* ty=Tensor[(1, 25, 25, 256), float32] */;
  %373 = fn (%p072: Tensor[(1, 25, 25, 256), float32], %p168: Tensor[(3, 3, 256, 256), float32], %p268: Tensor[(1, 1, 1, 256), float32], Primitive=1) -> Tensor[(1, 25, 25, 256), float32] {
    %371 = nn.conv2d(%p072, %p168, padding=[1, 1, 1, 1], channels=256, kernel_size=[3, 3], data_layout="NHWC", kernel_layout="HWIO") /* ty=Tensor[(1, 25, 25, 256), float32] */;
    %372 = add(%371, %p268) /* ty=Tensor[(1, 25, 25, 256), float32] */;
    nn.relu(%372) /* ty=Tensor[(1, 25, 25, 256), float32] */
  };
  %374 = (%x144, meta[relay.Constant][182] /* ty=Tensor[(3, 3, 256, 256), float32] */, meta[relay.Constant][183] /* ty=Tensor[(1, 1, 1, 256), float32] */);
  %375 = (%tensor_072,);
  let %x145: () = vm.invoke_tvm_op(%373, %374, %375) /* ty=() */;
  let %x146: Tensor[(1, 25, 25, 256), float32] = %tensor_072;
  let %storage_073: Storage[] = memory.alloc_storage(30000 /* ty=int64 */, 64 /* ty=int64 */, meta[relay.attrs.AllocStorageAttrs][73]) /* ty=Storage[] */;
  let %tensor_073: Tensor[(1, 25, 25, 12), float32] = memory.alloc_tensor(%storage_073, 0 /* ty=int64 */, meta[relay.Constant][201] /* ty=Tensor[(4), int64] */, meta[relay.attrs.AllocTensorAttrs][73]) /* ty=Tensor[(1, 25, 25, 12), float32] */;
  %377 = fn (%p073: Tensor[(1, 25, 25, 256), float32], %p169: Tensor[(1, 1, 256, 12), float32], %p269: Tensor[(1, 1, 1, 12), float32], Primitive=1) -> Tensor[(1, 25, 25, 12), float32] {
    %376 = nn.conv2d(%p073, %p169, padding=[0, 0, 0, 0], channels=12, kernel_size=[1, 1], data_layout="NHWC", kernel_layout="HWIO") /* ty=Tensor[(1, 25, 25, 12), float32] */;
    add(%376, %p269) /* ty=Tensor[(1, 25, 25, 12), float32] */
  };
  %378 = (%x146, meta[relay.Constant][185] /* ty=Tensor[(1, 1, 256, 12), float32] */, meta[relay.Constant][186] /* ty=Tensor[(1, 1, 1, 12), float32] */);
  %379 = (%tensor_073,);
  let %x147: () = vm.invoke_tvm_op(%377, %378, %379) /* ty=() */;
  let %x148: Tensor[(1, 25, 25, 12), float32] = %tensor_073;
  let %storage_074: Storage[] = memory.alloc_storage(173056 /* ty=int64 */, 64 /* ty=int64 */, meta[relay.attrs.AllocStorageAttrs][74]) /* ty=Storage[] */;
  let %tensor_074: Tensor[(1, 13, 13, 256), float32] = memory.alloc_tensor(%storage_074, 0 /* ty=int64 */, meta[relay.Constant][202] /* ty=Tensor[(4), int64] */, meta[relay.attrs.AllocTensorAttrs][74]) /* ty=Tensor[(1, 13, 13, 256), float32] */;
  %380 = fn (%p074: Tensor[(1, 25, 25, 256), float32], Primitive=1) -> Tensor[(1, 13, 13, 256), float32] {
    nn.max_pool2d(%p074, pool_size=[1, 1], strides=[2, 2], padding=[0, 0, 0, 0], layout="NHWC") /* ty=Tensor[(1, 13, 13, 256), float32] */
  };
  %381 = (%x144,);
  %382 = (%tensor_074,);
  let %x149: () = vm.invoke_tvm_op(%380, %381, %382) /* ty=() */;
  let %x150: Tensor[(1, 13, 13, 256), float32] = %tensor_074;
  let %storage_075: Storage[] = memory.alloc_storage(173056 /* ty=int64 */, 64 /* ty=int64 */, meta[relay.attrs.AllocStorageAttrs][75]) /* ty=Storage[] */;
  let %tensor_075: Tensor[(1, 13, 13, 256), float32] = memory.alloc_tensor(%storage_075, 0 /* ty=int64 */, meta[relay.Constant][203] /* ty=Tensor[(4), int64] */, meta[relay.attrs.AllocTensorAttrs][75]) /* ty=Tensor[(1, 13, 13, 256), float32] */;
  %385 = fn (%p075: Tensor[(1, 13, 13, 256), float32], %p170: Tensor[(3, 3, 256, 256), float32], %p270: Tensor[(1, 1, 1, 256), float32], Primitive=1) -> Tensor[(1, 13, 13, 256), float32] {
    %383 = nn.conv2d(%p075, %p170, padding=[1, 1, 1, 1], channels=256, kernel_size=[3, 3], data_layout="NHWC", kernel_layout="HWIO") /* ty=Tensor[(1, 13, 13, 256), float32] */;
    %384 = add(%383, %p270) /* ty=Tensor[(1, 13, 13, 256), float32] */;
    nn.relu(%384) /* ty=Tensor[(1, 13, 13, 256), float32] */
  };
  %386 = (%x150, meta[relay.Constant][182] /* ty=Tensor[(3, 3, 256, 256), float32] */, meta[relay.Constant][183] /* ty=Tensor[(1, 1, 1, 256), float32] */);
  %387 = (%tensor_075,);
  let %x151: () = vm.invoke_tvm_op(%385, %386, %387) /* ty=() */;
  let %x152: Tensor[(1, 13, 13, 256), float32] = %tensor_075;
  let %storage_076: Storage[] = memory.alloc_storage(8112 /* ty=int64 */, 64 /* ty=int64 */, meta[relay.attrs.AllocStorageAttrs][76]) /* ty=Storage[] */;
  let %tensor_076: Tensor[(1, 13, 13, 12), float32] = memory.alloc_tensor(%storage_076, 0 /* ty=int64 */, meta[relay.Constant][204] /* ty=Tensor[(4), int64] */, meta[relay.attrs.AllocTensorAttrs][76]) /* ty=Tensor[(1, 13, 13, 12), float32] */;
  %389 = fn (%p076: Tensor[(1, 13, 13, 256), float32], %p171: Tensor[(1, 1, 256, 12), float32], %p271: Tensor[(1, 1, 1, 12), float32], Primitive=1) -> Tensor[(1, 13, 13, 12), float32] {
    %388 = nn.conv2d(%p076, %p171, padding=[0, 0, 0, 0], channels=12, kernel_size=[1, 1], data_layout="NHWC", kernel_layout="HWIO") /* ty=Tensor[(1, 13, 13, 12), float32] */;
    add(%388, %p271) /* ty=Tensor[(1, 13, 13, 12), float32] */
  };
  %390 = (%x152, meta[relay.Constant][185] /* ty=Tensor[(1, 1, 256, 12), float32] */, meta[relay.Constant][186] /* ty=Tensor[(1, 1, 1, 12), float32] */);
  %391 = (%tensor_076,);
  let %x153: () = vm.invoke_tvm_op(%389, %390, %391) /* ty=() */;
  let %x154: Tensor[(1, 13, 13, 12), float32] = %tensor_076;
  let %storage_077: Storage[] = memory.alloc_storage(480000 /* ty=int64 */, 64 /* ty=int64 */, meta[relay.attrs.AllocStorageAttrs][77]) /* ty=Storage[] */;
  let %tensor_077: Tensor[(1, 200, 200, 3), float32] = memory.alloc_tensor(%storage_077, 0 /* ty=int64 */, meta[relay.Constant][205] /* ty=Tensor[(4), int64] */, meta[relay.attrs.AllocTensorAttrs][77]) /* ty=Tensor[(1, 200, 200, 3), float32] */;
  %393 = fn (%p077: Tensor[(1, 200, 200, 256), float32], %p172: Tensor[(1, 1, 256, 3), float32], %p272: Tensor[(1, 1, 1, 3), float32], Primitive=1) -> Tensor[(1, 200, 200, 3), float32] {
    %392 = nn.conv2d(%p077, %p172, padding=[0, 0, 0, 0], channels=3, kernel_size=[1, 1], data_layout="NHWC", kernel_layout="HWIO") /* ty=Tensor[(1, 200, 200, 3), float32] */;
    add(%392, %p272) /* ty=Tensor[(1, 200, 200, 3), float32] */
  };
  %394 = (%x128, meta[relay.Constant][206] /* ty=Tensor[(1, 1, 256, 3), float32] */, meta[relay.Constant][207] /* ty=Tensor[(1, 1, 1, 3), float32] */);
  %395 = (%tensor_077,);
  let %x155: () = vm.invoke_tvm_op(%393, %394, %395) /* ty=() */;
  let %x156: Tensor[(1, 200, 200, 3), float32] = %tensor_077;
  let %storage_078: Storage[] = memory.alloc_storage(120000 /* ty=int64 */, 64 /* ty=int64 */, meta[relay.attrs.AllocStorageAttrs][78]) /* ty=Storage[] */;
  let %tensor_078: Tensor[(1, 100, 100, 3), float32] = memory.alloc_tensor(%storage_078, 0 /* ty=int64 */, meta[relay.Constant][208] /* ty=Tensor[(4), int64] */, meta[relay.attrs.AllocTensorAttrs][78]) /* ty=Tensor[(1, 100, 100, 3), float32] */;
  %397 = fn (%p078: Tensor[(1, 100, 100, 256), float32], %p173: Tensor[(1, 1, 256, 3), float32], %p273: Tensor[(1, 1, 1, 3), float32], Primitive=1) -> Tensor[(1, 100, 100, 3), float32] {
    %396 = nn.conv2d(%p078, %p173, padding=[0, 0, 0, 0], channels=3, kernel_size=[1, 1], data_layout="NHWC", kernel_layout="HWIO") /* ty=Tensor[(1, 100, 100, 3), float32] */;
    add(%396, %p273) /* ty=Tensor[(1, 100, 100, 3), float32] */
  };
  %398 = (%x134, meta[relay.Constant][206] /* ty=Tensor[(1, 1, 256, 3), float32] */, meta[relay.Constant][207] /* ty=Tensor[(1, 1, 1, 3), float32] */);
  %399 = (%tensor_078,);
  let %x157: () = vm.invoke_tvm_op(%397, %398, %399) /* ty=() */;
  let %x158: Tensor[(1, 100, 100, 3), float32] = %tensor_078;
  let %storage_079: Storage[] = memory.alloc_storage(30000 /* ty=int64 */, 64 /* ty=int64 */, meta[relay.attrs.AllocStorageAttrs][79]) /* ty=Storage[] */;
  let %tensor_079: Tensor[(1, 50, 50, 3), float32] = memory.alloc_tensor(%storage_079, 0 /* ty=int64 */, meta[relay.Constant][209] /* ty=Tensor[(4), int64] */, meta[relay.attrs.AllocTensorAttrs][79]) /* ty=Tensor[(1, 50, 50, 3), float32] */;
  %401 = fn (%p079: Tensor[(1, 50, 50, 256), float32], %p174: Tensor[(1, 1, 256, 3), float32], %p274: Tensor[(1, 1, 1, 3), float32], Primitive=1) -> Tensor[(1, 50, 50, 3), float32] {
    %400 = nn.conv2d(%p079, %p174, padding=[0, 0, 0, 0], channels=3, kernel_size=[1, 1], data_layout="NHWC", kernel_layout="HWIO") /* ty=Tensor[(1, 50, 50, 3), float32] */;
    add(%400, %p274) /* ty=Tensor[(1, 50, 50, 3), float32] */
  };
  %402 = (%x140, meta[relay.Constant][206] /* ty=Tensor[(1, 1, 256, 3), float32] */, meta[relay.Constant][207] /* ty=Tensor[(1, 1, 1, 3), float32] */);
  %403 = (%tensor_079,);
  let %x159: () = vm.invoke_tvm_op(%401, %402, %403) /* ty=() */;
  let %x160: Tensor[(1, 50, 50, 3), float32] = %tensor_079;
  let %storage_080: Storage[] = memory.alloc_storage(7500 /* ty=int64 */, 64 /* ty=int64 */, meta[relay.attrs.AllocStorageAttrs][80]) /* ty=Storage[] */;
  let %tensor_080: Tensor[(1, 25, 25, 3), float32] = memory.alloc_tensor(%storage_080, 0 /* ty=int64 */, meta[relay.Constant][210] /* ty=Tensor[(4), int64] */, meta[relay.attrs.AllocTensorAttrs][80]) /* ty=Tensor[(1, 25, 25, 3), float32] */;
  %405 = fn (%p080: Tensor[(1, 25, 25, 256), float32], %p175: Tensor[(1, 1, 256, 3), float32], %p275: Tensor[(1, 1, 1, 3), float32], Primitive=1) -> Tensor[(1, 25, 25, 3), float32] {
    %404 = nn.conv2d(%p080, %p175, padding=[0, 0, 0, 0], channels=3, kernel_size=[1, 1], data_layout="NHWC", kernel_layout="HWIO") /* ty=Tensor[(1, 25, 25, 3), float32] */;
    add(%404, %p275) /* ty=Tensor[(1, 25, 25, 3), float32] */
  };
  %406 = (%x146, meta[relay.Constant][206] /* ty=Tensor[(1, 1, 256, 3), float32] */, meta[relay.Constant][207] /* ty=Tensor[(1, 1, 1, 3), float32] */);
  %407 = (%tensor_080,);
  let %x161: () = vm.invoke_tvm_op(%405, %406, %407) /* ty=() */;
  let %x162: Tensor[(1, 25, 25, 3), float32] = %tensor_080;
  let %storage_081: Storage[] = memory.alloc_storage(2028 /* ty=int64 */, 64 /* ty=int64 */, meta[relay.attrs.AllocStorageAttrs][81]) /* ty=Storage[] */;
  let %tensor_081: Tensor[(1, 13, 13, 3), float32] = memory.alloc_tensor(%storage_081, 0 /* ty=int64 */, meta[relay.Constant][211] /* ty=Tensor[(4), int64] */, meta[relay.attrs.AllocTensorAttrs][81]) /* ty=Tensor[(1, 13, 13, 3), float32] */;
  %409 = fn (%p081: Tensor[(1, 13, 13, 256), float32], %p176: Tensor[(1, 1, 256, 3), float32], %p276: Tensor[(1, 1, 1, 3), float32], Primitive=1) -> Tensor[(1, 13, 13, 3), float32] {
    %408 = nn.conv2d(%p081, %p176, padding=[0, 0, 0, 0], channels=3, kernel_size=[1, 1], data_layout="NHWC", kernel_layout="HWIO") /* ty=Tensor[(1, 13, 13, 3), float32] */;
    add(%408, %p276) /* ty=Tensor[(1, 13, 13, 3), float32] */
  };
  %410 = (%x152, meta[relay.Constant][206] /* ty=Tensor[(1, 1, 256, 3), float32] */, meta[relay.Constant][207] /* ty=Tensor[(1, 1, 1, 3), float32] */);
  %411 = (%tensor_081,);
  let %x163: () = vm.invoke_tvm_op(%409, %410, %411) /* ty=() */;
  let %x164: Tensor[(1, 13, 13, 3), float32] = %tensor_081;
  let %storage_082: Storage[] = memory.alloc_storage(639528 /* ty=int64 */, 64 /* ty=int64 */, meta[relay.attrs.AllocStorageAttrs][82]) /* ty=Storage[] */;
  let %tensor_082: Tensor[(1, 159882), float32] = memory.alloc_tensor(%storage_082, 0 /* ty=int64 */, meta[relay.Constant][212] /* ty=Tensor[(2), int64] */, meta[relay.attrs.AllocTensorAttrs][82]) /* ty=Tensor[(1, 159882), float32] */;
  %436 = fn (%p082: Tensor[(1, 200, 200, 3), float32], %p177: Tensor[(1, 100, 100, 3), float32], %p277: Tensor[(1, 50, 50, 3), float32], %p319: Tensor[(1, 25, 25, 3), float32], %p4: Tensor[(1, 13, 13, 3), float32], Primitive=1) -> Tensor[(1, 159882), float32] {
    %412 = layout_transform(%p082, src_layout="NHWC", dst_layout="NCHW") /* ty=Tensor[(1, 3, 200, 200), float32] */;
    %413 = reshape(%412, newshape=[1, -1, 1, 200, 200]) /* ty=Tensor[(1, 3, 1, 200, 200), float32] */;
    %414 = transpose(%413, axes=[0, 3, 4, 1, 2]) /* ty=Tensor[(1, 200, 200, 3, 1), float32] */;
    %415 = reshape(%414, newshape=[1, -1, 1]) /* ty=Tensor[(1, 120000, 1), float32] */;
    %416 = layout_transform(%p177, src_layout="NHWC", dst_layout="NCHW") /* ty=Tensor[(1, 3, 100, 100), float32] */;
    %417 = reshape(%416, newshape=[1, -1, 1, 100, 100]) /* ty=Tensor[(1, 3, 1, 100, 100), float32] */;
    %418 = transpose(%417, axes=[0, 3, 4, 1, 2]) /* ty=Tensor[(1, 100, 100, 3, 1), float32] */;
    %419 = reshape(%418, newshape=[1, -1, 1]) /* ty=Tensor[(1, 30000, 1), float32] */;
    %420 = layout_transform(%p277, src_layout="NHWC", dst_layout="NCHW") /* ty=Tensor[(1, 3, 50, 50), float32] */;
    %421 = reshape(%420, newshape=[1, -1, 1, 50, 50]) /* ty=Tensor[(1, 3, 1, 50, 50), float32] */;
    %422 = transpose(%421, axes=[0, 3, 4, 1, 2]) /* ty=Tensor[(1, 50, 50, 3, 1), float32] */;
    %423 = reshape(%422, newshape=[1, -1, 1]) /* ty=Tensor[(1, 7500, 1), float32] */;
    %424 = layout_transform(%p319, src_layout="NHWC", dst_layout="NCHW") /* ty=Tensor[(1, 3, 25, 25), float32] */;
    %425 = reshape(%424, newshape=[1, -1, 1, 25, 25]) /* ty=Tensor[(1, 3, 1, 25, 25), float32] */;
    %426 = transpose(%425, axes=[0, 3, 4, 1, 2]) /* ty=Tensor[(1, 25, 25, 3, 1), float32] */;
    %427 = reshape(%426, newshape=[1, -1, 1]) /* ty=Tensor[(1, 1875, 1), float32] */;
    %428 = layout_transform(%p4, src_layout="NHWC", dst_layout="NCHW") /* ty=Tensor[(1, 3, 13, 13), float32] */;
    %429 = reshape(%428, newshape=[1, -1, 1, 13, 13]) /* ty=Tensor[(1, 3, 1, 13, 13), float32] */;
    %430 = transpose(%429, axes=[0, 3, 4, 1, 2]) /* ty=Tensor[(1, 13, 13, 3, 1), float32] */;
    %431 = reshape(%430, newshape=[1, -1, 1]) /* ty=Tensor[(1, 507, 1), float32] */;
    %432 = (%415, %419, %423, %427, %431);
    %433 = concatenate(%432, axis=1) /* ty=Tensor[(1, 159882, 1), float32] */;
    %434 = reshape(%433, newshape=[-1, 1, 0]) /* ty=Tensor[(159882, 1, 1), float32] */;
    %435 = squeeze(%434, axis=[1]) /* ty=Tensor[(159882, 1), float32] */;
    reshape(%435, newshape=[1, -1]) /* ty=Tensor[(1, 159882), float32] */
  };
  %437 = (%x156, %x158, %x160, %x162, %x164);
  %438 = (%tensor_082,);
  let %x165: () = vm.invoke_tvm_op(%436, %437, %438) /* ty=() */;
  let %x166: Tensor[(1, 159882), float32] = %tensor_082;
  let %storage_083: Storage[] = memory.alloc_storage(480000 /* ty=int64 */, 64 /* ty=int64 */, meta[relay.attrs.AllocStorageAttrs][83]) /* ty=Storage[] */;
  let %tensor_083: Tensor[(1, 120000), float32] = memory.alloc_tensor(%storage_083, 0 /* ty=int64 */, meta[relay.Constant][213] /* ty=Tensor[(2), int64] */, meta[relay.attrs.AllocTensorAttrs][83]) /* ty=Tensor[(1, 120000), float32] */;
  let %storage_1: Storage[] = memory.alloc_storage(120000 /* ty=int64 */, 64 /* ty=int64 */, meta[relay.attrs.AllocStorageAttrs][84]) /* ty=Storage[] */;
  let %tensor_1: Tensor[(1, 30000), float32] = memory.alloc_tensor(%storage_1, 0 /* ty=int64 */, meta[relay.Constant][214] /* ty=Tensor[(2), int64] */, meta[relay.attrs.AllocTensorAttrs][84]) /* ty=Tensor[(1, 30000), float32] */;
  let %storage_2: Storage[] = memory.alloc_storage(30000 /* ty=int64 */, 64 /* ty=int64 */, meta[relay.attrs.AllocStorageAttrs][85]) /* ty=Storage[] */;
  let %tensor_2: Tensor[(1, 7500), float32] = memory.alloc_tensor(%storage_2, 0 /* ty=int64 */, meta[relay.Constant][215] /* ty=Tensor[(2), int64] */, meta[relay.attrs.AllocTensorAttrs][85]) /* ty=Tensor[(1, 7500), float32] */;
  let %storage_3: Storage[] = memory.alloc_storage(7500 /* ty=int64 */, 64 /* ty=int64 */, meta[relay.attrs.AllocStorageAttrs][86]) /* ty=Storage[] */;
  let %tensor_3: Tensor[(1, 1875), float32] = memory.alloc_tensor(%storage_3, 0 /* ty=int64 */, meta[relay.Constant][216] /* ty=Tensor[(2), int64] */, meta[relay.attrs.AllocTensorAttrs][86]) /* ty=Tensor[(1, 1875), float32] */;
  let %storage_4: Storage[] = memory.alloc_storage(2028 /* ty=int64 */, 64 /* ty=int64 */, meta[relay.attrs.AllocStorageAttrs][87]) /* ty=Storage[] */;
  let %tensor_4: Tensor[(1, 507), float32] = memory.alloc_tensor(%storage_4, 0 /* ty=int64 */, meta[relay.Constant][217] /* ty=Tensor[(2), int64] */, meta[relay.attrs.AllocTensorAttrs][87]) /* ty=Tensor[(1, 507), float32] */;
  %439 = fn (%p083: Tensor[(1, 159882), float32], Primitive=1) -> (Tensor[(1, 120000), float32], Tensor[(1, 30000), float32], Tensor[(1, 7500), float32], Tensor[(1, 1875), float32], Tensor[(1, 507), float32]) {
    split(%p083, indices_or_sections=[120000, 150000, 157500, 159375], axis=1) /* ty=(Tensor[(1, 120000), float32], Tensor[(1, 30000), float32], Tensor[(1, 7500), float32], Tensor[(1, 1875), float32], Tensor[(1, 507), float32]) */
  };
  %440 = (%x166,);
  %441 = (%tensor_083, %tensor_1, %tensor_2, %tensor_3, %tensor_4);
  let %x167: () = vm.invoke_tvm_op(%439, %440, %441) /* ty=() */;
  let %x168: (Tensor[(1, 120000), float32], Tensor[(1, 30000), float32], Tensor[(1, 7500), float32], Tensor[(1, 1875), float32], Tensor[(1, 507), float32]) = (%tensor_083, %tensor_1, %tensor_2, %tensor_3, %tensor_4);
  let %x169: Tensor[(1, 120000), float32] = %x168.0;
  let %storage_084: Storage[] = memory.alloc_storage(4000 /* ty=int64 */, 64 /* ty=int64 */, meta[relay.attrs.AllocStorageAttrs][88]) /* ty=Storage[] */;
  let %tensor_084: Tensor[(1, 1000), float32] = memory.alloc_tensor(%storage_084, 0 /* ty=int64 */, meta[relay.Constant][218] /* ty=Tensor[(2), int64] */, meta[relay.attrs.AllocTensorAttrs][88]) /* ty=Tensor[(1, 1000), float32] */;
  let %storage_11: Storage[] = memory.alloc_storage(8000 /* ty=int64 */, 64 /* ty=int64 */, meta[relay.attrs.AllocStorageAttrs][89]) /* ty=Storage[] */;
  let %tensor_11: Tensor[(1, 1000), int64] = memory.alloc_tensor(%storage_11, 0 /* ty=int64 */, meta[relay.Constant][219] /* ty=Tensor[(2), int64] */, meta[relay.attrs.AllocTensorAttrs][89]) /* ty=Tensor[(1, 1000), int64] */;
  %442 = fn (%p084: Tensor[(1, 120000), float32], Primitive=1) -> (Tensor[(1, 1000), float32], Tensor[(1, 1000), int64]) {
    topk(%p084, k=1000, axis=1, dtype="int64") /* ty=(Tensor[(1, 1000), float32], Tensor[(1, 1000), int64]) */
  };
  %443 = (%x169,);
  %444 = (%tensor_084, %tensor_11);
  let %x170: () = vm.invoke_tvm_op(%442, %443, %444) /* ty=() */;
  let %x171: (Tensor[(1, 1000), float32], Tensor[(1, 1000), int64]) = (%tensor_084, %tensor_11);
  let %x172: Tensor[(1, 30000), float32] = %x168.1;
  let %storage_085: Storage[] = memory.alloc_storage(4000 /* ty=int64 */, 64 /* ty=int64 */, meta[relay.attrs.AllocStorageAttrs][90]) /* ty=Storage[] */;
  let %tensor_085: Tensor[(1, 1000), float32] = memory.alloc_tensor(%storage_085, 0 /* ty=int64 */, meta[relay.Constant][220] /* ty=Tensor[(2), int64] */, meta[relay.attrs.AllocTensorAttrs][90]) /* ty=Tensor[(1, 1000), float32] */;
  let %storage_12: Storage[] = memory.alloc_storage(8000 /* ty=int64 */, 64 /* ty=int64 */, meta[relay.attrs.AllocStorageAttrs][91]) /* ty=Storage[] */;
  let %tensor_12: Tensor[(1, 1000), int64] = memory.alloc_tensor(%storage_12, 0 /* ty=int64 */, meta[relay.Constant][221] /* ty=Tensor[(2), int64] */, meta[relay.attrs.AllocTensorAttrs][91]) /* ty=Tensor[(1, 1000), int64] */;
  %445 = fn (%p085: Tensor[(1, 30000), float32], Primitive=1) -> (Tensor[(1, 1000), float32], Tensor[(1, 1000), int64]) {
    topk(%p085, k=1000, axis=1, dtype="int64") /* ty=(Tensor[(1, 1000), float32], Tensor[(1, 1000), int64]) */
  };
  %446 = (%x172,);
  %447 = (%tensor_085, %tensor_12);
  let %x173: () = vm.invoke_tvm_op(%445, %446, %447) /* ty=() */;
  let %x174: (Tensor[(1, 1000), float32], Tensor[(1, 1000), int64]) = (%tensor_085, %tensor_12);
  let %x175: Tensor[(1, 7500), float32] = %x168.2;
  let %storage_086: Storage[] = memory.alloc_storage(4000 /* ty=int64 */, 64 /* ty=int64 */, meta[relay.attrs.AllocStorageAttrs][92]) /* ty=Storage[] */;
  let %tensor_086: Tensor[(1, 1000), float32] = memory.alloc_tensor(%storage_086, 0 /* ty=int64 */, meta[relay.Constant][222] /* ty=Tensor[(2), int64] */, meta[relay.attrs.AllocTensorAttrs][92]) /* ty=Tensor[(1, 1000), float32] */;
  let %storage_13: Storage[] = memory.alloc_storage(8000 /* ty=int64 */, 64 /* ty=int64 */, meta[relay.attrs.AllocStorageAttrs][93]) /* ty=Storage[] */;
  let %tensor_13: Tensor[(1, 1000), int64] = memory.alloc_tensor(%storage_13, 0 /* ty=int64 */, meta[relay.Constant][223] /* ty=Tensor[(2), int64] */, meta[relay.attrs.AllocTensorAttrs][93]) /* ty=Tensor[(1, 1000), int64] */;
  %448 = fn (%p086: Tensor[(1, 7500), float32], Primitive=1) -> (Tensor[(1, 1000), float32], Tensor[(1, 1000), int64]) {
    topk(%p086, k=1000, axis=1, dtype="int64") /* ty=(Tensor[(1, 1000), float32], Tensor[(1, 1000), int64]) */
  };
  %449 = (%x175,);
  %450 = (%tensor_086, %tensor_13);
  let %x176: () = vm.invoke_tvm_op(%448, %449, %450) /* ty=() */;
  let %x177: (Tensor[(1, 1000), float32], Tensor[(1, 1000), int64]) = (%tensor_086, %tensor_13);
  let %x178: Tensor[(1, 1875), float32] = %x168.3;
  let %storage_087: Storage[] = memory.alloc_storage(4000 /* ty=int64 */, 64 /* ty=int64 */, meta[relay.attrs.AllocStorageAttrs][94]) /* ty=Storage[] */;
  let %tensor_087: Tensor[(1, 1000), float32] = memory.alloc_tensor(%storage_087, 0 /* ty=int64 */, meta[relay.Constant][224] /* ty=Tensor[(2), int64] */, meta[relay.attrs.AllocTensorAttrs][94]) /* ty=Tensor[(1, 1000), float32] */;
  let %storage_14: Storage[] = memory.alloc_storage(8000 /* ty=int64 */, 64 /* ty=int64 */, meta[relay.attrs.AllocStorageAttrs][95]) /* ty=Storage[] */;
  let %tensor_14: Tensor[(1, 1000), int64] = memory.alloc_tensor(%storage_14, 0 /* ty=int64 */, meta[relay.Constant][225] /* ty=Tensor[(2), int64] */, meta[relay.attrs.AllocTensorAttrs][95]) /* ty=Tensor[(1, 1000), int64] */;
  %451 = fn (%p087: Tensor[(1, 1875), float32], Primitive=1) -> (Tensor[(1, 1000), float32], Tensor[(1, 1000), int64]) {
    topk(%p087, k=1000, axis=1, dtype="int64") /* ty=(Tensor[(1, 1000), float32], Tensor[(1, 1000), int64]) */
  };
  %452 = (%x178,);
  %453 = (%tensor_087, %tensor_14);
  let %x179: () = vm.invoke_tvm_op(%451, %452, %453) /* ty=() */;
  let %x180: (Tensor[(1, 1000), float32], Tensor[(1, 1000), int64]) = (%tensor_087, %tensor_14);
  let %x181: Tensor[(1, 507), float32] = %x168.4;
  let %storage_088: Storage[] = memory.alloc_storage(2028 /* ty=int64 */, 64 /* ty=int64 */, meta[relay.attrs.AllocStorageAttrs][96]) /* ty=Storage[] */;
  let %tensor_088: Tensor[(1, 507), float32] = memory.alloc_tensor(%storage_088, 0 /* ty=int64 */, meta[relay.Constant][226] /* ty=Tensor[(2), int64] */, meta[relay.attrs.AllocTensorAttrs][96]) /* ty=Tensor[(1, 507), float32] */;
  let %storage_15: Storage[] = memory.alloc_storage(4056 /* ty=int64 */, 64 /* ty=int64 */, meta[relay.attrs.AllocStorageAttrs][97]) /* ty=Storage[] */;
  let %tensor_15: Tensor[(1, 507), int64] = memory.alloc_tensor(%storage_15, 0 /* ty=int64 */, meta[relay.Constant][227] /* ty=Tensor[(2), int64] */, meta[relay.attrs.AllocTensorAttrs][97]) /* ty=Tensor[(1, 507), int64] */;
  %454 = fn (%p088: Tensor[(1, 507), float32], Primitive=1) -> (Tensor[(1, 507), float32], Tensor[(1, 507), int64]) {
    topk(%p088, k=507, axis=1, dtype="int64") /* ty=(Tensor[(1, 507), float32], Tensor[(1, 507), int64]) */
  };
  %455 = (%x181,);
  %456 = (%tensor_088, %tensor_15);
  let %x182: () = vm.invoke_tvm_op(%454, %455, %456) /* ty=() */;
  let %x183: (Tensor[(1, 507), float32], Tensor[(1, 507), int64]) = (%tensor_088, %tensor_15);
  let %storage_089: Storage[] = memory.alloc_storage(36056 /* ty=int64 */, 64 /* ty=int64 */, meta[relay.attrs.AllocStorageAttrs][98]) /* ty=Storage[] */;
  let %tensor_089: Tensor[(1, 4507), int64] = memory.alloc_tensor(%storage_089, 0 /* ty=int64 */, meta[relay.Constant][228] /* ty=Tensor[(2), int64] */, meta[relay.attrs.AllocTensorAttrs][98]) /* ty=Tensor[(1, 4507), int64] */;
  %468 = fn (%p089: (Tensor[(1, 1000), float32], Tensor[(1, 1000), int64]), %p178: (Tensor[(1, 1000), float32], Tensor[(1, 1000), int64]), %p278: Tensor[(1), int64], %p320: (Tensor[(1, 1000), float32], Tensor[(1, 1000), int64]), %p41: Tensor[(1), int64], %p5: (Tensor[(1, 1000), float32], Tensor[(1, 1000), int64]), %p6: Tensor[(1), int64], %p7: (Tensor[(1, 507), float32], Tensor[(1, 507), int64]), %p8: Tensor[(1), int64], Primitive=1) -> Tensor[(1, 4507), int64] {
    %457 = %p089.1;
    %458 = add(%457, 0 /* ty=int64 */) /* ty=Tensor[(1, 1000), int64] */;
    %459 = %p178.1;
    %460 = add(%459, %p278) /* ty=Tensor[(1, 1000), int64] */;
    %461 = %p320.1;
    %462 = add(%461, %p41) /* ty=Tensor[(1, 1000), int64] */;
    %463 = %p5.1;
    %464 = add(%463, %p6) /* ty=Tensor[(1, 1000), int64] */;
    %465 = %p7.1;
    %466 = add(%465, %p8) /* ty=Tensor[(1, 507), int64] */;
    %467 = (%458, %460, %462, %464, %466);
    concatenate(%467, axis=1) /* ty=Tensor[(1, 4507), int64] */
  };
  %469 = (%x171, %x174, meta[relay.Constant][229] /* ty=Tensor[(1), int64] */, %x177, meta[relay.Constant][230] /* ty=Tensor[(1), int64] */, %x180, meta[relay.Constant][231] /* ty=Tensor[(1), int64] */, %x183, meta[relay.Constant][232] /* ty=Tensor[(1), int64] */);
  %470 = (%tensor_089,);
  let %x184: () = vm.invoke_tvm_op(%468, %469, %470) /* ty=() */;
  let %x185: Tensor[(1, 4507), int64] = %tensor_089;
  let %storage_090: Storage[] = memory.alloc_storage(72112 /* ty=int64 */, 64 /* ty=int64 */, meta[relay.attrs.AllocStorageAttrs][99]) /* ty=Storage[] */;
  let %tensor_090: Tensor[(4507, 4), float32] = memory.alloc_tensor(%storage_090, 0 /* ty=int64 */, meta[relay.Constant][233] /* ty=Tensor[(2), int64] */, meta[relay.attrs.AllocTensorAttrs][99]) /* ty=Tensor[(4507, 4), float32] */;
  %537 = fn (%p090: Tensor[(1, 200, 200, 12), float32], %p179: Tensor[(1, 100, 100, 12), float32], %p279: Tensor[(1, 50, 50, 12), float32], %p321: Tensor[(1, 25, 25, 12), float32], %p42: Tensor[(1, 13, 13, 12), float32], %p51: Tensor[(159882, 1), float32], %p61: Tensor[(159882, 1), float32], %p71: Tensor[(159882, 1), float32], %p81: Tensor[(159882, 1), float32], %p9: Tensor[(1, 1), int64], %p10: Tensor[(1, 4507), int64], %p1110: float32, Primitive=1) -> Tensor[(4507, 4), float32] {
    %471 = layout_transform(%p090, src_layout="NHWC", dst_layout="NCHW") /* ty=Tensor[(1, 12, 200, 200), float32] */;
    %472 = reshape(%471, newshape=[1, -1, 4, 200, 200]) /* ty=Tensor[(1, 3, 4, 200, 200), float32] */;
    %473 = transpose(%472, axes=[0, 3, 4, 1, 2]) /* ty=Tensor[(1, 200, 200, 3, 4), float32] */;
    %474 = reshape(%473, newshape=[1, -1, 4]) /* ty=Tensor[(1, 120000, 4), float32] */;
    %475 = layout_transform(%p179, src_layout="NHWC", dst_layout="NCHW") /* ty=Tensor[(1, 12, 100, 100), float32] */;
    %476 = reshape(%475, newshape=[1, -1, 4, 100, 100]) /* ty=Tensor[(1, 3, 4, 100, 100), float32] */;
    %477 = transpose(%476, axes=[0, 3, 4, 1, 2]) /* ty=Tensor[(1, 100, 100, 3, 4), float32] */;
    %478 = reshape(%477, newshape=[1, -1, 4]) /* ty=Tensor[(1, 30000, 4), float32] */;
    %479 = layout_transform(%p279, src_layout="NHWC", dst_layout="NCHW") /* ty=Tensor[(1, 12, 50, 50), float32] */;
    %480 = reshape(%479, newshape=[1, -1, 4, 50, 50]) /* ty=Tensor[(1, 3, 4, 50, 50), float32] */;
    %481 = transpose(%480, axes=[0, 3, 4, 1, 2]) /* ty=Tensor[(1, 50, 50, 3, 4), float32] */;
    %482 = reshape(%481, newshape=[1, -1, 4]) /* ty=Tensor[(1, 7500, 4), float32] */;
    %483 = layout_transform(%p321, src_layout="NHWC", dst_layout="NCHW") /* ty=Tensor[(1, 12, 25, 25), float32] */;
    %484 = reshape(%483, newshape=[1, -1, 4, 25, 25]) /* ty=Tensor[(1, 3, 4, 25, 25), float32] */;
    %485 = transpose(%484, axes=[0, 3, 4, 1, 2]) /* ty=Tensor[(1, 25, 25, 3, 4), float32] */;
    %486 = reshape(%485, newshape=[1, -1, 4]) /* ty=Tensor[(1, 1875, 4), float32] */;
    %487 = layout_transform(%p42, src_layout="NHWC", dst_layout="NCHW") /* ty=Tensor[(1, 12, 13, 13), float32] */;
    %488 = reshape(%487, newshape=[1, -1, 4, 13, 13]) /* ty=Tensor[(1, 3, 4, 13, 13), float32] */;
    %489 = transpose(%488, axes=[0, 3, 4, 1, 2]) /* ty=Tensor[(1, 13, 13, 3, 4), float32] */;
    %490 = reshape(%489, newshape=[1, -1, 4]) /* ty=Tensor[(1, 507, 4), float32] */;
    %491 = (%474, %478, %482, %486, %490);
    %492 = concatenate(%491, axis=1) /* ty=Tensor[(1, 159882, 4), float32] */;
    %493 = reshape(%492, newshape=[159882, 4]) /* ty=Tensor[(159882, 4), float32] */;
    %494 = strided_slice(%493, begin=[0, 0], end=[159882, 4], strides=[1, 1]) /* ty=Tensor[(159882, 4), float32] */;
    %495 = strided_slice(%494, begin=[0, 0], end=[159882, 4], strides=[1, 4]) /* ty=Tensor[(159882, 1), float32] */;
    %496 = divide(%495, 1f /* ty=float32 */) /* ty=Tensor[(159882, 1), float32] */;
    %497 = multiply(%496, %p51) /* ty=Tensor[(159882, 1), float32] */;
    %498 = add(%497, %p61) /* ty=Tensor[(159882, 1), float32] */;
    %499 = strided_slice(%494, begin=[0, 2], end=[159882, 4], strides=[1, 4]) /* ty=Tensor[(159882, 1), float32] */;
    %500 = divide(%499, 1f /* ty=float32 */) /* ty=Tensor[(159882, 1), float32] */;
    %501 = clip(%500, a_min=-3.40282e+38f, a_max=4.13517f) /* ty=Tensor[(159882, 1), float32] */;
    %502 = exp(%501) /* ty=Tensor[(159882, 1), float32] */;
    %503 = multiply(%502, %p51) /* ty=Tensor[(159882, 1), float32] */;
    %504 = multiply(0.5f /* ty=float32 */, %503) /* ty=Tensor[(159882, 1), float32] */;
    %505 = subtract(%498, %504) /* ty=Tensor[(159882, 1), float32] */;
    %506 = strided_slice(%494, begin=[0, 1], end=[159882, 4], strides=[1, 4]) /* ty=Tensor[(159882, 1), float32] */;
    %507 = divide(%506, 1f /* ty=float32 */) /* ty=Tensor[(159882, 1), float32] */;
    %508 = multiply(%507, %p71) /* ty=Tensor[(159882, 1), float32] */;
    %509 = add(%508, %p81) /* ty=Tensor[(159882, 1), float32] */;
    %510 = strided_slice(%494, begin=[0, 3], end=[159882, 4], strides=[1, 4]) /* ty=Tensor[(159882, 1), float32] */;
    %511 = divide(%510, 1f /* ty=float32 */) /* ty=Tensor[(159882, 1), float32] */;
    %512 = clip(%511, a_min=-3.40282e+38f, a_max=4.13517f) /* ty=Tensor[(159882, 1), float32] */;
    %513 = exp(%512) /* ty=Tensor[(159882, 1), float32] */;
    %514 = multiply(%513, %p71) /* ty=Tensor[(159882, 1), float32] */;
    %515 = multiply(0.5f /* ty=float32 */, %514) /* ty=Tensor[(159882, 1), float32] */;
    %516 = subtract(%509, %515) /* ty=Tensor[(159882, 1), float32] */;
    %517 = add(%498, %504) /* ty=Tensor[(159882, 1), float32] */;
    %518 = add(%509, %515) /* ty=Tensor[(159882, 1), float32] */;
    %519 = (%505, %516, %517, %518);
    %520 = stack(%519, axis=2) /* ty=Tensor[(159882, 1, 4), float32] */;
    %521 = reshape(%520, newshape=[0, -1, 1]) /* ty=Tensor[(159882, 4, 1), float32] */;
    %522 = squeeze(%521, axis=[2]) /* ty=Tensor[(159882, 4), float32] */;
    %523 = reshape(%522, newshape=[1, 159882, 4]) /* ty=Tensor[(1, 159882, 4), float32] */;
    %524 = (%523, %p9, %p10);
    %525 = adv_index(%524) /* ty=Tensor[(1, 4507, 4), float32] */;
    %526 = split(%525, indices_or_sections=1) /* ty=(Tensor[(1, 4507, 4), float32],) */;
    %527 = %526.0;
    %528 = squeeze(%527, axis=[0]) /* ty=Tensor[(4507, 4), float32] */;
    %529 = strided_slice(%528, begin=[0, 0], end=[4507, 4], strides=[1, 2]) /* ty=Tensor[(4507, 2), float32] */;
    %530 = maximum(%529, 0f /* ty=float32 */) /* ty=Tensor[(4507, 2), float32] */;
    %531 = minimum(%530, %p1110) /* ty=Tensor[(4507, 2), float32] */;
    %532 = strided_slice(%528, begin=[0, 1], end=[4507, 4], strides=[1, 2]) /* ty=Tensor[(4507, 2), float32] */;
    %533 = maximum(%532, 0f /* ty=float32 */) /* ty=Tensor[(4507, 2), float32] */;
    %534 = minimum(%533, %p1110) /* ty=Tensor[(4507, 2), float32] */;
    %535 = (%531, %534);
    %536 = stack(%535, axis=2) /* ty=Tensor[(4507, 2, 2), float32] */;
    reshape(%536, newshape=[4507, 4]) /* ty=Tensor[(4507, 4), float32] */
  };
  %538 = (%x130, %x136, %x142, %x148, %x154, meta[relay.Constant][234] /* ty=Tensor[(159882, 1), float32] */, meta[relay.Constant][235] /* ty=Tensor[(159882, 1), float32] */, meta[relay.Constant][236] /* ty=Tensor[(159882, 1), float32] */, meta[relay.Constant][237] /* ty=Tensor[(159882, 1), float32] */, meta[relay.Constant][238] /* ty=Tensor[(1, 1), int64] */, %x185, 800f /* ty=float32 */);
  %539 = (%tensor_090,);
  let %x186: () = vm.invoke_tvm_op(%537, %538, %539) /* ty=() */;
  let %x187: Tensor[(4507, 4), float32] = %tensor_090;
  let %storage_091: Storage[] = memory.alloc_storage(4507 /* ty=int64 */, 64 /* ty=int64 */, meta[relay.attrs.AllocStorageAttrs][100]) /* ty=Storage[] */;
  let %tensor_091: Tensor[(4507), bool] = memory.alloc_tensor(%storage_091, 0 /* ty=int64 */, meta[relay.Constant][239] /* ty=Tensor[(1), int64] */, meta[relay.attrs.AllocTensorAttrs][100]) /* ty=Tensor[(4507), bool] */;
  %551 = fn (%p091: Tensor[(4507, 4), float32], Primitive=1) -> Tensor[(4507), bool] {
    %540 = strided_slice(%p091, begin=[0, 0], end=[4507, 4], strides=[1, 1]) /* ty=Tensor[(4507, 4), float32] */;
    %541 = take(%540, 2 /* ty=int32 */, axis=1, mode="wrap") /* ty=Tensor[(4507), float32] */;
    %542 = take(%540, 0 /* ty=int32 */, axis=1, mode="wrap") /* ty=Tensor[(4507), float32] */;
    %543 = subtract(%541, %542) /* ty=Tensor[(4507), float32] */;
    %544 = greater_equal(%543, 0.001f /* ty=float32 */) /* ty=Tensor[(4507), bool] */;
    %545 = cast(%544, dtype="bool") /* ty=Tensor[(4507), bool] */;
    %546 = take(%540, 3 /* ty=int32 */, axis=1, mode="wrap") /* ty=Tensor[(4507), float32] */;
    %547 = take(%540, 1 /* ty=int32 */, axis=1, mode="wrap") /* ty=Tensor[(4507), float32] */;
    %548 = subtract(%546, %547) /* ty=Tensor[(4507), float32] */;
    %549 = greater_equal(%548, 0.001f /* ty=float32 */) /* ty=Tensor[(4507), bool] */;
    %550 = cast(%549, dtype="bool") /* ty=Tensor[(4507), bool] */;
    logical_and(%545, %550) /* ty=Tensor[(4507), bool] */
  };
  %552 = (%x187,);
  %553 = (%tensor_091,);
  let %x188: () = vm.invoke_tvm_op(%551, %552, %553) /* ty=() */;
  let %x189: Tensor[(4507), bool] = %tensor_091;
  let %in_shape_0: Tensor[(4507), bool] = %x189;
  let %storage_092: Storage[] = memory.alloc_storage(16 /* ty=int64 */, 64 /* ty=int64 */, meta[relay.attrs.AllocStorageAttrs][101]) /* ty=Storage[] */;
  let %tensor_092: Tensor[(2), int64] = memory.alloc_tensor(%storage_092, 0 /* ty=int64 */, meta[relay.Constant][240] /* ty=Tensor[(1), int64] */, meta[relay.attrs.AllocTensorAttrs][101]) /* ty=Tensor[(2), int64] */;
  let %shape_func_out_0: Tensor[(2), int64] = %tensor_092;
  %554 = fn (%p092: Tensor[(4507), bool], Primitive=1) -> Tensor[(?, 1), int32] {
    argwhere(%p092) /* ty=Tensor[(?, 1), int32] */
  };
  %555 = (%in_shape_0,);
  %556 = (%shape_func_out_0,);
  let %shape_func: () = vm.shape_func(%554, %555, %556, meta[relay.attrs.ShapeFuncAttrs][0]) /* ty=() */;
  let %storage_093: Storage[] = memory.alloc_storage(8 /* ty=int64 */, 64 /* ty=int64 */, meta[relay.attrs.AllocStorageAttrs][102]) /* ty=Storage[] */;
  let %tensor_093: int64 = memory.alloc_tensor(%storage_093, 0 /* ty=int64 */, meta[relay.Constant][241] /* ty=Tensor[(0), int64] */, meta[relay.attrs.AllocTensorAttrs][102]) /* ty=int64 */;
  %557 = fn (%p093: Tensor[(2), int64], Primitive=1) -> int64 {
    prod(%p093) /* ty=int64 */
  };
  %558 = (%shape_func_out_0,);
  %559 = (%tensor_093,);
  let %x190: () = vm.invoke_tvm_op(%557, %558, %559) /* ty=() */;
  let %storage_094: Storage[] = memory.alloc_storage(8 /* ty=int64 */, 64 /* ty=int64 */, meta[relay.attrs.AllocStorageAttrs][103]) /* ty=Storage[] */;
  let %tensor_094: int64 = memory.alloc_tensor(%storage_094, 0 /* ty=int64 */, meta[relay.Constant][242] /* ty=Tensor[(0), int64] */, meta[relay.attrs.AllocTensorAttrs][103]) /* ty=int64 */;
  %560 = fn (%p094: int64, Primitive=1) -> int64 {
    multiply(%p094, 4 /* ty=int64 */) /* ty=int64 */
  };
  %561 = (%tensor_093,);
  %562 = (%tensor_094,);
  let %x191: () = vm.invoke_tvm_op(%560, %561, %562) /* ty=() */;
  let %storage_095: Storage[] = memory.alloc_storage(%tensor_094, 64 /* ty=int64 */, meta[relay.attrs.AllocStorageAttrs][104]) /* ty=Storage[] */;
  let %out_0: Tensor[(?, 1), int32] = memory.alloc_tensor(%storage_095, 0 /* ty=int64 */, %shape_func_out_0, meta[relay.attrs.AllocTensorAttrs][104]) /* ty=Tensor[(?, 1), int32] */;
  %563 = (%x189,);
  %564 = (%out_0,);
  let %x192: () = vm.invoke_tvm_op(%554, %563, %564) /* ty=() */;
  let %x193: Tensor[(?, 1), int32] = %out_0;
  let %in_shape_01: Tensor[(2), int64] = vm.shape_of(%x193, meta[relay.attrs.ShapeOfAttrs][0]) /* ty=Tensor[(2), int64] */;
  let %storage_096: Storage[] = memory.alloc_storage(8 /* ty=int64 */, 64 /* ty=int64 */, meta[relay.attrs.AllocStorageAttrs][105]) /* ty=Storage[] */;
  let %tensor_095: Tensor[(1), int64] = memory.alloc_tensor(%storage_096, 0 /* ty=int64 */, meta[relay.Constant][243] /* ty=Tensor[(1), int64] */, meta[relay.attrs.AllocTensorAttrs][105]) /* ty=Tensor[(1), int64] */;
  let %shape_func_out_01: Tensor[(1), int64] = %tensor_095;
  %568 = fn (%p095: Tensor[(?, 1), int32], Primitive=1) -> Tensor[(?), int64] {
    %565 = split(%p095, indices_or_sections=1, axis=1) /* ty=(Tensor[(?, 1), int32],) */;
    %566 = %565.0;
    %567 = squeeze(%566, axis=[1]) /* ty=Tensor[(?), int32] */;
    cast(%567, dtype="int64") /* ty=Tensor[(?), int64] */
  };
  %569 = (%in_shape_01,);
  %570 = (%shape_func_out_01,);
  let %shape_func1: () = vm.shape_func(%568, %569, %570, meta[relay.attrs.ShapeFuncAttrs][1]) /* ty=() */;
  let %storage_097: Storage[] = memory.alloc_storage(8 /* ty=int64 */, 64 /* ty=int64 */, meta[relay.attrs.AllocStorageAttrs][106]) /* ty=Storage[] */;
  let %tensor_096: int64 = memory.alloc_tensor(%storage_097, 0 /* ty=int64 */, meta[relay.Constant][244] /* ty=Tensor[(0), int64] */, meta[relay.attrs.AllocTensorAttrs][106]) /* ty=int64 */;
  %571 = fn (%p096: Tensor[(1), int64], Primitive=1) -> int64 {
    prod(%p096) /* ty=int64 */
  };
  %572 = (%shape_func_out_01,);
  %573 = (%tensor_096,);
  let %x194: () = vm.invoke_tvm_op(%571, %572, %573) /* ty=() */;
  let %storage_098: Storage[] = memory.alloc_storage(8 /* ty=int64 */, 64 /* ty=int64 */, meta[relay.attrs.AllocStorageAttrs][107]) /* ty=Storage[] */;
  let %tensor_097: int64 = memory.alloc_tensor(%storage_098, 0 /* ty=int64 */, meta[relay.Constant][245] /* ty=Tensor[(0), int64] */, meta[relay.attrs.AllocTensorAttrs][107]) /* ty=int64 */;
  %574 = fn (%p097: int64, Primitive=1) -> int64 {
    multiply(%p097, 8 /* ty=int64 */) /* ty=int64 */
  };
  %575 = (%tensor_096,);
  %576 = (%tensor_097,);
  let %x195: () = vm.invoke_tvm_op(%574, %575, %576) /* ty=() */;
  let %storage_099: Storage[] = memory.alloc_storage(%tensor_097, 64 /* ty=int64 */, meta[relay.attrs.AllocStorageAttrs][108]) /* ty=Storage[] */;
  let %out_01: Tensor[(?), int64] = memory.alloc_tensor(%storage_099, 0 /* ty=int64 */, %shape_func_out_01, meta[relay.attrs.AllocTensorAttrs][108]) /* ty=Tensor[(?), int64] */;
  %577 = (%x193,);
  %578 = (%out_01,);
  let %x196: () = vm.invoke_tvm_op(%568, %577, %578) /* ty=() */;
  let %x197: Tensor[(?), int64] = %out_01;
  let %in_shape_1: Tensor[(1), int64] = vm.shape_of(%x197, meta[relay.attrs.ShapeOfAttrs][1]) /* ty=Tensor[(1), int64] */;
  let %storage_0100: Storage[] = memory.alloc_storage(16 /* ty=int64 */, 64 /* ty=int64 */, meta[relay.attrs.AllocStorageAttrs][109]) /* ty=Storage[] */;
  let %tensor_098: Tensor[(2), int64] = memory.alloc_tensor(%storage_0100, 0 /* ty=int64 */, meta[relay.Constant][246] /* ty=Tensor[(1), int64] */, meta[relay.attrs.AllocTensorAttrs][109]) /* ty=Tensor[(2), int64] */;
  let %shape_func_out_02: Tensor[(2), int64] = %tensor_098;
  %580 = fn (%p098: Tensor[(4507, 4), float32], %p180: Tensor[(?), int64], Primitive=1) -> Tensor[(?, 4), float32] {
    %579 = (%p098, %p180);
    adv_index(%579) /* ty=Tensor[(?, 4), float32] */
  };
  %581 = (meta[relay.Constant][247] /* ty=Tensor[(2), int64] */, %in_shape_1);
  %582 = (%shape_func_out_02,);
  let %shape_func2: () = vm.shape_func(%580, %581, %582, meta[relay.attrs.ShapeFuncAttrs][2]) /* ty=() */;
  let %storage_0101: Storage[] = memory.alloc_storage(8 /* ty=int64 */, 64 /* ty=int64 */, meta[relay.attrs.AllocStorageAttrs][110]) /* ty=Storage[] */;
  let %tensor_099: int64 = memory.alloc_tensor(%storage_0101, 0 /* ty=int64 */, meta[relay.Constant][248] /* ty=Tensor[(0), int64] */, meta[relay.attrs.AllocTensorAttrs][110]) /* ty=int64 */;
  %583 = fn (%p099: Tensor[(2), int64], Primitive=1) -> int64 {
    prod(%p099) /* ty=int64 */
  };
  %584 = (%shape_func_out_02,);
  %585 = (%tensor_099,);
  let %x198: () = vm.invoke_tvm_op(%583, %584, %585) /* ty=() */;
  let %storage_0102: Storage[] = memory.alloc_storage(8 /* ty=int64 */, 64 /* ty=int64 */, meta[relay.attrs.AllocStorageAttrs][111]) /* ty=Storage[] */;
  let %tensor_0100: int64 = memory.alloc_tensor(%storage_0102, 0 /* ty=int64 */, meta[relay.Constant][249] /* ty=Tensor[(0), int64] */, meta[relay.attrs.AllocTensorAttrs][111]) /* ty=int64 */;
  %586 = fn (%p0100: int64, Primitive=1) -> int64 {
    multiply(%p0100, 4 /* ty=int64 */) /* ty=int64 */
  };
  %587 = (%tensor_099,);
  %588 = (%tensor_0100,);
  let %x199: () = vm.invoke_tvm_op(%586, %587, %588) /* ty=() */;
  let %storage_0103: Storage[] = memory.alloc_storage(%tensor_0100, 64 /* ty=int64 */, meta[relay.attrs.AllocStorageAttrs][112]) /* ty=Storage[] */;
  let %out_02: Tensor[(?, 4), float32] = memory.alloc_tensor(%storage_0103, 0 /* ty=int64 */, %shape_func_out_02, meta[relay.attrs.AllocTensorAttrs][112]) /* ty=Tensor[(?, 4), float32] */;
  %589 = (%x187, %x197);
  %590 = (%out_02,);
  let %x200: () = vm.invoke_tvm_op(%580, %589, %590) /* ty=() */;
  let %x201: Tensor[(?, 4), float32] = %out_02;
  let %storage_0104: Storage[] = memory.alloc_storage(1 /* ty=int64 */, 64 /* ty=int64 */, meta[relay.attrs.AllocStorageAttrs][113]) /* ty=Storage[] */;
  let %tensor_0101: bool = memory.alloc_tensor(%storage_0104, 0 /* ty=int64 */, meta[relay.Constant][250] /* ty=Tensor[(0), int64] */, meta[relay.attrs.AllocTensorAttrs][113]) /* ty=bool */;
  %592 = fn (%p0101: Tensor[(?, 4), float32], Primitive=1) -> bool {
    %591 = ndarray_size(%p0101, dtype="int32") /* ty=int32 */;
    equal(%591, 0 /* ty=int32 */) /* ty=bool */
  };
  %593 = (%x201,);
  %594 = (%tensor_0101,);
  let %x202: () = vm.invoke_tvm_op(%592, %593, %594) /* ty=() */;
  let %x203: bool = %tensor_0101;
  let %x204: Tensor[(?), int64] = if (%x203) {
    let %storage_0105: Storage[] = memory.alloc_storage(8 /* ty=int64 */, 64 /* ty=int64 */, meta[relay.attrs.AllocStorageAttrs][114]) /* ty=Storage[] */;
    let %tensor_0102: Tensor[(1), int64] = memory.alloc_tensor(%storage_0105, 0 /* ty=int64 */, meta[relay.Constant][251] /* ty=Tensor[(1), int64] */, meta[relay.attrs.AllocTensorAttrs][114]) /* ty=Tensor[(1), int64] */;
    let %shape_func_out_03: Tensor[(1), int64] = %tensor_0102;
    %595 = fn (Primitive=1) -> Tensor[(?), int64] {
      zeros(shape=[0], dtype="int64") /* ty=Tensor[(?), int64] */
    };
    %596 = ();
    %597 = (%shape_func_out_03,);
    let %shape_func3: () = vm.shape_func(%595, %596, %597, meta[relay.attrs.ShapeFuncAttrs][3]) /* ty=() */;
    let %storage_0106: Storage[] = memory.alloc_storage(8 /* ty=int64 */, 64 /* ty=int64 */, meta[relay.attrs.AllocStorageAttrs][115]) /* ty=Storage[] */;
    let %tensor_0103: int64 = memory.alloc_tensor(%storage_0106, 0 /* ty=int64 */, meta[relay.Constant][252] /* ty=Tensor[(0), int64] */, meta[relay.attrs.AllocTensorAttrs][115]) /* ty=int64 */;
    %598 = fn (%p0102: Tensor[(1), int64], Primitive=1) -> int64 {
      prod(%p0102) /* ty=int64 */
    };
    %599 = (%shape_func_out_03,);
    %600 = (%tensor_0103,);
    let %x205: () = vm.invoke_tvm_op(%598, %599, %600) /* ty=() */;
    let %storage_0107: Storage[] = memory.alloc_storage(8 /* ty=int64 */, 64 /* ty=int64 */, meta[relay.attrs.AllocStorageAttrs][116]) /* ty=Storage[] */;
    let %tensor_0104: int64 = memory.alloc_tensor(%storage_0107, 0 /* ty=int64 */, meta[relay.Constant][253] /* ty=Tensor[(0), int64] */, meta[relay.attrs.AllocTensorAttrs][116]) /* ty=int64 */;
    %601 = fn (%p0103: int64, Primitive=1) -> int64 {
      multiply(%p0103, 8 /* ty=int64 */) /* ty=int64 */
    };
    %602 = (%tensor_0103,);
    %603 = (%tensor_0104,);
    let %x206: () = vm.invoke_tvm_op(%601, %602, %603) /* ty=() */;
    let %storage_0108: Storage[] = memory.alloc_storage(%tensor_0104, 64 /* ty=int64 */, meta[relay.attrs.AllocStorageAttrs][117]) /* ty=Storage[] */;
    let %out_03: Tensor[(?), int64] = memory.alloc_tensor(%storage_0108, 0 /* ty=int64 */, %shape_func_out_03, meta[relay.attrs.AllocTensorAttrs][117]) /* ty=Tensor[(?), int64] */;
    %604 = ();
    %605 = (%out_03,);
    let %x207: () = vm.invoke_tvm_op(%595, %604, %605) /* ty=() */;
    let %x208: Tensor[(?), int64] = %out_03;
    %x208
  } else {
    let %in_shape_3: Tensor[(1), int64] = vm.shape_of(%x197, meta[relay.attrs.ShapeOfAttrs][2]) /* ty=Tensor[(1), int64] */;
    let %storage_0109: Storage[] = memory.alloc_storage(8 /* ty=int64 */, 64 /* ty=int64 */, meta[relay.attrs.AllocStorageAttrs][118]) /* ty=Storage[] */;
    let %tensor_0105: Tensor[(1), int64] = memory.alloc_tensor(%storage_0109, 0 /* ty=int64 */, meta[relay.Constant][254] /* ty=Tensor[(1), int64] */, meta[relay.attrs.AllocTensorAttrs][118]) /* ty=Tensor[(1), int64] */;
    let %shape_func_out_04: Tensor[(1), int64] = %tensor_0105;
    %612 = fn (%p0104: Tensor[(1, 159882), float32], %p181: Tensor[(1, 1), int64], %p280: Tensor[(1, 4507), int64], %p322: Tensor[(?), int64], Primitive=1) -> Tensor[(?), float32] {
      %606 = (%p0104, %p181, %p280);
      %607 = adv_index(%606) /* ty=Tensor[(1, 4507), float32] */;
      %608 = split(%607, indices_or_sections=1) /* ty=(Tensor[(1, 4507), float32],) */;
      %609 = %608.0;
      %610 = squeeze(%609, axis=[0]) /* ty=Tensor[(4507), float32] */;
      %611 = (%610, %p322);
      adv_index(%611) /* ty=Tensor[(?), float32] */
    };
    %613 = (meta[relay.Constant][255] /* ty=Tensor[(2), int64] */, meta[relay.Constant][256] /* ty=Tensor[(2), int64] */, meta[relay.Constant][257] /* ty=Tensor[(2), int64] */, %in_shape_3);
    %614 = (%shape_func_out_04,);
    let %shape_func4: () = vm.shape_func(%612, %613, %614, meta[relay.attrs.ShapeFuncAttrs][4]) /* ty=() */;
    let %storage_0110: Storage[] = memory.alloc_storage(8 /* ty=int64 */, 64 /* ty=int64 */, meta[relay.attrs.AllocStorageAttrs][119]) /* ty=Storage[] */;
    let %tensor_0106: int64 = memory.alloc_tensor(%storage_0110, 0 /* ty=int64 */, meta[relay.Constant][258] /* ty=Tensor[(0), int64] */, meta[relay.attrs.AllocTensorAttrs][119]) /* ty=int64 */;
    %615 = fn (%p0105: Tensor[(1), int64], Primitive=1) -> int64 {
      prod(%p0105) /* ty=int64 */
    };
    %616 = (%shape_func_out_04,);
    %617 = (%tensor_0106,);
    let %x209: () = vm.invoke_tvm_op(%615, %616, %617) /* ty=() */;
    let %storage_0111: Storage[] = memory.alloc_storage(8 /* ty=int64 */, 64 /* ty=int64 */, meta[relay.attrs.AllocStorageAttrs][120]) /* ty=Storage[] */;
    let %tensor_0107: int64 = memory.alloc_tensor(%storage_0111, 0 /* ty=int64 */, meta[relay.Constant][259] /* ty=Tensor[(0), int64] */, meta[relay.attrs.AllocTensorAttrs][120]) /* ty=int64 */;
    %618 = fn (%p0106: int64, Primitive=1) -> int64 {
      multiply(%p0106, 4 /* ty=int64 */) /* ty=int64 */
    };
    %619 = (%tensor_0106,);
    %620 = (%tensor_0107,);
    let %x210: () = vm.invoke_tvm_op(%618, %619, %620) /* ty=() */;
    let %storage_0112: Storage[] = memory.alloc_storage(%tensor_0107, 64 /* ty=int64 */, meta[relay.attrs.AllocStorageAttrs][121]) /* ty=Storage[] */;
    let %out_04: Tensor[(?), float32] = memory.alloc_tensor(%storage_0112, 0 /* ty=int64 */, %shape_func_out_04, meta[relay.attrs.AllocTensorAttrs][121]) /* ty=Tensor[(?), float32] */;
    %621 = (%x166, meta[relay.Constant][238] /* ty=Tensor[(1, 1), int64] */, %x185, %x197);
    %622 = (%out_04,);
    let %x211: () = vm.invoke_tvm_op(%612, %621, %622) /* ty=() */;
    let %x212: Tensor[(?), float32] = %out_04;
    let %storage_0113: Storage[] = memory.alloc_storage(4 /* ty=int64 */, 64 /* ty=int64 */, meta[relay.attrs.AllocStorageAttrs][122]) /* ty=Storage[] */;
    let %tensor_0108: float32 = memory.alloc_tensor(%storage_0113, 0 /* ty=int64 */, meta[relay.Constant][260] /* ty=Tensor[(0), int64] */, meta[relay.attrs.AllocTensorAttrs][122]) /* ty=float32 */;
    %623 = fn (%p0107: Tensor[(?), float32], Primitive=1) -> float32 {
      min(%p0107) /* ty=float32 */
    };
    %624 = (%x212,);
    %625 = (%tensor_0108,);
    let %x213: () = vm.invoke_tvm_op(%623, %624, %625) /* ty=() */;
    let %x214: float32 = %tensor_0108;
    let %in_shape_02: Tensor[(1), int64] = vm.shape_of(%x212, meta[relay.attrs.ShapeOfAttrs][3]) /* ty=Tensor[(1), int64] */;
    let %storage_0114: Storage[] = memory.alloc_storage(8 /* ty=int64 */, 64 /* ty=int64 */, meta[relay.attrs.AllocStorageAttrs][123]) /* ty=Storage[] */;
    let %tensor_0109: Tensor[(1), int64] = memory.alloc_tensor(%storage_0114, 0 /* ty=int64 */, meta[relay.Constant][261] /* ty=Tensor[(1), int64] */, meta[relay.attrs.AllocTensorAttrs][123]) /* ty=Tensor[(1), int64] */;
    let %shape_func_out_05: Tensor[(1), int64] = %tensor_0109;
    %627 = fn (%p0108: Tensor[(?), float32], %p182: float32, Primitive=1) -> Tensor[(?), float32] {
      %626 = subtract(%p0108, %p182) /* ty=Tensor[(?), float32] */;
      add(%626, 1f /* ty=float32 */) /* ty=Tensor[(?), float32] */
    };
    %628 = (%in_shape_02, 1334353056 /* ty=int64 */);
    %629 = (%shape_func_out_05,);
    let %shape_func5: () = vm.shape_func(%627, %628, %629, meta[relay.attrs.ShapeFuncAttrs][5]) /* ty=() */;
    let %storage_0115: Storage[] = memory.alloc_storage(8 /* ty=int64 */, 64 /* ty=int64 */, meta[relay.attrs.AllocStorageAttrs][124]) /* ty=Storage[] */;
    let %tensor_0110: int64 = memory.alloc_tensor(%storage_0115, 0 /* ty=int64 */, meta[relay.Constant][262] /* ty=Tensor[(0), int64] */, meta[relay.attrs.AllocTensorAttrs][124]) /* ty=int64 */;
    %630 = fn (%p0109: Tensor[(1), int64], Primitive=1) -> int64 {
      prod(%p0109) /* ty=int64 */
    };
    %631 = (%shape_func_out_05,);
    %632 = (%tensor_0110,);
    let %x215: () = vm.invoke_tvm_op(%630, %631, %632) /* ty=() */;
    let %storage_0116: Storage[] = memory.alloc_storage(8 /* ty=int64 */, 64 /* ty=int64 */, meta[relay.attrs.AllocStorageAttrs][125]) /* ty=Storage[] */;
    let %tensor_0111: int64 = memory.alloc_tensor(%storage_0116, 0 /* ty=int64 */, meta[relay.Constant][263] /* ty=Tensor[(0), int64] */, meta[relay.attrs.AllocTensorAttrs][125]) /* ty=int64 */;
    %633 = fn (%p0110: int64, Primitive=1) -> int64 {
      multiply(%p0110, 4 /* ty=int64 */) /* ty=int64 */
    };
    %634 = (%tensor_0110,);
    %635 = (%tensor_0111,);
    let %x216: () = vm.invoke_tvm_op(%633, %634, %635) /* ty=() */;
    let %storage_0117: Storage[] = memory.alloc_storage(%tensor_0111, 64 /* ty=int64 */, meta[relay.attrs.AllocStorageAttrs][126]) /* ty=Storage[] */;
    let %out_05: Tensor[(?), float32] = memory.alloc_tensor(%storage_0117, 0 /* ty=int64 */, %shape_func_out_05, meta[relay.attrs.AllocTensorAttrs][126]) /* ty=Tensor[(?), float32] */;
    %636 = (%x212, %x214);
    %637 = (%out_05,);
    let %x217: () = vm.invoke_tvm_op(%627, %636, %637) /* ty=() */;
    let %x218: Tensor[(?), float32] = %out_05;
    let %in_shape_4: Tensor[(1), int64] = vm.shape_of(%x197, meta[relay.attrs.ShapeOfAttrs][4]) /* ty=Tensor[(1), int64] */;
    let %in_shape_5: Tensor[(1), int64] = vm.shape_of(%x218, meta[relay.attrs.ShapeOfAttrs][5]) /* ty=Tensor[(1), int64] */;
    let %in_shape_6: Tensor[(2), int64] = vm.shape_of(%x201, meta[relay.attrs.ShapeOfAttrs][6]) /* ty=Tensor[(2), int64] */;
    let %storage_0118: Storage[] = memory.alloc_storage(24 /* ty=int64 */, 64 /* ty=int64 */, meta[relay.attrs.AllocStorageAttrs][127]) /* ty=Storage[] */;
    let %tensor_0112: Tensor[(3), int64] = memory.alloc_tensor(%storage_0118, 0 /* ty=int64 */, meta[relay.Constant][264] /* ty=Tensor[(1), int64] */, meta[relay.attrs.AllocTensorAttrs][127]) /* ty=Tensor[(3), int64] */;
    let %shape_func_out_06: Tensor[(3), int64] = %tensor_0112;
    %652 = fn (%p0111: Tensor[(1, 159882), float32], %p183: Tensor[(1, 159882), int64], %p281: Tensor[(1, 1), int64], %p323: Tensor[(1, 4507), int64], %p43: Tensor[(?), int64], %p52: Tensor[(?), float32], %p62: Tensor[(?, 4), float32], Primitive=1) -> Tensor[(1, ?, 6), float32] {
      %638 = cast(%p0111, dtype="int64") /* ty=Tensor[(1, 159882), int64] */;
      %639 = broadcast_to_like(%p183, %638) /* ty=Tensor[(1, 159882), int64] */;
      %640 = (%639, %p281, %p323);
      %641 = adv_index(%640) /* ty=Tensor[(1, 4507), int64] */;
      %642 = split(%641, indices_or_sections=1) /* ty=(Tensor[(1, 4507), int64],) */;
      %643 = %642.0;
      %644 = squeeze(%643, axis=[0]) /* ty=Tensor[(4507), int64] */;
      %645 = (%644, %p43);
      %646 = adv_index(%645) /* ty=Tensor[(?), int64] */;
      %647 = expand_dims(%646, axis=-1) /* ty=Tensor[(?, 1), int64] */;
      %648 = cast(%647, dtype="float32") /* ty=Tensor[(?, 1), float32] */;
      %649 = expand_dims(%p52, axis=-1) /* ty=Tensor[(?, 1), float32] */;
      %650 = (%648, %649, %p62);
      %651 = concatenate(%650, axis=-1) /* ty=Tensor[(?, 6), float32] */;
      expand_dims(%651, axis=0) /* ty=Tensor[(1, ?, 6), float32] */
    };
    %653 = (meta[relay.Constant][265] /* ty=Tensor[(2), int64] */, meta[relay.Constant][266] /* ty=Tensor[(2), int64] */, meta[relay.Constant][267] /* ty=Tensor[(2), int64] */, meta[relay.Constant][268] /* ty=Tensor[(2), int64] */, %in_shape_4, %in_shape_5, %in_shape_6);
    %654 = (%shape_func_out_06,);
    let %shape_func6: () = vm.shape_func(%652, %653, %654, meta[relay.attrs.ShapeFuncAttrs][6]) /* ty=() */;
    let %storage_0119: Storage[] = memory.alloc_storage(8 /* ty=int64 */, 64 /* ty=int64 */, meta[relay.attrs.AllocStorageAttrs][128]) /* ty=Storage[] */;
    let %tensor_0113: int64 = memory.alloc_tensor(%storage_0119, 0 /* ty=int64 */, meta[relay.Constant][269] /* ty=Tensor[(0), int64] */, meta[relay.attrs.AllocTensorAttrs][128]) /* ty=int64 */;
    %655 = fn (%p0112: Tensor[(3), int64], Primitive=1) -> int64 {
      prod(%p0112) /* ty=int64 */
    };
    %656 = (%shape_func_out_06,);
    %657 = (%tensor_0113,);
    let %x219: () = vm.invoke_tvm_op(%655, %656, %657) /* ty=() */;
    let %storage_0120: Storage[] = memory.alloc_storage(8 /* ty=int64 */, 64 /* ty=int64 */, meta[relay.attrs.AllocStorageAttrs][129]) /* ty=Storage[] */;
    let %tensor_0114: int64 = memory.alloc_tensor(%storage_0120, 0 /* ty=int64 */, meta[relay.Constant][270] /* ty=Tensor[(0), int64] */, meta[relay.attrs.AllocTensorAttrs][129]) /* ty=int64 */;
    %658 = fn (%p0113: int64, Primitive=1) -> int64 {
      multiply(%p0113, 4 /* ty=int64 */) /* ty=int64 */
    };
    %659 = (%tensor_0113,);
    %660 = (%tensor_0114,);
    let %x220: () = vm.invoke_tvm_op(%658, %659, %660) /* ty=() */;
    let %storage_0121: Storage[] = memory.alloc_storage(%tensor_0114, 64 /* ty=int64 */, meta[relay.attrs.AllocStorageAttrs][130]) /* ty=Storage[] */;
    let %out_06: Tensor[(1, ?, 6), float32] = memory.alloc_tensor(%storage_0121, 0 /* ty=int64 */, %shape_func_out_06, meta[relay.attrs.AllocTensorAttrs][130]) /* ty=Tensor[(1, ?, 6), float32] */;
    %661 = (%x166, meta[relay.Constant][271] /* ty=Tensor[(1, 159882), int64] */, meta[relay.Constant][238] /* ty=Tensor[(1, 1), int64] */, %x185, %x197, %x218, %x201);
    %662 = (%out_06,);
    let %x221: () = vm.invoke_tvm_op(%652, %661, %662) /* ty=() */;
    let %x222: Tensor[(1, ?, 6), float32] = %out_06;
    let %storage_0122: Storage[] = memory.alloc_storage(4 /* ty=int64 */, 64 /* ty=int64 */, meta[relay.attrs.AllocStorageAttrs][131]) /* ty=Storage[] */;
    let %tensor_0115: Tensor[(1), int32] = memory.alloc_tensor(%storage_0122, 0 /* ty=int64 */, meta[relay.Constant][272] /* ty=Tensor[(1), int64] */, meta[relay.attrs.AllocTensorAttrs][131]) /* ty=Tensor[(1), int32] */;
    %663 = fn (%p0114: Tensor[(?), float32], Primitive=1) -> Tensor[(1), int32] {
      shape_of(%p0114, dtype="int32") /* ty=Tensor[(1), int32] */
    };
    %664 = (%x218,);
    %665 = (%tensor_0115,);
    let %x223: () = vm.invoke_tvm_op(%663, %664, %665) /* ty=() */;
    let %x224: Tensor[(1), int32] = %tensor_0115;
    let %storage_0123: Storage[] = memory.alloc_storage(4 /* ty=int64 */, 64 /* ty=int64 */, meta[relay.attrs.AllocStorageAttrs][132]) /* ty=Storage[] */;
    let %tensor_0116: int32 = memory.alloc_tensor(%storage_0123, 0 /* ty=int64 */, meta[relay.Constant][273] /* ty=Tensor[(0), int64] */, meta[relay.attrs.AllocTensorAttrs][132]) /* ty=int32 */;
    %666 = fn (%p0115: Tensor[(1), int32], Primitive=1) -> int32 {
      squeeze(%p0115) /* ty=int32 */
    };
    %667 = (%x224,);
    %668 = (%tensor_0116,);
    let %x225: () = vm.invoke_tvm_op(%666, %667, %668) /* ty=() */;
    let %x226: int32 = %tensor_0116;
    let %in_shape_11: int32 = %x226;
    let %storage_0124: Storage[] = memory.alloc_storage(8 /* ty=int64 */, 64 /* ty=int64 */, meta[relay.attrs.AllocStorageAttrs][133]) /* ty=Storage[] */;
    let %tensor_0117: Tensor[(1), int64] = memory.alloc_tensor(%storage_0124, 0 /* ty=int64 */, meta[relay.Constant][274] /* ty=Tensor[(1), int64] */, meta[relay.attrs.AllocTensorAttrs][133]) /* ty=Tensor[(1), int64] */;
    let %shape_func_out_07: Tensor[(1), int64] = %tensor_0117;
    %669 = fn (%p0116: int32, %p184: int32, %p282: int32, Primitive=1) -> Tensor[(?), int32] {
      arange(%p0116, %p184, %p282, start=meta[relay.Constant][275], stop=meta[relay.Call][0], step=meta[relay.Constant][276], dtype="int32") /* ty=Tensor[(?), int32] */
    };
    %670 = (0 /* ty=int32 */, %in_shape_11, 1 /* ty=int32 */);
    %671 = (%shape_func_out_07,);
    let %shape_func7: () = vm.shape_func(%669, %670, %671, meta[relay.attrs.ShapeFuncAttrs][7]) /* ty=() */;
…
      let %x1279: () = vm.invoke_tvm_op(%3561, %3562, %3563) /* ty=() */;
      let %x1280: Tensor[(2), int64] = %tensor_0820;
      let %in_shape_1111: Tensor[(2), int64] = %x1280;
      let %storage_01005: Storage[] = memory.alloc_storage(16 /* ty=int64 */, 64 /* ty=int64 */, meta[relay.attrs.AllocStorageAttrs][1018]) /* ty=Storage[] */;
      let %tensor_0821: Tensor[(2), int64] = memory.alloc_tensor(%storage_01005, 0 /* ty=int64 */, meta[relay.Constant][1222] /* ty=Tensor[(1), int64] */, meta[relay.attrs.AllocTensorAttrs][1018]) /* ty=Tensor[(2), int64] */;
      let %shape_func_out_0190: Tensor[(2), int64] = %tensor_0821;
      %3564 = fn (%p0819: int32, %p1288: Tensor[(2), int64], Primitive=1) -> Tensor[(?, ?), float32] {
        dyn.full(%p0819, %p1288, shape=None, dtype="float32") /* ty=Tensor[(?, ?), float32] */
      };
      %3565 = (0 /* ty=int32 */, %in_shape_1111);
      %3566 = (%shape_func_out_0190,);
      let %shape_func190: () = vm.shape_func(%3564, %3565, %3566, meta[relay.attrs.ShapeFuncAttrs][190]) /* ty=() */;
      let %storage_01006: Storage[] = memory.alloc_storage(8 /* ty=int64 */, 64 /* ty=int64 */, meta[relay.attrs.AllocStorageAttrs][1019]) /* ty=Storage[] */;
      let %tensor_0822: int64 = memory.alloc_tensor(%storage_01006, 0 /* ty=int64 */, meta[relay.Constant][1223] /* ty=Tensor[(0), int64] */, meta[relay.attrs.AllocTensorAttrs][1019]) /* ty=int64 */;
      %3567 = fn (%p0820: Tensor[(2), int64], Primitive=1) -> int64 {
        prod(%p0820) /* ty=int64 */
      };
      %3568 = (%shape_func_out_0190,);
      %3569 = (%tensor_0822,);
      let %x1281: () = vm.invoke_tvm_op(%3567, %3568, %3569) /* ty=() */;
      let %storage_01007: Storage[] = memory.alloc_storage(8 /* ty=int64 */, 64 /* ty=int64 */, meta[relay.attrs.AllocStorageAttrs][1020]) /* ty=Storage[] */;
      let %tensor_0823: int64 = memory.alloc_tensor(%storage_01007, 0 /* ty=int64 */, meta[relay.Constant][1224] /* ty=Tensor[(0), int64] */, meta[relay.attrs.AllocTensorAttrs][1020]) /* ty=int64 */;
      %3570 = fn (%p0821: int64, Primitive=1) -> int64 {
        multiply(%p0821, 4 /* ty=int64 */) /* ty=int64 */
      };
      %3571 = (%tensor_0822,);
      %3572 = (%tensor_0823,);
      let %x1282: () = vm.invoke_tvm_op(%3570, %3571, %3572) /* ty=() */;
      let %storage_01008: Storage[] = memory.alloc_storage(%tensor_0823, 64 /* ty=int64 */, meta[relay.attrs.AllocStorageAttrs][1021]) /* ty=Storage[] */;
      let %out_0184: Tensor[(?, ?), float32] = memory.alloc_tensor(%storage_01008, 0 /* ty=int64 */, %shape_func_out_0190, meta[relay.attrs.AllocTensorAttrs][1021]) /* ty=Tensor[(?, ?), float32] */;
      %3573 = (0 /* ty=int32 */, %x1280);
      %3574 = (%out_0184,);
      let %x1283: () = vm.invoke_tvm_op(%3564, %3573, %3574) /* ty=() */;
      let %x1284: Tensor[(?, ?), float32] = %out_0184;
      let %storage_01009: Storage[] = memory.alloc_storage(16 /* ty=int64 */, 64 /* ty=int64 */, meta[relay.attrs.AllocStorageAttrs][1022]) /* ty=Storage[] */;
      let %tensor_0824: Tensor[(2), int64] = memory.alloc_tensor(%storage_01009, 0 /* ty=int64 */, meta[relay.Constant][1225] /* ty=Tensor[(1), int64] */, meta[relay.attrs.AllocTensorAttrs][1022]) /* ty=Tensor[(2), int64] */;
      %3579 = fn (%p0822: int64, %p1289: Tensor[(1), int64], Primitive=1) -> Tensor[(2), int64] {
        %3575 = subtract(300 /* ty=int64 */, %p0822) /* ty=int64 */;
        %3576 = expand_dims(%3575, axis=0) /* ty=Tensor[(1), int64] */;
        %3577 = cast(%3576, dtype="int64") /* ty=Tensor[(1), int64] */;
        %3578 = (%3577, %p1289);
        concatenate(%3578) /* ty=Tensor[(2), int64] */
      };
      %3580 = (%x1248, %x1278);
      %3581 = (%tensor_0824,);
      let %x1285: () = vm.invoke_tvm_op(%3579, %3580, %3581) /* ty=() */;
      let %x1286: Tensor[(2), int64] = %tensor_0824;
      let %in_shape_1112: Tensor[(2), int64] = %x1286;
      let %storage_01010: Storage[] = memory.alloc_storage(16 /* ty=int64 */, 64 /* ty=int64 */, meta[relay.attrs.AllocStorageAttrs][1023]) /* ty=Storage[] */;
      let %tensor_0825: Tensor[(2), int64] = memory.alloc_tensor(%storage_01010, 0 /* ty=int64 */, meta[relay.Constant][1226] /* ty=Tensor[(1), int64] */, meta[relay.attrs.AllocTensorAttrs][1023]) /* ty=Tensor[(2), int64] */;
      let %shape_func_out_0191: Tensor[(2), int64] = %tensor_0825;
      %3582 = fn (%p0823: int32, %p1290: Tensor[(2), int64], Primitive=1) -> Tensor[(?, ?), float32] {
        dyn.full(%p0823, %p1290, shape=None, dtype="float32") /* ty=Tensor[(?, ?), float32] */
      };
      %3583 = (0 /* ty=int32 */, %in_shape_1112);
      %3584 = (%shape_func_out_0191,);
      let %shape_func191: () = vm.shape_func(%3582, %3583, %3584, meta[relay.attrs.ShapeFuncAttrs][191]) /* ty=() */;
      let %storage_01011: Storage[] = memory.alloc_storage(8 /* ty=int64 */, 64 /* ty=int64 */, meta[relay.attrs.AllocStorageAttrs][1024]) /* ty=Storage[] */;
      let %tensor_0826: int64 = memory.alloc_tensor(%storage_01011, 0 /* ty=int64 */, meta[relay.Constant][1227] /* ty=Tensor[(0), int64] */, meta[relay.attrs.AllocTensorAttrs][1024]) /* ty=int64 */;
      %3585 = fn (%p0824: Tensor[(2), int64], Primitive=1) -> int64 {
        prod(%p0824) /* ty=int64 */
      };
      %3586 = (%shape_func_out_0191,);
      %3587 = (%tensor_0826,);
      let %x1287: () = vm.invoke_tvm_op(%3585, %3586, %3587) /* ty=() */;
      let %storage_01012: Storage[] = memory.alloc_storage(8 /* ty=int64 */, 64 /* ty=int64 */, meta[relay.attrs.AllocStorageAttrs][1025]) /* ty=Storage[] */;
      let %tensor_0827: int64 = memory.alloc_tensor(%storage_01012, 0 /* ty=int64 */, meta[relay.Constant][1228] /* ty=Tensor[(0), int64] */, meta[relay.attrs.AllocTensorAttrs][1025]) /* ty=int64 */;
      %3588 = fn (%p0825: int64, Primitive=1) -> int64 {
        multiply(%p0825, 4 /* ty=int64 */) /* ty=int64 */
      };
      %3589 = (%tensor_0826,);
      %3590 = (%tensor_0827,);
      let %x1288: () = vm.invoke_tvm_op(%3588, %3589, %3590) /* ty=() */;
      let %storage_01013: Storage[] = memory.alloc_storage(%tensor_0827, 64 /* ty=int64 */, meta[relay.attrs.AllocStorageAttrs][1026]) /* ty=Storage[] */;
      let %out_0185: Tensor[(?, ?), float32] = memory.alloc_tensor(%storage_01013, 0 /* ty=int64 */, %shape_func_out_0191, meta[relay.attrs.AllocTensorAttrs][1026]) /* ty=Tensor[(?, ?), float32] */;
      %3591 = (0 /* ty=int32 */, %x1286);
      %3592 = (%out_0185,);
      let %x1289: () = vm.invoke_tvm_op(%3582, %3591, %3592) /* ty=() */;
      let %x1290: Tensor[(?, ?), float32] = %out_0185;
      let %in_shape_0173: Tensor[(2), int64] = vm.shape_of(%x1284, meta[relay.attrs.ShapeOfAttrs][245]) /* ty=Tensor[(2), int64] */;
      let %in_shape_1113: Tensor[(2), int64] = vm.shape_of(%x1290, meta[relay.attrs.ShapeOfAttrs][246]) /* ty=Tensor[(2), int64] */;
      let %in_shape_276: Tensor[(2), int64] = vm.shape_of(%x1274, meta[relay.attrs.ShapeOfAttrs][247]) /* ty=Tensor[(2), int64] */;
      let %storage_01014: Storage[] = memory.alloc_storage(16 /* ty=int64 */, 64 /* ty=int64 */, meta[relay.attrs.AllocStorageAttrs][1027]) /* ty=Storage[] */;
      let %tensor_0828: Tensor[(2), int64] = memory.alloc_tensor(%storage_01014, 0 /* ty=int64 */, meta[relay.Constant][1229] /* ty=Tensor[(1), int64] */, meta[relay.attrs.AllocTensorAttrs][1027]) /* ty=Tensor[(2), int64] */;
      let %shape_func_out_0192: Tensor[(2), int64] = %tensor_0828;
      %3596 = fn (%p0826: Tensor[(?, ?), float32], %p1291: Tensor[(?, ?), float32], %p2237: Tensor[(?, ?), float32], Primitive=1) -> Tensor[(?, ?), float32] {
        %3593 = reshape(%p0826, newshape=[0, 0]) /* ty=Tensor[(?, ?), float32] */;
        %3594 = reshape(%p1291, newshape=[0, 0]) /* ty=Tensor[(?, ?), float32] */;
        %3595 = (%3593, %p2237, %3594);
        concatenate(%3595) /* ty=Tensor[(?, ?), float32] */
      };
      %3597 = (%in_shape_0173, %in_shape_1113, %in_shape_276);
      %3598 = (%shape_func_out_0192,);
      let %shape_func192: () = vm.shape_func(%3596, %3597, %3598, meta[relay.attrs.ShapeFuncAttrs][192]) /* ty=() */;
      let %storage_01015: Storage[] = memory.alloc_storage(8 /* ty=int64 */, 64 /* ty=int64 */, meta[relay.attrs.AllocStorageAttrs][1028]) /* ty=Storage[] */;
      let %tensor_0829: int64 = memory.alloc_tensor(%storage_01015, 0 /* ty=int64 */, meta[relay.Constant][1230] /* ty=Tensor[(0), int64] */, meta[relay.attrs.AllocTensorAttrs][1028]) /* ty=int64 */;
      %3599 = fn (%p0827: Tensor[(2), int64], Primitive=1) -> int64 {
        prod(%p0827) /* ty=int64 */
      };
      %3600 = (%shape_func_out_0192,);
      %3601 = (%tensor_0829,);
      let %x1291: () = vm.invoke_tvm_op(%3599, %3600, %3601) /* ty=() */;
      let %storage_01016: Storage[] = memory.alloc_storage(8 /* ty=int64 */, 64 /* ty=int64 */, meta[relay.attrs.AllocStorageAttrs][1029]) /* ty=Storage[] */;
      let %tensor_0830: int64 = memory.alloc_tensor(%storage_01016, 0 /* ty=int64 */, meta[relay.Constant][1231] /* ty=Tensor[(0), int64] */, meta[relay.attrs.AllocTensorAttrs][1029]) /* ty=int64 */;
      %3602 = fn (%p0828: int64, Primitive=1) -> int64 {
        multiply(%p0828, 4 /* ty=int64 */) /* ty=int64 */
      };
      %3603 = (%tensor_0829,);
      %3604 = (%tensor_0830,);
      let %x1292: () = vm.invoke_tvm_op(%3602, %3603, %3604) /* ty=() */;
      let %storage_01017: Storage[] = memory.alloc_storage(%tensor_0830, 64 /* ty=int64 */, meta[relay.attrs.AllocStorageAttrs][1030]) /* ty=Storage[] */;
      let %out_0186: Tensor[(?, ?), float32] = memory.alloc_tensor(%storage_01017, 0 /* ty=int64 */, %shape_func_out_0192, meta[relay.attrs.AllocTensorAttrs][1030]) /* ty=Tensor[(?, ?), float32] */;
      %3605 = (%x1284, %x1290, %x1274);
      %3606 = (%out_0186,);
      let %x1293: () = vm.invoke_tvm_op(%3596, %3605, %3606) /* ty=() */;
      let %x1294: Tensor[(?, ?), float32] = %out_0186;
      let %storage_01018: Storage[] = memory.alloc_storage(8 /* ty=int64 */, 64 /* ty=int64 */, meta[relay.attrs.AllocStorageAttrs][1031]) /* ty=Storage[] */;
      let %tensor_0831: Tensor[(2), int32] = memory.alloc_tensor(%storage_01018, 0 /* ty=int64 */, meta[relay.Constant][1232] /* ty=Tensor[(1), int64] */, meta[relay.attrs.AllocTensorAttrs][1031]) /* ty=Tensor[(2), int32] */;
      %3607 = fn (%p0829: Tensor[(?, ?), float32], Primitive=1) -> Tensor[(2), int32] {
        shape_of(%p0829, dtype="int32") /* ty=Tensor[(2), int32] */
      };
      %3608 = (%x1294,);
      %3609 = (%tensor_0831,);
      let %x1295: () = vm.invoke_tvm_op(%3607, %3608, %3609) /* ty=() */;
      let %x1296: Tensor[(2), int32] = %tensor_0831;
      let %storage_01019: Storage[] = memory.alloc_storage(8 /* ty=int64 */, 64 /* ty=int64 */, meta[relay.attrs.AllocStorageAttrs][1032]) /* ty=Storage[] */;
      let %tensor_0832: Tensor[(2), int32] = memory.alloc_tensor(%storage_01019, 0 /* ty=int64 */, meta[relay.Constant][1233] /* ty=Tensor[(1), int64] */, meta[relay.attrs.AllocTensorAttrs][1032]) /* ty=Tensor[(2), int32] */;
      %3612 = fn (%p0830: Tensor[(2), int32], %p1292: Tensor[(2), int32], %p2238: Tensor[(2), bool], Primitive=1) -> Tensor[(2), int32] {
        %3610 = cast_like(%p0830, %p1292) /* ty=Tensor[(2), int32] */;
        %3611 = add(%p1292, %3610) /* ty=Tensor[(2), int32] */;
        where(%p2238, %3611, %p1292) /* ty=Tensor[(2), int32] */
      };
      %3613 = (%x1296, meta[relay.Constant][1234] /* ty=Tensor[(2), int32] */, meta[relay.Constant][1235] /* ty=Tensor[(2), bool] */);
      %3614 = (%tensor_0832,);
      let %x1297: () = vm.invoke_tvm_op(%3612, %3613, %3614) /* ty=() */;
      let %x1298: Tensor[(2), int32] = %tensor_0832;
      let %storage_01020: Storage[] = memory.alloc_storage(8 /* ty=int64 */, 64 /* ty=int64 */, meta[relay.attrs.AllocStorageAttrs][1033]) /* ty=Storage[] */;
      let %tensor_0833: Tensor[(2), int32] = memory.alloc_tensor(%storage_01020, 0 /* ty=int64 */, meta[relay.Constant][1236] /* ty=Tensor[(1), int64] */, meta[relay.attrs.AllocTensorAttrs][1033]) /* ty=Tensor[(2), int32] */;
      %3615 = fn (%p0831: Tensor[(2), int32], %p1293: Tensor[(1), int32], %p2239: Tensor[(1), int32], Primitive=1) -> Tensor[(2), int32] {
        scatter(%p0831, %p1293, %p2239, meta[relay.attrs.ScatterAttrs][8]) /* ty=Tensor[(2), int32] */
      };
      %3616 = (%x1296, meta[relay.Constant][1203] /* ty=Tensor[(1), int32] */, meta[relay.Constant][1237] /* ty=Tensor[(1), int32] */);
      %3617 = (%tensor_0833,);
      let %x1299: () = vm.invoke_tvm_op(%3615, %3616, %3617) /* ty=() */;
      let %x1300: Tensor[(2), int32] = %tensor_0833;
      let %storage_01021: Storage[] = memory.alloc_storage(16 /* ty=int64 */, 64 /* ty=int64 */, meta[relay.attrs.AllocStorageAttrs][1034]) /* ty=Storage[] */;
      let %tensor_0834: Tensor[(2), int64] = memory.alloc_tensor(%storage_01021, 0 /* ty=int64 */, meta[relay.Constant][1238] /* ty=Tensor[(1), int64] */, meta[relay.attrs.AllocTensorAttrs][1034]) /* ty=Tensor[(2), int64] */;
      %3618 = fn (%p0832: Tensor[(2), int32], Primitive=1) -> Tensor[(2), int64] {
        cast(%p0832, dtype="int64") /* ty=Tensor[(2), int64] */
      };
      %3619 = (%x1300,);
      %3620 = (%tensor_0834,);
      let %x1301: () = vm.invoke_tvm_op(%3618, %3619, %3620) /* ty=() */;
      let %x1302: Tensor[(2), int64] = %tensor_0834;
      let %in_shape_0174: Tensor[(2), int64] = vm.shape_of(%x1294, meta[relay.attrs.ShapeOfAttrs][248]) /* ty=Tensor[(2), int64] */;
      let %in_shape_1114: Tensor[(2), int32] = %x1298;
      let %in_shape_277: Tensor[(2), int64] = %x1302;
      let %storage_01022: Storage[] = memory.alloc_storage(16 /* ty=int64 */, 64 /* ty=int64 */, meta[relay.attrs.AllocStorageAttrs][1035]) /* ty=Storage[] */;
      let %tensor_0835: Tensor[(2), int64] = memory.alloc_tensor(%storage_01022, 0 /* ty=int64 */, meta[relay.Constant][1239] /* ty=Tensor[(1), int64] */, meta[relay.attrs.AllocTensorAttrs][1035]) /* ty=Tensor[(2), int64] */;
      let %shape_func_out_0193: Tensor[(2), int64] = %tensor_0835;
      %3621 = fn (%p0833: Tensor[(?, ?), float32], %p1294: Tensor[(2), int32], %p2240: Tensor[(2), int64], %p393: Tensor[(2), int32], Primitive=1) -> Tensor[(?, ?), float32] {
        dyn.strided_slice(%p0833, %p1294, %p2240, %p393, begin=None, end=None, strides=None) /* ty=Tensor[(?, ?), float32] */
      };
      %3622 = (%in_shape_0174, %in_shape_1114, %in_shape_277, meta[relay.Constant][1240] /* ty=Tensor[(2), int32] */);
      %3623 = (%shape_func_out_0193,);
      let %shape_func193: () = vm.shape_func(%3621, %3622, %3623, meta[relay.attrs.ShapeFuncAttrs][193]) /* ty=() */;
      let %storage_01023: Storage[] = memory.alloc_storage(8 /* ty=int64 */, 64 /* ty=int64 */, meta[relay.attrs.AllocStorageAttrs][1036]) /* ty=Storage[] */;
      let %tensor_0836: int64 = memory.alloc_tensor(%storage_01023, 0 /* ty=int64 */, meta[relay.Constant][1241] /* ty=Tensor[(0), int64] */, meta[relay.attrs.AllocTensorAttrs][1036]) /* ty=int64 */;
      %3624 = fn (%p0834: Tensor[(2), int64], Primitive=1) -> int64 {
        prod(%p0834) /* ty=int64 */
      };
      %3625 = (%shape_func_out_0193,);
      %3626 = (%tensor_0836,);
      let %x1303: () = vm.invoke_tvm_op(%3624, %3625, %3626) /* ty=() */;
      let %storage_01024: Storage[] = memory.alloc_storage(8 /* ty=int64 */, 64 /* ty=int64 */, meta[relay.attrs.AllocStorageAttrs][1037]) /* ty=Storage[] */;
      let %tensor_0837: int64 = memory.alloc_tensor(%storage_01024, 0 /* ty=int64 */, meta[relay.Constant][1242] /* ty=Tensor[(0), int64] */, meta[relay.attrs.AllocTensorAttrs][1037]) /* ty=int64 */;
      %3627 = fn (%p0835: int64, Primitive=1) -> int64 {
        multiply(%p0835, 4 /* ty=int64 */) /* ty=int64 */
      };
      %3628 = (%tensor_0836,);
      %3629 = (%tensor_0837,);
      let %x1304: () = vm.invoke_tvm_op(%3627, %3628, %3629) /* ty=() */;
      let %storage_01025: Storage[] = memory.alloc_storage(%tensor_0837, 64 /* ty=int64 */, meta[relay.attrs.AllocStorageAttrs][1038]) /* ty=Storage[] */;
      let %out_0187: Tensor[(?, ?), float32] = memory.alloc_tensor(%storage_01025, 0 /* ty=int64 */, %shape_func_out_0193, meta[relay.attrs.AllocTensorAttrs][1038]) /* ty=Tensor[(?, ?), float32] */;
      %3630 = (%x1294, %x1298, %x1302, meta[relay.Constant][1240] /* ty=Tensor[(2), int32] */);
      %3631 = (%out_0187,);
      let %x1305: () = vm.invoke_tvm_op(%3621, %3630, %3631) /* ty=() */;
      let %x1306: Tensor[(?, ?), float32] = %out_0187;
      let %storage_01026: Storage[] = memory.alloc_storage(8 /* ty=int64 */, 64 /* ty=int64 */, meta[relay.attrs.AllocStorageAttrs][1039]) /* ty=Storage[] */;
      let %tensor_0838: Tensor[(2), int32] = memory.alloc_tensor(%storage_01026, 0 /* ty=int64 */, meta[relay.Constant][1243] /* ty=Tensor[(1), int64] */, meta[relay.attrs.AllocTensorAttrs][1039]) /* ty=Tensor[(2), int32] */;
      %3632 = fn (%p0836: Tensor[(?, ?), float32], Primitive=1) -> Tensor[(2), int32] {
        shape_of(%p0836, dtype="int32") /* ty=Tensor[(2), int32] */
      };
      %3633 = (%x1306,);
      %3634 = (%tensor_0838,);
      let %x1307: () = vm.invoke_tvm_op(%3632, %3633, %3634) /* ty=() */;
      let %x1308: Tensor[(2), int32] = %tensor_0838;
      let %storage_01027: Storage[] = memory.alloc_storage(8 /* ty=int64 */, 64 /* ty=int64 */, meta[relay.attrs.AllocStorageAttrs][1040]) /* ty=Storage[] */;
      let %tensor_0839: Tensor[(2), int32] = memory.alloc_tensor(%storage_01027, 0 /* ty=int64 */, meta[relay.Constant][1244] /* ty=Tensor[(1), int64] */, meta[relay.attrs.AllocTensorAttrs][1040]) /* ty=Tensor[(2), int32] */;
      %3637 = fn (%p0837: Tensor[(2), int32], %p1295: Tensor[(2), int32], %p2241: Tensor[(2), bool], Primitive=1) -> Tensor[(2), int32] {
        %3635 = cast_like(%p0837, %p1295) /* ty=Tensor[(2), int32] */;
        %3636 = add(%p1295, %3635) /* ty=Tensor[(2), int32] */;
        where(%p2241, %3636, %p1295) /* ty=Tensor[(2), int32] */
      };
      %3638 = (%x1308, meta[relay.Constant][1245] /* ty=Tensor[(2), int32] */, meta[relay.Constant][1246] /* ty=Tensor[(2), bool] */);
      %3639 = (%tensor_0839,);
      let %x1309: () = vm.invoke_tvm_op(%3637, %3638, %3639) /* ty=() */;
      let %x1310: Tensor[(2), int32] = %tensor_0839;
      let %storage_01028: Storage[] = memory.alloc_storage(16 /* ty=int64 */, 64 /* ty=int64 */, meta[relay.attrs.AllocStorageAttrs][1041]) /* ty=Storage[] */;
      let %tensor_0840: Tensor[(2), int64] = memory.alloc_tensor(%storage_01028, 0 /* ty=int64 */, meta[relay.Constant][1247] /* ty=Tensor[(1), int64] */, meta[relay.attrs.AllocTensorAttrs][1041]) /* ty=Tensor[(2), int64] */;
      %3640 = fn (%p0838: Tensor[(2), int32], Primitive=1) -> Tensor[(2), int64] {
        cast(%p0838, dtype="int64") /* ty=Tensor[(2), int64] */
      };
      %3641 = (%x1308,);
      %3642 = (%tensor_0840,);
      let %x1311: () = vm.invoke_tvm_op(%3640, %3641, %3642) /* ty=() */;
      let %x1312: Tensor[(2), int64] = %tensor_0840;
      let %in_shape_0175: Tensor[(2), int64] = vm.shape_of(%x1306, meta[relay.attrs.ShapeOfAttrs][249]) /* ty=Tensor[(2), int64] */;
      let %in_shape_1115: Tensor[(2), int32] = %x1310;
      let %in_shape_278: Tensor[(2), int64] = %x1312;
      let %storage_01029: Storage[] = memory.alloc_storage(16 /* ty=int64 */, 64 /* ty=int64 */, meta[relay.attrs.AllocStorageAttrs][1042]) /* ty=Storage[] */;
      let %tensor_0841: Tensor[(2), int64] = memory.alloc_tensor(%storage_01029, 0 /* ty=int64 */, meta[relay.Constant][1248] /* ty=Tensor[(1), int64] */, meta[relay.attrs.AllocTensorAttrs][1042]) /* ty=Tensor[(2), int64] */;
      let %shape_func_out_0194: Tensor[(2), int64] = %tensor_0841;
      %3643 = fn (%p0839: Tensor[(?, ?), float32], %p1296: Tensor[(2), int32], %p2242: Tensor[(2), int64], %p394: Tensor[(2), int32], Primitive=1) -> Tensor[(?, ?), float32] {
        dyn.strided_slice(%p0839, %p1296, %p2242, %p394, begin=None, end=None, strides=None) /* ty=Tensor[(?, ?), float32] */
      };
      %3644 = (%in_shape_0175, %in_shape_1115, %in_shape_278, meta[relay.Constant][1249] /* ty=Tensor[(2), int32] */);
      %3645 = (%shape_func_out_0194,);
      let %shape_func194: () = vm.shape_func(%3643, %3644, %3645, meta[relay.attrs.ShapeFuncAttrs][194]) /* ty=() */;
      let %storage_01030: Storage[] = memory.alloc_storage(8 /* ty=int64 */, 64 /* ty=int64 */, meta[relay.attrs.AllocStorageAttrs][1043]) /* ty=Storage[] */;
      let %tensor_0842: int64 = memory.alloc_tensor(%storage_01030, 0 /* ty=int64 */, meta[relay.Constant][1250] /* ty=Tensor[(0), int64] */, meta[relay.attrs.AllocTensorAttrs][1043]) /* ty=int64 */;
      %3646 = fn (%p0840: Tensor[(2), int64], Primitive=1) -> int64 {
        prod(%p0840) /* ty=int64 */
      };
      %3647 = (%shape_func_out_0194,);
      %3648 = (%tensor_0842,);
      let %x1313: () = vm.invoke_tvm_op(%3646, %3647, %3648) /* ty=() */;
      let %storage_01031: Storage[] = memory.alloc_storage(8 /* ty=int64 */, 64 /* ty=int64 */, meta[relay.attrs.AllocStorageAttrs][1044]) /* ty=Storage[] */;
      let %tensor_0843: int64 = memory.alloc_tensor(%storage_01031, 0 /* ty=int64 */, meta[relay.Constant][1251] /* ty=Tensor[(0), int64] */, meta[relay.attrs.AllocTensorAttrs][1044]) /* ty=int64 */;
      %3649 = fn (%p0841: int64, Primitive=1) -> int64 {
        multiply(%p0841, 4 /* ty=int64 */) /* ty=int64 */
      };
      %3650 = (%tensor_0842,);
      %3651 = (%tensor_0843,);
      let %x1314: () = vm.invoke_tvm_op(%3649, %3650, %3651) /* ty=() */;
      let %storage_01032: Storage[] = memory.alloc_storage(%tensor_0843, 64 /* ty=int64 */, meta[relay.attrs.AllocStorageAttrs][1045]) /* ty=Storage[] */;
      let %out_0188: Tensor[(?, ?), float32] = memory.alloc_tensor(%storage_01032, 0 /* ty=int64 */, %shape_func_out_0194, meta[relay.attrs.AllocTensorAttrs][1045]) /* ty=Tensor[(?, ?), float32] */;
      %3652 = (%x1306, %x1310, %x1312, meta[relay.Constant][1249] /* ty=Tensor[(2), int32] */);
      %3653 = (%out_0188,);
      let %x1315: () = vm.invoke_tvm_op(%3643, %3652, %3653) /* ty=() */;
      let %x1316: Tensor[(?, ?), float32] = %out_0188;
      let %storage_01033: Storage[] = memory.alloc_storage(8 /* ty=int64 */, 64 /* ty=int64 */, meta[relay.attrs.AllocStorageAttrs][1046]) /* ty=Storage[] */;
      let %tensor_0844: Tensor[(2), int32] = memory.alloc_tensor(%storage_01033, 0 /* ty=int64 */, meta[relay.Constant][1252] /* ty=Tensor[(1), int64] */, meta[relay.attrs.AllocTensorAttrs][1046]) /* ty=Tensor[(2), int32] */;
      %3654 = fn (%p0842: Tensor[(?, ?), float32], Primitive=1) -> Tensor[(2), int32] {
        shape_of(%p0842, dtype="int32") /* ty=Tensor[(2), int32] */
      };
      %3655 = (%x1316,);
      %3656 = (%tensor_0844,);
      let %x1317: () = vm.invoke_tvm_op(%3654, %3655, %3656) /* ty=() */;
      let %x1318: Tensor[(2), int32] = %tensor_0844;
      let %storage_01034: Storage[] = memory.alloc_storage(8 /* ty=int64 */, 64 /* ty=int64 */, meta[relay.attrs.AllocStorageAttrs][1047]) /* ty=Storage[] */;
      let %tensor_0845: Tensor[(1), int64] = memory.alloc_tensor(%storage_01034, 0 /* ty=int64 */, meta[relay.Constant][1253] /* ty=Tensor[(1), int64] */, meta[relay.attrs.AllocTensorAttrs][1047]) /* ty=Tensor[(1), int64] */;
      %3659 = fn (%p0843: Tensor[(2), int32], Primitive=1) -> Tensor[(1), int64] {
        %3657 = take(%p0843, 0 /* ty=int32 */, axis=0) /* ty=int32 */;
        %3658 = expand_dims(%3657, axis=0) /* ty=Tensor[(1), int32] */;
        cast(%3658, dtype="int64") /* ty=Tensor[(1), int64] */
      };
      %3660 = (%x1318,);
      %3661 = (%tensor_0845,);
      let %x1319: () = vm.invoke_tvm_op(%3659, %3660, %3661) /* ty=() */;
      let %x1320: Tensor[(1), int64] = %tensor_0845;
      let %storage_01035: Storage[] = memory.alloc_storage(16 /* ty=int64 */, 64 /* ty=int64 */, meta[relay.attrs.AllocStorageAttrs][1048]) /* ty=Storage[] */;
      let %tensor_0846: Tensor[(2), int64] = memory.alloc_tensor(%storage_01035, 0 /* ty=int64 */, meta[relay.Constant][1254] /* ty=Tensor[(1), int64] */, meta[relay.attrs.AllocTensorAttrs][1048]) /* ty=Tensor[(2), int64] */;
      %3665 = fn (%p0844: int64, %p1297: Tensor[(1), int64], Primitive=1) -> Tensor[(2), int64] {
        %3662 = expand_dims(%p0844, axis=0) /* ty=Tensor[(1), int64] */;
        %3663 = cast(%3662, dtype="int64") /* ty=Tensor[(1), int64] */;
        %3664 = (%p1297, %3663);
        concatenate(%3664) /* ty=Tensor[(2), int64] */
      };
      %3666 = (%x1198, %x1320);
      %3667 = (%tensor_0846,);
      let %x1321: () = vm.invoke_tvm_op(%3665, %3666, %3667) /* ty=() */;
      let %x1322: Tensor[(2), int64] = %tensor_0846;
      let %in_shape_1116: Tensor[(2), int64] = %x1322;
      let %storage_01036: Storage[] = memory.alloc_storage(16 /* ty=int64 */, 64 /* ty=int64 */, meta[relay.attrs.AllocStorageAttrs][1049]) /* ty=Storage[] */;
      let %tensor_0847: Tensor[(2), int64] = memory.alloc_tensor(%storage_01036, 0 /* ty=int64 */, meta[relay.Constant][1255] /* ty=Tensor[(1), int64] */, meta[relay.attrs.AllocTensorAttrs][1049]) /* ty=Tensor[(2), int64] */;
      let %shape_func_out_0195: Tensor[(2), int64] = %tensor_0847;
      %3668 = fn (%p0845: int32, %p1298: Tensor[(2), int64], Primitive=1) -> Tensor[(?, ?), float32] {
        dyn.full(%p0845, %p1298, shape=None, dtype="float32") /* ty=Tensor[(?, ?), float32] */
      };
      %3669 = (0 /* ty=int32 */, %in_shape_1116);
      %3670 = (%shape_func_out_0195,);
      let %shape_func195: () = vm.shape_func(%3668, %3669, %3670, meta[relay.attrs.ShapeFuncAttrs][195]) /* ty=() */;
      let %storage_01037: Storage[] = memory.alloc_storage(8 /* ty=int64 */, 64 /* ty=int64 */, meta[relay.attrs.AllocStorageAttrs][1050]) /* ty=Storage[] */;
      let %tensor_0848: int64 = memory.alloc_tensor(%storage_01037, 0 /* ty=int64 */, meta[relay.Constant][1256] /* ty=Tensor[(0), int64] */, meta[relay.attrs.AllocTensorAttrs][1050]) /* ty=int64 */;
      %3671 = fn (%p0846: Tensor[(2), int64], Primitive=1) -> int64 {
        prod(%p0846) /* ty=int64 */
      };
      %3672 = (%shape_func_out_0195,);
      %3673 = (%tensor_0848,);
      let %x1323: () = vm.invoke_tvm_op(%3671, %3672, %3673) /* ty=() */;
      let %storage_01038: Storage[] = memory.alloc_storage(8 /* ty=int64 */, 64 /* ty=int64 */, meta[relay.attrs.AllocStorageAttrs][1051]) /* ty=Storage[] */;
      let %tensor_0849: int64 = memory.alloc_tensor(%storage_01038, 0 /* ty=int64 */, meta[relay.Constant][1257] /* ty=Tensor[(0), int64] */, meta[relay.attrs.AllocTensorAttrs][1051]) /* ty=int64 */;
      %3674 = fn (%p0847: int64, Primitive=1) -> int64 {
        multiply(%p0847, 4 /* ty=int64 */) /* ty=int64 */
      };
      %3675 = (%tensor_0848,);
      %3676 = (%tensor_0849,);
      let %x1324: () = vm.invoke_tvm_op(%3674, %3675, %3676) /* ty=() */;
      let %storage_01039: Storage[] = memory.alloc_storage(%tensor_0849, 64 /* ty=int64 */, meta[relay.attrs.AllocStorageAttrs][1052]) /* ty=Storage[] */;
      let %out_0189: Tensor[(?, ?), float32] = memory.alloc_tensor(%storage_01039, 0 /* ty=int64 */, %shape_func_out_0195, meta[relay.attrs.AllocTensorAttrs][1052]) /* ty=Tensor[(?, ?), float32] */;
      %3677 = (0 /* ty=int32 */, %x1322);
      %3678 = (%out_0189,);
      let %x1325: () = vm.invoke_tvm_op(%3668, %3677, %3678) /* ty=() */;
      let %x1326: Tensor[(?, ?), float32] = %out_0189;
      let %storage_01040: Storage[] = memory.alloc_storage(16 /* ty=int64 */, 64 /* ty=int64 */, meta[relay.attrs.AllocStorageAttrs][1053]) /* ty=Storage[] */;
      let %tensor_0850: Tensor[(2), int64] = memory.alloc_tensor(%storage_01040, 0 /* ty=int64 */, meta[relay.Constant][1258] /* ty=Tensor[(1), int64] */, meta[relay.attrs.AllocTensorAttrs][1053]) /* ty=Tensor[(2), int64] */;
      %3683 = fn (%p0848: int64, %p1299: Tensor[(1), int64], Primitive=1) -> Tensor[(2), int64] {
        %3679 = subtract(300 /* ty=int64 */, %p0848) /* ty=int64 */;
        %3680 = expand_dims(%3679, axis=0) /* ty=Tensor[(1), int64] */;
        %3681 = cast(%3680, dtype="int64") /* ty=Tensor[(1), int64] */;
        %3682 = (%p1299, %3681);
        concatenate(%3682) /* ty=Tensor[(2), int64] */
      };
      %3684 = (%x1266, %x1320);
      %3685 = (%tensor_0850,);
      let %x1327: () = vm.invoke_tvm_op(%3683, %3684, %3685) /* ty=() */;
      let %x1328: Tensor[(2), int64] = %tensor_0850;
      let %in_shape_1117: Tensor[(2), int64] = %x1328;
      let %storage_01041: Storage[] = memory.alloc_storage(16 /* ty=int64 */, 64 /* ty=int64 */, meta[relay.attrs.AllocStorageAttrs][1054]) /* ty=Storage[] */;
      let %tensor_0851: Tensor[(2), int64] = memory.alloc_tensor(%storage_01041, 0 /* ty=int64 */, meta[relay.Constant][1259] /* ty=Tensor[(1), int64] */, meta[relay.attrs.AllocTensorAttrs][1054]) /* ty=Tensor[(2), int64] */;
      let %shape_func_out_0196: Tensor[(2), int64] = %tensor_0851;
      %3686 = fn (%p0849: int32, %p1300: Tensor[(2), int64], Primitive=1) -> Tensor[(?, ?), float32] {
        dyn.full(%p0849, %p1300, shape=None, dtype="float32") /* ty=Tensor[(?, ?), float32] */
      };
      %3687 = (0 /* ty=int32 */, %in_shape_1117);
      %3688 = (%shape_func_out_0196,);
      let %shape_func196: () = vm.shape_func(%3686, %3687, %3688, meta[relay.attrs.ShapeFuncAttrs][196]) /* ty=() */;
      let %storage_01042: Storage[] = memory.alloc_storage(8 /* ty=int64 */, 64 /* ty=int64 */, meta[relay.attrs.AllocStorageAttrs][1055]) /* ty=Storage[] */;
      let %tensor_0852: int64 = memory.alloc_tensor(%storage_01042, 0 /* ty=int64 */, meta[relay.Constant][1260] /* ty=Tensor[(0), int64] */, meta[relay.attrs.AllocTensorAttrs][1055]) /* ty=int64 */;
      %3689 = fn (%p0850: Tensor[(2), int64], Primitive=1) -> int64 {
        prod(%p0850) /* ty=int64 */
      };
      %3690 = (%shape_func_out_0196,);
      %3691 = (%tensor_0852,);
      let %x1329: () = vm.invoke_tvm_op(%3689, %3690, %3691) /* ty=() */;
      let %storage_01043: Storage[] = memory.alloc_storage(8 /* ty=int64 */, 64 /* ty=int64 */, meta[relay.attrs.AllocStorageAttrs][1056]) /* ty=Storage[] */;
      let %tensor_0853: int64 = memory.alloc_tensor(%storage_01043, 0 /* ty=int64 */, meta[relay.Constant][1261] /* ty=Tensor[(0), int64] */, meta[relay.attrs.AllocTensorAttrs][1056]) /* ty=int64 */;
      %3692 = fn (%p0851: int64, Primitive=1) -> int64 {
        multiply(%p0851, 4 /* ty=int64 */) /* ty=int64 */
      };
      %3693 = (%tensor_0852,);
      %3694 = (%tensor_0853,);
      let %x1330: () = vm.invoke_tvm_op(%3692, %3693, %3694) /* ty=() */;
      let %storage_01044: Storage[] = memory.alloc_storage(%tensor_0853, 64 /* ty=int64 */, meta[relay.attrs.AllocStorageAttrs][1057]) /* ty=Storage[] */;
      let %out_0190: Tensor[(?, ?), float32] = memory.alloc_tensor(%storage_01044, 0 /* ty=int64 */, %shape_func_out_0196, meta[relay.attrs.AllocTensorAttrs][1057]) /* ty=Tensor[(?, ?), float32] */;
      %3695 = (0 /* ty=int32 */, %x1328);
      %3696 = (%out_0190,);
      let %x1331: () = vm.invoke_tvm_op(%3686, %3695, %3696) /* ty=() */;
      let %x1332: Tensor[(?, ?), float32] = %out_0190;
      let %in_shape_0176: Tensor[(2), int64] = vm.shape_of(%x1326, meta[relay.attrs.ShapeOfAttrs][250]) /* ty=Tensor[(2), int64] */;
      let %in_shape_1118: Tensor[(2), int64] = vm.shape_of(%x1332, meta[relay.attrs.ShapeOfAttrs][251]) /* ty=Tensor[(2), int64] */;
      let %in_shape_279: Tensor[(2), int64] = vm.shape_of(%x1316, meta[relay.attrs.ShapeOfAttrs][252]) /* ty=Tensor[(2), int64] */;
      let %storage_01045: Storage[] = memory.alloc_storage(16 /* ty=int64 */, 64 /* ty=int64 */, meta[relay.attrs.AllocStorageAttrs][1058]) /* ty=Storage[] */;
      let %tensor_0854: Tensor[(2), int64] = memory.alloc_tensor(%storage_01045, 0 /* ty=int64 */, meta[relay.Constant][1262] /* ty=Tensor[(1), int64] */, meta[relay.attrs.AllocTensorAttrs][1058]) /* ty=Tensor[(2), int64] */;
      let %shape_func_out_0197: Tensor[(2), int64] = %tensor_0854;
      %3700 = fn (%p0852: Tensor[(?, ?), float32], %p1301: Tensor[(?, ?), float32], %p2243: Tensor[(?, ?), float32], Primitive=1) -> Tensor[(?, ?), float32] {
        %3697 = reshape(%p0852, newshape=[0, 0]) /* ty=Tensor[(?, ?), float32] */;
        %3698 = reshape(%p1301, newshape=[0, 0]) /* ty=Tensor[(?, ?), float32] */;
        %3699 = (%3697, %p2243, %3698);
        concatenate(%3699, axis=1) /* ty=Tensor[(?, ?), float32] */
      };
      %3701 = (%in_shape_0176, %in_shape_1118, %in_shape_279);
      %3702 = (%shape_func_out_0197,);
      let %shape_func197: () = vm.shape_func(%3700, %3701, %3702, meta[relay.attrs.ShapeFuncAttrs][197]) /* ty=() */;
      let %storage_01046: Storage[] = memory.alloc_storage(8 /* ty=int64 */, 64 /* ty=int64 */, meta[relay.attrs.AllocStorageAttrs][1059]) /* ty=Storage[] */;
      let %tensor_0855: int64 = memory.alloc_tensor(%storage_01046, 0 /* ty=int64 */, meta[relay.Constant][1263] /* ty=Tensor[(0), int64] */, meta[relay.attrs.AllocTensorAttrs][1059]) /* ty=int64 */;
      %3703 = fn (%p0853: Tensor[(2), int64], Primitive=1) -> int64 {
        prod(%p0853) /* ty=int64 */
      };
      %3704 = (%shape_func_out_0197,);
      %3705 = (%tensor_0855,);
      let %x1333: () = vm.invoke_tvm_op(%3703, %3704, %3705) /* ty=() */;
      let %storage_01047: Storage[] = memory.alloc_storage(8 /* ty=int64 */, 64 /* ty=int64 */, meta[relay.attrs.AllocStorageAttrs][1060]) /* ty=Storage[] */;
      let %tensor_0856: int64 = memory.alloc_tensor(%storage_01047, 0 /* ty=int64 */, meta[relay.Constant][1264] /* ty=Tensor[(0), int64] */, meta[relay.attrs.AllocTensorAttrs][1060]) /* ty=int64 */;
      %3706 = fn (%p0854: int64, Primitive=1) -> int64 {
        multiply(%p0854, 4 /* ty=int64 */) /* ty=int64 */
      };
      %3707 = (%tensor_0855,);
      %3708 = (%tensor_0856,);
      let %x1334: () = vm.invoke_tvm_op(%3706, %3707, %3708) /* ty=() */;
      let %storage_01048: Storage[] = memory.alloc_storage(%tensor_0856, 64 /* ty=int64 */, meta[relay.attrs.AllocStorageAttrs][1061]) /* ty=Storage[] */;
      let %out_0191: Tensor[(?, ?), float32] = memory.alloc_tensor(%storage_01048, 0 /* ty=int64 */, %shape_func_out_0197, meta[relay.attrs.AllocTensorAttrs][1061]) /* ty=Tensor[(?, ?), float32] */;
      %3709 = (%x1326, %x1332, %x1316);
      %3710 = (%out_0191,);
      let %x1335: () = vm.invoke_tvm_op(%3700, %3709, %3710) /* ty=() */;
      let %x1336: Tensor[(?, ?), float32] = %out_0191;
      let %storage_01049: Storage[] = memory.alloc_storage(8 /* ty=int64 */, 64 /* ty=int64 */, meta[relay.attrs.AllocStorageAttrs][1062]) /* ty=Storage[] */;
      let %tensor_0857: Tensor[(2), int32] = memory.alloc_tensor(%storage_01049, 0 /* ty=int64 */, meta[relay.Constant][1265] /* ty=Tensor[(1), int64] */, meta[relay.attrs.AllocTensorAttrs][1062]) /* ty=Tensor[(2), int32] */;
      %3711 = fn (%p0855: Tensor[(?, ?), float32], Primitive=1) -> Tensor[(2), int32] {
        shape_of(%p0855, dtype="int32") /* ty=Tensor[(2), int32] */
      };
      %3712 = (%x1336,);
      %3713 = (%tensor_0857,);
      let %x1337: () = vm.invoke_tvm_op(%3711, %3712, %3713) /* ty=() */;
      let %x1338: Tensor[(2), int32] = %tensor_0857;
      let %storage_01050: Storage[] = memory.alloc_storage(8 /* ty=int64 */, 64 /* ty=int64 */, meta[relay.attrs.AllocStorageAttrs][1063]) /* ty=Storage[] */;
      let %tensor_0858: Tensor[(2), int32] = memory.alloc_tensor(%storage_01050, 0 /* ty=int64 */, meta[relay.Constant][1266] /* ty=Tensor[(1), int64] */, meta[relay.attrs.AllocTensorAttrs][1063]) /* ty=Tensor[(2), int32] */;
      %3716 = fn (%p0856: Tensor[(2), int32], %p1302: Tensor[(2), int32], %p2244: Tensor[(2), bool], Primitive=1) -> Tensor[(2), int32] {
        %3714 = cast_like(%p0856, %p1302) /* ty=Tensor[(2), int32] */;
        %3715 = add(%p1302, %3714) /* ty=Tensor[(2), int32] */;
        where(%p2244, %3715, %p1302) /* ty=Tensor[(2), int32] */
      };
      %3717 = (%x1338, meta[relay.Constant][1267] /* ty=Tensor[(2), int32] */, meta[relay.Constant][1268] /* ty=Tensor[(2), bool] */);
      %3718 = (%tensor_0858,);
      let %x1339: () = vm.invoke_tvm_op(%3716, %3717, %3718) /* ty=() */;
      let %x1340: Tensor[(2), int32] = %tensor_0858;
      let %storage_01051: Storage[] = memory.alloc_storage(16 /* ty=int64 */, 64 /* ty=int64 */, meta[relay.attrs.AllocStorageAttrs][1064]) /* ty=Storage[] */;
      let %tensor_0859: Tensor[(2), int64] = memory.alloc_tensor(%storage_01051, 0 /* ty=int64 */, meta[relay.Constant][1269] /* ty=Tensor[(1), int64] */, meta[relay.attrs.AllocTensorAttrs][1064]) /* ty=Tensor[(2), int64] */;
      %3719 = fn (%p0857: Tensor[(2), int32], Primitive=1) -> Tensor[(2), int64] {
        cast(%p0857, dtype="int64") /* ty=Tensor[(2), int64] */
      };
      %3720 = (%x1338,);
      %3721 = (%tensor_0859,);
      let %x1341: () = vm.invoke_tvm_op(%3719, %3720, %3721) /* ty=() */;
      let %x1342: Tensor[(2), int64] = %tensor_0859;
      let %in_shape_0177: Tensor[(2), int64] = vm.shape_of(%x1336, meta[relay.attrs.ShapeOfAttrs][253]) /* ty=Tensor[(2), int64] */;
      let %in_shape_1119: Tensor[(2), int32] = %x1340;
      let %in_shape_280: Tensor[(2), int64] = %x1342;
      let %storage_01052: Storage[] = memory.alloc_storage(16 /* ty=int64 */, 64 /* ty=int64 */, meta[relay.attrs.AllocStorageAttrs][1065]) /* ty=Storage[] */;
      let %tensor_0860: Tensor[(2), int64] = memory.alloc_tensor(%storage_01052, 0 /* ty=int64 */, meta[relay.Constant][1270] /* ty=Tensor[(1), int64] */, meta[relay.attrs.AllocTensorAttrs][1065]) /* ty=Tensor[(2), int64] */;
      let %shape_func_out_0198: Tensor[(2), int64] = %tensor_0860;
      %3722 = fn (%p0858: Tensor[(?, ?), float32], %p1303: Tensor[(2), int32], %p2245: Tensor[(2), int64], %p395: Tensor[(2), int32], Primitive=1) -> Tensor[(?, ?), float32] {
        dyn.strided_slice(%p0858, %p1303, %p2245, %p395, begin=None, end=None, strides=None) /* ty=Tensor[(?, ?), float32] */
      };
      %3723 = (%in_shape_0177, %in_shape_1119, %in_shape_280, meta[relay.Constant][1271] /* ty=Tensor[(2), int32] */);
      %3724 = (%shape_func_out_0198,);
      let %shape_func198: () = vm.shape_func(%3722, %3723, %3724, meta[relay.attrs.ShapeFuncAttrs][198]) /* ty=() */;
      let %storage_01053: Storage[] = memory.alloc_storage(8 /* ty=int64 */, 64 /* ty=int64 */, meta[relay.attrs.AllocStorageAttrs][1066]) /* ty=Storage[] */;
      let %tensor_0861: int64 = memory.alloc_tensor(%storage_01053, 0 /* ty=int64 */, meta[relay.Constant][1272] /* ty=Tensor[(0), int64] */, meta[relay.attrs.AllocTensorAttrs][1066]) /* ty=int64 */;
      %3725 = fn (%p0859: Tensor[(2), int64], Primitive=1) -> int64 {
        prod(%p0859) /* ty=int64 */
      };
      %3726 = (%shape_func_out_0198,);
      %3727 = (%tensor_0861,);
      let %x1343: () = vm.invoke_tvm_op(%3725, %3726, %3727) /* ty=() */;
      let %storage_01054: Storage[] = memory.alloc_storage(8 /* ty=int64 */, 64 /* ty=int64 */, meta[relay.attrs.AllocStorageAttrs][1067]) /* ty=Storage[] */;
      let %tensor_0862: int64 = memory.alloc_tensor(%storage_01054, 0 /* ty=int64 */, meta[relay.Constant][1273] /* ty=Tensor[(0), int64] */, meta[relay.attrs.AllocTensorAttrs][1067]) /* ty=int64 */;
      %3728 = fn (%p0860: int64, Primitive=1) -> int64 {
        multiply(%p0860, 4 /* ty=int64 */) /* ty=int64 */
      };
      %3729 = (%tensor_0861,);
      %3730 = (%tensor_0862,);
      let %x1344: () = vm.invoke_tvm_op(%3728, %3729, %3730) /* ty=() */;
      let %storage_01055: Storage[] = memory.alloc_storage(%tensor_0862, 64 /* ty=int64 */, meta[relay.attrs.AllocStorageAttrs][1068]) /* ty=Storage[] */;
      let %out_0192: Tensor[(?, ?), float32] = memory.alloc_tensor(%storage_01055, 0 /* ty=int64 */, %shape_func_out_0198, meta[relay.attrs.AllocTensorAttrs][1068]) /* ty=Tensor[(?, ?), float32] */;
      %3731 = (%x1336, %x1340, %x1342, meta[relay.Constant][1271] /* ty=Tensor[(2), int32] */);
      %3732 = (%out_0192,);
      let %x1345: () = vm.invoke_tvm_op(%3722, %3731, %3732) /* ty=() */;
      let %x1346: Tensor[(?, ?), float32] = %out_0192;
      let %storage_01056: Storage[] = memory.alloc_storage(8 /* ty=int64 */, 64 /* ty=int64 */, meta[relay.attrs.AllocStorageAttrs][1069]) /* ty=Storage[] */;
      let %tensor_0863: Tensor[(2), int32] = memory.alloc_tensor(%storage_01056, 0 /* ty=int64 */, meta[relay.Constant][1274] /* ty=Tensor[(1), int64] */, meta[relay.attrs.AllocTensorAttrs][1069]) /* ty=Tensor[(2), int32] */;
      %3733 = fn (%p0861: Tensor[(?, ?), float32], Primitive=1) -> Tensor[(2), int32] {
        shape_of(%p0861, dtype="int32") /* ty=Tensor[(2), int32] */
      };
      %3734 = (%x1346,);
      %3735 = (%tensor_0863,);
      let %x1347: () = vm.invoke_tvm_op(%3733, %3734, %3735) /* ty=() */;
      let %x1348: Tensor[(2), int32] = %tensor_0863;
      let %storage_01057: Storage[] = memory.alloc_storage(8 /* ty=int64 */, 64 /* ty=int64 */, meta[relay.attrs.AllocStorageAttrs][1070]) /* ty=Storage[] */;
      let %tensor_0864: Tensor[(2), int32] = memory.alloc_tensor(%storage_01057, 0 /* ty=int64 */, meta[relay.Constant][1275] /* ty=Tensor[(1), int64] */, meta[relay.attrs.AllocTensorAttrs][1070]) /* ty=Tensor[(2), int32] */;
      %3738 = fn (%p0862: Tensor[(2), int32], %p1304: Tensor[(2), int32], %p2246: Tensor[(2), bool], Primitive=1) -> Tensor[(2), int32] {
        %3736 = cast_like(%p0862, %p1304) /* ty=Tensor[(2), int32] */;
        %3737 = add(%p1304, %3736) /* ty=Tensor[(2), int32] */;
        where(%p2246, %3737, %p1304) /* ty=Tensor[(2), int32] */
      };
      %3739 = (%x1348, meta[relay.Constant][1276] /* ty=Tensor[(2), int32] */, meta[relay.Constant][1277] /* ty=Tensor[(2), bool] */);
      %3740 = (%tensor_0864,);
      let %x1349: () = vm.invoke_tvm_op(%3738, %3739, %3740) /* ty=() */;
      let %x1350: Tensor[(2), int32] = %tensor_0864;
      let %storage_01058: Storage[] = memory.alloc_storage(8 /* ty=int64 */, 64 /* ty=int64 */, meta[relay.attrs.AllocStorageAttrs][1071]) /* ty=Storage[] */;
      let %tensor_0865: Tensor[(2), int32] = memory.alloc_tensor(%storage_01058, 0 /* ty=int64 */, meta[relay.Constant][1278] /* ty=Tensor[(1), int64] */, meta[relay.attrs.AllocTensorAttrs][1071]) /* ty=Tensor[(2), int32] */;
      %3741 = fn (%p0863: Tensor[(2), int32], %p1305: Tensor[(1), int32], %p2247: Tensor[(1), int32], Primitive=1) -> Tensor[(2), int32] {
        scatter(%p0863, %p1305, %p2247, meta[relay.attrs.ScatterAttrs][9]) /* ty=Tensor[(2), int32] */
      };
      %3742 = (%x1348, %x1183, meta[relay.Constant][1237] /* ty=Tensor[(1), int32] */);
      %3743 = (%tensor_0865,);
      let %x1351: () = vm.invoke_tvm_op(%3741, %3742, %3743) /* ty=() */;
      let %x1352: Tensor[(2), int32] = %tensor_0865;
      let %storage_01059: Storage[] = memory.alloc_storage(16 /* ty=int64 */, 64 /* ty=int64 */, meta[relay.attrs.AllocStorageAttrs][1072]) /* ty=Storage[] */;
      let %tensor_0866: Tensor[(2), int64] = memory.alloc_tensor(%storage_01059, 0 /* ty=int64 */, meta[relay.Constant][1279] /* ty=Tensor[(1), int64] */, meta[relay.attrs.AllocTensorAttrs][1072]) /* ty=Tensor[(2), int64] */;
      %3744 = fn (%p0864: Tensor[(2), int32], Primitive=1) -> Tensor[(2), int64] {
        cast(%p0864, dtype="int64") /* ty=Tensor[(2), int64] */
      };
      %3745 = (%x1352,);
      %3746 = (%tensor_0866,);
      let %x1353: () = vm.invoke_tvm_op(%3744, %3745, %3746) /* ty=() */;
      let %x1354: Tensor[(2), int64] = %tensor_0866;
      let %in_shape_0178: Tensor[(2), int64] = vm.shape_of(%x1346, meta[relay.attrs.ShapeOfAttrs][254]) /* ty=Tensor[(2), int64] */;
      let %in_shape_1120: Tensor[(2), int32] = %x1350;
      let %in_shape_281: Tensor[(2), int64] = %x1354;
      let %storage_01060: Storage[] = memory.alloc_storage(16 /* ty=int64 */, 64 /* ty=int64 */, meta[relay.attrs.AllocStorageAttrs][1073]) /* ty=Storage[] */;
      let %tensor_0867: Tensor[(2), int64] = memory.alloc_tensor(%storage_01060, 0 /* ty=int64 */, meta[relay.Constant][1280] /* ty=Tensor[(1), int64] */, meta[relay.attrs.AllocTensorAttrs][1073]) /* ty=Tensor[(2), int64] */;
      let %shape_func_out_0199: Tensor[(2), int64] = %tensor_0867;
      %3747 = fn (%p0865: Tensor[(?, ?), float32], %p1306: Tensor[(2), int32], %p2248: Tensor[(2), int64], %p396: Tensor[(2), int32], Primitive=1) -> Tensor[(?, ?), float32] {
        dyn.strided_slice(%p0865, %p1306, %p2248, %p396, begin=None, end=None, strides=None) /* ty=Tensor[(?, ?), float32] */
      };
      %3748 = (%in_shape_0178, %in_shape_1120, %in_shape_281, meta[relay.Constant][1281] /* ty=Tensor[(2), int32] */);
      %3749 = (%shape_func_out_0199,);
      let %shape_func199: () = vm.shape_func(%3747, %3748, %3749, meta[relay.attrs.ShapeFuncAttrs][199]) /* ty=() */;
      let %storage_01061: Storage[] = memory.alloc_storage(8 /* ty=int64 */, 64 /* ty=int64 */, meta[relay.attrs.AllocStorageAttrs][1074]) /* ty=Storage[] */;
      let %tensor_0868: int64 = memory.alloc_tensor(%storage_01061, 0 /* ty=int64 */, meta[relay.Constant][1282] /* ty=Tensor[(0), int64] */, meta[relay.attrs.AllocTensorAttrs][1074]) /* ty=int64 */;
      %3750 = fn (%p0866: Tensor[(2), int64], Primitive=1) -> int64 {
        prod(%p0866) /* ty=int64 */
      };
      %3751 = (%shape_func_out_0199,);
      %3752 = (%tensor_0868,);
      let %x1355: () = vm.invoke_tvm_op(%3750, %3751, %3752) /* ty=() */;
      let %storage_01062: Storage[] = memory.alloc_storage(8 /* ty=int64 */, 64 /* ty=int64 */, meta[relay.attrs.AllocStorageAttrs][1075]) /* ty=Storage[] */;
      let %tensor_0869: int64 = memory.alloc_tensor(%storage_01062, 0 /* ty=int64 */, meta[relay.Constant][1283] /* ty=Tensor[(0), int64] */, meta[relay.attrs.AllocTensorAttrs][1075]) /* ty=int64 */;
      %3753 = fn (%p0867: int64, Primitive=1) -> int64 {
        multiply(%p0867, 4 /* ty=int64 */) /* ty=int64 */
      };
      %3754 = (%tensor_0868,);
      %3755 = (%tensor_0869,);
      let %x1356: () = vm.invoke_tvm_op(%3753, %3754, %3755) /* ty=() */;
      let %storage_01063: Storage[] = memory.alloc_storage(%tensor_0869, 64 /* ty=int64 */, meta[relay.attrs.AllocStorageAttrs][1076]) /* ty=Storage[] */;
      let %out_0193: Tensor[(?, ?), float32] = memory.alloc_tensor(%storage_01063, 0 /* ty=int64 */, %shape_func_out_0199, meta[relay.attrs.AllocTensorAttrs][1076]) /* ty=Tensor[(?, ?), float32] */;
      %3756 = (%x1346, %x1350, %x1354, meta[relay.Constant][1281] /* ty=Tensor[(2), int32] */);
      %3757 = (%out_0193,);
      let %x1357: () = vm.invoke_tvm_op(%3747, %3756, %3757) /* ty=() */;
      let %x1358: Tensor[(?, ?), float32] = %out_0193;
      let %in_shape_0179: Tensor[(2), int64] = vm.shape_of(%x1358, meta[relay.attrs.ShapeOfAttrs][255]) /* ty=Tensor[(2), int64] */;
      let %in_shape_1121: Tensor[(3), int64] = vm.shape_of(%res_append.6, meta[relay.attrs.ShapeOfAttrs][256]) /* ty=Tensor[(3), int64] */;
      let %storage_01064: Storage[] = memory.alloc_storage(24 /* ty=int64 */, 64 /* ty=int64 */, meta[relay.attrs.AllocStorageAttrs][1077]) /* ty=Storage[] */;
      let %tensor_0870: Tensor[(3), int64] = memory.alloc_tensor(%storage_01064, 0 /* ty=int64 */, meta[relay.Constant][1284] /* ty=Tensor[(1), int64] */, meta[relay.attrs.AllocTensorAttrs][1077]) /* ty=Tensor[(3), int64] */;
      let %shape_func_out_0200: Tensor[(3), int64] = %tensor_0870;
      %3760 = fn (%p0868: Tensor[(?, ?), float32], %p1307: Tensor[(?, ?, ?), float32], Primitive=1) -> Tensor[(?, ?, ?), float32] {
        %3758 = expand_dims(%p0868, axis=0) /* ty=Tensor[(1, ?, ?), float32] */;
        %3759 = (%p1307, %3758);
        concatenate(%3759) /* ty=Tensor[(?, ?, ?), float32] */
      };
      %3761 = (%in_shape_0179, %in_shape_1121);
      %3762 = (%shape_func_out_0200,);
      let %shape_func200: () = vm.shape_func(%3760, %3761, %3762, meta[relay.attrs.ShapeFuncAttrs][200]) /* ty=() */;
      let %storage_01065: Storage[] = memory.alloc_storage(8 /* ty=int64 */, 64 /* ty=int64 */, meta[relay.attrs.AllocStorageAttrs][1078]) /* ty=Storage[] */;
      let %tensor_0871: int64 = memory.alloc_tensor(%storage_01065, 0 /* ty=int64 */, meta[relay.Constant][1285] /* ty=Tensor[(0), int64] */, meta[relay.attrs.AllocTensorAttrs][1078]) /* ty=int64 */;
      %3763 = fn (%p0869: Tensor[(3), int64], Primitive=1) -> int64 {
        prod(%p0869) /* ty=int64 */
      };
      %3764 = (%shape_func_out_0200,);
      %3765 = (%tensor_0871,);
      let %x1359: () = vm.invoke_tvm_op(%3763, %3764, %3765) /* ty=() */;
      let %storage_01066: Storage[] = memory.alloc_storage(8 /* ty=int64 */, 64 /* ty=int64 */, meta[relay.attrs.AllocStorageAttrs][1079]) /* ty=Storage[] */;
      let %tensor_0872: int64 = memory.alloc_tensor(%storage_01066, 0 /* ty=int64 */, meta[relay.Constant][1286] /* ty=Tensor[(0), int64] */, meta[relay.attrs.AllocTensorAttrs][1079]) /* ty=int64 */;
      %3766 = fn (%p0870: int64, Primitive=1) -> int64 {
        multiply(%p0870, 4 /* ty=int64 */) /* ty=int64 */
      };
      %3767 = (%tensor_0871,);
      %3768 = (%tensor_0872,);
      let %x1360: () = vm.invoke_tvm_op(%3766, %3767, %3768) /* ty=() */;
      let %storage_01067: Storage[] = memory.alloc_storage(%tensor_0872, 64 /* ty=int64 */, meta[relay.attrs.AllocStorageAttrs][1080]) /* ty=Storage[] */;
      let %out_0194: Tensor[(?, ?, ?), float32] = memory.alloc_tensor(%storage_01067, 0 /* ty=int64 */, %shape_func_out_0200, meta[relay.attrs.AllocTensorAttrs][1080]) /* ty=Tensor[(?, ?, ?), float32] */;
      %3769 = (%x1358, %res_append.6);
      %3770 = (%out_0194,);
      let %x1361: () = vm.invoke_tvm_op(%3760, %3769, %3770) /* ty=() */;
      let %x1362: Tensor[(?, ?, ?), float32] = %out_0194;
      %3771 = @lifted_name6846283260542760146(%x1182, %x1183) /* ty=fn (int32, Tensor[(?, ?, ?), float32], Tensor[(?, 1, ?, ?), float32], Tensor[(?, 4), int64]) -> (int32, Tensor[(?, ?, ?), float32], Tensor[(?, 1, ?, ?), float32], Tensor[(?, 4), int64]) */;
      let %x1363: (int32, Tensor[(?, ?, ?), float32], Tensor[(?, 1, ?, ?), float32], Tensor[(?, 4), int64]) = %3771(%x1190, %x1362, %v7286, %v7394) /* ty=(int32, Tensor[(?, ?, ?), float32], Tensor[(?, 1, ?, ?), float32], Tensor[(?, 4), int64]) */;
      %x1363
    } else {
      let %x1364: (int32, Tensor[(?, ?, ?), float32], Tensor[(?, 1, ?, ?), float32], Tensor[(?, 4), int64]) = (%i.1, %res_append.6, %v7286, %v7394);
      %x1364
    };
    %x1188
  }
}


