type List[A] {
  Cons(A, List[A]),
  Nil,
}

type Option[A] {
  Some(A),
  None,
}

type Tree[A] {
  Rose(A, List[Tree[A]]),
}

type tensor_float16_t {
  tensor_nil_float16,
  tensor0_float16(float16),
  tensor1_float16(Tensor[(?), float16]),
  tensor2_float16(Tensor[(?, ?), float16]),
  tensor3_float16(Tensor[(?, ?, ?), float16]),
  tensor4_float16(Tensor[(?, ?, ?, ?), float16]),
  tensor5_float16(Tensor[(?, ?, ?, ?, ?), float16]),
  tensor6_float16(Tensor[(?, ?, ?, ?, ?, ?), float16]),
}

type tensor_float32_t {
  tensor_nil_float32,
  tensor0_float32(float32),
  tensor1_float32(Tensor[(?), float32]),
  tensor2_float32(Tensor[(?, ?), float32]),
  tensor3_float32(Tensor[(?, ?, ?), float32]),
  tensor4_float32(Tensor[(?, ?, ?, ?), float32]),
  tensor5_float32(Tensor[(?, ?, ?, ?, ?), float32]),
  tensor6_float32(Tensor[(?, ?, ?, ?, ?, ?), float32]),
}

type tensor_float64_t {
  tensor_nil_float64,
  tensor0_float64(float64),
  tensor1_float64(Tensor[(?), float64]),
  tensor2_float64(Tensor[(?, ?), float64]),
  tensor3_float64(Tensor[(?, ?, ?), float64]),
  tensor4_float64(Tensor[(?, ?, ?, ?), float64]),
  tensor5_float64(Tensor[(?, ?, ?, ?, ?), float64]),
  tensor6_float64(Tensor[(?, ?, ?, ?, ?, ?), float64]),
}

type tensor_int16_t {
  tensor_nil_int16,
  tensor0_int16(int16),
  tensor1_int16(Tensor[(?), int16]),
  tensor2_int16(Tensor[(?, ?), int16]),
  tensor3_int16(Tensor[(?, ?, ?), int16]),
  tensor4_int16(Tensor[(?, ?, ?, ?), int16]),
  tensor5_int16(Tensor[(?, ?, ?, ?, ?), int16]),
  tensor6_int16(Tensor[(?, ?, ?, ?, ?, ?), int16]),
}

type tensor_int32_t {
  tensor_nil_int32,
  tensor0_int32(int32),
  tensor1_int32(Tensor[(?), int32]),
  tensor2_int32(Tensor[(?, ?), int32]),
  tensor3_int32(Tensor[(?, ?, ?), int32]),
  tensor4_int32(Tensor[(?, ?, ?, ?), int32]),
  tensor5_int32(Tensor[(?, ?, ?, ?, ?), int32]),
  tensor6_int32(Tensor[(?, ?, ?, ?, ?, ?), int32]),
}

type tensor_int64_t {
  tensor_nil_int64,
  tensor0_int64(int64),
  tensor1_int64(Tensor[(?), int64]),
  tensor2_int64(Tensor[(?, ?), int64]),
  tensor3_int64(Tensor[(?, ?, ?), int64]),
  tensor4_int64(Tensor[(?, ?, ?, ?), int64]),
  tensor5_int64(Tensor[(?, ?, ?, ?, ?), int64]),
  tensor6_int64(Tensor[(?, ?, ?, ?, ?, ?), int64]),
}

type tensor_int8_t {
  tensor_nil_int8,
  tensor0_int8(int8),
  tensor1_int8(Tensor[(?), int8]),
  tensor2_int8(Tensor[(?, ?), int8]),
  tensor3_int8(Tensor[(?, ?, ?), int8]),
  tensor4_int8(Tensor[(?, ?, ?, ?), int8]),
  tensor5_int8(Tensor[(?, ?, ?, ?, ?), int8]),
  tensor6_int8(Tensor[(?, ?, ?, ?, ?, ?), int8]),
}

type tensor_uint16_t {
  tensor_nil_uint16,
  tensor0_uint16(uint16),
  tensor1_uint16(Tensor[(?), uint16]),
  tensor2_uint16(Tensor[(?, ?), uint16]),
  tensor3_uint16(Tensor[(?, ?, ?), uint16]),
  tensor4_uint16(Tensor[(?, ?, ?, ?), uint16]),
  tensor5_uint16(Tensor[(?, ?, ?, ?, ?), uint16]),
  tensor6_uint16(Tensor[(?, ?, ?, ?, ?, ?), uint16]),
}

type tensor_uint8_t {
  tensor_nil_uint8,
  tensor0_uint8(uint8),
  tensor1_uint8(Tensor[(?), uint8]),
  tensor2_uint8(Tensor[(?, ?), uint8]),
  tensor3_uint8(Tensor[(?, ?, ?), uint8]),
  tensor4_uint8(Tensor[(?, ?, ?, ?), uint8]),
  tensor5_uint8(Tensor[(?, ?, ?, ?, ?), uint8]),
  tensor6_uint8(Tensor[(?, ?, ?, ?, ?, ?), uint8]),
}

def @main(%inp: Tensor[(1, 3, 500, 500), float32], %model.backbone.scale_weight: Tensor[(512), float32], %model.backbone.features.0.weight: Tensor[(64, 3, 3, 3), float32], %model.backbone.features.0.bias: Tensor[(64), float32], %model.backbone.features.2.weight: Tensor[(64, 64, 3, 3), float32], %model.backbone.features.2.bias: Tensor[(64), float32], %model.backbone.features.5.weight: Tensor[(128, 64, 3, 3), float32], %model.backbone.features.5.bias: Tensor[(128), float32], %model.backbone.features.7.weight: Tensor[(128, 128, 3, 3), float32], %model.backbone.features.7.bias: Tensor[(128), float32], %model.backbone.features.10.weight: Tensor[(256, 128, 3, 3), float32], %model.backbone.features.10.bias: Tensor[(256), float32], %model.backbone.features.12.weight: Tensor[(256, 256, 3, 3), float32], %model.backbone.features.12.bias: Tensor[(256), float32], %model.backbone.features.14.weight: Tensor[(256, 256, 3, 3), float32], %model.backbone.features.14.bias: Tensor[(256), float32], %model.backbone.features.17.weight: Tensor[(512, 256, 3, 3), float32], %model.backbone.features.17.bias: Tensor[(512), float32], %model.backbone.features.19.weight: Tensor[(512, 512, 3, 3), float32], %model.backbone.features.19.bias: Tensor[(512), float32], %model.backbone.features.21.weight: Tensor[(512, 512, 3, 3), float32], %model.backbone.features.21.bias: Tensor[(512), float32], %model.backbone.extra.0.1.weight: Tensor[(512, 512, 3, 3), float32], %model.backbone.extra.0.1.bias: Tensor[(512), float32], %model.backbone.extra.0.3.weight: Tensor[(512, 512, 3, 3), float32], %model.backbone.extra.0.3.bias: Tensor[(512), float32], %model.backbone.extra.0.5.weight: Tensor[(512, 512, 3, 3), float32], %model.backbone.extra.0.5.bias: Tensor[(512), float32], %model.backbone.extra.0.7.1.weight: Tensor[(1024, 512, 3, 3), float32], %model.backbone.extra.0.7.1.bias: Tensor[(1024), float32], %model.backbone.extra.0.7.3.weight: Tensor[(1024, 1024, 1, 1), float32], %model.backbone.extra.0.7.3.bias: Tensor[(1024), float32], %model.backbone.extra.1.0.weight: Tensor[(256, 1024, 1, 1), float32], %model.backbone.extra.1.0.bias: Tensor[(256), float32], %model.backbone.extra.1.2.weight: Tensor[(512, 256, 3, 3), float32], %model.backbone.extra.1.2.bias: Tensor[(512), float32], %model.backbone.extra.2.0.weight: Tensor[(128, 512, 1, 1), float32], %model.backbone.extra.2.0.bias: Tensor[(128), float32], %model.backbone.extra.2.2.weight: Tensor[(256, 128, 3, 3), float32], %model.backbone.extra.2.2.bias: Tensor[(256), float32], %model.backbone.extra.3.0.weight: Tensor[(128, 256, 1, 1), float32], %model.backbone.extra.3.0.bias: Tensor[(128), float32], %model.backbone.extra.3.2.weight: Tensor[(256, 128, 3, 3), float32], %model.backbone.extra.3.2.bias: Tensor[(256), float32], %model.backbone.extra.4.0.weight: Tensor[(128, 256, 1, 1), float32], %model.backbone.extra.4.0.bias: Tensor[(128), float32], %model.backbone.extra.4.2.weight: Tensor[(256, 128, 3, 3), float32], %model.backbone.extra.4.2.bias: Tensor[(256), float32], %model.head.classification_head.module_list.0.weight: Tensor[(200, 512, 3, 3), float32], %model.head.classification_head.module_list.0.bias: Tensor[(200), float32], %model.head.classification_head.module_list.1.weight: Tensor[(300, 1024, 3, 3), float32], %model.head.classification_head.module_list.1.bias: Tensor[(300), float32], %model.head.classification_head.module_list.2.weight: Tensor[(300, 512, 3, 3), float32], %model.head.classification_head.module_list.2.bias: Tensor[(300), float32], %model.head.classification_head.module_list.3.weight: Tensor[(300, 256, 3, 3), float32], %model.head.classification_head.module_list.3.bias: Tensor[(300), float32], %model.head.classification_head.module_list.4.weight: Tensor[(200, 256, 3, 3), float32], %model.head.classification_head.module_list.4.bias: Tensor[(200), float32], %model.head.classification_head.module_list.5.weight: Tensor[(200, 256, 3, 3), float32], %model.head.classification_head.module_list.5.bias: Tensor[(200), float32], %model.head.regression_head.module_list.0.weight: Tensor[(16, 512, 3, 3), float32], %model.head.regression_head.module_list.0.bias: Tensor[(16), float32], %model.head.regression_head.module_list.1.weight: Tensor[(24, 1024, 3, 3), float32], %model.head.regression_head.module_list.1.bias: Tensor[(24), float32], %model.head.regression_head.module_list.2.weight: Tensor[(24, 512, 3, 3), float32], %model.head.regression_head.module_list.2.bias: Tensor[(24), float32], %model.head.regression_head.module_list.3.weight: Tensor[(24, 256, 3, 3), float32], %model.head.regression_head.module_list.3.bias: Tensor[(24), float32], %model.head.regression_head.module_list.4.weight: Tensor[(16, 256, 3, 3), float32], %model.head.regression_head.module_list.4.bias: Tensor[(16), float32], %model.head.regression_head.module_list.5.weight: Tensor[(16, 256, 3, 3), float32], %model.head.regression_head.module_list.5.bias: Tensor[(16), float32]) -> (Tensor[(?, 4), float32], Tensor[(?), float32], Tensor[(?), int64]) {
  %0 = split(%inp, indices_or_sections=1) /* C.graph: aten::unbind, jit._trace.TopLevelTracedModule: __module.model/__module.model.transform_PART_0 */ /* ty=(Tensor[(1, 3, 500, 500), float32],) */;
  %1 = %0.0 /* C.graph: aten::unbind, jit._trace.TopLevelTracedModule: __module.model/__module.model.transform_PART_1 */;
  %2 = squeeze(%1, axis=[0]) /* C.graph: aten::unbind, jit._trace.TopLevelTracedModule: __module.model/__module.model.transform_PART_2 */ /* ty=Tensor[(3, 500, 500), float32] */;
  %3 = (%2,) /* C.graph: aten::unbind, jit._trace.TopLevelTracedModule: __module.model/__module.model.transform */;
  %4 = expand_dims(meta[relay.Constant][0] /* ty=Tensor[(3), float32] */, axis=1) /* C.graph: aten::unsqueeze, jit._trace.TopLevelTracedModule: __module.model/__module.model.transform */ /* ty=Tensor[(3, 1), float32] */;
  %5 = %3.0 /* C.graph: aten::sub, jit._trace.TopLevelTracedModule: __module.model/__module.model.transform_PART_0 */;
  %6 = expand_dims(%4, axis=2) /* C.graph: aten::unsqueeze, jit._trace.TopLevelTracedModule: __module.model/__module.model.transform */ /* ty=Tensor[(3, 1, 1), float32] */;
  %7 = expand_dims(meta[relay.Constant][1] /* ty=Tensor[(3), float32] */, axis=1) /* C.graph: aten::unsqueeze, jit._trace.TopLevelTracedModule: __module.model/__module.model.transform */ /* ty=Tensor[(3, 1), float32] */;
  %8 = subtract(%5, %6) /* C.graph: aten::sub, jit._trace.TopLevelTracedModule: __module.model/__module.model.transform */ /* ty=Tensor[(3, 500, 500), float32] */;
  %9 = expand_dims(%7, axis=2) /* C.graph: aten::unsqueeze, jit._trace.TopLevelTracedModule: __module.model/__module.model.transform */ /* ty=Tensor[(3, 1, 1), float32] */;
  %10 = divide(%8, %9) /* C.graph: aten::div, jit._trace.TopLevelTracedModule: __module.model/__module.model.transform */ /* ty=Tensor[(3, 500, 500), float32] */;
  %11 = expand_dims(%10, axis=0) /* C.graph: aten::unsqueeze, jit._trace.TopLevelTracedModule: __module.model/__module.model.transform */ /* ty=Tensor[(1, 3, 500, 500), float32] */;
  %12 = image.resize2d(%11, size=[300, 300], roi=[0f, 0f, 0f, 0f], rounding_method="", cubic_alpha=-0.75f) /* C.graph: aten::upsample_bilinear2d, jit._trace.TopLevelTracedModule: __module.model/__module.model.transform */ /* ty=Tensor[(1, 3, 300, 300), float32] */;
  %13 = take(%12, 0 /* ty=int32 */, axis=0, mode="wrap") /* C.graph: aten::select, jit._trace.TopLevelTracedModule: __module.model/__module.model.transform */ /* ty=Tensor[(3, 300, 300), float32] */;
  %14 = (%13,) /* C.graph: aten::stack, jit._trace.TopLevelTracedModule: __module.model/__module.model.transform_PART_0 */;
  %15 = stack(%14) /* C.graph: aten::stack, jit._trace.TopLevelTracedModule: __module.model/__module.model.transform */ /* ty=Tensor[(1, 3, 300, 300), float32] */;
  %16 = (%15, 300 /* ty=int32 */, 300 /* ty=int32 */) /* C.graph: aten::_convolution, jit._trace.TopLevelTracedModule: __module.model/__module.model.backbone/__module.model.backbone.features/__module.model.backbone.features.0_PART_0 */;
  %17 = %16.0 /* C.graph: aten::_convolution, jit._trace.TopLevelTracedModule: __module.model/__module.model.backbone/__module.model.backbone.features/__module.model.backbone.features.0_PART_1 */;
  %18 = nn.conv2d(%17, %model.backbone.features.0.weight, padding=[1, 1, 1, 1], channels=64, kernel_size=[3, 3]) /* C.graph: aten::_convolution, jit._trace.TopLevelTracedModule: __module.model/__module.model.backbone/__module.model.backbone.features/__module.model.backbone.features.0_PART_2 */ /* ty=Tensor[(1, 64, 300, 300), float32] */;
  %19 = nn.bias_add(%18, %model.backbone.features.0.bias) /* C.graph: aten::_convolution, jit._trace.TopLevelTracedModule: __module.model/__module.model.backbone/__module.model.backbone.features/__module.model.backbone.features.0 */ /* ty=Tensor[(1, 64, 300, 300), float32] */;
  %20 = nn.relu(%19) /* C.graph: aten::relu_, jit._trace.TopLevelTracedModule: __module.model/__module.model.backbone/__module.model.backbone.features/__module.model.backbone.features.1 */ /* ty=Tensor[(1, 64, 300, 300), float32] */;
  %21 = nn.conv2d(%20, %model.backbone.features.2.weight, padding=[1, 1, 1, 1], channels=64, kernel_size=[3, 3]) /* C.graph: aten::_convolution, jit._trace.TopLevelTracedModule: __module.model/__module.model.backbone/__module.model.backbone.features/__module.model.backbone.features.2_PART_0 */ /* ty=Tensor[(1, 64, 300, 300), float32] */;
  %22 = nn.bias_add(%21, %model.backbone.features.2.bias) /* C.graph: aten::_convolution, jit._trace.TopLevelTracedModule: __module.model/__module.model.backbone/__module.model.backbone.features/__module.model.backbone.features.2 */ /* ty=Tensor[(1, 64, 300, 300), float32] */;
  %23 = nn.relu(%22) /* C.graph: aten::relu_, jit._trace.TopLevelTracedModule: __module.model/__module.model.backbone/__module.model.backbone.features/__module.model.backbone.features.3 */ /* ty=Tensor[(1, 64, 300, 300), float32] */;
  %24 = nn.max_pool2d(%23, pool_size=[2, 2], strides=[2, 2], padding=[0, 0, 0, 0]) /* C.graph: aten::max_pool2d, jit._trace.TopLevelTracedModule: __module.model/__module.model.backbone/__module.model.backbone.features/__module.model.backbone.features.4 */ /* ty=Tensor[(1, 64, 150, 150), float32] */;
  %25 = nn.conv2d(%24, %model.backbone.features.5.weight, padding=[1, 1, 1, 1], channels=128, kernel_size=[3, 3]) /* C.graph: aten::_convolution, jit._trace.TopLevelTracedModule: __module.model/__module.model.backbone/__module.model.backbone.features/__module.model.backbone.features.5_PART_0 */ /* ty=Tensor[(1, 128, 150, 150), float32] */;
  %26 = nn.bias_add(%25, %model.backbone.features.5.bias) /* C.graph: aten::_convolution, jit._trace.TopLevelTracedModule: __module.model/__module.model.backbone/__module.model.backbone.features/__module.model.backbone.features.5 */ /* ty=Tensor[(1, 128, 150, 150), float32] */;
  %27 = nn.relu(%26) /* C.graph: aten::relu_, jit._trace.TopLevelTracedModule: __module.model/__module.model.backbone/__module.model.backbone.features/__module.model.backbone.features.6 */ /* ty=Tensor[(1, 128, 150, 150), float32] */;
  %28 = nn.conv2d(%27, %model.backbone.features.7.weight, padding=[1, 1, 1, 1], channels=128, kernel_size=[3, 3]) /* C.graph: aten::_convolution, jit._trace.TopLevelTracedModule: __module.model/__module.model.backbone/__module.model.backbone.features/__module.model.backbone.features.7_PART_0 */ /* ty=Tensor[(1, 128, 150, 150), float32] */;
  %29 = nn.bias_add(%28, %model.backbone.features.7.bias) /* C.graph: aten::_convolution, jit._trace.TopLevelTracedModule: __module.model/__module.model.backbone/__module.model.backbone.features/__module.model.backbone.features.7 */ /* ty=Tensor[(1, 128, 150, 150), float32] */;
  %30 = nn.relu(%29) /* C.graph: aten::relu_, jit._trace.TopLevelTracedModule: __module.model/__module.model.backbone/__module.model.backbone.features/__module.model.backbone.features.8 */ /* ty=Tensor[(1, 128, 150, 150), float32] */;
  %31 = nn.max_pool2d(%30, pool_size=[2, 2], strides=[2, 2], padding=[0, 0, 0, 0]) /* C.graph: aten::max_pool2d, jit._trace.TopLevelTracedModule: __module.model/__module.model.backbone/__module.model.backbone.features/__module.model.backbone.features.9 */ /* ty=Tensor[(1, 128, 75, 75), float32] */;
  %32 = nn.conv2d(%31, %model.backbone.features.10.weight, padding=[1, 1, 1, 1], channels=256, kernel_size=[3, 3]) /* C.graph: aten::_convolution, jit._trace.TopLevelTracedModule: __module.model/__module.model.backbone/__module.model.backbone.features/__module.model.backbone.features.10_PART_0 */ /* ty=Tensor[(1, 256, 75, 75), float32] */;
  %33 = nn.bias_add(%32, %model.backbone.features.10.bias) /* C.graph: aten::_convolution, jit._trace.TopLevelTracedModule: __module.model/__module.model.backbone/__module.model.backbone.features/__module.model.backbone.features.10 */ /* ty=Tensor[(1, 256, 75, 75), float32] */;
  %34 = nn.relu(%33) /* C.graph: aten::relu_, jit._trace.TopLevelTracedModule: __module.model/__module.model.backbone/__module.model.backbone.features/__module.model.backbone.features.11 */ /* ty=Tensor[(1, 256, 75, 75), float32] */;
  %35 = nn.conv2d(%34, %model.backbone.features.12.weight, padding=[1, 1, 1, 1], channels=256, kernel_size=[3, 3]) /* C.graph: aten::_convolution, jit._trace.TopLevelTracedModule: __module.model/__module.model.backbone/__module.model.backbone.features/__module.model.backbone.features.12_PART_0 */ /* ty=Tensor[(1, 256, 75, 75), float32] */;
  %36 = nn.bias_add(%35, %model.backbone.features.12.bias) /* C.graph: aten::_convolution, jit._trace.TopLevelTracedModule: __module.model/__module.model.backbone/__module.model.backbone.features/__module.model.backbone.features.12 */ /* ty=Tensor[(1, 256, 75, 75), float32] */;
  %37 = nn.relu(%36) /* C.graph: aten::relu_, jit._trace.TopLevelTracedModule: __module.model/__module.model.backbone/__module.model.backbone.features/__module.model.backbone.features.13 */ /* ty=Tensor[(1, 256, 75, 75), float32] */;
  %38 = nn.conv2d(%37, %model.backbone.features.14.weight, padding=[1, 1, 1, 1], channels=256, kernel_size=[3, 3]) /* C.graph: aten::_convolution, jit._trace.TopLevelTracedModule: __module.model/__module.model.backbone/__module.model.backbone.features/__module.model.backbone.features.14_PART_0 */ /* ty=Tensor[(1, 256, 75, 75), float32] */;
  %39 = nn.bias_add(%38, %model.backbone.features.14.bias) /* C.graph: aten::_convolution, jit._trace.TopLevelTracedModule: __module.model/__module.model.backbone/__module.model.backbone.features/__module.model.backbone.features.14 */ /* ty=Tensor[(1, 256, 75, 75), float32] */;
  %40 = nn.relu(%39) /* C.graph: aten::relu_, jit._trace.TopLevelTracedModule: __module.model/__module.model.backbone/__module.model.backbone.features/__module.model.backbone.features.15 */ /* ty=Tensor[(1, 256, 75, 75), float32] */;
  %41 = nn.max_pool2d(%40, pool_size=[2, 2], strides=[2, 2], padding=[0, 0, 0, 0], ceil_mode=True) /* C.graph: aten::max_pool2d, jit._trace.TopLevelTracedModule: __module.model/__module.model.backbone/__module.model.backbone.features/__module.model.backbone.features.16 */ /* ty=Tensor[(1, 256, 38, 38), float32] */;
  %42 = nn.conv2d(%41, %model.backbone.features.17.weight, padding=[1, 1, 1, 1], channels=512, kernel_size=[3, 3]) /* C.graph: aten::_convolution, jit._trace.TopLevelTracedModule: __module.model/__module.model.backbone/__module.model.backbone.features/__module.model.backbone.features.17_PART_0 */ /* ty=Tensor[(1, 512, 38, 38), float32] */;
  %43 = nn.bias_add(%42, %model.backbone.features.17.bias) /* C.graph: aten::_convolution, jit._trace.TopLevelTracedModule: __module.model/__module.model.backbone/__module.model.backbone.features/__module.model.backbone.features.17 */ /* ty=Tensor[(1, 512, 38, 38), float32] */;
  %44 = nn.relu(%43) /* C.graph: aten::relu_, jit._trace.TopLevelTracedModule: __module.model/__module.model.backbone/__module.model.backbone.features/__module.model.backbone.features.18 */ /* ty=Tensor[(1, 512, 38, 38), float32] */;
  %45 = nn.conv2d(%44, %model.backbone.features.19.weight, padding=[1, 1, 1, 1], channels=512, kernel_size=[3, 3]) /* C.graph: aten::_convolution, jit._trace.TopLevelTracedModule: __module.model/__module.model.backbone/__module.model.backbone.features/__module.model.backbone.features.19_PART_0 */ /* ty=Tensor[(1, 512, 38, 38), float32] */;
  %46 = nn.bias_add(%45, %model.backbone.features.19.bias) /* C.graph: aten::_convolution, jit._trace.TopLevelTracedModule: __module.model/__module.model.backbone/__module.model.backbone.features/__module.model.backbone.features.19 */ /* ty=Tensor[(1, 512, 38, 38), float32] */;
  %47 = nn.relu(%46) /* C.graph: aten::relu_, jit._trace.TopLevelTracedModule: __module.model/__module.model.backbone/__module.model.backbone.features/__module.model.backbone.features.20 */ /* ty=Tensor[(1, 512, 38, 38), float32] */;
  %48 = nn.conv2d(%47, %model.backbone.features.21.weight, padding=[1, 1, 1, 1], channels=512, kernel_size=[3, 3]) /* C.graph: aten::_convolution, jit._trace.TopLevelTracedModule: __module.model/__module.model.backbone/__module.model.backbone.features/__module.model.backbone.features.21_PART_0 */ /* ty=Tensor[(1, 512, 38, 38), float32] */;
  %49 = nn.bias_add(%48, %model.backbone.features.21.bias) /* C.graph: aten::_convolution, jit._trace.TopLevelTracedModule: __module.model/__module.model.backbone/__module.model.backbone.features/__module.model.backbone.features.21 */ /* ty=Tensor[(1, 512, 38, 38), float32] */;
  %50 = nn.relu(%49) /* C.graph: aten::relu_, jit._trace.TopLevelTracedModule: __module.model/__module.model.backbone/__module.model.backbone.features/__module.model.backbone.features.22 */ /* ty=Tensor[(1, 512, 38, 38), float32] */;
  %51 = abs(%50) /* C.graph: aten::norm, jit._trace.TopLevelTracedModule: __module.model/__module.model.backbone_PART_0 */ /* ty=Tensor[(1, 512, 38, 38), float32] */;
  %52 = power(%51, 2f /* ty=float32 */) /* C.graph: aten::norm, jit._trace.TopLevelTracedModule: __module.model/__module.model.backbone_PART_1 */ /* ty=Tensor[(1, 512, 38, 38), float32] */;
  %53 = sum(%52, axis=[1], keepdims=True) /* C.graph: aten::norm, jit._trace.TopLevelTracedModule: __module.model/__module.model.backbone_PART_2 */ /* ty=Tensor[(1, 1, 38, 38), float32] */;
  %54 = power(%53, 0.5f /* ty=float32 */) /* C.graph: aten::norm, jit._trace.TopLevelTracedModule: __module.model/__module.model.backbone */ /* ty=Tensor[(1, 1, 38, 38), float32] */;
  %55 = clip(%54, a_min=-3.40282e+38f, a_max=1e-12f) /* C.graph: aten::clamp_min, jit._trace.TopLevelTracedModule: __module.model/__module.model.backbone */ /* ty=Tensor[(1, 1, 38, 38), float32] */;
  %56 = broadcast_to_like(%55, %50) /* C.graph: aten::expand_as, jit._trace.TopLevelTracedModule: __module.model/__module.model.backbone */ /* ty=Tensor[(1, 512, 38, 38), float32] */;
  %57 = reshape(%model.backbone.scale_weight, newshape=[1, -1, 1, 1]) /* C.graph: aten::view, jit._trace.TopLevelTracedModule: __module.model/__module.model.backbone */ /* ty=Tensor[(1, 512, 1, 1), float32] */;
  %58 = divide(%50, %56) /* C.graph: aten::div, jit._trace.TopLevelTracedModule: __module.model/__module.model.backbone */ /* ty=Tensor[(1, 512, 38, 38), float32] */;
  %59 = nn.max_pool2d(%50, pool_size=[2, 2], strides=[2, 2], padding=[0, 0, 0, 0]) /* C.graph: aten::max_pool2d, jit._trace.TopLevelTracedModule: __module.model/__module.model.backbone/__module.model.backbone.extra.0/__module.model.backbone.extra.0.0 */ /* ty=Tensor[(1, 512, 19, 19), float32] */;
  %60 = nn.conv2d(%59, %model.backbone.extra.0.1.weight, padding=[1, 1, 1, 1], channels=512, kernel_size=[3, 3]) /* C.graph: aten::_convolution, jit._trace.TopLevelTracedModule: __module.model/__module.model.backbone/__module.model.backbone.extra.0/__module.model.backbone.extra.0.1_PART_0 */ /* ty=Tensor[(1, 512, 19, 19), float32] */;
  %61 = nn.bias_add(%60, %model.backbone.extra.0.1.bias) /* C.graph: aten::_convolution, jit._trace.TopLevelTracedModule: __module.model/__module.model.backbone/__module.model.backbone.extra.0/__module.model.backbone.extra.0.1 */ /* ty=Tensor[(1, 512, 19, 19), float32] */;
  %62 = nn.relu(%61) /* C.graph: aten::relu_, jit._trace.TopLevelTracedModule: __module.model/__module.model.backbone/__module.model.backbone.extra.0/__module.model.backbone.extra.0.2 */ /* ty=Tensor[(1, 512, 19, 19), float32] */;
  %63 = nn.conv2d(%62, %model.backbone.extra.0.3.weight, padding=[1, 1, 1, 1], channels=512, kernel_size=[3, 3]) /* C.graph: aten::_convolution, jit._trace.TopLevelTracedModule: __module.model/__module.model.backbone/__module.model.backbone.extra.0/__module.model.backbone.extra.0.3_PART_0 */ /* ty=Tensor[(1, 512, 19, 19), float32] */;
  %64 = nn.bias_add(%63, %model.backbone.extra.0.3.bias) /* C.graph: aten::_convolution, jit._trace.TopLevelTracedModule: __module.model/__module.model.backbone/__module.model.backbone.extra.0/__module.model.backbone.extra.0.3 */ /* ty=Tensor[(1, 512, 19, 19), float32] */;
  %65 = nn.relu(%64) /* C.graph: aten::relu_, jit._trace.TopLevelTracedModule: __module.model/__module.model.backbone/__module.model.backbone.extra.0/__module.model.backbone.extra.0.4 */ /* ty=Tensor[(1, 512, 19, 19), float32] */;
  %66 = nn.conv2d(%65, %model.backbone.extra.0.5.weight, padding=[1, 1, 1, 1], channels=512, kernel_size=[3, 3]) /* C.graph: aten::_convolution, jit._trace.TopLevelTracedModule: __module.model/__module.model.backbone/__module.model.backbone.extra.0/__module.model.backbone.extra.0.5_PART_0 */ /* ty=Tensor[(1, 512, 19, 19), float32] */;
  %67 = nn.bias_add(%66, %model.backbone.extra.0.5.bias) /* C.graph: aten::_convolution, jit._trace.TopLevelTracedModule: __module.model/__module.model.backbone/__module.model.backbone.extra.0/__module.model.backbone.extra.0.5 */ /* ty=Tensor[(1, 512, 19, 19), float32] */;
  %68 = nn.relu(%67) /* C.graph: aten::relu_, jit._trace.TopLevelTracedModule: __module.model/__module.model.backbone/__module.model.backbone.extra.0/__module.model.backbone.extra.0.6 */ /* ty=Tensor[(1, 512, 19, 19), float32] */;
  %69 = nn.max_pool2d(%68, pool_size=[3, 3], padding=[1, 1, 1, 1]) /* C.graph: aten::max_pool2d, jit._trace.TopLevelTracedModule: __module.model/__module.model.backbone/__module.model.backbone.extra.0/__module.model.backbone.extra.0.7/__module.model.backbone.extra.0.7.0 */ /* ty=Tensor[(1, 512, 19, 19), float32] */;
  %70 = nn.conv2d(%69, %model.backbone.extra.0.7.1.weight, padding=[6, 6, 6, 6], dilation=[6, 6], channels=1024, kernel_size=[3, 3]) /* C.graph: aten::_convolution, jit._trace.TopLevelTracedModule: __module.model/__module.model.backbone/__module.model.backbone.extra.0/__module.model.backbone.extra.0.7/__module.model.backbone.extra.0.7.1_PART_0 */ /* ty=Tensor[(1, 1024, 19, 19), float32] */;
  %71 = nn.bias_add(%70, %model.backbone.extra.0.7.1.bias) /* C.graph: aten::_convolution, jit._trace.TopLevelTracedModule: __module.model/__module.model.backbone/__module.model.backbone.extra.0/__module.model.backbone.extra.0.7/__module.model.backbone.extra.0.7.1 */ /* ty=Tensor[(1, 1024, 19, 19), float32] */;
  %72 = nn.relu(%71) /* C.graph: aten::relu_, jit._trace.TopLevelTracedModule: __module.model/__module.model.backbone/__module.model.backbone.extra.0/__module.model.backbone.extra.0.7/__module.model.backbone.extra.0.7.2 */ /* ty=Tensor[(1, 1024, 19, 19), float32] */;
  %73 = nn.conv2d(%72, %model.backbone.extra.0.7.3.weight, padding=[0, 0, 0, 0], channels=1024, kernel_size=[1, 1]) /* C.graph: aten::_convolution, jit._trace.TopLevelTracedModule: __module.model/__module.model.backbone/__module.model.backbone.extra.0/__module.model.backbone.extra.0.7/__module.model.backbone.extra.0.7.3_PART_0 */ /* ty=Tensor[(1, 1024, 19, 19), float32] */;
  %74 = nn.bias_add(%73, %model.backbone.extra.0.7.3.bias) /* C.graph: aten::_convolution, jit._trace.TopLevelTracedModule: __module.model/__module.model.backbone/__module.model.backbone.extra.0/__module.model.backbone.extra.0.7/__module.model.backbone.extra.0.7.3 */ /* ty=Tensor[(1, 1024, 19, 19), float32] */;
  %75 = nn.relu(%74) /* C.graph: aten::relu_, jit._trace.TopLevelTracedModule: __module.model/__module.model.backbone/__module.model.backbone.extra.0/__module.model.backbone.extra.0.7/__module.model.backbone.extra.0.7.4 */ /* ty=Tensor[(1, 1024, 19, 19), float32] */;
  %76 = nn.conv2d(%75, %model.backbone.extra.1.0.weight, padding=[0, 0, 0, 0], channels=256, kernel_size=[1, 1]) /* C.graph: aten::_convolution, jit._trace.TopLevelTracedModule: __module.model/__module.model.backbone/__module.model.backbone.extra.1/__module.model.backbone.extra.1.0_PART_0 */ /* ty=Tensor[(1, 256, 19, 19), float32] */;
  %77 = nn.bias_add(%76, %model.backbone.extra.1.0.bias) /* C.graph: aten::_convolution, jit._trace.TopLevelTracedModule: __module.model/__module.model.backbone/__module.model.backbone.extra.1/__module.model.backbone.extra.1.0 */ /* ty=Tensor[(1, 256, 19, 19), float32] */;
  %78 = nn.relu(%77) /* C.graph: aten::relu_, jit._trace.TopLevelTracedModule: __module.model/__module.model.backbone/__module.model.backbone.extra.1/__module.model.backbone.extra.1.1 */ /* ty=Tensor[(1, 256, 19, 19), float32] */;
  %79 = nn.conv2d(%78, %model.backbone.extra.1.2.weight, strides=[2, 2], padding=[1, 1, 1, 1], channels=512, kernel_size=[3, 3]) /* C.graph: aten::_convolution, jit._trace.TopLevelTracedModule: __module.model/__module.model.backbone/__module.model.backbone.extra.1/__module.model.backbone.extra.1.2_PART_0 */ /* ty=Tensor[(1, 512, 10, 10), float32] */;
  %80 = nn.bias_add(%79, %model.backbone.extra.1.2.bias) /* C.graph: aten::_convolution, jit._trace.TopLevelTracedModule: __module.model/__module.model.backbone/__module.model.backbone.extra.1/__module.model.backbone.extra.1.2 */ /* ty=Tensor[(1, 512, 10, 10), float32] */;
  %81 = nn.relu(%80) /* C.graph: aten::relu_, jit._trace.TopLevelTracedModule: __module.model/__module.model.backbone/__module.model.backbone.extra.1/__module.model.backbone.extra.1.3 */ /* ty=Tensor[(1, 512, 10, 10), float32] */;
  %82 = nn.conv2d(%81, %model.backbone.extra.2.0.weight, padding=[0, 0, 0, 0], channels=128, kernel_size=[1, 1]) /* C.graph: aten::_convolution, jit._trace.TopLevelTracedModule: __module.model/__module.model.backbone/__module.model.backbone.extra.2/__module.model.backbone.extra.2.0_PART_0 */ /* ty=Tensor[(1, 128, 10, 10), float32] */;
  %83 = nn.bias_add(%82, %model.backbone.extra.2.0.bias) /* C.graph: aten::_convolution, jit._trace.TopLevelTracedModule: __module.model/__module.model.backbone/__module.model.backbone.extra.2/__module.model.backbone.extra.2.0 */ /* ty=Tensor[(1, 128, 10, 10), float32] */;
  %84 = nn.relu(%83) /* C.graph: aten::relu_, jit._trace.TopLevelTracedModule: __module.model/__module.model.backbone/__module.model.backbone.extra.2/__module.model.backbone.extra.2.1 */ /* ty=Tensor[(1, 128, 10, 10), float32] */;
  %85 = nn.conv2d(%84, %model.backbone.extra.2.2.weight, strides=[2, 2], padding=[1, 1, 1, 1], channels=256, kernel_size=[3, 3]) /* C.graph: aten::_convolution, jit._trace.TopLevelTracedModule: __module.model/__module.model.backbone/__module.model.backbone.extra.2/__module.model.backbone.extra.2.2_PART_0 */ /* ty=Tensor[(1, 256, 5, 5), float32] */;
  %86 = nn.bias_add(%85, %model.backbone.extra.2.2.bias) /* C.graph: aten::_convolution, jit._trace.TopLevelTracedModule: __module.model/__module.model.backbone/__module.model.backbone.extra.2/__module.model.backbone.extra.2.2 */ /* ty=Tensor[(1, 256, 5, 5), float32] */;
  %87 = nn.relu(%86) /* C.graph: aten::relu_, jit._trace.TopLevelTracedModule: __module.model/__module.model.backbone/__module.model.backbone.extra.2/__module.model.backbone.extra.2.3 */ /* ty=Tensor[(1, 256, 5, 5), float32] */;
  %88 = nn.conv2d(%87, %model.backbone.extra.3.0.weight, padding=[0, 0, 0, 0], channels=128, kernel_size=[1, 1]) /* C.graph: aten::_convolution, jit._trace.TopLevelTracedModule: __module.model/__module.model.backbone/__module.model.backbone.extra.3/__module.model.backbone.extra.3.0_PART_0 */ /* ty=Tensor[(1, 128, 5, 5), float32] */;
  %89 = nn.bias_add(%88, %model.backbone.extra.3.0.bias) /* C.graph: aten::_convolution, jit._trace.TopLevelTracedModule: __module.model/__module.model.backbone/__module.model.backbone.extra.3/__module.model.backbone.extra.3.0 */ /* ty=Tensor[(1, 128, 5, 5), float32] */;
  %90 = nn.relu(%89) /* C.graph: aten::relu_, jit._trace.TopLevelTracedModule: __module.model/__module.model.backbone/__module.model.backbone.extra.3/__module.model.backbone.extra.3.1 */ /* ty=Tensor[(1, 128, 5, 5), float32] */;
  %91 = nn.conv2d(%90, %model.backbone.extra.3.2.weight, padding=[0, 0, 0, 0], channels=256, kernel_size=[3, 3]) /* C.graph: aten::_convolution, jit._trace.TopLevelTracedModule: __module.model/__module.model.backbone/__module.model.backbone.extra.3/__module.model.backbone.extra.3.2_PART_0 */ /* ty=Tensor[(1, 256, 3, 3), float32] */;
  %92 = nn.bias_add(%91, %model.backbone.extra.3.2.bias) /* C.graph: aten::_convolution, jit._trace.TopLevelTracedModule: __module.model/__module.model.backbone/__module.model.backbone.extra.3/__module.model.backbone.extra.3.2 */ /* ty=Tensor[(1, 256, 3, 3), float32] */;
  %93 = nn.relu(%92) /* C.graph: aten::relu_, jit._trace.TopLevelTracedModule: __module.model/__module.model.backbone/__module.model.backbone.extra.3/__module.model.backbone.extra.3.3 */ /* ty=Tensor[(1, 256, 3, 3), float32] */;
  %94 = nn.conv2d(%93, %model.backbone.extra.4.0.weight, padding=[0, 0, 0, 0], channels=128, kernel_size=[1, 1]) /* C.graph: aten::_convolution, jit._trace.TopLevelTracedModule: __module.model/__module.model.backbone/__module.model.backbone.extra.4/__module.model.backbone.extra.4.0_PART_0 */ /* ty=Tensor[(1, 128, 3, 3), float32] */;
  %95 = nn.bias_add(%94, %model.backbone.extra.4.0.bias) /* C.graph: aten::_convolution, jit._trace.TopLevelTracedModule: __module.model/__module.model.backbone/__module.model.backbone.extra.4/__module.model.backbone.extra.4.0 */ /* ty=Tensor[(1, 128, 3, 3), float32] */;
  %96 = nn.relu(%95) /* C.graph: aten::relu_, jit._trace.TopLevelTracedModule: __module.model/__module.model.backbone/__module.model.backbone.extra.4/__module.model.backbone.extra.4.1 */ /* ty=Tensor[(1, 128, 3, 3), float32] */;
  %97 = nn.conv2d(%96, %model.backbone.extra.4.2.weight, padding=[0, 0, 0, 0], channels=256, kernel_size=[3, 3]) /* C.graph: aten::_convolution, jit._trace.TopLevelTracedModule: __module.model/__module.model.backbone/__module.model.backbone.extra.4/__module.model.backbone.extra.4.2_PART_0 */ /* ty=Tensor[(1, 256, 1, 1), float32] */;
  %98 = nn.bias_add(%97, %model.backbone.extra.4.2.bias) /* C.graph: aten::_convolution, jit._trace.TopLevelTracedModule: __module.model/__module.model.backbone/__module.model.backbone.extra.4/__module.model.backbone.extra.4.2 */ /* ty=Tensor[(1, 256, 1, 1), float32] */;
  %99 = multiply(%57, %58) /* C.graph: aten::mul, jit._trace.TopLevelTracedModule: __module.model/__module.model.backbone */ /* ty=Tensor[(1, 512, 38, 38), float32] */;
  %100 = nn.relu(%98) /* C.graph: aten::relu_, jit._trace.TopLevelTracedModule: __module.model/__module.model.backbone/__module.model.backbone.extra.4/__module.model.backbone.extra.4.3 */ /* ty=Tensor[(1, 256, 1, 1), float32] */;
  %101 = (%99, %75, %81, %87, %93, %100, %75, %81, %87, %93, %75, %75, %75, %75, %81, %81, %81, %81, %87, %87, %87, %87, %93, %93, %93, %93) /* C.graph: aten::_convolution, jit._trace.TopLevelTracedModule: __module.model/__module.model.head/__module.model.head.classification_head/__module.model.head.classification_head.module_list.0_PART_0 */;
  %102 = %101.0 /* C.graph: aten::_convolution, jit._trace.TopLevelTracedModule: __module.model/__module.model.head/__module.model.head.classification_head/__module.model.head.classification_head.module_list.0_PART_1 */;
  %103 = nn.conv2d(%102, %model.head.classification_head.module_list.0.weight, padding=[1, 1, 1, 1], channels=200, kernel_size=[3, 3]) /* C.graph: aten::_convolution, jit._trace.TopLevelTracedModule: __module.model/__module.model.head/__module.model.head.classification_head/__module.model.head.classification_head.module_list.0_PART_2 */ /* ty=Tensor[(1, 200, 38, 38), float32] */;
  %104 = nn.bias_add(%103, %model.head.classification_head.module_list.0.bias) /* C.graph: aten::_convolution, jit._trace.TopLevelTracedModule: __module.model/__module.model.head/__module.model.head.classification_head/__module.model.head.classification_head.module_list.0 */ /* ty=Tensor[(1, 200, 38, 38), float32] */;
  %105 = reshape(%104, newshape=[1, -1, 50, 38, 38]) /* C.graph: aten::view, jit._trace.TopLevelTracedModule: __module.model/__module.model.head/__module.model.head.classification_head */ /* ty=Tensor[(1, 4, 50, 38, 38), float32] */;
  %106 = transpose(%105, axes=[0, 3, 4, 1, 2]) /* C.graph: aten::permute, jit._trace.TopLevelTracedModule: __module.model/__module.model.head/__module.model.head.classification_head */ /* ty=Tensor[(1, 38, 38, 4, 50), float32] */;
  %107 = (%99, %75, %81, %87, %93, %100, %75, %81, %87, %93, %75, %75, %75, %75, %81, %81, %81, %81, %87, %87, %87, %87, %93, %93, %93, %93) /* C.graph: aten::_convolution, jit._trace.TopLevelTracedModule: __module.model/__module.model.head/__module.model.head.classification_head/__module.model.head.classification_head.module_list.1_PART_0 */;
  %108 = %107.6 /* C.graph: aten::_convolution, jit._trace.TopLevelTracedModule: __module.model/__module.model.head/__module.model.head.classification_head/__module.model.head.classification_head.module_list.1_PART_1 */;
  %109 = nn.conv2d(%108, %model.head.classification_head.module_list.1.weight, padding=[1, 1, 1, 1], channels=300, kernel_size=[3, 3]) /* C.graph: aten::_convolution, jit._trace.TopLevelTracedModule: __module.model/__module.model.head/__module.model.head.classification_head/__module.model.head.classification_head.module_list.1_PART_2 */ /* ty=Tensor[(1, 300, 19, 19), float32] */;
  %110 = nn.bias_add(%109, %model.head.classification_head.module_list.1.bias) /* C.graph: aten::_convolution, jit._trace.TopLevelTracedModule: __module.model/__module.model.head/__module.model.head.classification_head/__module.model.head.classification_head.module_list.1 */ /* ty=Tensor[(1, 300, 19, 19), float32] */;
  %111 = reshape(%110, newshape=[1, -1, 50, 19, 19]) /* C.graph: aten::view, jit._trace.TopLevelTracedModule: __module.model/__module.model.head/__module.model.head.classification_head */ /* ty=Tensor[(1, 6, 50, 19, 19), float32] */;
  %112 = transpose(%111, axes=[0, 3, 4, 1, 2]) /* C.graph: aten::permute, jit._trace.TopLevelTracedModule: __module.model/__module.model.head/__module.model.head.classification_head */ /* ty=Tensor[(1, 19, 19, 6, 50), float32] */;
  %113 = (%99, %75, %81, %87, %93, %100, %75, %81, %87, %93, %75, %75, %75, %75, %81, %81, %81, %81, %87, %87, %87, %87, %93, %93, %93, %93) /* C.graph: aten::_convolution, jit._trace.TopLevelTracedModule: __module.model/__module.model.head/__module.model.head.classification_head/__module.model.head.classification_head.module_list.2_PART_0 */;
  %114 = %113.7 /* C.graph: aten::_convolution, jit._trace.TopLevelTracedModule: __module.model/__module.model.head/__module.model.head.classification_head/__module.model.head.classification_head.module_list.2_PART_1 */;
  %115 = nn.conv2d(%114, %model.head.classification_head.module_list.2.weight, padding=[1, 1, 1, 1], channels=300, kernel_size=[3, 3]) /* C.graph: aten::_convolution, jit._trace.TopLevelTracedModule: __module.model/__module.model.head/__module.model.head.classification_head/__module.model.head.classification_head.module_list.2_PART_2 */ /* ty=Tensor[(1, 300, 10, 10), float32] */;
  %116 = nn.bias_add(%115, %model.head.classification_head.module_list.2.bias) /* C.graph: aten::_convolution, jit._trace.TopLevelTracedModule: __module.model/__module.model.head/__module.model.head.classification_head/__module.model.head.classification_head.module_list.2 */ /* ty=Tensor[(1, 300, 10, 10), float32] */;
  %117 = reshape(%116, newshape=[1, -1, 50, 10, 10]) /* C.graph: aten::view, jit._trace.TopLevelTracedModule: __module.model/__module.model.head/__module.model.head.classification_head */ /* ty=Tensor[(1, 6, 50, 10, 10), float32] */;
  %118 = transpose(%117, axes=[0, 3, 4, 1, 2]) /* C.graph: aten::permute, jit._trace.TopLevelTracedModule: __module.model/__module.model.head/__module.model.head.classification_head */ /* ty=Tensor[(1, 10, 10, 6, 50), float32] */;
  %119 = (%99, %75, %81, %87, %93, %100, %75, %81, %87, %93, %75, %75, %75, %75, %81, %81, %81, %81, %87, %87, %87, %87, %93, %93, %93, %93) /* C.graph: aten::_convolution, jit._trace.TopLevelTracedModule: __module.model/__module.model.head/__module.model.head.classification_head/__module.model.head.classification_head.module_list.3_PART_0 */;
  %120 = %119.8 /* C.graph: aten::_convolution, jit._trace.TopLevelTracedModule: __module.model/__module.model.head/__module.model.head.classification_head/__module.model.head.classification_head.module_list.3_PART_1 */;
  %121 = nn.conv2d(%120, %model.head.classification_head.module_list.3.weight, padding=[1, 1, 1, 1], channels=300, kernel_size=[3, 3]) /* C.graph: aten::_convolution, jit._trace.TopLevelTracedModule: __module.model/__module.model.head/__module.model.head.classification_head/__module.model.head.classification_head.module_list.3_PART_2 */ /* ty=Tensor[(1, 300, 5, 5), float32] */;
  %122 = nn.bias_add(%121, %model.head.classification_head.module_list.3.bias) /* C.graph: aten::_convolution, jit._trace.TopLevelTracedModule: __module.model/__module.model.head/__module.model.head.classification_head/__module.model.head.classification_head.module_list.3 */ /* ty=Tensor[(1, 300, 5, 5), float32] */;
  %123 = reshape(%122, newshape=[1, -1, 50, 5, 5]) /* C.graph: aten::view, jit._trace.TopLevelTracedModule: __module.model/__module.model.head/__module.model.head.classification_head */ /* ty=Tensor[(1, 6, 50, 5, 5), float32] */;
  %124 = transpose(%123, axes=[0, 3, 4, 1, 2]) /* C.graph: aten::permute, jit._trace.TopLevelTracedModule: __module.model/__module.model.head/__module.model.head.classification_head */ /* ty=Tensor[(1, 5, 5, 6, 50), float32] */;
  %125 = (%99, %75, %81, %87, %93, %100, %75, %81, %87, %93, %75, %75, %75, %75, %81, %81, %81, %81, %87, %87, %87, %87, %93, %93, %93, %93) /* C.graph: aten::_convolution, jit._trace.TopLevelTracedModule: __module.model/__module.model.head/__module.model.head.classification_head/__module.model.head.classification_head.module_list.4_PART_0 */;
  %126 = %125.9 /* C.graph: aten::_convolution, jit._trace.TopLevelTracedModule: __module.model/__module.model.head/__module.model.head.classification_head/__module.model.head.classification_head.module_list.4_PART_1 */;
  %127 = nn.conv2d(%126, %model.head.classification_head.module_list.4.weight, padding=[1, 1, 1, 1], channels=200, kernel_size=[3, 3]) /* C.graph: aten::_convolution, jit._trace.TopLevelTracedModule: __module.model/__module.model.head/__module.model.head.classification_head/__module.model.head.classification_head.module_list.4_PART_2 */ /* ty=Tensor[(1, 200, 3, 3), float32] */;
  %128 = nn.bias_add(%127, %model.head.classification_head.module_list.4.bias) /* C.graph: aten::_convolution, jit._trace.TopLevelTracedModule: __module.model/__module.model.head/__module.model.head.classification_head/__module.model.head.classification_head.module_list.4 */ /* ty=Tensor[(1, 200, 3, 3), float32] */;
  %129 = reshape(%128, newshape=[1, -1, 50, 3, 3]) /* C.graph: aten::view, jit._trace.TopLevelTracedModule: __module.model/__module.model.head/__module.model.head.classification_head */ /* ty=Tensor[(1, 4, 50, 3, 3), float32] */;
  %130 = transpose(%129, axes=[0, 3, 4, 1, 2]) /* C.graph: aten::permute, jit._trace.TopLevelTracedModule: __module.model/__module.model.head/__module.model.head.classification_head */ /* ty=Tensor[(1, 3, 3, 4, 50), float32] */;
  %131 = (%99, %75, %81, %87, %93, %100, %75, %81, %87, %93, %75, %75, %75, %75, %81, %81, %81, %81, %87, %87, %87, %87, %93, %93, %93, %93) /* C.graph: aten::_convolution, jit._trace.TopLevelTracedModule: __module.model/__module.model.head/__module.model.head.classification_head/__module.model.head.classification_head.module_list.5_PART_0 */;
  %132 = %131.5 /* C.graph: aten::_convolution, jit._trace.TopLevelTracedModule: __module.model/__module.model.head/__module.model.head.classification_head/__module.model.head.classification_head.module_list.5_PART_1 */;
  %133 = nn.conv2d(%132, %model.head.classification_head.module_list.5.weight, padding=[1, 1, 1, 1], channels=200, kernel_size=[3, 3]) /* C.graph: aten::_convolution, jit._trace.TopLevelTracedModule: __module.model/__module.model.head/__module.model.head.classification_head/__module.model.head.classification_head.module_list.5_PART_2 */ /* ty=Tensor[(1, 200, 1, 1), float32] */;
  %134 = nn.bias_add(%133, %model.head.classification_head.module_list.5.bias) /* C.graph: aten::_convolution, jit._trace.TopLevelTracedModule: __module.model/__module.model.head/__module.model.head.classification_head/__module.model.head.classification_head.module_list.5 */ /* ty=Tensor[(1, 200, 1, 1), float32] */;
  %135 = reshape(%134, newshape=[1, -1, 50, 1, 1]) /* C.graph: aten::view, jit._trace.TopLevelTracedModule: __module.model/__module.model.head/__module.model.head.classification_head */ /* ty=Tensor[(1, 4, 50, 1, 1), float32] */;
  %136 = transpose(%135, axes=[0, 3, 4, 1, 2]) /* C.graph: aten::permute, jit._trace.TopLevelTracedModule: __module.model/__module.model.head/__module.model.head.classification_head */ /* ty=Tensor[(1, 1, 1, 4, 50), float32] */;
  %137 = reshape(%106, newshape=[1, -1, 50]) /* C.graph: aten::reshape, jit._trace.TopLevelTracedModule: __module.model/__module.model.head/__module.model.head.classification_head */ /* ty=Tensor[(1, 5776, 50), float32] */;
  %138 = reshape(%112, newshape=[1, -1, 50]) /* C.graph: aten::reshape, jit._trace.TopLevelTracedModule: __module.model/__module.model.head/__module.model.head.classification_head */ /* ty=Tensor[(1, 2166, 50), float32] */;
  %139 = reshape(%118, newshape=[1, -1, 50]) /* C.graph: aten::reshape, jit._trace.TopLevelTracedModule: __module.model/__module.model.head/__module.model.head.classification_head */ /* ty=Tensor[(1, 600, 50), float32] */;
  %140 = reshape(%124, newshape=[1, -1, 50]) /* C.graph: aten::reshape, jit._trace.TopLevelTracedModule: __module.model/__module.model.head/__module.model.head.classification_head */ /* ty=Tensor[(1, 150, 50), float32] */;
  %141 = reshape(%130, newshape=[1, -1, 50]) /* C.graph: aten::reshape, jit._trace.TopLevelTracedModule: __module.model/__module.model.head/__module.model.head.classification_head */ /* ty=Tensor[(1, 36, 50), float32] */;
  %142 = reshape(%136, newshape=[1, -1, 50]) /* C.graph: aten::reshape, jit._trace.TopLevelTracedModule: __module.model/__module.model.head/__module.model.head.classification_head */ /* ty=Tensor[(1, 4, 50), float32] */;
  %143 = (%137, %138, %139, %140, %141, %142) /* C.graph: aten::cat, jit._trace.TopLevelTracedModule: __module.model/__module.model.head/__module.model.head.classification_head_PART_0 */;
  %144 = (%99, %75, %81, %87, %93, %100, %75, %81, %87, %93, %75, %75, %75, %75, %81, %81, %81, %81, %87, %87, %87, %87, %93, %93, %93, %93) /* C.graph: aten::_convolution, jit._trace.TopLevelTracedModule: __module.model/__module.model.head/__module.model.head.regression_head/__module.model.head.regression_head.module_list.0_PART_0 */;
  %145 = %144.0 /* C.graph: aten::_convolution, jit._trace.TopLevelTracedModule: __module.model/__module.model.head/__module.model.head.regression_head/__module.model.head.regression_head.module_list.0_PART_1 */;
  %146 = nn.conv2d(%145, %model.head.regression_head.module_list.0.weight, padding=[1, 1, 1, 1], channels=16, kernel_size=[3, 3]) /* C.graph: aten::_convolution, jit._trace.TopLevelTracedModule: __module.model/__module.model.head/__module.model.head.regression_head/__module.model.head.regression_head.module_list.0_PART_2 */ /* ty=Tensor[(1, 16, 38, 38), float32] */;
  %147 = nn.bias_add(%146, %model.head.regression_head.module_list.0.bias) /* C.graph: aten::_convolution, jit._trace.TopLevelTracedModule: __module.model/__module.model.head/__module.model.head.regression_head/__module.model.head.regression_head.module_list.0 */ /* ty=Tensor[(1, 16, 38, 38), float32] */;
  %148 = reshape(%147, newshape=[1, -1, 4, 38, 38]) /* C.graph: aten::view, jit._trace.TopLevelTracedModule: __module.model/__module.model.head/__module.model.head.regression_head */ /* ty=Tensor[(1, 4, 4, 38, 38), float32] */;
  %149 = transpose(%148, axes=[0, 3, 4, 1, 2]) /* C.graph: aten::permute, jit._trace.TopLevelTracedModule: __module.model/__module.model.head/__module.model.head.regression_head */ /* ty=Tensor[(1, 38, 38, 4, 4), float32] */;
  %150 = (%99, %75, %81, %87, %93, %100, %75, %81, %87, %93, %75, %75, %75, %75, %81, %81, %81, %81, %87, %87, %87, %87, %93, %93, %93, %93) /* C.graph: aten::_convolution, jit._trace.TopLevelTracedModule: __module.model/__module.model.head/__module.model.head.regression_head/__module.model.head.regression_head.module_list.1_PART_0 */;
  %151 = %150.1 /* C.graph: aten::_convolution, jit._trace.TopLevelTracedModule: __module.model/__module.model.head/__module.model.head.regression_head/__module.model.head.regression_head.module_list.1_PART_1 */;
  %152 = nn.conv2d(%151, %model.head.regression_head.module_list.1.weight, padding=[1, 1, 1, 1], channels=24, kernel_size=[3, 3]) /* C.graph: aten::_convolution, jit._trace.TopLevelTracedModule: __module.model/__module.model.head/__module.model.head.regression_head/__module.model.head.regression_head.module_list.1_PART_2 */ /* ty=Tensor[(1, 24, 19, 19), float32] */;
  %153 = nn.bias_add(%152, %model.head.regression_head.module_list.1.bias) /* C.graph: aten::_convolution, jit._trace.TopLevelTracedModule: __module.model/__module.model.head/__module.model.head.regression_head/__module.model.head.regression_head.module_list.1 */ /* ty=Tensor[(1, 24, 19, 19), float32] */;
  %154 = reshape(%153, newshape=[1, -1, 4, 19, 19]) /* C.graph: aten::view, jit._trace.TopLevelTracedModule: __module.model/__module.model.head/__module.model.head.regression_head */ /* ty=Tensor[(1, 6, 4, 19, 19), float32] */;
  %155 = transpose(%154, axes=[0, 3, 4, 1, 2]) /* C.graph: aten::permute, jit._trace.TopLevelTracedModule: __module.model/__module.model.head/__module.model.head.regression_head */ /* ty=Tensor[(1, 19, 19, 6, 4), float32] */;
  %156 = (%99, %75, %81, %87, %93, %100, %75, %81, %87, %93, %75, %75, %75, %75, %81, %81, %81, %81, %87, %87, %87, %87, %93, %93, %93, %93) /* C.graph: aten::_convolution, jit._trace.TopLevelTracedModule: __module.model/__module.model.head/__module.model.head.regression_head/__module.model.head.regression_head.module_list.2_PART_0 */;
  %157 = %156.2 /* C.graph: aten::_convolution, jit._trace.TopLevelTracedModule: __module.model/__module.model.head/__module.model.head.regression_head/__module.model.head.regression_head.module_list.2_PART_1 */;
  %158 = nn.conv2d(%157, %model.head.regression_head.module_list.2.weight, padding=[1, 1, 1, 1], channels=24, kernel_size=[3, 3]) /* C.graph: aten::_convolution, jit._trace.TopLevelTracedModule: __module.model/__module.model.head/__module.model.head.regression_head/__module.model.head.regression_head.module_list.2_PART_2 */ /* ty=Tensor[(1, 24, 10, 10), float32] */;
  %159 = nn.bias_add(%158, %model.head.regression_head.module_list.2.bias) /* C.graph: aten::_convolution, jit._trace.TopLevelTracedModule: __module.model/__module.model.head/__module.model.head.regression_head/__module.model.head.regression_head.module_list.2 */ /* ty=Tensor[(1, 24, 10, 10), float32] */;
  %160 = reshape(%159, newshape=[1, -1, 4, 10, 10]) /* C.graph: aten::view, jit._trace.TopLevelTracedModule: __module.model/__module.model.head/__module.model.head.regression_head */ /* ty=Tensor[(1, 6, 4, 10, 10), float32] */;
  %161 = transpose(%160, axes=[0, 3, 4, 1, 2]) /* C.graph: aten::permute, jit._trace.TopLevelTracedModule: __module.model/__module.model.head/__module.model.head.regression_head */ /* ty=Tensor[(1, 10, 10, 6, 4), float32] */;
  %162 = (%99, %75, %81, %87, %93, %100, %75, %81, %87, %93, %75, %75, %75, %75, %81, %81, %81, %81, %87, %87, %87, %87, %93, %93, %93, %93) /* C.graph: aten::_convolution, jit._trace.TopLevelTracedModule: __module.model/__module.model.head/__module.model.head.regression_head/__module.model.head.regression_head.module_list.3_PART_0 */;
  %163 = %162.3 /* C.graph: aten::_convolution, jit._trace.TopLevelTracedModule: __module.model/__module.model.head/__module.model.head.regression_head/__module.model.head.regression_head.module_list.3_PART_1 */;
  %164 = nn.conv2d(%163, %model.head.regression_head.module_list.3.weight, padding=[1, 1, 1, 1], channels=24, kernel_size=[3, 3]) /* C.graph: aten::_convolution, jit._trace.TopLevelTracedModule: __module.model/__module.model.head/__module.model.head.regression_head/__module.model.head.regression_head.module_list.3_PART_2 */ /* ty=Tensor[(1, 24, 5, 5), float32] */;
  %165 = nn.bias_add(%164, %model.head.regression_head.module_list.3.bias) /* C.graph: aten::_convolution, jit._trace.TopLevelTracedModule: __module.model/__module.model.head/__module.model.head.regression_head/__module.model.head.regression_head.module_list.3 */ /* ty=Tensor[(1, 24, 5, 5), float32] */;
  %166 = reshape(%165, newshape=[1, -1, 4, 5, 5]) /* C.graph: aten::view, jit._trace.TopLevelTracedModule: __module.model/__module.model.head/__module.model.head.regression_head */ /* ty=Tensor[(1, 6, 4, 5, 5), float32] */;
  %167 = transpose(%166, axes=[0, 3, 4, 1, 2]) /* C.graph: aten::permute, jit._trace.TopLevelTracedModule: __module.model/__module.model.head/__module.model.head.regression_head */ /* ty=Tensor[(1, 5, 5, 6, 4), float32] */;
  %168 = (%99, %75, %81, %87, %93, %100, %75, %81, %87, %93, %75, %75, %75, %75, %81, %81, %81, %81, %87, %87, %87, %87, %93, %93, %93, %93) /* C.graph: aten::_convolution, jit._trace.TopLevelTracedModule: __module.model/__module.model.head/__module.model.head.regression_head/__module.model.head.regression_head.module_list.4_PART_0 */;
  %169 = %168.4 /* C.graph: aten::_convolution, jit._trace.TopLevelTracedModule: __module.model/__module.model.head/__module.model.head.regression_head/__module.model.head.regression_head.module_list.4_PART_1 */;
  %170 = nn.conv2d(%169, %model.head.regression_head.module_list.4.weight, padding=[1, 1, 1, 1], channels=16, kernel_size=[3, 3]) /* C.graph: aten::_convolution, jit._trace.TopLevelTracedModule: __module.model/__module.model.head/__module.model.head.regression_head/__module.model.head.regression_head.module_list.4_PART_2 */ /* ty=Tensor[(1, 16, 3, 3), float32] */;
  %171 = nn.bias_add(%170, %model.head.regression_head.module_list.4.bias) /* C.graph: aten::_convolution, jit._trace.TopLevelTracedModule: __module.model/__module.model.head/__module.model.head.regression_head/__module.model.head.regression_head.module_list.4 */ /* ty=Tensor[(1, 16, 3, 3), float32] */;
  %172 = reshape(%171, newshape=[1, -1, 4, 3, 3]) /* C.graph: aten::view, jit._trace.TopLevelTracedModule: __module.model/__module.model.head/__module.model.head.regression_head */ /* ty=Tensor[(1, 4, 4, 3, 3), float32] */;
  %173 = transpose(%172, axes=[0, 3, 4, 1, 2]) /* C.graph: aten::permute, jit._trace.TopLevelTracedModule: __module.model/__module.model.head/__module.model.head.regression_head */ /* ty=Tensor[(1, 3, 3, 4, 4), float32] */;
  %174 = (%99, %75, %81, %87, %93, %100, %75, %81, %87, %93, %75, %75, %75, %75, %81, %81, %81, %81, %87, %87, %87, %87, %93, %93, %93, %93) /* C.graph: aten::_convolution, jit._trace.TopLevelTracedModule: __module.model/__module.model.head/__module.model.head.regression_head/__module.model.head.regression_head.module_list.5_PART_0 */;
  %175 = %174.5 /* C.graph: aten::_convolution, jit._trace.TopLevelTracedModule: __module.model/__module.model.head/__module.model.head.regression_head/__module.model.head.regression_head.module_list.5_PART_1 */;
  %176 = nn.conv2d(%175, %model.head.regression_head.module_list.5.weight, padding=[1, 1, 1, 1], channels=16, kernel_size=[3, 3]) /* C.graph: aten::_convolution, jit._trace.TopLevelTracedModule: __module.model/__module.model.head/__module.model.head.regression_head/__module.model.head.regression_head.module_list.5_PART_2 */ /* ty=Tensor[(1, 16, 1, 1), float32] */;
  %177 = nn.bias_add(%176, %model.head.regression_head.module_list.5.bias) /* C.graph: aten::_convolution, jit._trace.TopLevelTracedModule: __module.model/__module.model.head/__module.model.head.regression_head/__module.model.head.regression_head.module_list.5 */ /* ty=Tensor[(1, 16, 1, 1), float32] */;
  %178 = reshape(%177, newshape=[1, -1, 4, 1, 1]) /* C.graph: aten::view, jit._trace.TopLevelTracedModule: __module.model/__module.model.head/__module.model.head.regression_head */ /* ty=Tensor[(1, 4, 4, 1, 1), float32] */;
  %179 = transpose(%178, axes=[0, 3, 4, 1, 2]) /* C.graph: aten::permute, jit._trace.TopLevelTracedModule: __module.model/__module.model.head/__module.model.head.regression_head */ /* ty=Tensor[(1, 1, 1, 4, 4), float32] */;
  %180 = reshape(%149, newshape=[1, -1, 4]) /* C.graph: aten::reshape, jit._trace.TopLevelTracedModule: __module.model/__module.model.head/__module.model.head.regression_head */ /* ty=Tensor[(1, 5776, 4), float32] */;
  %181 = reshape(%155, newshape=[1, -1, 4]) /* C.graph: aten::reshape, jit._trace.TopLevelTracedModule: __module.model/__module.model.head/__module.model.head.regression_head */ /* ty=Tensor[(1, 2166, 4), float32] */;
  %182 = reshape(%161, newshape=[1, -1, 4]) /* C.graph: aten::reshape, jit._trace.TopLevelTracedModule: __module.model/__module.model.head/__module.model.head.regression_head */ /* ty=Tensor[(1, 600, 4), float32] */;
  %183 = reshape(%167, newshape=[1, -1, 4]) /* C.graph: aten::reshape, jit._trace.TopLevelTracedModule: __module.model/__module.model.head/__module.model.head.regression_head */ /* ty=Tensor[(1, 150, 4), float32] */;
  %184 = reshape(%173, newshape=[1, -1, 4]) /* C.graph: aten::reshape, jit._trace.TopLevelTracedModule: __module.model/__module.model.head/__module.model.head.regression_head */ /* ty=Tensor[(1, 36, 4), float32] */;
  %185 = reshape(%179, newshape=[1, -1, 4]) /* C.graph: aten::reshape, jit._trace.TopLevelTracedModule: __module.model/__module.model.head/__module.model.head.regression_head */ /* ty=Tensor[(1, 4, 4), float32] */;
  %186 = (%180, %181, %182, %183, %184, %185) /* C.graph: aten::cat, jit._trace.TopLevelTracedModule: __module.model/__module.model.head/__module.model.head.regression_head_PART_0 */;
  %187 = concatenate(%143, axis=1) /* C.graph: aten::cat, jit._trace.TopLevelTracedModule: __module.model/__module.model.head/__module.model.head.classification_head */ /* ty=Tensor[(1, 8732, 50), float32] */;
  %188 = concatenate(%186, axis=1) /* C.graph: aten::cat, jit._trace.TopLevelTracedModule: __module.model/__module.model.head/__module.model.head.regression_head */ /* ty=Tensor[(1, 8732, 4), float32] */;
  %189 = (%187, %188) /* C.graph: aten::unbind, jit._trace.TopLevelTracedModule: __module.model_PART_0 */;
  %190 = %189.1 /* C.graph: aten::unbind, jit._trace.TopLevelTracedModule: __module.model_PART_1 */;
  %191 = split(%190, indices_or_sections=1) /* C.graph: aten::unbind, jit._trace.TopLevelTracedModule: __module.model_PART_2 */ /* ty=(Tensor[(1, 8732, 4), float32],) */;
  %192 = %191.0 /* C.graph: aten::unbind, jit._trace.TopLevelTracedModule: __module.model_PART_3 */;
  %193 = squeeze(%192, axis=[0]) /* C.graph: aten::unbind, jit._trace.TopLevelTracedModule: __module.model_PART_4 */ /* ty=Tensor[(8732, 4), float32] */;
  %194 = (%193,) /* C.graph: aten::unbind, jit._trace.TopLevelTracedModule: __module.model */;
  %195 = %194.0 /* C.graph: aten::slice, jit._trace.TopLevelTracedModule: __module.model */;
  %196 = strided_slice(%195, begin=[0, 0], end=[8732, 4], strides=[1, 4], axes=None) /* C.graph: aten::slice, jit._trace.TopLevelTracedModule: __module.model */ /* ty=Tensor[(8732, 1), float32] */;
  %197 = arange(0 /* ty=int64 */, 38 /* ty=int64 */, 1 /* ty=int64 */, start=meta[relay.Constant][2], stop=meta[relay.Constant][3], step=meta[relay.Constant][4], dtype="int64") /* C.graph: aten::arange, jit._trace.TopLevelTracedModule: __module.model/__module.model.anchor_generator */ /* ty=Tensor[(38), int64] */;
  %198 = cast(%197, dtype="float32") /* C.graph: aten::add, jit._trace.TopLevelTracedModule: __module.model/__module.model.anchor_generator_PART_0 */ /* ty=Tensor[(38), float32] */;
  %199 = divide(300 /* ty=int32 */, 8 /* ty=int32 */) /* C.graph: aten::div, jit._trace.TopLevelTracedModule: __module.model/__module.model.anchor_generator */ /* ty=int32 */;
  %200 = add(%198, 0.5f /* ty=float32 */) /* C.graph: aten::add, jit._trace.TopLevelTracedModule: __module.model/__module.model.anchor_generator */ /* ty=Tensor[(38), float32] */;
  %201 = cast(%199, dtype="float32") /* C.graph: aten::div, jit._trace.TopLevelTracedModule: __module.model/__module.model.anchor_generator_PART_0 */ /* ty=float32 */;
  %202 = arange(0 /* ty=int64 */, 38 /* ty=int64 */, 1 /* ty=int64 */, start=meta[relay.Constant][5], stop=meta[relay.Constant][6], step=meta[relay.Constant][7], dtype="int64") /* C.graph: aten::arange, jit._trace.TopLevelTracedModule: __module.model/__module.model.anchor_generator */ /* ty=Tensor[(38), int64] */;
  %203 = cast(%202, dtype="float32") /* C.graph: aten::add, jit._trace.TopLevelTracedModule: __module.model/__module.model.anchor_generator_PART_0 */ /* ty=Tensor[(38), float32] */;
  %204 = divide(300 /* ty=int32 */, 8 /* ty=int32 */) /* C.graph: aten::div, jit._trace.TopLevelTracedModule: __module.model/__module.model.anchor_generator */ /* ty=int32 */;
  %205 = add(%203, 0.5f /* ty=float32 */) /* C.graph: aten::add, jit._trace.TopLevelTracedModule: __module.model/__module.model.anchor_generator */ /* ty=Tensor[(38), float32] */;
  %206 = cast(%204, dtype="float32") /* C.graph: aten::div, jit._trace.TopLevelTracedModule: __module.model/__module.model.anchor_generator_PART_0 */ /* ty=float32 */;
  %207 = divide(%200, %201) /* C.graph: aten::div, jit._trace.TopLevelTracedModule: __module.model/__module.model.anchor_generator */ /* ty=Tensor[(38), float32] */;
  %208 = divide(%205, %206) /* C.graph: aten::div, jit._trace.TopLevelTracedModule: __module.model/__module.model.anchor_generator */ /* ty=Tensor[(38), float32] */;
  %209 = (%207, %208) /* C.graph: aten::meshgrid, jit._trace.TopLevelTracedModule: __module.model/__module.model.anchor_generator_PART_0 */;
  %210 = meshgrid(%209) /* C.graph: aten::meshgrid, jit._trace.TopLevelTracedModule: __module.model/__module.model.anchor_generator */ /* ty=(Tensor[(38, 38), float32], Tensor[(38, 38), float32]) */;
  %211 = %210.1 /* C.graph: aten::reshape, jit._trace.TopLevelTracedModule: __module.model/__module.model.anchor_generator_PART_0 */;
  %212 = %210.0 /* C.graph: aten::reshape, jit._trace.TopLevelTracedModule: __module.model/__module.model.anchor_generator_PART_0 */;
  %213 = reshape(%211, newshape=[-1]) /* C.graph: aten::reshape, jit._trace.TopLevelTracedModule: __module.model/__module.model.anchor_generator */ /* ty=Tensor[(1444), float32] */;
  %214 = reshape(%212, newshape=[-1]) /* C.graph: aten::reshape, jit._trace.TopLevelTracedModule: __module.model/__module.model.anchor_generator */ /* ty=Tensor[(1444), float32] */;
  %215 = (%213, %214, %213, %214, %213, %214, %213, %214) /* C.graph: aten::stack, jit._trace.TopLevelTracedModule: __module.model/__module.model.anchor_generator_PART_0 */;
  %216 = stack(%215, axis=-1) /* C.graph: aten::stack, jit._trace.TopLevelTracedModule: __module.model/__module.model.anchor_generator */ /* ty=Tensor[(1444, 8), float32] */;
  %217 = clip(meta[relay.Constant][8] /* ty=Tensor[(4, 2), float32] */, a_min=0f, a_max=1f) /* C.graph: aten::clamp, jit._trace.TopLevelTracedModule: __module.model/__module.model.anchor_generator */ /* ty=Tensor[(4, 2), float32] */;
  %218 = reshape(%216, newshape=[-1, 2]) /* C.graph: aten::reshape, jit._trace.TopLevelTracedModule: __module.model/__module.model.anchor_generator */ /* ty=Tensor[(5776, 2), float32] */;
  %219 = tile(%217, reps=[1444, 1]) /* C.graph: aten::repeat, jit._trace.TopLevelTracedModule: __module.model/__module.model.anchor_generator */ /* ty=Tensor[(5776, 2), float32] */;
  %220 = (%218, %219) /* C.graph: aten::cat, jit._trace.TopLevelTracedModule: __module.model/__module.model.anchor_generator_PART_0 */;
  %221 = arange(0 /* ty=int64 */, 19 /* ty=int64 */, 1 /* ty=int64 */, start=meta[relay.Constant][9], stop=meta[relay.Constant][10], step=meta[relay.Constant][11], dtype="int64") /* C.graph: aten::arange, jit._trace.TopLevelTracedModule: __module.model/__module.model.anchor_generator */ /* ty=Tensor[(19), int64] */;
  %222 = cast(%221, dtype="float32") /* C.graph: aten::add, jit._trace.TopLevelTracedModule: __module.model/__module.model.anchor_generator_PART_0 */ /* ty=Tensor[(19), float32] */;
  %223 = divide(300 /* ty=int32 */, 16 /* ty=int32 */) /* C.graph: aten::div, jit._trace.TopLevelTracedModule: __module.model/__module.model.anchor_generator */ /* ty=int32 */;
  %224 = add(%222, 0.5f /* ty=float32 */) /* C.graph: aten::add, jit._trace.TopLevelTracedModule: __module.model/__module.model.anchor_generator */ /* ty=Tensor[(19), float32] */;
  %225 = cast(%223, dtype="float32") /* C.graph: aten::div, jit._trace.TopLevelTracedModule: __module.model/__module.model.anchor_generator_PART_0 */ /* ty=float32 */;
  %226 = arange(0 /* ty=int64 */, 19 /* ty=int64 */, 1 /* ty=int64 */, start=meta[relay.Constant][12], stop=meta[relay.Constant][13], step=meta[relay.Constant][14], dtype="int64") /* C.graph: aten::arange, jit._trace.TopLevelTracedModule: __module.model/__module.model.anchor_generator */ /* ty=Tensor[(19), int64] */;
  %227 = cast(%226, dtype="float32") /* C.graph: aten::add, jit._trace.TopLevelTracedModule: __module.model/__module.model.anchor_generator_PART_0 */ /* ty=Tensor[(19), float32] */;
  %228 = divide(300 /* ty=int32 */, 16 /* ty=int32 */) /* C.graph: aten::div, jit._trace.TopLevelTracedModule: __module.model/__module.model.anchor_generator */ /* ty=int32 */;
  %229 = add(%227, 0.5f /* ty=float32 */) /* C.graph: aten::add, jit._trace.TopLevelTracedModule: __module.model/__module.model.anchor_generator */ /* ty=Tensor[(19), float32] */;
  %230 = cast(%228, dtype="float32") /* C.graph: aten::div, jit._trace.TopLevelTracedModule: __module.model/__module.model.anchor_generator_PART_0 */ /* ty=float32 */;
  %231 = divide(%224, %225) /* C.graph: aten::div, jit._trace.TopLevelTracedModule: __module.model/__module.model.anchor_generator */ /* ty=Tensor[(19), float32] */;
  %232 = divide(%229, %230) /* C.graph: aten::div, jit._trace.TopLevelTracedModule: __module.model/__module.model.anchor_generator */ /* ty=Tensor[(19), float32] */;
  %233 = (%231, %232) /* C.graph: aten::meshgrid, jit._trace.TopLevelTracedModule: __module.model/__module.model.anchor_generator_PART_0 */;
  %234 = meshgrid(%233) /* C.graph: aten::meshgrid, jit._trace.TopLevelTracedModule: __module.model/__module.model.anchor_generator */ /* ty=(Tensor[(19, 19), float32], Tensor[(19, 19), float32]) */;
  %235 = %234.1 /* C.graph: aten::reshape, jit._trace.TopLevelTracedModule: __module.model/__module.model.anchor_generator_PART_0 */;
  %236 = %234.0 /* C.graph: aten::reshape, jit._trace.TopLevelTracedModule: __module.model/__module.model.anchor_generator_PART_0 */;
  %237 = reshape(%235, newshape=[-1]) /* C.graph: aten::reshape, jit._trace.TopLevelTracedModule: __module.model/__module.model.anchor_generator */ /* ty=Tensor[(361), float32] */;
  %238 = reshape(%236, newshape=[-1]) /* C.graph: aten::reshape, jit._trace.TopLevelTracedModule: __module.model/__module.model.anchor_generator */ /* ty=Tensor[(361), float32] */;
  %239 = (%237, %238, %237, %238, %237, %238, %237, %238, %237, %238, %237, %238) /* C.graph: aten::stack, jit._trace.TopLevelTracedModule: __module.model/__module.model.anchor_generator_PART_0 */;
  %240 = stack(%239, axis=-1) /* C.graph: aten::stack, jit._trace.TopLevelTracedModule: __module.model/__module.model.anchor_generator */ /* ty=Tensor[(361, 12), float32] */;
  %241 = clip(meta[relay.Constant][15] /* ty=Tensor[(6, 2), float32] */, a_min=0f, a_max=1f) /* C.graph: aten::clamp, jit._trace.TopLevelTracedModule: __module.model/__module.model.anchor_generator */ /* ty=Tensor[(6, 2), float32] */;
  %242 = reshape(%240, newshape=[-1, 2]) /* C.graph: aten::reshape, jit._trace.TopLevelTracedModule: __module.model/__module.model.anchor_generator */ /* ty=Tensor[(2166, 2), float32] */;
  %243 = tile(%241, reps=[361, 1]) /* C.graph: aten::repeat, jit._trace.TopLevelTracedModule: __module.model/__module.model.anchor_generator */ /* ty=Tensor[(2166, 2), float32] */;
  %244 = (%242, %243) /* C.graph: aten::cat, jit._trace.TopLevelTracedModule: __module.model/__module.model.anchor_generator_PART_0 */;
  %245 = arange(0 /* ty=int64 */, 10 /* ty=int64 */, 1 /* ty=int64 */, start=meta[relay.Constant][16], stop=meta[relay.Constant][17], step=meta[relay.Constant][18], dtype="int64") /* C.graph: aten::arange, jit._trace.TopLevelTracedModule: __module.model/__module.model.anchor_generator */ /* ty=Tensor[(10), int64] */;
  %246 = cast(%245, dtype="float32") /* C.graph: aten::add, jit._trace.TopLevelTracedModule: __module.model/__module.model.anchor_generator_PART_0 */ /* ty=Tensor[(10), float32] */;
  %247 = divide(300 /* ty=int32 */, 32 /* ty=int32 */) /* C.graph: aten::div, jit._trace.TopLevelTracedModule: __module.model/__module.model.anchor_generator */ /* ty=int32 */;
  %248 = add(%246, 0.5f /* ty=float32 */) /* C.graph: aten::add, jit._trace.TopLevelTracedModule: __module.model/__module.model.anchor_generator */ /* ty=Tensor[(10), float32] */;
  %249 = cast(%247, dtype="float32") /* C.graph: aten::div, jit._trace.TopLevelTracedModule: __module.model/__module.model.anchor_generator_PART_0 */ /* ty=float32 */;
  %250 = arange(0 /* ty=int64 */, 10 /* ty=int64 */, 1 /* ty=int64 */, start=meta[relay.Constant][19], stop=meta[relay.Constant][20], step=meta[relay.Constant][21], dtype="int64") /* C.graph: aten::arange, jit._trace.TopLevelTracedModule: __module.model/__module.model.anchor_generator */ /* ty=Tensor[(10), int64] */;
  %251 = cast(%250, dtype="float32") /* C.graph: aten::add, jit._trace.TopLevelTracedModule: __module.model/__module.model.anchor_generator_PART_0 */ /* ty=Tensor[(10), float32] */;
  %252 = divide(300 /* ty=int32 */, 32 /* ty=int32 */) /* C.graph: aten::div, jit._trace.TopLevelTracedModule: __module.model/__module.model.anchor_generator */ /* ty=int32 */;
  %253 = add(%251, 0.5f /* ty=float32 */) /* C.graph: aten::add, jit._trace.TopLevelTracedModule: __module.model/__module.model.anchor_generator */ /* ty=Tensor[(10), float32] */;
  %254 = cast(%252, dtype="float32") /* C.graph: aten::div, jit._trace.TopLevelTracedModule: __module.model/__module.model.anchor_generator_PART_0 */ /* ty=float32 */;
  %255 = divide(%248, %249) /* C.graph: aten::div, jit._trace.TopLevelTracedModule: __module.model/__module.model.anchor_generator */ /* ty=Tensor[(10), float32] */;
  %256 = divide(%253, %254) /* C.graph: aten::div, jit._trace.TopLevelTracedModule: __module.model/__module.model.anchor_generator */ /* ty=Tensor[(10), float32] */;
  %257 = (%255, %256) /* C.graph: aten::meshgrid, jit._trace.TopLevelTracedModule: __module.model/__module.model.anchor_generator_PART_0 */;
  %258 = meshgrid(%257) /* C.graph: aten::meshgrid, jit._trace.TopLevelTracedModule: __module.model/__module.model.anchor_generator */ /* ty=(Tensor[(10, 10), float32], Tensor[(10, 10), float32]) */;
  %259 = %258.1 /* C.graph: aten::reshape, jit._trace.TopLevelTracedModule: __module.model/__module.model.anchor_generator_PART_0 */;
  %260 = %258.0 /* C.graph: aten::reshape, jit._trace.TopLevelTracedModule: __module.model/__module.model.anchor_generator_PART_0 */;
  %261 = reshape(%259, newshape=[-1]) /* C.graph: aten::reshape, jit._trace.TopLevelTracedModule: __module.model/__module.model.anchor_generator */ /* ty=Tensor[(100), float32] */;
  %262 = reshape(%260, newshape=[-1]) /* C.graph: aten::reshape, jit._trace.TopLevelTracedModule: __module.model/__module.model.anchor_generator */ /* ty=Tensor[(100), float32] */;
  %263 = (%261, %262, %261, %262, %261, %262, %261, %262, %261, %262, %261, %262) /* C.graph: aten::stack, jit._trace.TopLevelTracedModule: __module.model/__module.model.anchor_generator_PART_0 */;
  %264 = stack(%263, axis=-1) /* C.graph: aten::stack, jit._trace.TopLevelTracedModule: __module.model/__module.model.anchor_generator */ /* ty=Tensor[(100, 12), float32] */;
  %265 = clip(meta[relay.Constant][22] /* ty=Tensor[(6, 2), float32] */, a_min=0f, a_max=1f) /* C.graph: aten::clamp, jit._trace.TopLevelTracedModule: __module.model/__module.model.anchor_generator */ /* ty=Tensor[(6, 2), float32] */;
  %266 = reshape(%264, newshape=[-1, 2]) /* C.graph: aten::reshape, jit._trace.TopLevelTracedModule: __module.model/__module.model.anchor_generator */ /* ty=Tensor[(600, 2), float32] */;
  %267 = tile(%265, reps=[100, 1]) /* C.graph: aten::repeat, jit._trace.TopLevelTracedModule: __module.model/__module.model.anchor_generator */ /* ty=Tensor[(600, 2), float32] */;
  %268 = (%266, %267) /* C.graph: aten::cat, jit._trace.TopLevelTracedModule: __module.model/__module.model.anchor_generator_PART_0 */;
  %269 = arange(0 /* ty=int64 */, 5 /* ty=int64 */, 1 /* ty=int64 */, start=meta[relay.Constant][23], stop=meta[relay.Constant][24], step=meta[relay.Constant][25], dtype="int64") /* C.graph: aten::arange, jit._trace.TopLevelTracedModule: __module.model/__module.model.anchor_generator */ /* ty=Tensor[(5), int64] */;
  %270 = cast(%269, dtype="float32") /* C.graph: aten::add, jit._trace.TopLevelTracedModule: __module.model/__module.model.anchor_generator_PART_0 */ /* ty=Tensor[(5), float32] */;
  %271 = divide(300 /* ty=int32 */, 64 /* ty=int32 */) /* C.graph: aten::div, jit._trace.TopLevelTracedModule: __module.model/__module.model.anchor_generator */ /* ty=int32 */;
  %272 = add(%270, 0.5f /* ty=float32 */) /* C.graph: aten::add, jit._trace.TopLevelTracedModule: __module.model/__module.model.anchor_generator */ /* ty=Tensor[(5), float32] */;
  %273 = cast(%271, dtype="float32") /* C.graph: aten::div, jit._trace.TopLevelTracedModule: __module.model/__module.model.anchor_generator_PART_0 */ /* ty=float32 */;
  %274 = arange(0 /* ty=int64 */, 5 /* ty=int64 */, 1 /* ty=int64 */, start=meta[relay.Constant][26], stop=meta[relay.Constant][27], step=meta[relay.Constant][28], dtype="int64") /* C.graph: aten::arange, jit._trace.TopLevelTracedModule: __module.model/__module.model.anchor_generator */ /* ty=Tensor[(5), int64] */;
  %275 = cast(%274, dtype="float32") /* C.graph: aten::add, jit._trace.TopLevelTracedModule: __module.model/__module.model.anchor_generator_PART_0 */ /* ty=Tensor[(5), float32] */;
  %276 = divide(300 /* ty=int32 */, 64 /* ty=int32 */) /* C.graph: aten::div, jit._trace.TopLevelTracedModule: __module.model/__module.model.anchor_generator */ /* ty=int32 */;
  %277 = add(%275, 0.5f /* ty=float32 */) /* C.graph: aten::add, jit._trace.TopLevelTracedModule: __module.model/__module.model.anchor_generator */ /* ty=Tensor[(5), float32] */;
  %278 = cast(%276, dtype="float32") /* C.graph: aten::div, jit._trace.TopLevelTracedModule: __module.model/__module.model.anchor_generator_PART_0 */ /* ty=float32 */;
  %279 = divide(%272, %273) /* C.graph: aten::div, jit._trace.TopLevelTracedModule: __module.model/__module.model.anchor_generator */ /* ty=Tensor[(5), float32] */;
  %280 = divide(%277, %278) /* C.graph: aten::div, jit._trace.TopLevelTracedModule: __module.model/__module.model.anchor_generator */ /* ty=Tensor[(5), float32] */;
  %281 = (%279, %280) /* C.graph: aten::meshgrid, jit._trace.TopLevelTracedModule: __module.model/__module.model.anchor_generator_PART_0 */;
  %282 = meshgrid(%281) /* C.graph: aten::meshgrid, jit._trace.TopLevelTracedModule: __module.model/__module.model.anchor_generator */ /* ty=(Tensor[(5, 5), float32], Tensor[(5, 5), float32]) */;
  %283 = %282.1 /* C.graph: aten::reshape, jit._trace.TopLevelTracedModule: __module.model/__module.model.anchor_generator_PART_0 */;
  %284 = %282.0 /* C.graph: aten::reshape, jit._trace.TopLevelTracedModule: __module.model/__module.model.anchor_generator_PART_0 */;
  %285 = reshape(%283, newshape=[-1]) /* C.graph: aten::reshape, jit._trace.TopLevelTracedModule: __module.model/__module.model.anchor_generator */ /* ty=Tensor[(25), float32] */;
  %286 = reshape(%284, newshape=[-1]) /* C.graph: aten::reshape, jit._trace.TopLevelTracedModule: __module.model/__module.model.anchor_generator */ /* ty=Tensor[(25), float32] */;
  %287 = (%285, %286, %285, %286, %285, %286, %285, %286, %285, %286, %285, %286) /* C.graph: aten::stack, jit._trace.TopLevelTracedModule: __module.model/__module.model.anchor_generator_PART_0 */;
  %288 = stack(%287, axis=-1) /* C.graph: aten::stack, jit._trace.TopLevelTracedModule: __module.model/__module.model.anchor_generator */ /* ty=Tensor[(25, 12), float32] */;
  %289 = clip(meta[relay.Constant][29] /* ty=Tensor[(6, 2), float32] */, a_min=0f, a_max=1f) /* C.graph: aten::clamp, jit._trace.TopLevelTracedModule: __module.model/__module.model.anchor_generator */ /* ty=Tensor[(6, 2), float32] */;
  %290 = reshape(%288, newshape=[-1, 2]) /* C.graph: aten::reshape, jit._trace.TopLevelTracedModule: __module.model/__module.model.anchor_generator */ /* ty=Tensor[(150, 2), float32] */;
  %291 = tile(%289, reps=[25, 1]) /* C.graph: aten::repeat, jit._trace.TopLevelTracedModule: __module.model/__module.model.anchor_generator */ /* ty=Tensor[(150, 2), float32] */;
  %292 = (%290, %291) /* C.graph: aten::cat, jit._trace.TopLevelTracedModule: __module.model/__module.model.anchor_generator_PART_0 */;
  %293 = arange(0 /* ty=int64 */, 3 /* ty=int64 */, 1 /* ty=int64 */, start=meta[relay.Constant][30], stop=meta[relay.Constant][31], step=meta[relay.Constant][32], dtype="int64") /* C.graph: aten::arange, jit._trace.TopLevelTracedModule: __module.model/__module.model.anchor_generator */ /* ty=Tensor[(3), int64] */;
  %294 = cast(%293, dtype="float32") /* C.graph: aten::add, jit._trace.TopLevelTracedModule: __module.model/__module.model.anchor_generator_PART_0 */ /* ty=Tensor[(3), float32] */;
  %295 = divide(300 /* ty=int32 */, 100 /* ty=int32 */) /* C.graph: aten::div, jit._trace.TopLevelTracedModule: __module.model/__module.model.anchor_generator */ /* ty=int32 */;
  %296 = add(%294, 0.5f /* ty=float32 */) /* C.graph: aten::add, jit._trace.TopLevelTracedModule: __module.model/__module.model.anchor_generator */ /* ty=Tensor[(3), float32] */;
  %297 = cast(%295, dtype="float32") /* C.graph: aten::div, jit._trace.TopLevelTracedModule: __module.model/__module.model.anchor_generator_PART_0 */ /* ty=float32 */;
  %298 = arange(0 /* ty=int64 */, 3 /* ty=int64 */, 1 /* ty=int64 */, start=meta[relay.Constant][33], stop=meta[relay.Constant][34], step=meta[relay.Constant][35], dtype="int64") /* C.graph: aten::arange, jit._trace.TopLevelTracedModule: __module.model/__module.model.anchor_generator */ /* ty=Tensor[(3), int64] */;
  %299 = cast(%298, dtype="float32") /* C.graph: aten::add, jit._trace.TopLevelTracedModule: __module.model/__module.model.anchor_generator_PART_0 */ /* ty=Tensor[(3), float32] */;
  %300 = divide(300 /* ty=int32 */, 100 /* ty=int32 */) /* C.graph: aten::div, jit._trace.TopLevelTracedModule: __module.model/__module.model.anchor_generator */ /* ty=int32 */;
  %301 = add(%299, 0.5f /* ty=float32 */) /* C.graph: aten::add, jit._trace.TopLevelTracedModule: __module.model/__module.model.anchor_generator */ /* ty=Tensor[(3), float32] */;
  %302 = cast(%300, dtype="float32") /* C.graph: aten::div, jit._trace.TopLevelTracedModule: __module.model/__module.model.anchor_generator_PART_0 */ /* ty=float32 */;
  %303 = divide(%296, %297) /* C.graph: aten::div, jit._trace.TopLevelTracedModule: __module.model/__module.model.anchor_generator */ /* ty=Tensor[(3), float32] */;
  %304 = divide(%301, %302) /* C.graph: aten::div, jit._trace.TopLevelTracedModule: __module.model/__module.model.anchor_generator */ /* ty=Tensor[(3), float32] */;
  %305 = (%303, %304) /* C.graph: aten::meshgrid, jit._trace.TopLevelTracedModule: __module.model/__module.model.anchor_generator_PART_0 */;
  %306 = meshgrid(%305) /* C.graph: aten::meshgrid, jit._trace.TopLevelTracedModule: __module.model/__module.model.anchor_generator */ /* ty=(Tensor[(3, 3), float32], Tensor[(3, 3), float32]) */;
  %307 = %306.1 /* C.graph: aten::reshape, jit._trace.TopLevelTracedModule: __module.model/__module.model.anchor_generator_PART_0 */;
  %308 = %306.0 /* C.graph: aten::reshape, jit._trace.TopLevelTracedModule: __module.model/__module.model.anchor_generator_PART_0 */;
  %309 = reshape(%307, newshape=[-1]) /* C.graph: aten::reshape, jit._trace.TopLevelTracedModule: __module.model/__module.model.anchor_generator */ /* ty=Tensor[(9), float32] */;
  %310 = reshape(%308, newshape=[-1]) /* C.graph: aten::reshape, jit._trace.TopLevelTracedModule: __module.model/__module.model.anchor_generator */ /* ty=Tensor[(9), float32] */;
  %311 = (%309, %310, %309, %310, %309, %310, %309, %310) /* C.graph: aten::stack, jit._trace.TopLevelTracedModule: __module.model/__module.model.anchor_generator_PART_0 */;
  %312 = stack(%311, axis=-1) /* C.graph: aten::stack, jit._trace.TopLevelTracedModule: __module.model/__module.model.anchor_generator */ /* ty=Tensor[(9, 8), float32] */;
  %313 = clip(meta[relay.Constant][36] /* ty=Tensor[(4, 2), float32] */, a_min=0f, a_max=1f) /* C.graph: aten::clamp, jit._trace.TopLevelTracedModule: __module.model/__module.model.anchor_generator */ /* ty=Tensor[(4, 2), float32] */;
  %314 = reshape(%312, newshape=[-1, 2]) /* C.graph: aten::reshape, jit._trace.TopLevelTracedModule: __module.model/__module.model.anchor_generator */ /* ty=Tensor[(36, 2), float32] */;
  %315 = tile(%313, reps=[9, 1]) /* C.graph: aten::repeat, jit._trace.TopLevelTracedModule: __module.model/__module.model.anchor_generator */ /* ty=Tensor[(36, 2), float32] */;
  %316 = (%314, %315) /* C.graph: aten::cat, jit._trace.TopLevelTracedModule: __module.model/__module.model.anchor_generator_PART_0 */;
  %317 = arange(0 /* ty=int64 */, 1 /* ty=int64 */, 1 /* ty=int64 */, start=meta[relay.Constant][37], stop=meta[relay.Constant][38], step=meta[relay.Constant][39], dtype="int64") /* C.graph: aten::arange, jit._trace.TopLevelTracedModule: __module.model/__module.model.anchor_generator */ /* ty=Tensor[(1), int64] */;
  %318 = cast(%317, dtype="float32") /* C.graph: aten::add, jit._trace.TopLevelTracedModule: __module.model/__module.model.anchor_generator_PART_0 */ /* ty=Tensor[(1), float32] */;
  %319 = divide(300 /* ty=int32 */, 300 /* ty=int32 */) /* C.graph: aten::div, jit._trace.TopLevelTracedModule: __module.model/__module.model.anchor_generator */ /* ty=int32 */;
  %320 = add(%318, 0.5f /* ty=float32 */) /* C.graph: aten::add, jit._trace.TopLevelTracedModule: __module.model/__module.model.anchor_generator */ /* ty=Tensor[(1), float32] */;
  %321 = cast(%319, dtype="float32") /* C.graph: aten::div, jit._trace.TopLevelTracedModule: __module.model/__module.model.anchor_generator_PART_0 */ /* ty=float32 */;
  %322 = arange(0 /* ty=int64 */, 1 /* ty=int64 */, 1 /* ty=int64 */, start=meta[relay.Constant][40], stop=meta[relay.Constant][41], step=meta[relay.Constant][42], dtype="int64") /* C.graph: aten::arange, jit._trace.TopLevelTracedModule: __module.model/__module.model.anchor_generator */ /* ty=Tensor[(1), int64] */;
  %323 = cast(%322, dtype="float32") /* C.graph: aten::add, jit._trace.TopLevelTracedModule: __module.model/__module.model.anchor_generator_PART_0 */ /* ty=Tensor[(1), float32] */;
  %324 = divide(300 /* ty=int32 */, 300 /* ty=int32 */) /* C.graph: aten::div, jit._trace.TopLevelTracedModule: __module.model/__module.model.anchor_generator */ /* ty=int32 */;
  %325 = add(%323, 0.5f /* ty=float32 */) /* C.graph: aten::add, jit._trace.TopLevelTracedModule: __module.model/__module.model.anchor_generator */ /* ty=Tensor[(1), float32] */;
  %326 = cast(%324, dtype="float32") /* C.graph: aten::div, jit._trace.TopLevelTracedModule: __module.model/__module.model.anchor_generator_PART_0 */ /* ty=float32 */;
  %327 = divide(%320, %321) /* C.graph: aten::div, jit._trace.TopLevelTracedModule: __module.model/__module.model.anchor_generator */ /* ty=Tensor[(1), float32] */;
  %328 = divide(%325, %326) /* C.graph: aten::div, jit._trace.TopLevelTracedModule: __module.model/__module.model.anchor_generator */ /* ty=Tensor[(1), float32] */;
  %329 = (%327, %328) /* C.graph: aten::meshgrid, jit._trace.TopLevelTracedModule: __module.model/__module.model.anchor_generator_PART_0 */;
  %330 = meshgrid(%329) /* C.graph: aten::meshgrid, jit._trace.TopLevelTracedModule: __module.model/__module.model.anchor_generator */ /* ty=(Tensor[(1, 1), float32], Tensor[(1, 1), float32]) */;
  %331 = %330.1 /* C.graph: aten::reshape, jit._trace.TopLevelTracedModule: __module.model/__module.model.anchor_generator_PART_0 */;
  %332 = %330.0 /* C.graph: aten::reshape, jit._trace.TopLevelTracedModule: __module.model/__module.model.anchor_generator_PART_0 */;
  %333 = reshape(%331, newshape=[-1]) /* C.graph: aten::reshape, jit._trace.TopLevelTracedModule: __module.model/__module.model.anchor_generator */ /* ty=Tensor[(1), float32] */;
  %334 = reshape(%332, newshape=[-1]) /* C.graph: aten::reshape, jit._trace.TopLevelTracedModule: __module.model/__module.model.anchor_generator */ /* ty=Tensor[(1), float32] */;
  %335 = (%333, %334, %333, %334, %333, %334, %333, %334) /* C.graph: aten::stack, jit._trace.TopLevelTracedModule: __module.model/__module.model.anchor_generator_PART_0 */;
  %336 = stack(%335, axis=-1) /* C.graph: aten::stack, jit._trace.TopLevelTracedModule: __module.model/__module.model.anchor_generator */ /* ty=Tensor[(1, 8), float32] */;
  %337 = clip(meta[relay.Constant][43] /* ty=Tensor[(4, 2), float32] */, a_min=0f, a_max=1f) /* C.graph: aten::clamp, jit._trace.TopLevelTracedModule: __module.model/__module.model.anchor_generator */ /* ty=Tensor[(4, 2), float32] */;
  %338 = reshape(%336, newshape=[-1, 2]) /* C.graph: aten::reshape, jit._trace.TopLevelTracedModule: __module.model/__module.model.anchor_generator */ /* ty=Tensor[(4, 2), float32] */;
  %339 = tile(%337, reps=[1, 1]) /* C.graph: aten::repeat, jit._trace.TopLevelTracedModule: __module.model/__module.model.anchor_generator */ /* ty=Tensor[(4, 2), float32] */;
  %340 = (%338, %339) /* C.graph: aten::cat, jit._trace.TopLevelTracedModule: __module.model/__module.model.anchor_generator_PART_0 */;
  %341 = concatenate(%220, axis=1) /* C.graph: aten::cat, jit._trace.TopLevelTracedModule: __module.model/__module.model.anchor_generator */ /* ty=Tensor[(5776, 4), float32] */;
  %342 = concatenate(%244, axis=1) /* C.graph: aten::cat, jit._trace.TopLevelTracedModule: __module.model/__module.model.anchor_generator */ /* ty=Tensor[(2166, 4), float32] */;
  %343 = concatenate(%268, axis=1) /* C.graph: aten::cat, jit._trace.TopLevelTracedModule: __module.model/__module.model.anchor_generator */ /* ty=Tensor[(600, 4), float32] */;
  %344 = concatenate(%292, axis=1) /* C.graph: aten::cat, jit._trace.TopLevelTracedModule: __module.model/__module.model.anchor_generator */ /* ty=Tensor[(150, 4), float32] */;
  %345 = concatenate(%316, axis=1) /* C.graph: aten::cat, jit._trace.TopLevelTracedModule: __module.model/__module.model.anchor_generator */ /* ty=Tensor[(36, 4), float32] */;
  %346 = concatenate(%340, axis=1) /* C.graph: aten::cat, jit._trace.TopLevelTracedModule: __module.model/__module.model.anchor_generator */ /* ty=Tensor[(4, 4), float32] */;
  %347 = (%341, %342, %343, %344, %345, %346) /* C.graph: aten::cat, jit._trace.TopLevelTracedModule: __module.model/__module.model.anchor_generator_PART_0 */;
  %348 = concatenate(%347) /* C.graph: aten::cat, jit._trace.TopLevelTracedModule: __module.model/__module.model.anchor_generator */ /* ty=Tensor[(8732, 4), float32] */;
  %349 = strided_slice(%348, begin=[0, 2], end=[8732, 4], strides=[1, 1], axes=None) /* C.graph: aten::slice, jit._trace.TopLevelTracedModule: __module.model/__module.model.anchor_generator */ /* ty=Tensor[(8732, 2), float32] */;
  %350 = strided_slice(%348, begin=[0, 0], end=[8732, 2], strides=[1, 1], axes=None) /* C.graph: aten::slice, jit._trace.TopLevelTracedModule: __module.model/__module.model.anchor_generator */ /* ty=Tensor[(8732, 2), float32] */;
  %351 = multiply(%349, 0.5f /* ty=float32 */) /* C.graph: aten::mul, jit._trace.TopLevelTracedModule: __module.model/__module.model.anchor_generator */ /* ty=Tensor[(8732, 2), float32] */;
  %352 = cast(meta[relay.Constant][44] /* ty=Tensor[(2), int32] */, dtype="int64") /* C.graph: aten::to, jit._trace.TopLevelTracedModule: __module.model/__module.model.anchor_generator */ /* ty=Tensor[(2), int64] */;
  %353 = subtract(%350, %351) /* C.graph: aten::sub, jit._trace.TopLevelTracedModule: __module.model/__module.model.anchor_generator */ /* ty=Tensor[(8732, 2), float32] */;
  %354 = cast(%352, dtype="float32") /* C.graph: aten::mul, jit._trace.TopLevelTracedModule: __module.model/__module.model.anchor_generator_PART_0 */ /* ty=Tensor[(2), float32] */;
  %355 = strided_slice(%348, begin=[0, 2], end=[8732, 4], strides=[1, 1], axes=None) /* C.graph: aten::slice, jit._trace.TopLevelTracedModule: __module.model/__module.model.anchor_generator */ /* ty=Tensor[(8732, 2), float32] */;
  %356 = strided_slice(%348, begin=[0, 0], end=[8732, 2], strides=[1, 1], axes=None) /* C.graph: aten::slice, jit._trace.TopLevelTracedModule: __module.model/__module.model.anchor_generator */ /* ty=Tensor[(8732, 2), float32] */;
  %357 = multiply(%355, 0.5f /* ty=float32 */) /* C.graph: aten::mul, jit._trace.TopLevelTracedModule: __module.model/__module.model.anchor_generator */ /* ty=Tensor[(8732, 2), float32] */;
  %358 = add(%356, %357) /* C.graph: aten::add, jit._trace.TopLevelTracedModule: __module.model/__module.model.anchor_generator */ /* ty=Tensor[(8732, 2), float32] */;
  %359 = cast(%352, dtype="float32") /* C.graph: aten::mul, jit._trace.TopLevelTracedModule: __module.model/__module.model.anchor_generator_PART_0 */ /* ty=Tensor[(2), float32] */;
  %360 = multiply(%353, %354) /* C.graph: aten::mul, jit._trace.TopLevelTracedModule: __module.model/__module.model.anchor_generator */ /* ty=Tensor[(8732, 2), float32] */;
  %361 = multiply(%358, %359) /* C.graph: aten::mul, jit._trace.TopLevelTracedModule: __module.model/__module.model.anchor_generator */ /* ty=Tensor[(8732, 2), float32] */;
  %362 = (%360, %361) /* C.graph: aten::cat, jit._trace.TopLevelTracedModule: __module.model/__module.model.anchor_generator_PART_0 */;
  %363 = concatenate(%362, axis=-1) /* C.graph: aten::cat, jit._trace.TopLevelTracedModule: __module.model/__module.model.anchor_generator */ /* ty=Tensor[(8732, 4), float32] */;
  %364 = take(%363, 2 /* ty=int32 */, axis=1, mode="wrap") /* C.graph: aten::select, jit._trace.TopLevelTracedModule: __module.model */ /* ty=Tensor[(8732), float32] */;
  %365 = take(%363, 0 /* ty=int32 */, axis=1, mode="wrap") /* C.graph: aten::select, jit._trace.TopLevelTracedModule: __module.model */ /* ty=Tensor[(8732), float32] */;
  %366 = subtract(%364, %365) /* C.graph: aten::sub, jit._trace.TopLevelTracedModule: __module.model */ /* ty=Tensor[(8732), float32] */;
  %367 = divide(%196, 10f /* ty=float32 */) /* C.graph: aten::div, jit._trace.TopLevelTracedModule: __module.model */ /* ty=Tensor[(8732, 1), float32] */;
  %368 = expand_dims(%366, axis=1) /* C.graph: aten::unsqueeze, jit._trace.TopLevelTracedModule: __module.model */ /* ty=Tensor[(8732, 1), float32] */;
  %369 = take(%363, 0 /* ty=int32 */, axis=1, mode="wrap") /* C.graph: aten::select, jit._trace.TopLevelTracedModule: __module.model */ /* ty=Tensor[(8732), float32] */;
  %370 = multiply(%366, 0.5f /* ty=float32 */) /* C.graph: aten::mul, jit._trace.TopLevelTracedModule: __module.model */ /* ty=Tensor[(8732), float32] */;
  %371 = add(%369, %370) /* C.graph: aten::add, jit._trace.TopLevelTracedModule: __module.model */ /* ty=Tensor[(8732), float32] */;
  %372 = multiply(%367, %368) /* C.graph: aten::mul, jit._trace.TopLevelTracedModule: __module.model */ /* ty=Tensor[(8732, 1), float32] */;
  %373 = expand_dims(%371, axis=1) /* C.graph: aten::unsqueeze, jit._trace.TopLevelTracedModule: __module.model */ /* ty=Tensor[(8732, 1), float32] */;
  %374 = %194.0 /* C.graph: aten::slice, jit._trace.TopLevelTracedModule: __module.model */;
  %375 = strided_slice(%374, begin=[0, 2], end=[8732, 4], strides=[1, 4], axes=None) /* C.graph: aten::slice, jit._trace.TopLevelTracedModule: __module.model */ /* ty=Tensor[(8732, 1), float32] */;
  %376 = divide(%375, 5f /* ty=float32 */) /* C.graph: aten::div, jit._trace.TopLevelTracedModule: __module.model */ /* ty=Tensor[(8732, 1), float32] */;
  %377 = clip(%376, a_min=-3.40282e+38f, a_max=4.13517f) /* C.graph: aten::clamp, jit._trace.TopLevelTracedModule: __module.model */ /* ty=Tensor[(8732, 1), float32] */;
  %378 = exp(%377) /* C.graph: aten::exp, jit._trace.TopLevelTracedModule: __module.model */ /* ty=Tensor[(8732, 1), float32] */;
  %379 = expand_dims(%366, axis=1) /* C.graph: aten::unsqueeze, jit._trace.TopLevelTracedModule: __module.model */ /* ty=Tensor[(8732, 1), float32] */;
  %380 = multiply(%378, %379) /* C.graph: aten::mul, jit._trace.TopLevelTracedModule: __module.model */ /* ty=Tensor[(8732, 1), float32] */;
  %381 = add(%372, %373) /* C.graph: aten::add, jit._trace.TopLevelTracedModule: __module.model */ /* ty=Tensor[(8732, 1), float32] */;
  %382 = multiply(0.5f /* ty=float32 */, %380) /* C.graph: aten::mul, jit._trace.TopLevelTracedModule: __module.model */ /* ty=Tensor[(8732, 1), float32] */;
  %383 = %194.0 /* C.graph: aten::slice, jit._trace.TopLevelTracedModule: __module.model */;
  %384 = strided_slice(%383, begin=[0, 1], end=[8732, 4], strides=[1, 4], axes=None) /* C.graph: aten::slice, jit._trace.TopLevelTracedModule: __module.model */ /* ty=Tensor[(8732, 1), float32] */;
  %385 = take(%363, 3 /* ty=int32 */, axis=1, mode="wrap") /* C.graph: aten::select, jit._trace.TopLevelTracedModule: __module.model */ /* ty=Tensor[(8732), float32] */;
  %386 = take(%363, 1 /* ty=int32 */, axis=1, mode="wrap") /* C.graph: aten::select, jit._trace.TopLevelTracedModule: __module.model */ /* ty=Tensor[(8732), float32] */;
  %387 = subtract(%385, %386) /* C.graph: aten::sub, jit._trace.TopLevelTracedModule: __module.model */ /* ty=Tensor[(8732), float32] */;
  %388 = divide(%384, 10f /* ty=float32 */) /* C.graph: aten::div, jit._trace.TopLevelTracedModule: __module.model */ /* ty=Tensor[(8732, 1), float32] */;
  %389 = expand_dims(%387, axis=1) /* C.graph: aten::unsqueeze, jit._trace.TopLevelTracedModule: __module.model */ /* ty=Tensor[(8732, 1), float32] */;
  %390 = take(%363, 1 /* ty=int32 */, axis=1, mode="wrap") /* C.graph: aten::select, jit._trace.TopLevelTracedModule: __module.model */ /* ty=Tensor[(8732), float32] */;
  %391 = multiply(%387, 0.5f /* ty=float32 */) /* C.graph: aten::mul, jit._trace.TopLevelTracedModule: __module.model */ /* ty=Tensor[(8732), float32] */;
  %392 = add(%390, %391) /* C.graph: aten::add, jit._trace.TopLevelTracedModule: __module.model */ /* ty=Tensor[(8732), float32] */;
  %393 = multiply(%388, %389) /* C.graph: aten::mul, jit._trace.TopLevelTracedModule: __module.model */ /* ty=Tensor[(8732, 1), float32] */;
  %394 = expand_dims(%392, axis=1) /* C.graph: aten::unsqueeze, jit._trace.TopLevelTracedModule: __module.model */ /* ty=Tensor[(8732, 1), float32] */;
  %395 = %194.0 /* C.graph: aten::slice, jit._trace.TopLevelTracedModule: __module.model */;
  %396 = strided_slice(%395, begin=[0, 3], end=[8732, 4], strides=[1, 4], axes=None) /* C.graph: aten::slice, jit._trace.TopLevelTracedModule: __module.model */ /* ty=Tensor[(8732, 1), float32] */;
  %397 = divide(%396, 5f /* ty=float32 */) /* C.graph: aten::div, jit._trace.TopLevelTracedModule: __module.model */ /* ty=Tensor[(8732, 1), float32] */;
  %398 = clip(%397, a_min=-3.40282e+38f, a_max=4.13517f) /* C.graph: aten::clamp, jit._trace.TopLevelTracedModule: __module.model */ /* ty=Tensor[(8732, 1), float32] */;
  %399 = exp(%398) /* C.graph: aten::exp, jit._trace.TopLevelTracedModule: __module.model */ /* ty=Tensor[(8732, 1), float32] */;
  %400 = expand_dims(%387, axis=1) /* C.graph: aten::unsqueeze, jit._trace.TopLevelTracedModule: __module.model */ /* ty=Tensor[(8732, 1), float32] */;
  %401 = multiply(%399, %400) /* C.graph: aten::mul, jit._trace.TopLevelTracedModule: __module.model */ /* ty=Tensor[(8732, 1), float32] */;
  %402 = add(%393, %394) /* C.graph: aten::add, jit._trace.TopLevelTracedModule: __module.model */ /* ty=Tensor[(8732, 1), float32] */;
  %403 = multiply(0.5f /* ty=float32 */, %401) /* C.graph: aten::mul, jit._trace.TopLevelTracedModule: __module.model */ /* ty=Tensor[(8732, 1), float32] */;
  %404 = subtract(%381, %382) /* C.graph: aten::sub, jit._trace.TopLevelTracedModule: __module.model */ /* ty=Tensor[(8732, 1), float32] */;
  %405 = subtract(%402, %403) /* C.graph: aten::sub, jit._trace.TopLevelTracedModule: __module.model */ /* ty=Tensor[(8732, 1), float32] */;
  %406 = add(%381, %382) /* C.graph: aten::add, jit._trace.TopLevelTracedModule: __module.model */ /* ty=Tensor[(8732, 1), float32] */;
  %407 = add(%402, %403) /* C.graph: aten::add, jit._trace.TopLevelTracedModule: __module.model */ /* ty=Tensor[(8732, 1), float32] */;
  %408 = (%404, %405, %406, %407) /* C.graph: aten::stack, jit._trace.TopLevelTracedModule: __module.model_PART_0 */;
  %409 = stack(%408, axis=2) /* C.graph: aten::stack, jit._trace.TopLevelTracedModule: __module.model */ /* ty=Tensor[(8732, 1, 4), float32] */;
  %410 = reshape(%409, newshape=[0, -1, 1]) /* C.graph: aten::flatten, jit._trace.TopLevelTracedModule: __module.model_PART_0 */ /* ty=Tensor[(8732, 4, 1), float32] */;
  %411 = squeeze(%410, axis=[2]) /* C.graph: aten::flatten, jit._trace.TopLevelTracedModule: __module.model */ /* ty=Tensor[(8732, 4), float32] */;
  %412 = strided_slice(%411, begin=[0, 0], end=[8732, 4], strides=[1, 2], axes=None) /* C.graph: aten::slice, jit._trace.TopLevelTracedModule: __module.model */ /* ty=Tensor[(8732, 2), float32] */;
  %413 = (%15, 300 /* ty=int32 */, 300 /* ty=int32 */) /* C.graph: aten::detach, jit._trace.TopLevelTracedModule: __module.model_PART_0 */;
  %414 = %413.1 /* C.graph: aten::detach, jit._trace.TopLevelTracedModule: __module.model */;
  %415 = maximum(%412, 0f /* ty=float32 */) /* C.graph: aten::max, jit._trace.TopLevelTracedModule: __module.model */ /* ty=Tensor[(8732, 2), float32] */;
  %416 = cast(%414, dtype="float32") /* C.graph: aten::to, jit._trace.TopLevelTracedModule: __module.model */ /* ty=float32 */;
  %417 = strided_slice(%411, begin=[0, 1], end=[8732, 4], strides=[1, 2], axes=None) /* C.graph: aten::slice, jit._trace.TopLevelTracedModule: __module.model */ /* ty=Tensor[(8732, 2), float32] */;
  %418 = (%15, 300 /* ty=int32 */, 300 /* ty=int32 */) /* C.graph: aten::detach, jit._trace.TopLevelTracedModule: __module.model_PART_0 */;
  %419 = %418.2 /* C.graph: aten::detach, jit._trace.TopLevelTracedModule: __module.model */;
  %420 = maximum(%417, 0f /* ty=float32 */) /* C.graph: aten::max, jit._trace.TopLevelTracedModule: __module.model */ /* ty=Tensor[(8732, 2), float32] */;
  %421 = cast(%419, dtype="float32") /* C.graph: aten::to, jit._trace.TopLevelTracedModule: __module.model */ /* ty=float32 */;
  %422 = minimum(%415, %416) /* C.graph: aten::min, jit._trace.TopLevelTracedModule: __module.model */ /* ty=Tensor[(8732, 2), float32] */;
  %423 = minimum(%420, %421) /* C.graph: aten::min, jit._trace.TopLevelTracedModule: __module.model */ /* ty=Tensor[(8732, 2), float32] */;
  %424 = (%422, %423) /* C.graph: aten::stack, jit._trace.TopLevelTracedModule: __module.model_PART_0 */;
  %425 = stack(%424, axis=2) /* C.graph: aten::stack, jit._trace.TopLevelTracedModule: __module.model */ /* ty=Tensor[(8732, 2, 2), float32] */;
  %426 = (%187, %188) /* C.graph: aten::softmax, jit._trace.TopLevelTracedModule: __module.model_PART_0 */;
  %427 = %426.0 /* C.graph: aten::softmax, jit._trace.TopLevelTracedModule: __module.model_PART_1 */;
  %428 = nn.softmax(%427) /* C.graph: aten::softmax, jit._trace.TopLevelTracedModule: __module.model */ /* ty=Tensor[(1, 8732, 50), float32] */;
  %429 = split(%428, indices_or_sections=1) /* C.graph: aten::unbind, jit._trace.TopLevelTracedModule: __module.model_PART_0 */ /* ty=(Tensor[(1, 8732, 50), float32],) */;
  %430 = %429.0 /* C.graph: aten::unbind, jit._trace.TopLevelTracedModule: __module.model_PART_1 */;
  %431 = squeeze(%430, axis=[0]) /* C.graph: aten::unbind, jit._trace.TopLevelTracedModule: __module.model_PART_2 */ /* ty=Tensor[(8732, 50), float32] */;
  %432 = (%431,) /* C.graph: aten::unbind, jit._trace.TopLevelTracedModule: __module.model */;
  %433 = %432.0 /* C.graph: aten::slice, jit._trace.TopLevelTracedModule: __module.model */;
  %434 = take(%433, 1 /* ty=int32 */, axis=1, mode="wrap") /* C.graph: aten::select, jit._trace.TopLevelTracedModule: __module.model */ /* ty=Tensor[(8732), float32] */;
  %435 = reshape(%425, newshape=[8732, 4]) /* C.graph: aten::reshape, jit._trace.TopLevelTracedModule: __module.model */ /* ty=Tensor[(8732, 4), float32] */;
  %436 = greater(%434, 0.01f /* ty=float32 */) /* C.graph: aten::gt, jit._trace.TopLevelTracedModule: __module.model */ /* ty=Tensor[(8732), bool] */;
  %437 = (%435, %436) /* C.graph: aten::index, jit._trace.TopLevelTracedModule: __module.model_PART_0 */;
  %438 = (%434, %436) /* C.graph: aten::index, jit._trace.TopLevelTracedModule: __module.model_PART_0 */;
  %439 = adv_index(%438) /* C.graph: aten::index, jit._trace.TopLevelTracedModule: __module.model */ /* ty=Tensor[(8732), float32] */;
  %440 = topk(%439, k=400, dtype="int64") /* C.graph: aten::index, jit._trace.TopLevelTracedModule: __module.model_PART_0 */ /* ty=(Tensor[(400), float32], Tensor[(400), int64]) */;
  %441 = adv_index(%437) /* C.graph: aten::index, jit._trace.TopLevelTracedModule: __module.model */ /* ty=Tensor[(8732, 4), float32] */;
  %442 = %440.1 /* C.graph: aten::index, jit._trace.TopLevelTracedModule: __module.model_PART_1 */;
  %443 = (%441, %442) /* C.graph: aten::index, jit._trace.TopLevelTracedModule: __module.model_PART_2 */;
  %444 = %432.0 /* C.graph: aten::slice, jit._trace.TopLevelTracedModule: __module.model */;
  %445 = take(%444, 2 /* ty=int32 */, axis=1, mode="wrap") /* C.graph: aten::select, jit._trace.TopLevelTracedModule: __module.model */ /* ty=Tensor[(8732), float32] */;
  %446 = greater(%445, 0.01f /* ty=float32 */) /* C.graph: aten::gt, jit._trace.TopLevelTracedModule: __module.model */ /* ty=Tensor[(8732), bool] */;
  %447 = (%435, %446) /* C.graph: aten::index, jit._trace.TopLevelTracedModule: __module.model_PART_0 */;
  %448 = (%445, %446) /* C.graph: aten::index, jit._trace.TopLevelTracedModule: __module.model_PART_0 */;
  %449 = adv_index(%448) /* C.graph: aten::index, jit._trace.TopLevelTracedModule: __module.model */ /* ty=Tensor[(8732), float32] */;
  %450 = topk(%449, k=400, dtype="int64") /* C.graph: aten::index, jit._trace.TopLevelTracedModule: __module.model_PART_0 */ /* ty=(Tensor[(400), float32], Tensor[(400), int64]) */;
  %451 = adv_index(%447) /* C.graph: aten::index, jit._trace.TopLevelTracedModule: __module.model */ /* ty=Tensor[(8732, 4), float32] */;
  %452 = %450.1 /* C.graph: aten::index, jit._trace.TopLevelTracedModule: __module.model_PART_1 */;
  %453 = (%451, %452) /* C.graph: aten::index, jit._trace.TopLevelTracedModule: __module.model_PART_2 */;
  %454 = %432.0 /* C.graph: aten::slice, jit._trace.TopLevelTracedModule: __module.model */;
  %455 = take(%454, 3 /* ty=int32 */, axis=1, mode="wrap") /* C.graph: aten::select, jit._trace.TopLevelTracedModule: __module.model */ /* ty=Tensor[(8732), float32] */;
  %456 = greater(%455, 0.01f /* ty=float32 */) /* C.graph: aten::gt, jit._trace.TopLevelTracedModule: __module.model */ /* ty=Tensor[(8732), bool] */;
  %457 = (%435, %456) /* C.graph: aten::index, jit._trace.TopLevelTracedModule: __module.model_PART_0 */;
  %458 = (%455, %456) /* C.graph: aten::index, jit._trace.TopLevelTracedModule: __module.model_PART_0 */;
  %459 = adv_index(%458) /* C.graph: aten::index, jit._trace.TopLevelTracedModule: __module.model */ /* ty=Tensor[(8732), float32] */;
  %460 = topk(%459, k=400, dtype="int64") /* C.graph: aten::index, jit._trace.TopLevelTracedModule: __module.model_PART_0 */ /* ty=(Tensor[(400), float32], Tensor[(400), int64]) */;
  %461 = adv_index(%457) /* C.graph: aten::index, jit._trace.TopLevelTracedModule: __module.model */ /* ty=Tensor[(8732, 4), float32] */;
  %462 = %460.1 /* C.graph: aten::index, jit._trace.TopLevelTracedModule: __module.model_PART_1 */;
  %463 = (%461, %462) /* C.graph: aten::index, jit._trace.TopLevelTracedModule: __module.model_PART_2 */;
  %464 = %432.0 /* C.graph: aten::slice, jit._trace.TopLevelTracedModule: __module.model */;
  %465 = take(%464, 4 /* ty=int32 */, axis=1, mode="wrap") /* C.graph: aten::select, jit._trace.TopLevelTracedModule: __module.model */ /* ty=Tensor[(8732), float32] */;
  %466 = greater(%465, 0.01f /* ty=float32 */) /* C.graph: aten::gt, jit._trace.TopLevelTracedModule: __module.model */ /* ty=Tensor[(8732), bool] */;
  %467 = (%435, %466) /* C.graph: aten::index, jit._trace.TopLevelTracedModule: __module.model_PART_0 */;
  %468 = (%465, %466) /* C.graph: aten::index, jit._trace.TopLevelTracedModule: __module.model_PART_0 */;
  %469 = adv_index(%468) /* C.graph: aten::index, jit._trace.TopLevelTracedModule: __module.model */ /* ty=Tensor[(8732), float32] */;
  %470 = topk(%469, k=400, dtype="int64") /* C.graph: aten::index, jit._trace.TopLevelTracedModule: __module.model_PART_0 */ /* ty=(Tensor[(400), float32], Tensor[(400), int64]) */;
  %471 = adv_index(%467) /* C.graph: aten::index, jit._trace.TopLevelTracedModule: __module.model */ /* ty=Tensor[(8732, 4), float32] */;
  %472 = %470.1 /* C.graph: aten::index, jit._trace.TopLevelTracedModule: __module.model_PART_1 */;
  %473 = (%471, %472) /* C.graph: aten::index, jit._trace.TopLevelTracedModule: __module.model_PART_2 */;
  %474 = %432.0 /* C.graph: aten::slice, jit._trace.TopLevelTracedModule: __module.model */;
  %475 = take(%474, 5 /* ty=int32 */, axis=1, mode="wrap") /* C.graph: aten::select, jit._trace.TopLevelTracedModule: __module.model */ /* ty=Tensor[(8732), float32] */;
  %476 = greater(%475, 0.01f /* ty=float32 */) /* C.graph: aten::gt, jit._trace.TopLevelTracedModule: __module.model */ /* ty=Tensor[(8732), bool] */;
  %477 = (%435, %476) /* C.graph: aten::index, jit._trace.TopLevelTracedModule: __module.model_PART_0 */;
  %478 = (%475, %476) /* C.graph: aten::index, jit._trace.TopLevelTracedModule: __module.model_PART_0 */;
  %479 = adv_index(%478) /* C.graph: aten::index, jit._trace.TopLevelTracedModule: __module.model */ /* ty=Tensor[(8732), float32] */;
  %480 = topk(%479, k=400, dtype="int64") /* C.graph: aten::index, jit._trace.TopLevelTracedModule: __module.model_PART_0 */ /* ty=(Tensor[(400), float32], Tensor[(400), int64]) */;
  %481 = adv_index(%477) /* C.graph: aten::index, jit._trace.TopLevelTracedModule: __module.model */ /* ty=Tensor[(8732, 4), float32] */;
  %482 = %480.1 /* C.graph: aten::index, jit._trace.TopLevelTracedModule: __module.model_PART_1 */;
  %483 = (%481, %482) /* C.graph: aten::index, jit._trace.TopLevelTracedModule: __module.model_PART_2 */;
  %484 = %432.0 /* C.graph: aten::slice, jit._trace.TopLevelTracedModule: __module.model */;
  %485 = take(%484, 6 /* ty=int32 */, axis=1, mode="wrap") /* C.graph: aten::select, jit._trace.TopLevelTracedModule: __module.model */ /* ty=Tensor[(8732), float32] */;
  %486 = greater(%485, 0.01f /* ty=float32 */) /* C.graph: aten::gt, jit._trace.TopLevelTracedModule: __module.model */ /* ty=Tensor[(8732), bool] */;
  %487 = (%435, %486) /* C.graph: aten::index, jit._trace.TopLevelTracedModule: __module.model_PART_0 */;
  %488 = (%485, %486) /* C.graph: aten::index, jit._trace.TopLevelTracedModule: __module.model_PART_0 */;
  %489 = adv_index(%488) /* C.graph: aten::index, jit._trace.TopLevelTracedModule: __module.model */ /* ty=Tensor[(8732), float32] */;
  %490 = topk(%489, k=400, dtype="int64") /* C.graph: aten::index, jit._trace.TopLevelTracedModule: __module.model_PART_0 */ /* ty=(Tensor[(400), float32], Tensor[(400), int64]) */;
  %491 = adv_index(%487) /* C.graph: aten::index, jit._trace.TopLevelTracedModule: __module.model */ /* ty=Tensor[(8732, 4), float32] */;
  %492 = %490.1 /* C.graph: aten::index, jit._trace.TopLevelTracedModule: __module.model_PART_1 */;
  %493 = (%491, %492) /* C.graph: aten::index, jit._trace.TopLevelTracedModule: __module.model_PART_2 */;
  %494 = %432.0 /* C.graph: aten::slice, jit._trace.TopLevelTracedModule: __module.model */;
  %495 = take(%494, 7 /* ty=int32 */, axis=1, mode="wrap") /* C.graph: aten::select, jit._trace.TopLevelTracedModule: __module.model */ /* ty=Tensor[(8732), float32] */;
  %496 = greater(%495, 0.01f /* ty=float32 */) /* C.graph: aten::gt, jit._trace.TopLevelTracedModule: __module.model */ /* ty=Tensor[(8732), bool] */;
  %497 = (%435, %496) /* C.graph: aten::index, jit._trace.TopLevelTracedModule: __module.model_PART_0 */;
  %498 = (%495, %496) /* C.graph: aten::index, jit._trace.TopLevelTracedModule: __module.model_PART_0 */;
  %499 = adv_index(%498) /* C.graph: aten::index, jit._trace.TopLevelTracedModule: __module.model */ /* ty=Tensor[(8732), float32] */;
  %500 = topk(%499, k=400, dtype="int64") /* C.graph: aten::index, jit._trace.TopLevelTracedModule: __module.model_PART_0 */ /* ty=(Tensor[(400), float32], Tensor[(400), int64]) */;
  %501 = adv_index(%497) /* C.graph: aten::index, jit._trace.TopLevelTracedModule: __module.model */ /* ty=Tensor[(8732, 4), float32] */;
  %502 = %500.1 /* C.graph: aten::index, jit._trace.TopLevelTracedModule: __module.model_PART_1 */;
  %503 = (%501, %502) /* C.graph: aten::index, jit._trace.TopLevelTracedModule: __module.model_PART_2 */;
  %504 = %432.0 /* C.graph: aten::slice, jit._trace.TopLevelTracedModule: __module.model */;
  %505 = take(%504, 8 /* ty=int32 */, axis=1, mode="wrap") /* C.graph: aten::select, jit._trace.TopLevelTracedModule: __module.model */ /* ty=Tensor[(8732), float32] */;
  %506 = greater(%505, 0.01f /* ty=float32 */) /* C.graph: aten::gt, jit._trace.TopLevelTracedModule: __module.model */ /* ty=Tensor[(8732), bool] */;
  %507 = (%435, %506) /* C.graph: aten::index, jit._trace.TopLevelTracedModule: __module.model_PART_0 */;
  %508 = (%505, %506) /* C.graph: aten::index, jit._trace.TopLevelTracedModule: __module.model_PART_0 */;
  %509 = adv_index(%508) /* C.graph: aten::index, jit._trace.TopLevelTracedModule: __module.model */ /* ty=Tensor[(8732), float32] */;
  %510 = topk(%509, k=400, dtype="int64") /* C.graph: aten::index, jit._trace.TopLevelTracedModule: __module.model_PART_0 */ /* ty=(Tensor[(400), float32], Tensor[(400), int64]) */;
  %511 = adv_index(%507) /* C.graph: aten::index, jit._trace.TopLevelTracedModule: __module.model */ /* ty=Tensor[(8732, 4), float32] */;
  %512 = %510.1 /* C.graph: aten::index, jit._trace.TopLevelTracedModule: __module.model_PART_1 */;
  %513 = (%511, %512) /* C.graph: aten::index, jit._trace.TopLevelTracedModule: __module.model_PART_2 */;
  %514 = %432.0 /* C.graph: aten::slice, jit._trace.TopLevelTracedModule: __module.model */;
  %515 = take(%514, 9 /* ty=int32 */, axis=1, mode="wrap") /* C.graph: aten::select, jit._trace.TopLevelTracedModule: __module.model */ /* ty=Tensor[(8732), float32] */;
  %516 = greater(%515, 0.01f /* ty=float32 */) /* C.graph: aten::gt, jit._trace.TopLevelTracedModule: __module.model */ /* ty=Tensor[(8732), bool] */;
  %517 = (%435, %516) /* C.graph: aten::index, jit._trace.TopLevelTracedModule: __module.model_PART_0 */;
  %518 = (%515, %516) /* C.graph: aten::index, jit._trace.TopLevelTracedModule: __module.model_PART_0 */;
  %519 = adv_index(%518) /* C.graph: aten::index, jit._trace.TopLevelTracedModule: __module.model */ /* ty=Tensor[(8732), float32] */;
  %520 = topk(%519, k=400, dtype="int64") /* C.graph: aten::index, jit._trace.TopLevelTracedModule: __module.model_PART_0 */ /* ty=(Tensor[(400), float32], Tensor[(400), int64]) */;
  %521 = adv_index(%517) /* C.graph: aten::index, jit._trace.TopLevelTracedModule: __module.model */ /* ty=Tensor[(8732, 4), float32] */;
  %522 = %520.1 /* C.graph: aten::index, jit._trace.TopLevelTracedModule: __module.model_PART_1 */;
  %523 = (%521, %522) /* C.graph: aten::index, jit._trace.TopLevelTracedModule: __module.model_PART_2 */;
  %524 = %432.0 /* C.graph: aten::slice, jit._trace.TopLevelTracedModule: __module.model */;
  %525 = take(%524, 10 /* ty=int32 */, axis=1, mode="wrap") /* C.graph: aten::select, jit._trace.TopLevelTracedModule: __module.model */ /* ty=Tensor[(8732), float32] */;
  %526 = greater(%525, 0.01f /* ty=float32 */) /* C.graph: aten::gt, jit._trace.TopLevelTracedModule: __module.model */ /* ty=Tensor[(8732), bool] */;
  %527 = (%435, %526) /* C.graph: aten::index, jit._trace.TopLevelTracedModule: __module.model_PART_0 */;
  %528 = (%525, %526) /* C.graph: aten::index, jit._trace.TopLevelTracedModule: __module.model_PART_0 */;
  %529 = adv_index(%528) /* C.graph: aten::index, jit._trace.TopLevelTracedModule: __module.model */ /* ty=Tensor[(8732), float32] */;
  %530 = topk(%529, k=400, dtype="int64") /* C.graph: aten::index, jit._trace.TopLevelTracedModule: __module.model_PART_0 */ /* ty=(Tensor[(400), float32], Tensor[(400), int64]) */;
  %531 = adv_index(%527) /* C.graph: aten::index, jit._trace.TopLevelTracedModule: __module.model */ /* ty=Tensor[(8732, 4), float32] */;
  %532 = %530.1 /* C.graph: aten::index, jit._trace.TopLevelTracedModule: __module.model_PART_1 */;
  %533 = (%531, %532) /* C.graph: aten::index, jit._trace.TopLevelTracedModule: __module.model_PART_2 */;
  %534 = %432.0 /* C.graph: aten::slice, jit._trace.TopLevelTracedModule: __module.model */;
  %535 = take(%534, 11 /* ty=int32 */, axis=1, mode="wrap") /* C.graph: aten::select, jit._trace.TopLevelTracedModule: __module.model */ /* ty=Tensor[(8732), float32] */;
  %536 = greater(%535, 0.01f /* ty=float32 */) /* C.graph: aten::gt, jit._trace.TopLevelTracedModule: __module.model */ /* ty=Tensor[(8732), bool] */;
  %537 = (%435, %536) /* C.graph: aten::index, jit._trace.TopLevelTracedModule: __module.model_PART_0 */;
  %538 = (%535, %536) /* C.graph: aten::index, jit._trace.TopLevelTracedModule: __module.model_PART_0 */;
  %539 = adv_index(%538) /* C.graph: aten::index, jit._trace.TopLevelTracedModule: __module.model */ /* ty=Tensor[(8732), float32] */;
  %540 = topk(%539, k=400, dtype="int64") /* C.graph: aten::index, jit._trace.TopLevelTracedModule: __module.model_PART_0 */ /* ty=(Tensor[(400), float32], Tensor[(400), int64]) */;
  %541 = adv_index(%537) /* C.graph: aten::index, jit._trace.TopLevelTracedModule: __module.model */ /* ty=Tensor[(8732, 4), float32] */;
  %542 = %540.1 /* C.graph: aten::index, jit._trace.TopLevelTracedModule: __module.model_PART_1 */;
  %543 = (%541, %542) /* C.graph: aten::index, jit._trace.TopLevelTracedModule: __module.model_PART_2 */;
  %544 = %432.0 /* C.graph: aten::slice, jit._trace.TopLevelTracedModule: __module.model */;
  %545 = take(%544, 12 /* ty=int32 */, axis=1, mode="wrap") /* C.graph: aten::select, jit._trace.TopLevelTracedModule: __module.model */ /* ty=Tensor[(8732), float32] */;
  %546 = greater(%545, 0.01f /* ty=float32 */) /* C.graph: aten::gt, jit._trace.TopLevelTracedModule: __module.model */ /* ty=Tensor[(8732), bool] */;
  %547 = (%435, %546) /* C.graph: aten::index, jit._trace.TopLevelTracedModule: __module.model_PART_0 */;
  %548 = (%545, %546) /* C.graph: aten::index, jit._trace.TopLevelTracedModule: __module.model_PART_0 */;
  %549 = adv_index(%548) /* C.graph: aten::index, jit._trace.TopLevelTracedModule: __module.model */ /* ty=Tensor[(8732), float32] */;
  %550 = topk(%549, k=400, dtype="int64") /* C.graph: aten::index, jit._trace.TopLevelTracedModule: __module.model_PART_0 */ /* ty=(Tensor[(400), float32], Tensor[(400), int64]) */;
  %551 = adv_index(%547) /* C.graph: aten::index, jit._trace.TopLevelTracedModule: __module.model */ /* ty=Tensor[(8732, 4), float32] */;
  %552 = %550.1 /* C.graph: aten::index, jit._trace.TopLevelTracedModule: __module.model_PART_1 */;
  %553 = (%551, %552) /* C.graph: aten::index, jit._trace.TopLevelTracedModule: __module.model_PART_2 */;
  %554 = %432.0 /* C.graph: aten::slice, jit._trace.TopLevelTracedModule: __module.model */;
  %555 = take(%554, 13 /* ty=int32 */, axis=1, mode="wrap") /* C.graph: aten::select, jit._trace.TopLevelTracedModule: __module.model */ /* ty=Tensor[(8732), float32] */;
  %556 = greater(%555, 0.01f /* ty=float32 */) /* C.graph: aten::gt, jit._trace.TopLevelTracedModule: __module.model */ /* ty=Tensor[(8732), bool] */;
  %557 = (%435, %556) /* C.graph: aten::index, jit._trace.TopLevelTracedModule: __module.model_PART_0 */;
  %558 = (%555, %556) /* C.graph: aten::index, jit._trace.TopLevelTracedModule: __module.model_PART_0 */;
  %559 = adv_index(%558) /* C.graph: aten::index, jit._trace.TopLevelTracedModule: __module.model */ /* ty=Tensor[(8732), float32] */;
  %560 = topk(%559, k=400, dtype="int64") /* C.graph: aten::index, jit._trace.TopLevelTracedModule: __module.model_PART_0 */ /* ty=(Tensor[(400), float32], Tensor[(400), int64]) */;
  %561 = adv_index(%557) /* C.graph: aten::index, jit._trace.TopLevelTracedModule: __module.model */ /* ty=Tensor[(8732, 4), float32] */;
  %562 = %560.1 /* C.graph: aten::index, jit._trace.TopLevelTracedModule: __module.model_PART_1 */;
  %563 = (%561, %562) /* C.graph: aten::index, jit._trace.TopLevelTracedModule: __module.model_PART_2 */;
  %564 = %432.0 /* C.graph: aten::slice, jit._trace.TopLevelTracedModule: __module.model */;
  %565 = take(%564, 14 /* ty=int32 */, axis=1, mode="wrap") /* C.graph: aten::select, jit._trace.TopLevelTracedModule: __module.model */ /* ty=Tensor[(8732), float32] */;
  %566 = greater(%565, 0.01f /* ty=float32 */) /* C.graph: aten::gt, jit._trace.TopLevelTracedModule: __module.model */ /* ty=Tensor[(8732), bool] */;
  %567 = (%435, %566) /* C.graph: aten::index, jit._trace.TopLevelTracedModule: __module.model_PART_0 */;
  %568 = (%565, %566) /* C.graph: aten::index, jit._trace.TopLevelTracedModule: __module.model_PART_0 */;
  %569 = adv_index(%568) /* C.graph: aten::index, jit._trace.TopLevelTracedModule: __module.model */ /* ty=Tensor[(8732), float32] */;
  %570 = topk(%569, k=400, dtype="int64") /* C.graph: aten::index, jit._trace.TopLevelTracedModule: __module.model_PART_0 */ /* ty=(Tensor[(400), float32], Tensor[(400), int64]) */;
  %571 = adv_index(%567) /* C.graph: aten::index, jit._trace.TopLevelTracedModule: __module.model */ /* ty=Tensor[(8732, 4), float32] */;
  %572 = %570.1 /* C.graph: aten::index, jit._trace.TopLevelTracedModule: __module.model_PART_1 */;
  %573 = (%571, %572) /* C.graph: aten::index, jit._trace.TopLevelTracedModule: __module.model_PART_2 */;
  %574 = %432.0 /* C.graph: aten::slice, jit._trace.TopLevelTracedModule: __module.model */;
  %575 = take(%574, 15 /* ty=int32 */, axis=1, mode="wrap") /* C.graph: aten::select, jit._trace.TopLevelTracedModule: __module.model */ /* ty=Tensor[(8732), float32] */;
  %576 = greater(%575, 0.01f /* ty=float32 */) /* C.graph: aten::gt, jit._trace.TopLevelTracedModule: __module.model */ /* ty=Tensor[(8732), bool] */;
  %577 = (%435, %576) /* C.graph: aten::index, jit._trace.TopLevelTracedModule: __module.model_PART_0 */;
  %578 = (%575, %576) /* C.graph: aten::index, jit._trace.TopLevelTracedModule: __module.model_PART_0 */;
  %579 = adv_index(%578) /* C.graph: aten::index, jit._trace.TopLevelTracedModule: __module.model */ /* ty=Tensor[(8732), float32] */;
  %580 = topk(%579, k=400, dtype="int64") /* C.graph: aten::index, jit._trace.TopLevelTracedModule: __module.model_PART_0 */ /* ty=(Tensor[(400), float32], Tensor[(400), int64]) */;
  %581 = adv_index(%577) /* C.graph: aten::index, jit._trace.TopLevelTracedModule: __module.model */ /* ty=Tensor[(8732, 4), float32] */;
  %582 = %580.1 /* C.graph: aten::index, jit._trace.TopLevelTracedModule: __module.model_PART_1 */;
  %583 = (%581, %582) /* C.graph: aten::index, jit._trace.TopLevelTracedModule: __module.model_PART_2 */;
  %584 = %432.0 /* C.graph: aten::slice, jit._trace.TopLevelTracedModule: __module.model */;
  %585 = take(%584, 16 /* ty=int32 */, axis=1, mode="wrap") /* C.graph: aten::select, jit._trace.TopLevelTracedModule: __module.model */ /* ty=Tensor[(8732), float32] */;
  %586 = greater(%585, 0.01f /* ty=float32 */) /* C.graph: aten::gt, jit._trace.TopLevelTracedModule: __module.model */ /* ty=Tensor[(8732), bool] */;
  %587 = (%435, %586) /* C.graph: aten::index, jit._trace.TopLevelTracedModule: __module.model_PART_0 */;
  %588 = (%585, %586) /* C.graph: aten::index, jit._trace.TopLevelTracedModule: __module.model_PART_0 */;
  %589 = adv_index(%588) /* C.graph: aten::index, jit._trace.TopLevelTracedModule: __module.model */ /* ty=Tensor[(8732), float32] */;
  %590 = topk(%589, k=400, dtype="int64") /* C.graph: aten::index, jit._trace.TopLevelTracedModule: __module.model_PART_0 */ /* ty=(Tensor[(400), float32], Tensor[(400), int64]) */;
  %591 = adv_index(%587) /* C.graph: aten::index, jit._trace.TopLevelTracedModule: __module.model */ /* ty=Tensor[(8732, 4), float32] */;
  %592 = %590.1 /* C.graph: aten::index, jit._trace.TopLevelTracedModule: __module.model_PART_1 */;
  %593 = (%591, %592) /* C.graph: aten::index, jit._trace.TopLevelTracedModule: __module.model_PART_2 */;
  %594 = %432.0 /* C.graph: aten::slice, jit._trace.TopLevelTracedModule: __module.model */;
  %595 = take(%594, 17 /* ty=int32 */, axis=1, mode="wrap") /* C.graph: aten::select, jit._trace.TopLevelTracedModule: __module.model */ /* ty=Tensor[(8732), float32] */;
  %596 = greater(%595, 0.01f /* ty=float32 */) /* C.graph: aten::gt, jit._trace.TopLevelTracedModule: __module.model */ /* ty=Tensor[(8732), bool] */;
  %597 = (%435, %596) /* C.graph: aten::index, jit._trace.TopLevelTracedModule: __module.model_PART_0 */;
  %598 = (%595, %596) /* C.graph: aten::index, jit._trace.TopLevelTracedModule: __module.model_PART_0 */;
  %599 = adv_index(%598) /* C.graph: aten::index, jit._trace.TopLevelTracedModule: __module.model */ /* ty=Tensor[(8732), float32] */;
  %600 = topk(%599, k=400, dtype="int64") /* C.graph: aten::index, jit._trace.TopLevelTracedModule: __module.model_PART_0 */ /* ty=(Tensor[(400), float32], Tensor[(400), int64]) */;
  %601 = adv_index(%597) /* C.graph: aten::index, jit._trace.TopLevelTracedModule: __module.model */ /* ty=Tensor[(8732, 4), float32] */;
  %602 = %600.1 /* C.graph: aten::index, jit._trace.TopLevelTracedModule: __module.model_PART_1 */;
  %603 = (%601, %602) /* C.graph: aten::index, jit._trace.TopLevelTracedModule: __module.model_PART_2 */;
  %604 = %432.0 /* C.graph: aten::slice, jit._trace.TopLevelTracedModule: __module.model */;
  %605 = take(%604, 18 /* ty=int32 */, axis=1, mode="wrap") /* C.graph: aten::select, jit._trace.TopLevelTracedModule: __module.model */ /* ty=Tensor[(8732), float32] */;
  %606 = greater(%605, 0.01f /* ty=float32 */) /* C.graph: aten::gt, jit._trace.TopLevelTracedModule: __module.model */ /* ty=Tensor[(8732), bool] */;
  %607 = (%435, %606) /* C.graph: aten::index, jit._trace.TopLevelTracedModule: __module.model_PART_0 */;
  %608 = (%605, %606) /* C.graph: aten::index, jit._trace.TopLevelTracedModule: __module.model_PART_0 */;
  %609 = adv_index(%608) /* C.graph: aten::index, jit._trace.TopLevelTracedModule: __module.model */ /* ty=Tensor[(8732), float32] */;
  %610 = topk(%609, k=400, dtype="int64") /* C.graph: aten::index, jit._trace.TopLevelTracedModule: __module.model_PART_0 */ /* ty=(Tensor[(400), float32], Tensor[(400), int64]) */;
  %611 = adv_index(%607) /* C.graph: aten::index, jit._trace.TopLevelTracedModule: __module.model */ /* ty=Tensor[(8732, 4), float32] */;
  %612 = %610.1 /* C.graph: aten::index, jit._trace.TopLevelTracedModule: __module.model_PART_1 */;
  %613 = (%611, %612) /* C.graph: aten::index, jit._trace.TopLevelTracedModule: __module.model_PART_2 */;
  %614 = %432.0 /* C.graph: aten::slice, jit._trace.TopLevelTracedModule: __module.model */;
  %615 = take(%614, 19 /* ty=int32 */, axis=1, mode="wrap") /* C.graph: aten::select, jit._trace.TopLevelTracedModule: __module.model */ /* ty=Tensor[(8732), float32] */;
  %616 = greater(%615, 0.01f /* ty=float32 */) /* C.graph: aten::gt, jit._trace.TopLevelTracedModule: __module.model */ /* ty=Tensor[(8732), bool] */;
  %617 = (%435, %616) /* C.graph: aten::index, jit._trace.TopLevelTracedModule: __module.model_PART_0 */;
  %618 = (%615, %616) /* C.graph: aten::index, jit._trace.TopLevelTracedModule: __module.model_PART_0 */;
  %619 = adv_index(%618) /* C.graph: aten::index, jit._trace.TopLevelTracedModule: __module.model */ /* ty=Tensor[(8732), float32] */;
  %620 = topk(%619, k=400, dtype="int64") /* C.graph: aten::index, jit._trace.TopLevelTracedModule: __module.model_PART_0 */ /* ty=(Tensor[(400), float32], Tensor[(400), int64]) */;
  %621 = adv_index(%617) /* C.graph: aten::index, jit._trace.TopLevelTracedModule: __module.model */ /* ty=Tensor[(8732, 4), float32] */;
  %622 = %620.1 /* C.graph: aten::index, jit._trace.TopLevelTracedModule: __module.model_PART_1 */;
  %623 = (%621, %622) /* C.graph: aten::index, jit._trace.TopLevelTracedModule: __module.model_PART_2 */;
  %624 = %432.0 /* C.graph: aten::slice, jit._trace.TopLevelTracedModule: __module.model */;
  %625 = take(%624, 20 /* ty=int32 */, axis=1, mode="wrap") /* C.graph: aten::select, jit._trace.TopLevelTracedModule: __module.model */ /* ty=Tensor[(8732), float32] */;
  %626 = greater(%625, 0.01f /* ty=float32 */) /* C.graph: aten::gt, jit._trace.TopLevelTracedModule: __module.model */ /* ty=Tensor[(8732), bool] */;
  %627 = (%435, %626) /* C.graph: aten::index, jit._trace.TopLevelTracedModule: __module.model_PART_0 */;
  %628 = (%625, %626) /* C.graph: aten::index, jit._trace.TopLevelTracedModule: __module.model_PART_0 */;
  %629 = adv_index(%628) /* C.graph: aten::index, jit._trace.TopLevelTracedModule: __module.model */ /* ty=Tensor[(8732), float32] */;
  %630 = topk(%629, k=400, dtype="int64") /* C.graph: aten::index, jit._trace.TopLevelTracedModule: __module.model_PART_0 */ /* ty=(Tensor[(400), float32], Tensor[(400), int64]) */;
  %631 = adv_index(%627) /* C.graph: aten::index, jit._trace.TopLevelTracedModule: __module.model */ /* ty=Tensor[(8732, 4), float32] */;
  %632 = %630.1 /* C.graph: aten::index, jit._trace.TopLevelTracedModule: __module.model_PART_1 */;
  %633 = (%631, %632) /* C.graph: aten::index, jit._trace.TopLevelTracedModule: __module.model_PART_2 */;
  %634 = %432.0 /* C.graph: aten::slice, jit._trace.TopLevelTracedModule: __module.model */;
  %635 = take(%634, 21 /* ty=int32 */, axis=1, mode="wrap") /* C.graph: aten::select, jit._trace.TopLevelTracedModule: __module.model */ /* ty=Tensor[(8732), float32] */;
  %636 = greater(%635, 0.01f /* ty=float32 */) /* C.graph: aten::gt, jit._trace.TopLevelTracedModule: __module.model */ /* ty=Tensor[(8732), bool] */;
  %637 = (%435, %636) /* C.graph: aten::index, jit._trace.TopLevelTracedModule: __module.model_PART_0 */;
  %638 = (%635, %636) /* C.graph: aten::index, jit._trace.TopLevelTracedModule: __module.model_PART_0 */;
  %639 = adv_index(%638) /* C.graph: aten::index, jit._trace.TopLevelTracedModule: __module.model */ /* ty=Tensor[(8732), float32] */;
  %640 = topk(%639, k=400, dtype="int64") /* C.graph: aten::index, jit._trace.TopLevelTracedModule: __module.model_PART_0 */ /* ty=(Tensor[(400), float32], Tensor[(400), int64]) */;
  %641 = adv_index(%637) /* C.graph: aten::index, jit._trace.TopLevelTracedModule: __module.model */ /* ty=Tensor[(8732, 4), float32] */;
  %642 = %640.1 /* C.graph: aten::index, jit._trace.TopLevelTracedModule: __module.model_PART_1 */;
  %643 = (%641, %642) /* C.graph: aten::index, jit._trace.TopLevelTracedModule: __module.model_PART_2 */;
  %644 = %432.0 /* C.graph: aten::slice, jit._trace.TopLevelTracedModule: __module.model */;
  %645 = take(%644, 22 /* ty=int32 */, axis=1, mode="wrap") /* C.graph: aten::select, jit._trace.TopLevelTracedModule: __module.model */ /* ty=Tensor[(8732), float32] */;
  %646 = greater(%645, 0.01f /* ty=float32 */) /* C.graph: aten::gt, jit._trace.TopLevelTracedModule: __module.model */ /* ty=Tensor[(8732), bool] */;
  %647 = (%435, %646) /* C.graph: aten::index, jit._trace.TopLevelTracedModule: __module.model_PART_0 */;
  %648 = (%645, %646) /* C.graph: aten::index, jit._trace.TopLevelTracedModule: __module.model_PART_0 */;
  %649 = adv_index(%648) /* C.graph: aten::index, jit._trace.TopLevelTracedModule: __module.model */ /* ty=Tensor[(8732), float32] */;
  %650 = topk(%649, k=400, dtype="int64") /* C.graph: aten::index, jit._trace.TopLevelTracedModule: __module.model_PART_0 */ /* ty=(Tensor[(400), float32], Tensor[(400), int64]) */;
  %651 = adv_index(%647) /* C.graph: aten::index, jit._trace.TopLevelTracedModule: __module.model */ /* ty=Tensor[(8732, 4), float32] */;
  %652 = %650.1 /* C.graph: aten::index, jit._trace.TopLevelTracedModule: __module.model_PART_1 */;
  %653 = (%651, %652) /* C.graph: aten::index, jit._trace.TopLevelTracedModule: __module.model_PART_2 */;
  %654 = %432.0 /* C.graph: aten::slice, jit._trace.TopLevelTracedModule: __module.model */;
  %655 = take(%654, 23 /* ty=int32 */, axis=1, mode="wrap") /* C.graph: aten::select, jit._trace.TopLevelTracedModule: __module.model */ /* ty=Tensor[(8732), float32] */;
  %656 = greater(%655, 0.01f /* ty=float32 */) /* C.graph: aten::gt, jit._trace.TopLevelTracedModule: __module.model */ /* ty=Tensor[(8732), bool] */;
  %657 = (%435, %656) /* C.graph: aten::index, jit._trace.TopLevelTracedModule: __module.model_PART_0 */;
  %658 = (%655, %656) /* C.graph: aten::index, jit._trace.TopLevelTracedModule: __module.model_PART_0 */;
  %659 = adv_index(%658) /* C.graph: aten::index, jit._trace.TopLevelTracedModule: __module.model */ /* ty=Tensor[(8732), float32] */;
  %660 = topk(%659, k=400, dtype="int64") /* C.graph: aten::index, jit._trace.TopLevelTracedModule: __module.model_PART_0 */ /* ty=(Tensor[(400), float32], Tensor[(400), int64]) */;
  %661 = adv_index(%657) /* C.graph: aten::index, jit._trace.TopLevelTracedModule: __module.model */ /* ty=Tensor[(8732, 4), float32] */;
  %662 = %660.1 /* C.graph: aten::index, jit._trace.TopLevelTracedModule: __module.model_PART_1 */;
  %663 = (%661, %662) /* C.graph: aten::index, jit._trace.TopLevelTracedModule: __module.model_PART_2 */;
  %664 = %432.0 /* C.graph: aten::slice, jit._trace.TopLevelTracedModule: __module.model */;
  %665 = take(%664, 24 /* ty=int32 */, axis=1, mode="wrap") /* C.graph: aten::select, jit._trace.TopLevelTracedModule: __module.model */ /* ty=Tensor[(8732), float32] */;
  %666 = greater(%665, 0.01f /* ty=float32 */) /* C.graph: aten::gt, jit._trace.TopLevelTracedModule: __module.model */ /* ty=Tensor[(8732), bool] */;
  %667 = (%435, %666) /* C.graph: aten::index, jit._trace.TopLevelTracedModule: __module.model_PART_0 */;
  %668 = (%665, %666) /* C.graph: aten::index, jit._trace.TopLevelTracedModule: __module.model_PART_0 */;
  %669 = adv_index(%668) /* C.graph: aten::index, jit._trace.TopLevelTracedModule: __module.model */ /* ty=Tensor[(8732), float32] */;
  %670 = topk(%669, k=400, dtype="int64") /* C.graph: aten::index, jit._trace.TopLevelTracedModule: __module.model_PART_0 */ /* ty=(Tensor[(400), float32], Tensor[(400), int64]) */;
  %671 = adv_index(%667) /* C.graph: aten::index, jit._trace.TopLevelTracedModule: __module.model */ /* ty=Tensor[(8732, 4), float32] */;
  %672 = %670.1 /* C.graph: aten::index, jit._trace.TopLevelTracedModule: __module.model_PART_1 */;
  %673 = (%671, %672) /* C.graph: aten::index, jit._trace.TopLevelTracedModule: __module.model_PART_2 */;
  %674 = %432.0 /* C.graph: aten::slice, jit._trace.TopLevelTracedModule: __module.model */;
  %675 = take(%674, 25 /* ty=int32 */, axis=1, mode="wrap") /* C.graph: aten::select, jit._trace.TopLevelTracedModule: __module.model */ /* ty=Tensor[(8732), float32] */;
  %676 = greater(%675, 0.01f /* ty=float32 */) /* C.graph: aten::gt, jit._trace.TopLevelTracedModule: __module.model */ /* ty=Tensor[(8732), bool] */;
  %677 = (%435, %676) /* C.graph: aten::index, jit._trace.TopLevelTracedModule: __module.model_PART_0 */;
  %678 = (%675, %676) /* C.graph: aten::index, jit._trace.TopLevelTracedModule: __module.model_PART_0 */;
  %679 = adv_index(%678) /* C.graph: aten::index, jit._trace.TopLevelTracedModule: __module.model */ /* ty=Tensor[(8732), float32] */;
  %680 = topk(%679, k=400, dtype="int64") /* C.graph: aten::index, jit._trace.TopLevelTracedModule: __module.model_PART_0 */ /* ty=(Tensor[(400), float32], Tensor[(400), int64]) */;
  %681 = adv_index(%677) /* C.graph: aten::index, jit._trace.TopLevelTracedModule: __module.model */ /* ty=Tensor[(8732, 4), float32] */;
  %682 = %680.1 /* C.graph: aten::index, jit._trace.TopLevelTracedModule: __module.model_PART_1 */;
  %683 = (%681, %682) /* C.graph: aten::index, jit._trace.TopLevelTracedModule: __module.model_PART_2 */;
  %684 = %432.0 /* C.graph: aten::slice, jit._trace.TopLevelTracedModule: __module.model */;
  %685 = take(%684, 26 /* ty=int32 */, axis=1, mode="wrap") /* C.graph: aten::select, jit._trace.TopLevelTracedModule: __module.model */ /* ty=Tensor[(8732), float32] */;
  %686 = greater(%685, 0.01f /* ty=float32 */) /* C.graph: aten::gt, jit._trace.TopLevelTracedModule: __module.model */ /* ty=Tensor[(8732), bool] */;
  %687 = (%435, %686) /* C.graph: aten::index, jit._trace.TopLevelTracedModule: __module.model_PART_0 */;
  %688 = (%685, %686) /* C.graph: aten::index, jit._trace.TopLevelTracedModule: __module.model_PART_0 */;
  %689 = adv_index(%688) /* C.graph: aten::index, jit._trace.TopLevelTracedModule: __module.model */ /* ty=Tensor[(8732), float32] */;
  %690 = topk(%689, k=400, dtype="int64") /* C.graph: aten::index, jit._trace.TopLevelTracedModule: __module.model_PART_0 */ /* ty=(Tensor[(400), float32], Tensor[(400), int64]) */;
  %691 = adv_index(%687) /* C.graph: aten::index, jit._trace.TopLevelTracedModule: __module.model */ /* ty=Tensor[(8732, 4), float32] */;
  %692 = %690.1 /* C.graph: aten::index, jit._trace.TopLevelTracedModule: __module.model_PART_1 */;
  %693 = (%691, %692) /* C.graph: aten::index, jit._trace.TopLevelTracedModule: __module.model_PART_2 */;
  %694 = %432.0 /* C.graph: aten::slice, jit._trace.TopLevelTracedModule: __module.model */;
  %695 = take(%694, 27 /* ty=int32 */, axis=1, mode="wrap") /* C.graph: aten::select, jit._trace.TopLevelTracedModule: __module.model */ /* ty=Tensor[(8732), float32] */;
  %696 = greater(%695, 0.01f /* ty=float32 */) /* C.graph: aten::gt, jit._trace.TopLevelTracedModule: __module.model */ /* ty=Tensor[(8732), bool] */;
  %697 = (%435, %696) /* C.graph: aten::index, jit._trace.TopLevelTracedModule: __module.model_PART_0 */;
  %698 = (%695, %696) /* C.graph: aten::index, jit._trace.TopLevelTracedModule: __module.model_PART_0 */;
  %699 = adv_index(%698) /* C.graph: aten::index, jit._trace.TopLevelTracedModule: __module.model */ /* ty=Tensor[(8732), float32] */;
  %700 = topk(%699, k=400, dtype="int64") /* C.graph: aten::index, jit._trace.TopLevelTracedModule: __module.model_PART_0 */ /* ty=(Tensor[(400), float32], Tensor[(400), int64]) */;
  %701 = adv_index(%697) /* C.graph: aten::index, jit._trace.TopLevelTracedModule: __module.model */ /* ty=Tensor[(8732, 4), float32] */;
  %702 = %700.1 /* C.graph: aten::index, jit._trace.TopLevelTracedModule: __module.model_PART_1 */;
  %703 = (%701, %702) /* C.graph: aten::index, jit._trace.TopLevelTracedModule: __module.model_PART_2 */;
  %704 = %432.0 /* C.graph: aten::slice, jit._trace.TopLevelTracedModule: __module.model */;
  %705 = take(%704, 28 /* ty=int32 */, axis=1, mode="wrap") /* C.graph: aten::select, jit._trace.TopLevelTracedModule: __module.model */ /* ty=Tensor[(8732), float32] */;
  %706 = greater(%705, 0.01f /* ty=float32 */) /* C.graph: aten::gt, jit._trace.TopLevelTracedModule: __module.model */ /* ty=Tensor[(8732), bool] */;
  %707 = (%435, %706) /* C.graph: aten::index, jit._trace.TopLevelTracedModule: __module.model_PART_0 */;
  %708 = (%705, %706) /* C.graph: aten::index, jit._trace.TopLevelTracedModule: __module.model_PART_0 */;
  %709 = adv_index(%708) /* C.graph: aten::index, jit._trace.TopLevelTracedModule: __module.model */ /* ty=Tensor[(8732), float32] */;
  %710 = topk(%709, k=400, dtype="int64") /* C.graph: aten::index, jit._trace.TopLevelTracedModule: __module.model_PART_0 */ /* ty=(Tensor[(400), float32], Tensor[(400), int64]) */;
  %711 = adv_index(%707) /* C.graph: aten::index, jit._trace.TopLevelTracedModule: __module.model */ /* ty=Tensor[(8732, 4), float32] */;
  %712 = %710.1 /* C.graph: aten::index, jit._trace.TopLevelTracedModule: __module.model_PART_1 */;
  %713 = (%711, %712) /* C.graph: aten::index, jit._trace.TopLevelTracedModule: __module.model_PART_2 */;
  %714 = %432.0 /* C.graph: aten::slice, jit._trace.TopLevelTracedModule: __module.model */;
  %715 = take(%714, 29 /* ty=int32 */, axis=1, mode="wrap") /* C.graph: aten::select, jit._trace.TopLevelTracedModule: __module.model */ /* ty=Tensor[(8732), float32] */;
  %716 = greater(%715, 0.01f /* ty=float32 */) /* C.graph: aten::gt, jit._trace.TopLevelTracedModule: __module.model */ /* ty=Tensor[(8732), bool] */;
  %717 = (%435, %716) /* C.graph: aten::index, jit._trace.TopLevelTracedModule: __module.model_PART_0 */;
  %718 = (%715, %716) /* C.graph: aten::index, jit._trace.TopLevelTracedModule: __module.model_PART_0 */;
  %719 = adv_index(%718) /* C.graph: aten::index, jit._trace.TopLevelTracedModule: __module.model */ /* ty=Tensor[(8732), float32] */;
  %720 = topk(%719, k=400, dtype="int64") /* C.graph: aten::index, jit._trace.TopLevelTracedModule: __module.model_PART_0 */ /* ty=(Tensor[(400), float32], Tensor[(400), int64]) */;
  %721 = adv_index(%717) /* C.graph: aten::index, jit._trace.TopLevelTracedModule: __module.model */ /* ty=Tensor[(8732, 4), float32] */;
  %722 = %720.1 /* C.graph: aten::index, jit._trace.TopLevelTracedModule: __module.model_PART_1 */;
  %723 = (%721, %722) /* C.graph: aten::index, jit._trace.TopLevelTracedModule: __module.model_PART_2 */;
  %724 = %432.0 /* C.graph: aten::slice, jit._trace.TopLevelTracedModule: __module.model */;
  %725 = take(%724, 30 /* ty=int32 */, axis=1, mode="wrap") /* C.graph: aten::select, jit._trace.TopLevelTracedModule: __module.model */ /* ty=Tensor[(8732), float32] */;
  %726 = greater(%725, 0.01f /* ty=float32 */) /* C.graph: aten::gt, jit._trace.TopLevelTracedModule: __module.model */ /* ty=Tensor[(8732), bool] */;
  %727 = (%435, %726) /* C.graph: aten::index, jit._trace.TopLevelTracedModule: __module.model_PART_0 */;
  %728 = (%725, %726) /* C.graph: aten::index, jit._trace.TopLevelTracedModule: __module.model_PART_0 */;
  %729 = adv_index(%728) /* C.graph: aten::index, jit._trace.TopLevelTracedModule: __module.model */ /* ty=Tensor[(8732), float32] */;
  %730 = topk(%729, k=400, dtype="int64") /* C.graph: aten::index, jit._trace.TopLevelTracedModule: __module.model_PART_0 */ /* ty=(Tensor[(400), float32], Tensor[(400), int64]) */;
  %731 = adv_index(%727) /* C.graph: aten::index, jit._trace.TopLevelTracedModule: __module.model */ /* ty=Tensor[(8732, 4), float32] */;
  %732 = %730.1 /* C.graph: aten::index, jit._trace.TopLevelTracedModule: __module.model_PART_1 */;
  %733 = (%731, %732) /* C.graph: aten::index, jit._trace.TopLevelTracedModule: __module.model_PART_2 */;
  %734 = %432.0 /* C.graph: aten::slice, jit._trace.TopLevelTracedModule: __module.model */;
  %735 = take(%734, 31 /* ty=int32 */, axis=1, mode="wrap") /* C.graph: aten::select, jit._trace.TopLevelTracedModule: __module.model */ /* ty=Tensor[(8732), float32] */;
  %736 = greater(%735, 0.01f /* ty=float32 */) /* C.graph: aten::gt, jit._trace.TopLevelTracedModule: __module.model */ /* ty=Tensor[(8732), bool] */;
  %737 = (%435, %736) /* C.graph: aten::index, jit._trace.TopLevelTracedModule: __module.model_PART_0 */;
  %738 = (%735, %736) /* C.graph: aten::index, jit._trace.TopLevelTracedModule: __module.model_PART_0 */;
  %739 = adv_index(%738) /* C.graph: aten::index, jit._trace.TopLevelTracedModule: __module.model */ /* ty=Tensor[(8732), float32] */;
  %740 = topk(%739, k=400, dtype="int64") /* C.graph: aten::index, jit._trace.TopLevelTracedModule: __module.model_PART_0 */ /* ty=(Tensor[(400), float32], Tensor[(400), int64]) */;
  %741 = adv_index(%737) /* C.graph: aten::index, jit._trace.TopLevelTracedModule: __module.model */ /* ty=Tensor[(8732, 4), float32] */;
  %742 = %740.1 /* C.graph: aten::index, jit._trace.TopLevelTracedModule: __module.model_PART_1 */;
  %743 = (%741, %742) /* C.graph: aten::index, jit._trace.TopLevelTracedModule: __module.model_PART_2 */;
  %744 = %432.0 /* C.graph: aten::slice, jit._trace.TopLevelTracedModule: __module.model */;
  %745 = take(%744, 32 /* ty=int32 */, axis=1, mode="wrap") /* C.graph: aten::select, jit._trace.TopLevelTracedModule: __module.model */ /* ty=Tensor[(8732), float32] */;
  %746 = greater(%745, 0.01f /* ty=float32 */) /* C.graph: aten::gt, jit._trace.TopLevelTracedModule: __module.model */ /* ty=Tensor[(8732), bool] */;
  %747 = (%435, %746) /* C.graph: aten::index, jit._trace.TopLevelTracedModule: __module.model_PART_0 */;
  %748 = (%745, %746) /* C.graph: aten::index, jit._trace.TopLevelTracedModule: __module.model_PART_0 */;
  %749 = adv_index(%748) /* C.graph: aten::index, jit._trace.TopLevelTracedModule: __module.model */ /* ty=Tensor[(8732), float32] */;
  %750 = topk(%749, k=400, dtype="int64") /* C.graph: aten::index, jit._trace.TopLevelTracedModule: __module.model_PART_0 */ /* ty=(Tensor[(400), float32], Tensor[(400), int64]) */;
  %751 = adv_index(%747) /* C.graph: aten::index, jit._trace.TopLevelTracedModule: __module.model */ /* ty=Tensor[(8732, 4), float32] */;
  %752 = %750.1 /* C.graph: aten::index, jit._trace.TopLevelTracedModule: __module.model_PART_1 */;
  %753 = (%751, %752) /* C.graph: aten::index, jit._trace.TopLevelTracedModule: __module.model_PART_2 */;
  %754 = %432.0 /* C.graph: aten::slice, jit._trace.TopLevelTracedModule: __module.model */;
  %755 = take(%754, 33 /* ty=int32 */, axis=1, mode="wrap") /* C.graph: aten::select, jit._trace.TopLevelTracedModule: __module.model */ /* ty=Tensor[(8732), float32] */;
  %756 = greater(%755, 0.01f /* ty=float32 */) /* C.graph: aten::gt, jit._trace.TopLevelTracedModule: __module.model */ /* ty=Tensor[(8732), bool] */;
  %757 = (%435, %756) /* C.graph: aten::index, jit._trace.TopLevelTracedModule: __module.model_PART_0 */;
  %758 = (%755, %756) /* C.graph: aten::index, jit._trace.TopLevelTracedModule: __module.model_PART_0 */;
  %759 = adv_index(%758) /* C.graph: aten::index, jit._trace.TopLevelTracedModule: __module.model */ /* ty=Tensor[(8732), float32] */;
  %760 = topk(%759, k=400, dtype="int64") /* C.graph: aten::index, jit._trace.TopLevelTracedModule: __module.model_PART_0 */ /* ty=(Tensor[(400), float32], Tensor[(400), int64]) */;
  %761 = adv_index(%757) /* C.graph: aten::index, jit._trace.TopLevelTracedModule: __module.model */ /* ty=Tensor[(8732, 4), float32] */;
  %762 = %760.1 /* C.graph: aten::index, jit._trace.TopLevelTracedModule: __module.model_PART_1 */;
  %763 = (%761, %762) /* C.graph: aten::index, jit._trace.TopLevelTracedModule: __module.model_PART_2 */;
  %764 = %432.0 /* C.graph: aten::slice, jit._trace.TopLevelTracedModule: __module.model */;
  %765 = take(%764, 34 /* ty=int32 */, axis=1, mode="wrap") /* C.graph: aten::select, jit._trace.TopLevelTracedModule: __module.model */ /* ty=Tensor[(8732), float32] */;
  %766 = greater(%765, 0.01f /* ty=float32 */) /* C.graph: aten::gt, jit._trace.TopLevelTracedModule: __module.model */ /* ty=Tensor[(8732), bool] */;
  %767 = (%435, %766) /* C.graph: aten::index, jit._trace.TopLevelTracedModule: __module.model_PART_0 */;
  %768 = (%765, %766) /* C.graph: aten::index, jit._trace.TopLevelTracedModule: __module.model_PART_0 */;
  %769 = adv_index(%768) /* C.graph: aten::index, jit._trace.TopLevelTracedModule: __module.model */ /* ty=Tensor[(8732), float32] */;
  %770 = topk(%769, k=400, dtype="int64") /* C.graph: aten::index, jit._trace.TopLevelTracedModule: __module.model_PART_0 */ /* ty=(Tensor[(400), float32], Tensor[(400), int64]) */;
  %771 = adv_index(%767) /* C.graph: aten::index, jit._trace.TopLevelTracedModule: __module.model */ /* ty=Tensor[(8732, 4), float32] */;
  %772 = %770.1 /* C.graph: aten::index, jit._trace.TopLevelTracedModule: __module.model_PART_1 */;
  %773 = (%771, %772) /* C.graph: aten::index, jit._trace.TopLevelTracedModule: __module.model_PART_2 */;
  %774 = %432.0 /* C.graph: aten::slice, jit._trace.TopLevelTracedModule: __module.model */;
  %775 = take(%774, 35 /* ty=int32 */, axis=1, mode="wrap") /* C.graph: aten::select, jit._trace.TopLevelTracedModule: __module.model */ /* ty=Tensor[(8732), float32] */;
  %776 = greater(%775, 0.01f /* ty=float32 */) /* C.graph: aten::gt, jit._trace.TopLevelTracedModule: __module.model */ /* ty=Tensor[(8732), bool] */;
  %777 = (%435, %776) /* C.graph: aten::index, jit._trace.TopLevelTracedModule: __module.model_PART_0 */;
  %778 = (%775, %776) /* C.graph: aten::index, jit._trace.TopLevelTracedModule: __module.model_PART_0 */;
  %779 = adv_index(%778) /* C.graph: aten::index, jit._trace.TopLevelTracedModule: __module.model */ /* ty=Tensor[(8732), float32] */;
  %780 = topk(%779, k=400, dtype="int64") /* C.graph: aten::index, jit._trace.TopLevelTracedModule: __module.model_PART_0 */ /* ty=(Tensor[(400), float32], Tensor[(400), int64]) */;
  %781 = adv_index(%777) /* C.graph: aten::index, jit._trace.TopLevelTracedModule: __module.model */ /* ty=Tensor[(8732, 4), float32] */;
  %782 = %780.1 /* C.graph: aten::index, jit._trace.TopLevelTracedModule: __module.model_PART_1 */;
  %783 = (%781, %782) /* C.graph: aten::index, jit._trace.TopLevelTracedModule: __module.model_PART_2 */;
  %784 = %432.0 /* C.graph: aten::slice, jit._trace.TopLevelTracedModule: __module.model */;
  %785 = take(%784, 36 /* ty=int32 */, axis=1, mode="wrap") /* C.graph: aten::select, jit._trace.TopLevelTracedModule: __module.model */ /* ty=Tensor[(8732), float32] */;
  %786 = greater(%785, 0.01f /* ty=float32 */) /* C.graph: aten::gt, jit._trace.TopLevelTracedModule: __module.model */ /* ty=Tensor[(8732), bool] */;
  %787 = (%435, %786) /* C.graph: aten::index, jit._trace.TopLevelTracedModule: __module.model_PART_0 */;
  %788 = (%785, %786) /* C.graph: aten::index, jit._trace.TopLevelTracedModule: __module.model_PART_0 */;
  %789 = adv_index(%788) /* C.graph: aten::index, jit._trace.TopLevelTracedModule: __module.model */ /* ty=Tensor[(8732), float32] */;
  %790 = topk(%789, k=400, dtype="int64") /* C.graph: aten::index, jit._trace.TopLevelTracedModule: __module.model_PART_0 */ /* ty=(Tensor[(400), float32], Tensor[(400), int64]) */;
  %791 = adv_index(%787) /* C.graph: aten::index, jit._trace.TopLevelTracedModule: __module.model */ /* ty=Tensor[(8732, 4), float32] */;
  %792 = %790.1 /* C.graph: aten::index, jit._trace.TopLevelTracedModule: __module.model_PART_1 */;
  %793 = (%791, %792) /* C.graph: aten::index, jit._trace.TopLevelTracedModule: __module.model_PART_2 */;
  %794 = %432.0 /* C.graph: aten::slice, jit._trace.TopLevelTracedModule: __module.model */;
  %795 = take(%794, 37 /* ty=int32 */, axis=1, mode="wrap") /* C.graph: aten::select, jit._trace.TopLevelTracedModule: __module.model */ /* ty=Tensor[(8732), float32] */;
  %796 = greater(%795, 0.01f /* ty=float32 */) /* C.graph: aten::gt, jit._trace.TopLevelTracedModule: __module.model */ /* ty=Tensor[(8732), bool] */;
  %797 = (%435, %796) /* C.graph: aten::index, jit._trace.TopLevelTracedModule: __module.model_PART_0 */;
  %798 = (%795, %796) /* C.graph: aten::index, jit._trace.TopLevelTracedModule: __module.model_PART_0 */;
  %799 = adv_index(%798) /* C.graph: aten::index, jit._trace.TopLevelTracedModule: __module.model */ /* ty=Tensor[(8732), float32] */;
  %800 = topk(%799, k=400, dtype="int64") /* C.graph: aten::index, jit._trace.TopLevelTracedModule: __module.model_PART_0 */ /* ty=(Tensor[(400), float32], Tensor[(400), int64]) */;
  %801 = adv_index(%797) /* C.graph: aten::index, jit._trace.TopLevelTracedModule: __module.model */ /* ty=Tensor[(8732, 4), float32] */;
  %802 = %800.1 /* C.graph: aten::index, jit._trace.TopLevelTracedModule: __module.model_PART_1 */;
  %803 = (%801, %802) /* C.graph: aten::index, jit._trace.TopLevelTracedModule: __module.model_PART_2 */;
  %804 = %432.0 /* C.graph: aten::slice, jit._trace.TopLevelTracedModule: __module.model */;
  %805 = take(%804, 38 /* ty=int32 */, axis=1, mode="wrap") /* C.graph: aten::select, jit._trace.TopLevelTracedModule: __module.model */ /* ty=Tensor[(8732), float32] */;
  %806 = greater(%805, 0.01f /* ty=float32 */) /* C.graph: aten::gt, jit._trace.TopLevelTracedModule: __module.model */ /* ty=Tensor[(8732), bool] */;
  %807 = (%435, %806) /* C.graph: aten::index, jit._trace.TopLevelTracedModule: __module.model_PART_0 */;
  %808 = (%805, %806) /* C.graph: aten::index, jit._trace.TopLevelTracedModule: __module.model_PART_0 */;
  %809 = adv_index(%808) /* C.graph: aten::index, jit._trace.TopLevelTracedModule: __module.model */ /* ty=Tensor[(8732), float32] */;
  %810 = topk(%809, k=400, dtype="int64") /* C.graph: aten::index, jit._trace.TopLevelTracedModule: __module.model_PART_0 */ /* ty=(Tensor[(400), float32], Tensor[(400), int64]) */;
  %811 = adv_index(%807) /* C.graph: aten::index, jit._trace.TopLevelTracedModule: __module.model */ /* ty=Tensor[(8732, 4), float32] */;
  %812 = %810.1 /* C.graph: aten::index, jit._trace.TopLevelTracedModule: __module.model_PART_1 */;
  %813 = (%811, %812) /* C.graph: aten::index, jit._trace.TopLevelTracedModule: __module.model_PART_2 */;
  %814 = %432.0 /* C.graph: aten::slice, jit._trace.TopLevelTracedModule: __module.model */;
  %815 = take(%814, 39 /* ty=int32 */, axis=1, mode="wrap") /* C.graph: aten::select, jit._trace.TopLevelTracedModule: __module.model */ /* ty=Tensor[(8732), float32] */;
  %816 = greater(%815, 0.01f /* ty=float32 */) /* C.graph: aten::gt, jit._trace.TopLevelTracedModule: __module.model */ /* ty=Tensor[(8732), bool] */;
  %817 = (%435, %816) /* C.graph: aten::index, jit._trace.TopLevelTracedModule: __module.model_PART_0 */;
  %818 = (%815, %816) /* C.graph: aten::index, jit._trace.TopLevelTracedModule: __module.model_PART_0 */;
…
    %1004 = topk(%709, k=400, dtype="int64") /* C.graph: aten::cat, jit._trace.TopLevelTracedModule: __module.model_PART_54 */ /* ty=(Tensor[(400), float32], Tensor[(400), int64]) */;
    %1005 = topk(%719, k=400, dtype="int64") /* C.graph: aten::cat, jit._trace.TopLevelTracedModule: __module.model_PART_56 */ /* ty=(Tensor[(400), float32], Tensor[(400), int64]) */;
    %1006 = topk(%729, k=400, dtype="int64") /* C.graph: aten::cat, jit._trace.TopLevelTracedModule: __module.model_PART_58 */ /* ty=(Tensor[(400), float32], Tensor[(400), int64]) */;
    %1007 = topk(%739, k=400, dtype="int64") /* C.graph: aten::cat, jit._trace.TopLevelTracedModule: __module.model_PART_60 */ /* ty=(Tensor[(400), float32], Tensor[(400), int64]) */;
    %1008 = topk(%749, k=400, dtype="int64") /* C.graph: aten::cat, jit._trace.TopLevelTracedModule: __module.model_PART_62 */ /* ty=(Tensor[(400), float32], Tensor[(400), int64]) */;
    %1009 = topk(%759, k=400, dtype="int64") /* C.graph: aten::cat, jit._trace.TopLevelTracedModule: __module.model_PART_64 */ /* ty=(Tensor[(400), float32], Tensor[(400), int64]) */;
    %1010 = topk(%769, k=400, dtype="int64") /* C.graph: aten::cat, jit._trace.TopLevelTracedModule: __module.model_PART_66 */ /* ty=(Tensor[(400), float32], Tensor[(400), int64]) */;
    %1011 = topk(%779, k=400, dtype="int64") /* C.graph: aten::cat, jit._trace.TopLevelTracedModule: __module.model_PART_68 */ /* ty=(Tensor[(400), float32], Tensor[(400), int64]) */;
    %1012 = topk(%789, k=400, dtype="int64") /* C.graph: aten::cat, jit._trace.TopLevelTracedModule: __module.model_PART_70 */ /* ty=(Tensor[(400), float32], Tensor[(400), int64]) */;
    %1013 = topk(%799, k=400, dtype="int64") /* C.graph: aten::cat, jit._trace.TopLevelTracedModule: __module.model_PART_72 */ /* ty=(Tensor[(400), float32], Tensor[(400), int64]) */;
    %1014 = topk(%809, k=400, dtype="int64") /* C.graph: aten::cat, jit._trace.TopLevelTracedModule: __module.model_PART_74 */ /* ty=(Tensor[(400), float32], Tensor[(400), int64]) */;
    %1015 = topk(%819, k=400, dtype="int64") /* C.graph: aten::cat, jit._trace.TopLevelTracedModule: __module.model_PART_76 */ /* ty=(Tensor[(400), float32], Tensor[(400), int64]) */;
    %1016 = topk(%829, k=400, dtype="int64") /* C.graph: aten::cat, jit._trace.TopLevelTracedModule: __module.model_PART_78 */ /* ty=(Tensor[(400), float32], Tensor[(400), int64]) */;
    %1017 = topk(%839, k=400, dtype="int64") /* C.graph: aten::cat, jit._trace.TopLevelTracedModule: __module.model_PART_80 */ /* ty=(Tensor[(400), float32], Tensor[(400), int64]) */;
    %1018 = topk(%849, k=400, dtype="int64") /* C.graph: aten::cat, jit._trace.TopLevelTracedModule: __module.model_PART_82 */ /* ty=(Tensor[(400), float32], Tensor[(400), int64]) */;
    %1019 = topk(%859, k=400, dtype="int64") /* C.graph: aten::cat, jit._trace.TopLevelTracedModule: __module.model_PART_84 */ /* ty=(Tensor[(400), float32], Tensor[(400), int64]) */;
    %1020 = topk(%869, k=400, dtype="int64") /* C.graph: aten::cat, jit._trace.TopLevelTracedModule: __module.model_PART_86 */ /* ty=(Tensor[(400), float32], Tensor[(400), int64]) */;
    %1021 = topk(%879, k=400, dtype="int64") /* C.graph: aten::cat, jit._trace.TopLevelTracedModule: __module.model_PART_88 */ /* ty=(Tensor[(400), float32], Tensor[(400), int64]) */;
    %1022 = topk(%889, k=400, dtype="int64") /* C.graph: aten::cat, jit._trace.TopLevelTracedModule: __module.model_PART_90 */ /* ty=(Tensor[(400), float32], Tensor[(400), int64]) */;
    %1023 = topk(%899, k=400, dtype="int64") /* C.graph: aten::cat, jit._trace.TopLevelTracedModule: __module.model_PART_92 */ /* ty=(Tensor[(400), float32], Tensor[(400), int64]) */;
    %1024 = topk(%909, k=400, dtype="int64") /* C.graph: aten::cat, jit._trace.TopLevelTracedModule: __module.model_PART_94 */ /* ty=(Tensor[(400), float32], Tensor[(400), int64]) */;
    %1025 = topk(%919, k=400, dtype="int64") /* C.graph: aten::cat, jit._trace.TopLevelTracedModule: __module.model_PART_96 */ /* ty=(Tensor[(400), float32], Tensor[(400), int64]) */;
    %1026 = %977.0 /* C.graph: aten::cat, jit._trace.TopLevelTracedModule: __module.model_PART_1 */;
    %1027 = %978.0 /* C.graph: aten::cat, jit._trace.TopLevelTracedModule: __module.model_PART_3 */;
    %1028 = %979.0 /* C.graph: aten::cat, jit._trace.TopLevelTracedModule: __module.model_PART_5 */;
    %1029 = %980.0 /* C.graph: aten::cat, jit._trace.TopLevelTracedModule: __module.model_PART_7 */;
    %1030 = %981.0 /* C.graph: aten::cat, jit._trace.TopLevelTracedModule: __module.model_PART_9 */;
    %1031 = %982.0 /* C.graph: aten::cat, jit._trace.TopLevelTracedModule: __module.model_PART_11 */;
    %1032 = %983.0 /* C.graph: aten::cat, jit._trace.TopLevelTracedModule: __module.model_PART_13 */;
    %1033 = %984.0 /* C.graph: aten::cat, jit._trace.TopLevelTracedModule: __module.model_PART_15 */;
    %1034 = %985.0 /* C.graph: aten::cat, jit._trace.TopLevelTracedModule: __module.model_PART_17 */;
    %1035 = %986.0 /* C.graph: aten::cat, jit._trace.TopLevelTracedModule: __module.model_PART_19 */;
    %1036 = %987.0 /* C.graph: aten::cat, jit._trace.TopLevelTracedModule: __module.model_PART_21 */;
    %1037 = %988.0 /* C.graph: aten::cat, jit._trace.TopLevelTracedModule: __module.model_PART_23 */;
    %1038 = %989.0 /* C.graph: aten::cat, jit._trace.TopLevelTracedModule: __module.model_PART_25 */;
    %1039 = %990.0 /* C.graph: aten::cat, jit._trace.TopLevelTracedModule: __module.model_PART_27 */;
    %1040 = %991.0 /* C.graph: aten::cat, jit._trace.TopLevelTracedModule: __module.model_PART_29 */;
    %1041 = %992.0 /* C.graph: aten::cat, jit._trace.TopLevelTracedModule: __module.model_PART_31 */;
    %1042 = %993.0 /* C.graph: aten::cat, jit._trace.TopLevelTracedModule: __module.model_PART_33 */;
    %1043 = %994.0 /* C.graph: aten::cat, jit._trace.TopLevelTracedModule: __module.model_PART_35 */;
    %1044 = %995.0 /* C.graph: aten::cat, jit._trace.TopLevelTracedModule: __module.model_PART_37 */;
    %1045 = %996.0 /* C.graph: aten::cat, jit._trace.TopLevelTracedModule: __module.model_PART_39 */;
    %1046 = %997.0 /* C.graph: aten::cat, jit._trace.TopLevelTracedModule: __module.model_PART_41 */;
    %1047 = %998.0 /* C.graph: aten::cat, jit._trace.TopLevelTracedModule: __module.model_PART_43 */;
    %1048 = %999.0 /* C.graph: aten::cat, jit._trace.TopLevelTracedModule: __module.model_PART_45 */;
    %1049 = %1000.0 /* C.graph: aten::cat, jit._trace.TopLevelTracedModule: __module.model_PART_47 */;
    %1050 = %1001.0 /* C.graph: aten::cat, jit._trace.TopLevelTracedModule: __module.model_PART_49 */;
    %1051 = %1002.0 /* C.graph: aten::cat, jit._trace.TopLevelTracedModule: __module.model_PART_51 */;
    %1052 = %1003.0 /* C.graph: aten::cat, jit._trace.TopLevelTracedModule: __module.model_PART_53 */;
    %1053 = %1004.0 /* C.graph: aten::cat, jit._trace.TopLevelTracedModule: __module.model_PART_55 */;
    %1054 = %1005.0 /* C.graph: aten::cat, jit._trace.TopLevelTracedModule: __module.model_PART_57 */;
    %1055 = %1006.0 /* C.graph: aten::cat, jit._trace.TopLevelTracedModule: __module.model_PART_59 */;
    %1056 = %1007.0 /* C.graph: aten::cat, jit._trace.TopLevelTracedModule: __module.model_PART_61 */;
    %1057 = %1008.0 /* C.graph: aten::cat, jit._trace.TopLevelTracedModule: __module.model_PART_63 */;
    %1058 = %1009.0 /* C.graph: aten::cat, jit._trace.TopLevelTracedModule: __module.model_PART_65 */;
    %1059 = %1010.0 /* C.graph: aten::cat, jit._trace.TopLevelTracedModule: __module.model_PART_67 */;
    %1060 = %1011.0 /* C.graph: aten::cat, jit._trace.TopLevelTracedModule: __module.model_PART_69 */;
    %1061 = %1012.0 /* C.graph: aten::cat, jit._trace.TopLevelTracedModule: __module.model_PART_71 */;
    %1062 = %1013.0 /* C.graph: aten::cat, jit._trace.TopLevelTracedModule: __module.model_PART_73 */;
    %1063 = %1014.0 /* C.graph: aten::cat, jit._trace.TopLevelTracedModule: __module.model_PART_75 */;
    %1064 = %1015.0 /* C.graph: aten::cat, jit._trace.TopLevelTracedModule: __module.model_PART_77 */;
    %1065 = %1016.0 /* C.graph: aten::cat, jit._trace.TopLevelTracedModule: __module.model_PART_79 */;
    %1066 = %1017.0 /* C.graph: aten::cat, jit._trace.TopLevelTracedModule: __module.model_PART_81 */;
    %1067 = %1018.0 /* C.graph: aten::cat, jit._trace.TopLevelTracedModule: __module.model_PART_83 */;
    %1068 = %1019.0 /* C.graph: aten::cat, jit._trace.TopLevelTracedModule: __module.model_PART_85 */;
    %1069 = %1020.0 /* C.graph: aten::cat, jit._trace.TopLevelTracedModule: __module.model_PART_87 */;
    %1070 = %1021.0 /* C.graph: aten::cat, jit._trace.TopLevelTracedModule: __module.model_PART_89 */;
    %1071 = %1022.0 /* C.graph: aten::cat, jit._trace.TopLevelTracedModule: __module.model_PART_91 */;
    %1072 = %1023.0 /* C.graph: aten::cat, jit._trace.TopLevelTracedModule: __module.model_PART_93 */;
    %1073 = %1024.0 /* C.graph: aten::cat, jit._trace.TopLevelTracedModule: __module.model_PART_95 */;
    %1074 = %1025.0 /* C.graph: aten::cat, jit._trace.TopLevelTracedModule: __module.model_PART_97 */;
    %1075 = (%1026, %1027, %1028, %1029, %1030, %1031, %1032, %1033, %1034, %1035, %1036, %1037, %1038, %1039, %1040, %1041, %1042, %1043, %1044, %1045, %1046, %1047, %1048, %1049, %1050, %1051, %1052, %1053, %1054, %1055, %1056, %1057, %1058, %1059, %1060, %1061, %1062, %1063, %1064, %1065, %1066, %1067, %1068, %1069, %1070, %1071, %1072, %1073, %1074) /* C.graph: aten::cat, jit._trace.TopLevelTracedModule: __module.model_PART_98 */;
    %1076 = concatenate(%1075) /* C.graph: aten::cat, jit._trace.TopLevelTracedModule: __module.model */ /* ty=Tensor[(19600), float32] */;
    %1077 = min(%1076) /* C.graph: torchvision::nms, warning: no trace info 10_PART_0 */ /* ty=float32 */;
    %1078 = subtract(%1076, %1077) /* C.graph: torchvision::nms, warning: no trace info 10_PART_1 */ /* ty=Tensor[(19600), float32] */;
    %1079 = add(%1078, 1f /* ty=float32 */) /* C.graph: torchvision::nms, warning: no trace info 10_PART_2 */ /* ty=Tensor[(19600), float32] */;
    %1080 = topk(%439, k=400, dtype="int64") /* C.graph: aten::full_like, jit._trace.TopLevelTracedModule: __module.model_PART_0 */ /* ty=(Tensor[(400), float32], Tensor[(400), int64]) */;
    %1081 = %1080.0 /* C.graph: aten::full_like, jit._trace.TopLevelTracedModule: __module.model_PART_1 */;
    %1082 = full_like(%1081, 1 /* ty=int32 */) /* C.graph: aten::full_like, jit._trace.TopLevelTracedModule: __module.model_PART_2 */ /* ty=Tensor[(400), float32] */;
    %1083 = topk(%449, k=400, dtype="int64") /* C.graph: aten::full_like, jit._trace.TopLevelTracedModule: __module.model_PART_0 */ /* ty=(Tensor[(400), float32], Tensor[(400), int64]) */;
    %1084 = %1083.0 /* C.graph: aten::full_like, jit._trace.TopLevelTracedModule: __module.model_PART_1 */;
    %1085 = full_like(%1084, 2 /* ty=int32 */) /* C.graph: aten::full_like, jit._trace.TopLevelTracedModule: __module.model_PART_2 */ /* ty=Tensor[(400), float32] */;
    %1086 = topk(%459, k=400, dtype="int64") /* C.graph: aten::full_like, jit._trace.TopLevelTracedModule: __module.model_PART_0 */ /* ty=(Tensor[(400), float32], Tensor[(400), int64]) */;
    %1087 = %1086.0 /* C.graph: aten::full_like, jit._trace.TopLevelTracedModule: __module.model_PART_1 */;
    %1088 = full_like(%1087, 3 /* ty=int32 */) /* C.graph: aten::full_like, jit._trace.TopLevelTracedModule: __module.model_PART_2 */ /* ty=Tensor[(400), float32] */;
    %1089 = topk(%469, k=400, dtype="int64") /* C.graph: aten::full_like, jit._trace.TopLevelTracedModule: __module.model_PART_0 */ /* ty=(Tensor[(400), float32], Tensor[(400), int64]) */;
    %1090 = %1089.0 /* C.graph: aten::full_like, jit._trace.TopLevelTracedModule: __module.model_PART_1 */;
    %1091 = full_like(%1090, 4 /* ty=int32 */) /* C.graph: aten::full_like, jit._trace.TopLevelTracedModule: __module.model_PART_2 */ /* ty=Tensor[(400), float32] */;
    %1092 = topk(%479, k=400, dtype="int64") /* C.graph: aten::full_like, jit._trace.TopLevelTracedModule: __module.model_PART_0 */ /* ty=(Tensor[(400), float32], Tensor[(400), int64]) */;
    %1093 = %1092.0 /* C.graph: aten::full_like, jit._trace.TopLevelTracedModule: __module.model_PART_1 */;
    %1094 = full_like(%1093, 5 /* ty=int32 */) /* C.graph: aten::full_like, jit._trace.TopLevelTracedModule: __module.model_PART_2 */ /* ty=Tensor[(400), float32] */;
    %1095 = topk(%489, k=400, dtype="int64") /* C.graph: aten::full_like, jit._trace.TopLevelTracedModule: __module.model_PART_0 */ /* ty=(Tensor[(400), float32], Tensor[(400), int64]) */;
    %1096 = %1095.0 /* C.graph: aten::full_like, jit._trace.TopLevelTracedModule: __module.model_PART_1 */;
    %1097 = full_like(%1096, 6 /* ty=int32 */) /* C.graph: aten::full_like, jit._trace.TopLevelTracedModule: __module.model_PART_2 */ /* ty=Tensor[(400), float32] */;
    %1098 = topk(%499, k=400, dtype="int64") /* C.graph: aten::full_like, jit._trace.TopLevelTracedModule: __module.model_PART_0 */ /* ty=(Tensor[(400), float32], Tensor[(400), int64]) */;
    %1099 = %1098.0 /* C.graph: aten::full_like, jit._trace.TopLevelTracedModule: __module.model_PART_1 */;
    %1100 = full_like(%1099, 7 /* ty=int32 */) /* C.graph: aten::full_like, jit._trace.TopLevelTracedModule: __module.model_PART_2 */ /* ty=Tensor[(400), float32] */;
    %1101 = topk(%509, k=400, dtype="int64") /* C.graph: aten::full_like, jit._trace.TopLevelTracedModule: __module.model_PART_0 */ /* ty=(Tensor[(400), float32], Tensor[(400), int64]) */;
    %1102 = %1101.0 /* C.graph: aten::full_like, jit._trace.TopLevelTracedModule: __module.model_PART_1 */;
    %1103 = full_like(%1102, 8 /* ty=int32 */) /* C.graph: aten::full_like, jit._trace.TopLevelTracedModule: __module.model_PART_2 */ /* ty=Tensor[(400), float32] */;
    %1104 = topk(%519, k=400, dtype="int64") /* C.graph: aten::full_like, jit._trace.TopLevelTracedModule: __module.model_PART_0 */ /* ty=(Tensor[(400), float32], Tensor[(400), int64]) */;
    %1105 = %1104.0 /* C.graph: aten::full_like, jit._trace.TopLevelTracedModule: __module.model_PART_1 */;
    %1106 = full_like(%1105, 9 /* ty=int32 */) /* C.graph: aten::full_like, jit._trace.TopLevelTracedModule: __module.model_PART_2 */ /* ty=Tensor[(400), float32] */;
    %1107 = topk(%529, k=400, dtype="int64") /* C.graph: aten::full_like, jit._trace.TopLevelTracedModule: __module.model_PART_0 */ /* ty=(Tensor[(400), float32], Tensor[(400), int64]) */;
    %1108 = %1107.0 /* C.graph: aten::full_like, jit._trace.TopLevelTracedModule: __module.model_PART_1 */;
    %1109 = full_like(%1108, 10 /* ty=int32 */) /* C.graph: aten::full_like, jit._trace.TopLevelTracedModule: __module.model_PART_2 */ /* ty=Tensor[(400), float32] */;
    %1110 = topk(%539, k=400, dtype="int64") /* C.graph: aten::full_like, jit._trace.TopLevelTracedModule: __module.model_PART_0 */ /* ty=(Tensor[(400), float32], Tensor[(400), int64]) */;
    %1111 = %1110.0 /* C.graph: aten::full_like, jit._trace.TopLevelTracedModule: __module.model_PART_1 */;
    %1112 = full_like(%1111, 11 /* ty=int32 */) /* C.graph: aten::full_like, jit._trace.TopLevelTracedModule: __module.model_PART_2 */ /* ty=Tensor[(400), float32] */;
    %1113 = topk(%549, k=400, dtype="int64") /* C.graph: aten::full_like, jit._trace.TopLevelTracedModule: __module.model_PART_0 */ /* ty=(Tensor[(400), float32], Tensor[(400), int64]) */;
    %1114 = %1113.0 /* C.graph: aten::full_like, jit._trace.TopLevelTracedModule: __module.model_PART_1 */;
    %1115 = full_like(%1114, 12 /* ty=int32 */) /* C.graph: aten::full_like, jit._trace.TopLevelTracedModule: __module.model_PART_2 */ /* ty=Tensor[(400), float32] */;
    %1116 = topk(%559, k=400, dtype="int64") /* C.graph: aten::full_like, jit._trace.TopLevelTracedModule: __module.model_PART_0 */ /* ty=(Tensor[(400), float32], Tensor[(400), int64]) */;
    %1117 = %1116.0 /* C.graph: aten::full_like, jit._trace.TopLevelTracedModule: __module.model_PART_1 */;
    %1118 = full_like(%1117, 13 /* ty=int32 */) /* C.graph: aten::full_like, jit._trace.TopLevelTracedModule: __module.model_PART_2 */ /* ty=Tensor[(400), float32] */;
    %1119 = topk(%569, k=400, dtype="int64") /* C.graph: aten::full_like, jit._trace.TopLevelTracedModule: __module.model_PART_0 */ /* ty=(Tensor[(400), float32], Tensor[(400), int64]) */;
    %1120 = %1119.0 /* C.graph: aten::full_like, jit._trace.TopLevelTracedModule: __module.model_PART_1 */;
    %1121 = full_like(%1120, 14 /* ty=int32 */) /* C.graph: aten::full_like, jit._trace.TopLevelTracedModule: __module.model_PART_2 */ /* ty=Tensor[(400), float32] */;
    %1122 = topk(%579, k=400, dtype="int64") /* C.graph: aten::full_like, jit._trace.TopLevelTracedModule: __module.model_PART_0 */ /* ty=(Tensor[(400), float32], Tensor[(400), int64]) */;
    %1123 = %1122.0 /* C.graph: aten::full_like, jit._trace.TopLevelTracedModule: __module.model_PART_1 */;
    %1124 = full_like(%1123, 15 /* ty=int32 */) /* C.graph: aten::full_like, jit._trace.TopLevelTracedModule: __module.model_PART_2 */ /* ty=Tensor[(400), float32] */;
    %1125 = topk(%589, k=400, dtype="int64") /* C.graph: aten::full_like, jit._trace.TopLevelTracedModule: __module.model_PART_0 */ /* ty=(Tensor[(400), float32], Tensor[(400), int64]) */;
    %1126 = %1125.0 /* C.graph: aten::full_like, jit._trace.TopLevelTracedModule: __module.model_PART_1 */;
    %1127 = full_like(%1126, 16 /* ty=int32 */) /* C.graph: aten::full_like, jit._trace.TopLevelTracedModule: __module.model_PART_2 */ /* ty=Tensor[(400), float32] */;
    %1128 = topk(%599, k=400, dtype="int64") /* C.graph: aten::full_like, jit._trace.TopLevelTracedModule: __module.model_PART_0 */ /* ty=(Tensor[(400), float32], Tensor[(400), int64]) */;
    %1129 = %1128.0 /* C.graph: aten::full_like, jit._trace.TopLevelTracedModule: __module.model_PART_1 */;
    %1130 = full_like(%1129, 17 /* ty=int32 */) /* C.graph: aten::full_like, jit._trace.TopLevelTracedModule: __module.model_PART_2 */ /* ty=Tensor[(400), float32] */;
    %1131 = topk(%609, k=400, dtype="int64") /* C.graph: aten::full_like, jit._trace.TopLevelTracedModule: __module.model_PART_0 */ /* ty=(Tensor[(400), float32], Tensor[(400), int64]) */;
    %1132 = %1131.0 /* C.graph: aten::full_like, jit._trace.TopLevelTracedModule: __module.model_PART_1 */;
    %1133 = full_like(%1132, 18 /* ty=int32 */) /* C.graph: aten::full_like, jit._trace.TopLevelTracedModule: __module.model_PART_2 */ /* ty=Tensor[(400), float32] */;
    %1134 = topk(%619, k=400, dtype="int64") /* C.graph: aten::full_like, jit._trace.TopLevelTracedModule: __module.model_PART_0 */ /* ty=(Tensor[(400), float32], Tensor[(400), int64]) */;
    %1135 = %1134.0 /* C.graph: aten::full_like, jit._trace.TopLevelTracedModule: __module.model_PART_1 */;
    %1136 = full_like(%1135, 19 /* ty=int32 */) /* C.graph: aten::full_like, jit._trace.TopLevelTracedModule: __module.model_PART_2 */ /* ty=Tensor[(400), float32] */;
    %1137 = topk(%629, k=400, dtype="int64") /* C.graph: aten::full_like, jit._trace.TopLevelTracedModule: __module.model_PART_0 */ /* ty=(Tensor[(400), float32], Tensor[(400), int64]) */;
    %1138 = %1137.0 /* C.graph: aten::full_like, jit._trace.TopLevelTracedModule: __module.model_PART_1 */;
    %1139 = full_like(%1138, 20 /* ty=int32 */) /* C.graph: aten::full_like, jit._trace.TopLevelTracedModule: __module.model_PART_2 */ /* ty=Tensor[(400), float32] */;
    %1140 = topk(%639, k=400, dtype="int64") /* C.graph: aten::full_like, jit._trace.TopLevelTracedModule: __module.model_PART_0 */ /* ty=(Tensor[(400), float32], Tensor[(400), int64]) */;
    %1141 = %1140.0 /* C.graph: aten::full_like, jit._trace.TopLevelTracedModule: __module.model_PART_1 */;
    %1142 = full_like(%1141, 21 /* ty=int32 */) /* C.graph: aten::full_like, jit._trace.TopLevelTracedModule: __module.model_PART_2 */ /* ty=Tensor[(400), float32] */;
    %1143 = topk(%649, k=400, dtype="int64") /* C.graph: aten::full_like, jit._trace.TopLevelTracedModule: __module.model_PART_0 */ /* ty=(Tensor[(400), float32], Tensor[(400), int64]) */;
    %1144 = %1143.0 /* C.graph: aten::full_like, jit._trace.TopLevelTracedModule: __module.model_PART_1 */;
    %1145 = full_like(%1144, 22 /* ty=int32 */) /* C.graph: aten::full_like, jit._trace.TopLevelTracedModule: __module.model_PART_2 */ /* ty=Tensor[(400), float32] */;
    %1146 = topk(%659, k=400, dtype="int64") /* C.graph: aten::full_like, jit._trace.TopLevelTracedModule: __module.model_PART_0 */ /* ty=(Tensor[(400), float32], Tensor[(400), int64]) */;
    %1147 = %1146.0 /* C.graph: aten::full_like, jit._trace.TopLevelTracedModule: __module.model_PART_1 */;
    %1148 = full_like(%1147, 23 /* ty=int32 */) /* C.graph: aten::full_like, jit._trace.TopLevelTracedModule: __module.model_PART_2 */ /* ty=Tensor[(400), float32] */;
    %1149 = topk(%669, k=400, dtype="int64") /* C.graph: aten::full_like, jit._trace.TopLevelTracedModule: __module.model_PART_0 */ /* ty=(Tensor[(400), float32], Tensor[(400), int64]) */;
    %1150 = %1149.0 /* C.graph: aten::full_like, jit._trace.TopLevelTracedModule: __module.model_PART_1 */;
    %1151 = full_like(%1150, 24 /* ty=int32 */) /* C.graph: aten::full_like, jit._trace.TopLevelTracedModule: __module.model_PART_2 */ /* ty=Tensor[(400), float32] */;
    %1152 = topk(%679, k=400, dtype="int64") /* C.graph: aten::full_like, jit._trace.TopLevelTracedModule: __module.model_PART_0 */ /* ty=(Tensor[(400), float32], Tensor[(400), int64]) */;
    %1153 = %1152.0 /* C.graph: aten::full_like, jit._trace.TopLevelTracedModule: __module.model_PART_1 */;
    %1154 = full_like(%1153, 25 /* ty=int32 */) /* C.graph: aten::full_like, jit._trace.TopLevelTracedModule: __module.model_PART_2 */ /* ty=Tensor[(400), float32] */;
    %1155 = topk(%689, k=400, dtype="int64") /* C.graph: aten::full_like, jit._trace.TopLevelTracedModule: __module.model_PART_0 */ /* ty=(Tensor[(400), float32], Tensor[(400), int64]) */;
    %1156 = %1155.0 /* C.graph: aten::full_like, jit._trace.TopLevelTracedModule: __module.model_PART_1 */;
    %1157 = full_like(%1156, 26 /* ty=int32 */) /* C.graph: aten::full_like, jit._trace.TopLevelTracedModule: __module.model_PART_2 */ /* ty=Tensor[(400), float32] */;
    %1158 = topk(%699, k=400, dtype="int64") /* C.graph: aten::full_like, jit._trace.TopLevelTracedModule: __module.model_PART_0 */ /* ty=(Tensor[(400), float32], Tensor[(400), int64]) */;
    %1159 = %1158.0 /* C.graph: aten::full_like, jit._trace.TopLevelTracedModule: __module.model_PART_1 */;
    %1160 = full_like(%1159, 27 /* ty=int32 */) /* C.graph: aten::full_like, jit._trace.TopLevelTracedModule: __module.model_PART_2 */ /* ty=Tensor[(400), float32] */;
    %1161 = topk(%709, k=400, dtype="int64") /* C.graph: aten::full_like, jit._trace.TopLevelTracedModule: __module.model_PART_0 */ /* ty=(Tensor[(400), float32], Tensor[(400), int64]) */;
    %1162 = %1161.0 /* C.graph: aten::full_like, jit._trace.TopLevelTracedModule: __module.model_PART_1 */;
    %1163 = full_like(%1162, 28 /* ty=int32 */) /* C.graph: aten::full_like, jit._trace.TopLevelTracedModule: __module.model_PART_2 */ /* ty=Tensor[(400), float32] */;
    %1164 = topk(%719, k=400, dtype="int64") /* C.graph: aten::full_like, jit._trace.TopLevelTracedModule: __module.model_PART_0 */ /* ty=(Tensor[(400), float32], Tensor[(400), int64]) */;
    %1165 = %1164.0 /* C.graph: aten::full_like, jit._trace.TopLevelTracedModule: __module.model_PART_1 */;
    %1166 = full_like(%1165, 29 /* ty=int32 */) /* C.graph: aten::full_like, jit._trace.TopLevelTracedModule: __module.model_PART_2 */ /* ty=Tensor[(400), float32] */;
    %1167 = topk(%729, k=400, dtype="int64") /* C.graph: aten::full_like, jit._trace.TopLevelTracedModule: __module.model_PART_0 */ /* ty=(Tensor[(400), float32], Tensor[(400), int64]) */;
    %1168 = %1167.0 /* C.graph: aten::full_like, jit._trace.TopLevelTracedModule: __module.model_PART_1 */;
    %1169 = full_like(%1168, 30 /* ty=int32 */) /* C.graph: aten::full_like, jit._trace.TopLevelTracedModule: __module.model_PART_2 */ /* ty=Tensor[(400), float32] */;
    %1170 = topk(%739, k=400, dtype="int64") /* C.graph: aten::full_like, jit._trace.TopLevelTracedModule: __module.model_PART_0 */ /* ty=(Tensor[(400), float32], Tensor[(400), int64]) */;
    %1171 = %1170.0 /* C.graph: aten::full_like, jit._trace.TopLevelTracedModule: __module.model_PART_1 */;
    %1172 = full_like(%1171, 31 /* ty=int32 */) /* C.graph: aten::full_like, jit._trace.TopLevelTracedModule: __module.model_PART_2 */ /* ty=Tensor[(400), float32] */;
    %1173 = topk(%749, k=400, dtype="int64") /* C.graph: aten::full_like, jit._trace.TopLevelTracedModule: __module.model_PART_0 */ /* ty=(Tensor[(400), float32], Tensor[(400), int64]) */;
    %1174 = %1173.0 /* C.graph: aten::full_like, jit._trace.TopLevelTracedModule: __module.model_PART_1 */;
    %1175 = full_like(%1174, 32 /* ty=int32 */) /* C.graph: aten::full_like, jit._trace.TopLevelTracedModule: __module.model_PART_2 */ /* ty=Tensor[(400), float32] */;
    %1176 = topk(%759, k=400, dtype="int64") /* C.graph: aten::full_like, jit._trace.TopLevelTracedModule: __module.model_PART_0 */ /* ty=(Tensor[(400), float32], Tensor[(400), int64]) */;
    %1177 = %1176.0 /* C.graph: aten::full_like, jit._trace.TopLevelTracedModule: __module.model_PART_1 */;
    %1178 = full_like(%1177, 33 /* ty=int32 */) /* C.graph: aten::full_like, jit._trace.TopLevelTracedModule: __module.model_PART_2 */ /* ty=Tensor[(400), float32] */;
    %1179 = topk(%769, k=400, dtype="int64") /* C.graph: aten::full_like, jit._trace.TopLevelTracedModule: __module.model_PART_0 */ /* ty=(Tensor[(400), float32], Tensor[(400), int64]) */;
    %1180 = %1179.0 /* C.graph: aten::full_like, jit._trace.TopLevelTracedModule: __module.model_PART_1 */;
    %1181 = full_like(%1180, 34 /* ty=int32 */) /* C.graph: aten::full_like, jit._trace.TopLevelTracedModule: __module.model_PART_2 */ /* ty=Tensor[(400), float32] */;
    %1182 = topk(%779, k=400, dtype="int64") /* C.graph: aten::full_like, jit._trace.TopLevelTracedModule: __module.model_PART_0 */ /* ty=(Tensor[(400), float32], Tensor[(400), int64]) */;
    %1183 = %1182.0 /* C.graph: aten::full_like, jit._trace.TopLevelTracedModule: __module.model_PART_1 */;
    %1184 = full_like(%1183, 35 /* ty=int32 */) /* C.graph: aten::full_like, jit._trace.TopLevelTracedModule: __module.model_PART_2 */ /* ty=Tensor[(400), float32] */;
    %1185 = topk(%789, k=400, dtype="int64") /* C.graph: aten::full_like, jit._trace.TopLevelTracedModule: __module.model_PART_0 */ /* ty=(Tensor[(400), float32], Tensor[(400), int64]) */;
    %1186 = %1185.0 /* C.graph: aten::full_like, jit._trace.TopLevelTracedModule: __module.model_PART_1 */;
    %1187 = full_like(%1186, 36 /* ty=int32 */) /* C.graph: aten::full_like, jit._trace.TopLevelTracedModule: __module.model_PART_2 */ /* ty=Tensor[(400), float32] */;
    %1188 = topk(%799, k=400, dtype="int64") /* C.graph: aten::full_like, jit._trace.TopLevelTracedModule: __module.model_PART_0 */ /* ty=(Tensor[(400), float32], Tensor[(400), int64]) */;
    %1189 = %1188.0 /* C.graph: aten::full_like, jit._trace.TopLevelTracedModule: __module.model_PART_1 */;
    %1190 = full_like(%1189, 37 /* ty=int32 */) /* C.graph: aten::full_like, jit._trace.TopLevelTracedModule: __module.model_PART_2 */ /* ty=Tensor[(400), float32] */;
    %1191 = topk(%809, k=400, dtype="int64") /* C.graph: aten::full_like, jit._trace.TopLevelTracedModule: __module.model_PART_0 */ /* ty=(Tensor[(400), float32], Tensor[(400), int64]) */;
    %1192 = %1191.0 /* C.graph: aten::full_like, jit._trace.TopLevelTracedModule: __module.model_PART_1 */;
    %1193 = full_like(%1192, 38 /* ty=int32 */) /* C.graph: aten::full_like, jit._trace.TopLevelTracedModule: __module.model_PART_2 */ /* ty=Tensor[(400), float32] */;
    %1194 = topk(%819, k=400, dtype="int64") /* C.graph: aten::full_like, jit._trace.TopLevelTracedModule: __module.model_PART_0 */ /* ty=(Tensor[(400), float32], Tensor[(400), int64]) */;
    %1195 = %1194.0 /* C.graph: aten::full_like, jit._trace.TopLevelTracedModule: __module.model_PART_1 */;
    %1196 = full_like(%1195, 39 /* ty=int32 */) /* C.graph: aten::full_like, jit._trace.TopLevelTracedModule: __module.model_PART_2 */ /* ty=Tensor[(400), float32] */;
    %1197 = topk(%829, k=400, dtype="int64") /* C.graph: aten::full_like, jit._trace.TopLevelTracedModule: __module.model_PART_0 */ /* ty=(Tensor[(400), float32], Tensor[(400), int64]) */;
    %1198 = %1197.0 /* C.graph: aten::full_like, jit._trace.TopLevelTracedModule: __module.model_PART_1 */;
    %1199 = full_like(%1198, 40 /* ty=int32 */) /* C.graph: aten::full_like, jit._trace.TopLevelTracedModule: __module.model_PART_2 */ /* ty=Tensor[(400), float32] */;
    %1200 = topk(%839, k=400, dtype="int64") /* C.graph: aten::full_like, jit._trace.TopLevelTracedModule: __module.model_PART_0 */ /* ty=(Tensor[(400), float32], Tensor[(400), int64]) */;
    %1201 = %1200.0 /* C.graph: aten::full_like, jit._trace.TopLevelTracedModule: __module.model_PART_1 */;
    %1202 = full_like(%1201, 41 /* ty=int32 */) /* C.graph: aten::full_like, jit._trace.TopLevelTracedModule: __module.model_PART_2 */ /* ty=Tensor[(400), float32] */;
    %1203 = topk(%849, k=400, dtype="int64") /* C.graph: aten::full_like, jit._trace.TopLevelTracedModule: __module.model_PART_0 */ /* ty=(Tensor[(400), float32], Tensor[(400), int64]) */;
    %1204 = %1203.0 /* C.graph: aten::full_like, jit._trace.TopLevelTracedModule: __module.model_PART_1 */;
    %1205 = full_like(%1204, 42 /* ty=int32 */) /* C.graph: aten::full_like, jit._trace.TopLevelTracedModule: __module.model_PART_2 */ /* ty=Tensor[(400), float32] */;
    %1206 = topk(%859, k=400, dtype="int64") /* C.graph: aten::full_like, jit._trace.TopLevelTracedModule: __module.model_PART_0 */ /* ty=(Tensor[(400), float32], Tensor[(400), int64]) */;
    %1207 = %1206.0 /* C.graph: aten::full_like, jit._trace.TopLevelTracedModule: __module.model_PART_1 */;
    %1208 = full_like(%1207, 43 /* ty=int32 */) /* C.graph: aten::full_like, jit._trace.TopLevelTracedModule: __module.model_PART_2 */ /* ty=Tensor[(400), float32] */;
    %1209 = topk(%869, k=400, dtype="int64") /* C.graph: aten::full_like, jit._trace.TopLevelTracedModule: __module.model_PART_0 */ /* ty=(Tensor[(400), float32], Tensor[(400), int64]) */;
    %1210 = %1209.0 /* C.graph: aten::full_like, jit._trace.TopLevelTracedModule: __module.model_PART_1 */;
    %1211 = full_like(%1210, 44 /* ty=int32 */) /* C.graph: aten::full_like, jit._trace.TopLevelTracedModule: __module.model_PART_2 */ /* ty=Tensor[(400), float32] */;
    %1212 = topk(%879, k=400, dtype="int64") /* C.graph: aten::full_like, jit._trace.TopLevelTracedModule: __module.model_PART_0 */ /* ty=(Tensor[(400), float32], Tensor[(400), int64]) */;
    %1213 = %1212.0 /* C.graph: aten::full_like, jit._trace.TopLevelTracedModule: __module.model_PART_1 */;
    %1214 = full_like(%1213, 45 /* ty=int32 */) /* C.graph: aten::full_like, jit._trace.TopLevelTracedModule: __module.model_PART_2 */ /* ty=Tensor[(400), float32] */;
    %1215 = topk(%889, k=400, dtype="int64") /* C.graph: aten::full_like, jit._trace.TopLevelTracedModule: __module.model_PART_0 */ /* ty=(Tensor[(400), float32], Tensor[(400), int64]) */;
    %1216 = %1215.0 /* C.graph: aten::full_like, jit._trace.TopLevelTracedModule: __module.model_PART_1 */;
    %1217 = full_like(%1216, 46 /* ty=int32 */) /* C.graph: aten::full_like, jit._trace.TopLevelTracedModule: __module.model_PART_2 */ /* ty=Tensor[(400), float32] */;
    %1218 = topk(%899, k=400, dtype="int64") /* C.graph: aten::full_like, jit._trace.TopLevelTracedModule: __module.model_PART_0 */ /* ty=(Tensor[(400), float32], Tensor[(400), int64]) */;
    %1219 = %1218.0 /* C.graph: aten::full_like, jit._trace.TopLevelTracedModule: __module.model_PART_1 */;
    %1220 = full_like(%1219, 47 /* ty=int32 */) /* C.graph: aten::full_like, jit._trace.TopLevelTracedModule: __module.model_PART_2 */ /* ty=Tensor[(400), float32] */;
    %1221 = topk(%909, k=400, dtype="int64") /* C.graph: aten::full_like, jit._trace.TopLevelTracedModule: __module.model_PART_0 */ /* ty=(Tensor[(400), float32], Tensor[(400), int64]) */;
    %1222 = %1221.0 /* C.graph: aten::full_like, jit._trace.TopLevelTracedModule: __module.model_PART_1 */;
    %1223 = full_like(%1222, 48 /* ty=int32 */) /* C.graph: aten::full_like, jit._trace.TopLevelTracedModule: __module.model_PART_2 */ /* ty=Tensor[(400), float32] */;
    %1224 = topk(%919, k=400, dtype="int64") /* C.graph: aten::full_like, jit._trace.TopLevelTracedModule: __module.model_PART_0 */ /* ty=(Tensor[(400), float32], Tensor[(400), int64]) */;
    %1225 = %1224.0 /* C.graph: aten::full_like, jit._trace.TopLevelTracedModule: __module.model_PART_1 */;
    %1226 = full_like(%1225, 49 /* ty=int32 */) /* C.graph: aten::full_like, jit._trace.TopLevelTracedModule: __module.model_PART_2 */ /* ty=Tensor[(400), float32] */;
    %1227 = cast(%1082, dtype="int64") /* C.graph: aten::full_like, jit._trace.TopLevelTracedModule: __module.model */ /* ty=Tensor[(400), int64] */;
    %1228 = cast(%1085, dtype="int64") /* C.graph: aten::full_like, jit._trace.TopLevelTracedModule: __module.model */ /* ty=Tensor[(400), int64] */;
    %1229 = cast(%1088, dtype="int64") /* C.graph: aten::full_like, jit._trace.TopLevelTracedModule: __module.model */ /* ty=Tensor[(400), int64] */;
    %1230 = cast(%1091, dtype="int64") /* C.graph: aten::full_like, jit._trace.TopLevelTracedModule: __module.model */ /* ty=Tensor[(400), int64] */;
    %1231 = cast(%1094, dtype="int64") /* C.graph: aten::full_like, jit._trace.TopLevelTracedModule: __module.model */ /* ty=Tensor[(400), int64] */;
    %1232 = cast(%1097, dtype="int64") /* C.graph: aten::full_like, jit._trace.TopLevelTracedModule: __module.model */ /* ty=Tensor[(400), int64] */;
    %1233 = cast(%1100, dtype="int64") /* C.graph: aten::full_like, jit._trace.TopLevelTracedModule: __module.model */ /* ty=Tensor[(400), int64] */;
    %1234 = cast(%1103, dtype="int64") /* C.graph: aten::full_like, jit._trace.TopLevelTracedModule: __module.model */ /* ty=Tensor[(400), int64] */;
    %1235 = cast(%1106, dtype="int64") /* C.graph: aten::full_like, jit._trace.TopLevelTracedModule: __module.model */ /* ty=Tensor[(400), int64] */;
    %1236 = cast(%1109, dtype="int64") /* C.graph: aten::full_like, jit._trace.TopLevelTracedModule: __module.model */ /* ty=Tensor[(400), int64] */;
    %1237 = cast(%1112, dtype="int64") /* C.graph: aten::full_like, jit._trace.TopLevelTracedModule: __module.model */ /* ty=Tensor[(400), int64] */;
    %1238 = cast(%1115, dtype="int64") /* C.graph: aten::full_like, jit._trace.TopLevelTracedModule: __module.model */ /* ty=Tensor[(400), int64] */;
    %1239 = cast(%1118, dtype="int64") /* C.graph: aten::full_like, jit._trace.TopLevelTracedModule: __module.model */ /* ty=Tensor[(400), int64] */;
    %1240 = cast(%1121, dtype="int64") /* C.graph: aten::full_like, jit._trace.TopLevelTracedModule: __module.model */ /* ty=Tensor[(400), int64] */;
    %1241 = cast(%1124, dtype="int64") /* C.graph: aten::full_like, jit._trace.TopLevelTracedModule: __module.model */ /* ty=Tensor[(400), int64] */;
    %1242 = cast(%1127, dtype="int64") /* C.graph: aten::full_like, jit._trace.TopLevelTracedModule: __module.model */ /* ty=Tensor[(400), int64] */;
    %1243 = cast(%1130, dtype="int64") /* C.graph: aten::full_like, jit._trace.TopLevelTracedModule: __module.model */ /* ty=Tensor[(400), int64] */;
    %1244 = cast(%1133, dtype="int64") /* C.graph: aten::full_like, jit._trace.TopLevelTracedModule: __module.model */ /* ty=Tensor[(400), int64] */;
    %1245 = cast(%1136, dtype="int64") /* C.graph: aten::full_like, jit._trace.TopLevelTracedModule: __module.model */ /* ty=Tensor[(400), int64] */;
    %1246 = cast(%1139, dtype="int64") /* C.graph: aten::full_like, jit._trace.TopLevelTracedModule: __module.model */ /* ty=Tensor[(400), int64] */;
    %1247 = cast(%1142, dtype="int64") /* C.graph: aten::full_like, jit._trace.TopLevelTracedModule: __module.model */ /* ty=Tensor[(400), int64] */;
    %1248 = cast(%1145, dtype="int64") /* C.graph: aten::full_like, jit._trace.TopLevelTracedModule: __module.model */ /* ty=Tensor[(400), int64] */;
    %1249 = cast(%1148, dtype="int64") /* C.graph: aten::full_like, jit._trace.TopLevelTracedModule: __module.model */ /* ty=Tensor[(400), int64] */;
    %1250 = cast(%1151, dtype="int64") /* C.graph: aten::full_like, jit._trace.TopLevelTracedModule: __module.model */ /* ty=Tensor[(400), int64] */;
    %1251 = cast(%1154, dtype="int64") /* C.graph: aten::full_like, jit._trace.TopLevelTracedModule: __module.model */ /* ty=Tensor[(400), int64] */;
    %1252 = cast(%1157, dtype="int64") /* C.graph: aten::full_like, jit._trace.TopLevelTracedModule: __module.model */ /* ty=Tensor[(400), int64] */;
    %1253 = cast(%1160, dtype="int64") /* C.graph: aten::full_like, jit._trace.TopLevelTracedModule: __module.model */ /* ty=Tensor[(400), int64] */;
    %1254 = cast(%1163, dtype="int64") /* C.graph: aten::full_like, jit._trace.TopLevelTracedModule: __module.model */ /* ty=Tensor[(400), int64] */;
    %1255 = cast(%1166, dtype="int64") /* C.graph: aten::full_like, jit._trace.TopLevelTracedModule: __module.model */ /* ty=Tensor[(400), int64] */;
    %1256 = cast(%1169, dtype="int64") /* C.graph: aten::full_like, jit._trace.TopLevelTracedModule: __module.model */ /* ty=Tensor[(400), int64] */;
    %1257 = cast(%1172, dtype="int64") /* C.graph: aten::full_like, jit._trace.TopLevelTracedModule: __module.model */ /* ty=Tensor[(400), int64] */;
    %1258 = cast(%1175, dtype="int64") /* C.graph: aten::full_like, jit._trace.TopLevelTracedModule: __module.model */ /* ty=Tensor[(400), int64] */;
    %1259 = cast(%1178, dtype="int64") /* C.graph: aten::full_like, jit._trace.TopLevelTracedModule: __module.model */ /* ty=Tensor[(400), int64] */;
    %1260 = cast(%1181, dtype="int64") /* C.graph: aten::full_like, jit._trace.TopLevelTracedModule: __module.model */ /* ty=Tensor[(400), int64] */;
    %1261 = cast(%1184, dtype="int64") /* C.graph: aten::full_like, jit._trace.TopLevelTracedModule: __module.model */ /* ty=Tensor[(400), int64] */;
    %1262 = cast(%1187, dtype="int64") /* C.graph: aten::full_like, jit._trace.TopLevelTracedModule: __module.model */ /* ty=Tensor[(400), int64] */;
    %1263 = cast(%1190, dtype="int64") /* C.graph: aten::full_like, jit._trace.TopLevelTracedModule: __module.model */ /* ty=Tensor[(400), int64] */;
    %1264 = cast(%1193, dtype="int64") /* C.graph: aten::full_like, jit._trace.TopLevelTracedModule: __module.model */ /* ty=Tensor[(400), int64] */;
    %1265 = cast(%1196, dtype="int64") /* C.graph: aten::full_like, jit._trace.TopLevelTracedModule: __module.model */ /* ty=Tensor[(400), int64] */;
    %1266 = cast(%1199, dtype="int64") /* C.graph: aten::full_like, jit._trace.TopLevelTracedModule: __module.model */ /* ty=Tensor[(400), int64] */;
    %1267 = cast(%1202, dtype="int64") /* C.graph: aten::full_like, jit._trace.TopLevelTracedModule: __module.model */ /* ty=Tensor[(400), int64] */;
    %1268 = cast(%1205, dtype="int64") /* C.graph: aten::full_like, jit._trace.TopLevelTracedModule: __module.model */ /* ty=Tensor[(400), int64] */;
    %1269 = cast(%1208, dtype="int64") /* C.graph: aten::full_like, jit._trace.TopLevelTracedModule: __module.model */ /* ty=Tensor[(400), int64] */;
    %1270 = cast(%1211, dtype="int64") /* C.graph: aten::full_like, jit._trace.TopLevelTracedModule: __module.model */ /* ty=Tensor[(400), int64] */;
    %1271 = cast(%1214, dtype="int64") /* C.graph: aten::full_like, jit._trace.TopLevelTracedModule: __module.model */ /* ty=Tensor[(400), int64] */;
    %1272 = cast(%1217, dtype="int64") /* C.graph: aten::full_like, jit._trace.TopLevelTracedModule: __module.model */ /* ty=Tensor[(400), int64] */;
    %1273 = cast(%1220, dtype="int64") /* C.graph: aten::full_like, jit._trace.TopLevelTracedModule: __module.model */ /* ty=Tensor[(400), int64] */;
    %1274 = cast(%1223, dtype="int64") /* C.graph: aten::full_like, jit._trace.TopLevelTracedModule: __module.model */ /* ty=Tensor[(400), int64] */;
    %1275 = cast(%1226, dtype="int64") /* C.graph: aten::full_like, jit._trace.TopLevelTracedModule: __module.model */ /* ty=Tensor[(400), int64] */;
    %1276 = (%1227, %1228, %1229, %1230, %1231, %1232, %1233, %1234, %1235, %1236, %1237, %1238, %1239, %1240, %1241, %1242, %1243, %1244, %1245, %1246, %1247, %1248, %1249, %1250, %1251, %1252, %1253, %1254, %1255, %1256, %1257, %1258, %1259, %1260, %1261, %1262, %1263, %1264, %1265, %1266, %1267, %1268, %1269, %1270, %1271, %1272, %1273, %1274, %1275) /* C.graph: aten::cat, jit._trace.TopLevelTracedModule: __module.model_PART_0 */;
    %1277 = concatenate(%1276) /* C.graph: aten::cat, jit._trace.TopLevelTracedModule: __module.model */ /* ty=Tensor[(19600), int64] */;
    %1278 = max(%974) /* C.graph: aten::max, warning: no trace info 0 */ /* ty=float32 */;
    %1279 = cast(%1277, dtype="float32") /* C.graph: aten::mul, warning: no trace info 5_PART_0 */ /* ty=Tensor[(19600), float32] */;
    %1280 = add(%1278, 1f /* ty=float32 */) /* C.graph: aten::add, warning: no trace info 4 */ /* ty=float32 */;
    %1281 = multiply(%1279, %1280) /* C.graph: aten::mul, warning: no trace info 5 */ /* ty=Tensor[(19600), float32] */;
    %1282 = expand_dims(%1281, axis=1) /* C.graph: aten::unsqueeze, warning: no trace info 7 */ /* ty=Tensor[(19600, 1), float32] */;
    %1283 = expand_dims(%1079, axis=-1) /* C.graph: torchvision::nms, warning: no trace info 10_PART_3 */ /* ty=Tensor[(19600, 1), float32] */;
    %1284 = add(%974, %1282) /* C.graph: aten::add, warning: no trace info 8 */ /* ty=Tensor[(19600, 4), float32] */;
    %1285 = (%1283, %1284) /* C.graph: torchvision::nms, warning: no trace info 10_PART_4 */;
    %1286 = concatenate(%1285, axis=-1) /* C.graph: torchvision::nms, warning: no trace info 10_PART_5 */ /* ty=Tensor[(19600, 5), float32] */;
    %1287 = shape_of(%1079, dtype="int32") /* C.graph: torchvision::nms, warning: no trace info 10_PART_7 */ /* ty=Tensor[(1), int32] */;
    %1288 = squeeze(%1287) /* C.graph: torchvision::nms, warning: no trace info 10_PART_8 */ /* ty=int32 */;
    %1289 = arange(0 /* ty=int32 */, %1288, 1 /* ty=int32 */, start=meta[relay.Constant][45], stop=meta[relay.Call][0], step=meta[relay.Constant][46], dtype="int32") /* C.graph: torchvision::nms, warning: no trace info 10_PART_9 */ /* ty=Tensor[(?), int32] */;
    %1290 = expand_dims(%1286, axis=0) /* C.graph: torchvision::nms, warning: no trace info 10_PART_6 */ /* ty=Tensor[(1, 19600, 5), float32] */;
    %1291 = expand_dims(%1289, axis=0) /* C.graph: torchvision::nms, warning: no trace info 10_PART_10 */ /* ty=Tensor[(1, ?), int32] */;
    %1292 = vision.non_max_suppression(%1290, %1287, %1291, -1 /* ty=int32 */, 0.45f /* ty=float32 */, force_suppress=True, coord_start=1, score_index=0, id_index=-1) /* C.graph: torchvision::nms, warning: no trace info 10_PART_11 */ /* ty=(Tensor[(1, 19600), int32], Tensor[(1, 1), int32]) */;
    %1293 = %1292.0 /* C.graph: torchvision::nms, warning: no trace info 10_PART_12 */;
    %1294 = cast_like(0 /* ty=int32 */, meta[relay.Constant][47] /* ty=Tensor[(1), int32] */) /* C.graph: torchvision::nms, warning: no trace info 10_PART_14 */ /* ty=int32 */;
    %1295 = squeeze(%1293, axis=[0]) /* C.graph: torchvision::nms, warning: no trace info 10_PART_13 */ /* ty=Tensor[(19600), int32] */;
    %1296 = shape_of(%1295, dtype="int32") /* C.graph: torchvision::nms, warning: no trace info 10_PART_16 */ /* ty=Tensor[(1), int32] */;
    %1297 = cast_like(%1296, meta[relay.Constant][47] /* ty=Tensor[(1), int32] */) /* C.graph: torchvision::nms, warning: no trace info 10_PART_17 */ /* ty=Tensor[(1), int32] */;
    %1298 = slice_like(%1297, meta[relay.Constant][47] /* ty=Tensor[(1), int32] */, axes=None) /* C.graph: torchvision::nms, warning: no trace info 10_PART_18 */ /* ty=Tensor[(1), int32] */;
    %1299 = less(meta[relay.Constant][47] /* ty=Tensor[(1), int32] */, %1294) /* C.graph: torchvision::nms, warning: no trace info 10_PART_15 */ /* ty=Tensor[(1), bool] */;
    %1300 = add(meta[relay.Constant][47] /* ty=Tensor[(1), int32] */, %1298) /* C.graph: torchvision::nms, warning: no trace info 10_PART_19 */ /* ty=Tensor[(1), int32] */;
    %1301 = where(%1299, %1300, meta[relay.Constant][47] /* ty=Tensor[(1), int32] */) /* C.graph: torchvision::nms, warning: no trace info 10_PART_20 */ /* ty=Tensor[(1), int32] */;
    %1302 = greater_equal(%1301, %1298) /* C.graph: torchvision::nms, warning: no trace info 10_PART_21 */ /* ty=Tensor[(1), bool] */;
    %1303 = %1292.1 /* C.graph: torchvision::nms, warning: no trace info 10_PART_23 */;
    %1304 = where(%1302, %1298, %1301) /* C.graph: torchvision::nms, warning: no trace info 10_PART_22 */ /* ty=Tensor[(1), int32] */;
    %1305 = squeeze(%1303, axis=[1]) /* C.graph: torchvision::nms, warning: no trace info 10_PART_24 */ /* ty=Tensor[(1), int32] */;
    %1306 = dyn.strided_slice(%1295, %1304, %1305, meta[relay.Constant][48] /* ty=Tensor[(1), int32] */, begin=None, end=None, strides=None, slice_mode="size", axes=None) /* C.graph: torchvision::nms, warning: no trace info 10_PART_25 */ /* ty=Tensor[(?), int32] */;
    cast(%1306, dtype="int64") /* C.graph: torchvision::nms, warning: no trace info 10 */ /* ty=Tensor[(?), int64] */
  };
  %1308 = strided_slice(%1307, begin=[0], end=[200], strides=[1], axes=None) /* C.graph: aten::slice, jit._trace.TopLevelTracedModule: __module.model */ /* ty=Tensor[(?), int64] */;
  %1309 = (%974, %1308) /* C.graph: aten::index, jit._trace.TopLevelTracedModule: __module.model_PART_0 */;
  %1310 = adv_index(%1309) /* C.graph: aten::index, jit._trace.TopLevelTracedModule: __module.model */ /* ty=Tensor[(?, 4), float32] */;
  %1311 = split(%1310, indices_or_sections=4, axis=1) /* C.graph: aten::unbind, jit._trace.TopLevelTracedModule: __module.model_PART_0 */ /* ty=(Tensor[(?, 1), float32], Tensor[(?, 1), float32], Tensor[(?, 1), float32], Tensor[(?, 1), float32]) */;
  %1312 = %1311.0 /* C.graph: aten::unbind, jit._trace.TopLevelTracedModule: __module.model_PART_1 */;
  %1313 = %1311.1 /* C.graph: aten::unbind, jit._trace.TopLevelTracedModule: __module.model_PART_3 */;
  %1314 = %1311.2 /* C.graph: aten::unbind, jit._trace.TopLevelTracedModule: __module.model_PART_5 */;
  %1315 = %1311.3 /* C.graph: aten::unbind, jit._trace.TopLevelTracedModule: __module.model_PART_7 */;
  %1316 = squeeze(%1312, axis=[1]) /* C.graph: aten::unbind, jit._trace.TopLevelTracedModule: __module.model_PART_2 */ /* ty=Tensor[(?), float32] */;
  %1317 = squeeze(%1313, axis=[1]) /* C.graph: aten::unbind, jit._trace.TopLevelTracedModule: __module.model_PART_4 */ /* ty=Tensor[(?), float32] */;
  %1318 = squeeze(%1314, axis=[1]) /* C.graph: aten::unbind, jit._trace.TopLevelTracedModule: __module.model_PART_6 */ /* ty=Tensor[(?), float32] */;
  %1319 = squeeze(%1315, axis=[1]) /* C.graph: aten::unbind, jit._trace.TopLevelTracedModule: __module.model_PART_8 */ /* ty=Tensor[(?), float32] */;
  %1320 = (%1316, %1317, %1318, %1319) /* C.graph: aten::unbind, jit._trace.TopLevelTracedModule: __module.model */;
  %1321 = (%15, 300 /* ty=int32 */, 300 /* ty=int32 */) /* C.graph: aten::detach, jit._trace.TopLevelTracedModule: __module.model_PART_0 */;
  %1322 = %1321.1 /* C.graph: aten::detach, jit._trace.TopLevelTracedModule: __module.model */;
  %1323 = cast(500 /* ty=int32 */, dtype="float32") /* C.graph: aten::to, jit._trace.TopLevelTracedModule: __module.model */ /* ty=float32 */;
  %1324 = cast(%1322, dtype="float32") /* C.graph: aten::to, jit._trace.TopLevelTracedModule: __module.model */ /* ty=float32 */;
  %1325 = %1320.0 /* C.graph: aten::mul, jit._trace.TopLevelTracedModule: __module.model_PART_0 */;
  %1326 = divide(%1323, %1324) /* C.graph: aten::div, jit._trace.TopLevelTracedModule: __module.model */ /* ty=float32 */;
  %1327 = (%15, 300 /* ty=int32 */, 300 /* ty=int32 */) /* C.graph: aten::detach, jit._trace.TopLevelTracedModule: __module.model_PART_0 */;
  %1328 = %1327.2 /* C.graph: aten::detach, jit._trace.TopLevelTracedModule: __module.model */;
  %1329 = cast(500 /* ty=int32 */, dtype="float32") /* C.graph: aten::to, jit._trace.TopLevelTracedModule: __module.model */ /* ty=float32 */;
  %1330 = cast(%1328, dtype="float32") /* C.graph: aten::to, jit._trace.TopLevelTracedModule: __module.model */ /* ty=float32 */;
  %1331 = %1320.1 /* C.graph: aten::mul, jit._trace.TopLevelTracedModule: __module.model_PART_0 */;
  %1332 = divide(%1329, %1330) /* C.graph: aten::div, jit._trace.TopLevelTracedModule: __module.model */ /* ty=float32 */;
  %1333 = %1320.2 /* C.graph: aten::mul, jit._trace.TopLevelTracedModule: __module.model_PART_0 */;
  %1334 = %1320.3 /* C.graph: aten::mul, jit._trace.TopLevelTracedModule: __module.model_PART_0 */;
  %1335 = multiply(%1325, %1326) /* C.graph: aten::mul, jit._trace.TopLevelTracedModule: __module.model */ /* ty=Tensor[(?), float32] */;
  %1336 = multiply(%1331, %1332) /* C.graph: aten::mul, jit._trace.TopLevelTracedModule: __module.model */ /* ty=Tensor[(?), float32] */;
  %1337 = multiply(%1333, %1326) /* C.graph: aten::mul, jit._trace.TopLevelTracedModule: __module.model */ /* ty=Tensor[(?), float32] */;
  %1338 = multiply(%1334, %1332) /* C.graph: aten::mul, jit._trace.TopLevelTracedModule: __module.model */ /* ty=Tensor[(?), float32] */;
  %1339 = (%1335, %1336, %1337, %1338) /* C.graph: aten::stack, jit._trace.TopLevelTracedModule: __module.model_PART_0 */;
  %1340 = (%1076, %1308) /* C.graph: aten::index, jit._trace.TopLevelTracedModule: __module.model_PART_0 */;
  %1341 = (%1277, %1308) /* C.graph: aten::index, jit._trace.TopLevelTracedModule: __module.model_PART_0 */;
  %1342 = stack(%1339, axis=1) /* C.graph: aten::stack, jit._trace.TopLevelTracedModule: __module.model */ /* ty=Tensor[(?, 4), float32] */;
  %1343 = adv_index(%1340) /* C.graph: aten::index, jit._trace.TopLevelTracedModule: __module.model */ /* ty=Tensor[(?), float32] */;
  %1344 = adv_index(%1341) /* C.graph: aten::index, jit._trace.TopLevelTracedModule: __module.model */ /* ty=Tensor[(?), int64] */;
  %1345 = (%1342, %1343, %1344);
  %1346 = %1345.0;
  %1347 = %1345.1;
  %1348 = %1345.2;
  (%1346, %1347, %1348)
}


